log_7_24/pyt_save/model.pt (torch_old, 70579 bytes, 18 tensors)

weight f4 [64, 7]
-0.5070536 0.12676835 -0.3590904 -0.27815878 -0.17729877 0.13199602 0.022411048 0.42850655
0.034570508 0.24214184 -0.25583878 -0.074294746 -0.24465007 -0.1743527 -0.19796929 0.20701219
0.18320538 0.18345504 -0.25623763 -0.182572 -0.0038135964 0.41652632 0.03669178 0.22147031
-0.18479784 0.006701931 0.34223786 -0.35062644 -0.0988769 -0.009870259 -0.24629772 0.13584217
-0.24498887 0.016480042 -0.26406127 -0.21954104 -0.16667224 0.19557838 -0.06439425 0.23792163
0.22117575 -0.19377615 0.13240013 -0.3977487 -0.27310437 -0.19485202 0.33345783 0.22160861
-0.16762537 0.038446967 0.17846689 0.26702332 -0.08926297 -0.051048484 0.36111966 -0.22254637
0.08576381 -0.20682308 -0.29270917 -0.19525023 0.23628056 0.15200236 -0.2238882 0.055309102
0.31530404 -0.14457697 -0.07956312 -0.06164363 0.31304744 0.3422211 -0.62010777 -0.4130236
0.17715141 0.3202226 0.49187914 0.33349952 0.06256524 -0.3785947 0.05688773 -0.23645659
-0.35224554 0.3013603 0.28738895 -0.37703013 0.05847408 -0.12702481 -0.14654347 -0.17301583
0.2697451 -0.22744355 0.20391868 0.2806636 0.2888943 0.136506 -0.37408474 -0.24518438
0.2712336 0.05716929 -0.61571044 -0.03827578 0.5195107 -0.21418951 -0.25087073 -0.15470916
-0.25693586 -0.17426172 -0.20829682 -0.038756732 -0.18487352 0.0778365 -0.20001553 0.3438541
-0.22033152 0.3469854 0.23030986 -0.31873098 -0.09406942 0.17629492 0.15471607 0.08657248
0.121403694 0.08351046 -0.061724257 -0.00053107453 -0.24764895 0.08597178 -0.016425963 -0.006596506
-0.13222459 -0.30978787 -0.08039877 0.08079234 -0.24623092 -0.117058486 0.4078729 0.032795597
0.09952903 -0.12264031 0.21895795 0.257973 0.20876925 0.075039804 0.46348217 -0.05489942
-0.33953363 -0.20436062 0.17875212 -0.0772563 -0.124904186 -0.01583278 -0.35371882 -0.3190051
-0.11374778 0.23559175 0.31457525 -0.18202896 0.2708995 -0.29576075 -0.16547981 0.02034706
-0.11671297 -0.065360874 -0.25975442 -0.20134155 -0.08235611 -0.05454042 -0.12840901 0.128561
-0.08230591 0.052245855 0.23913713 -0.15416868 0.41411 0.2861203 -0.34109816 -0.45050663
-0.0005898555 -0.10980587 0.26514354 -0.30543128 -0.16621368 -0.017465768 0.2013297 0.1268158
0.1691317 0.024372471 -0.1224338 0.07056438 -0.3114735 0.19329691 0.24004096 -0.016803877
-0.26660794 0.016857177 -0.26597103 -0.36249197 -0.338289 0.3818209 -0.225234 -0.008246124
0.015900254 0.24364462 -0.28571093 -0.18614525 -0.3016477 0.05047356 -0.135865 0.18579748
0.16842267 0.10727531 -0.03455211 -0.042965207 0.047421813 -0.086306185 -0.0026557446 0.04822564
-0.29564574 -0.3347392 0.4763769 -0.3067358 -0.058577716 0.4624336 0.15497813 -0.04928461
-0.54268366 0.16224265 -0.2692168 -0.107290596 -0.12681326 -0.044102814 0.0041342974 0.6579424
-0.16047439 0.3703446 0.22906616 -0.23895441 0.16951862 -0.2671816 -0.25542834 0.052304845
0.12480089 0.30119964 -0.12167275 0.12010425 0.30888093 -0.12977748 0.37906504 -0.22807398
-0.04186598 -0.16578233 -0.06293322 0.029088043 0.2787113 -0.27762172 -0.19331342 -0.13978593
00000000: 44ce 01bf 90cf 013e b2da b7be d46a 8ebe
00000010: cf8d 35be f729 073e 6097 b73c 3665 db3e
00000020: ce99 0d3d 08f4 773e 4dfd 82be d827 98bd
00000030: 8c85 7abe 8489 32be 76b8 4abe 01fb 533e
00000040: 319a 3b3e a3db 3b3e 9431 83be 28f4 3abe
00000050: 88ed 79bb f042 d53e 1f4a 163d 1dc9 623e
00000060: a53b 3dbe df9b db3b cd39 af3e 4f85 b3be
00000070: f97f cabd deb6 21bc 7835 7cbe 361a 0b3e
00000080: 5dde 7abe 2701 873c 0a33 87be 5ecf 60be
00000090: 21ac 2abe b345 483e 22e1 83bd baa1 733e
000000a0: e57b 623e 416d 46be e693 073e b8a5 cbbe
000000b0: 56d4 8bbe 4a87 47be fcba aa3e 5eed 623e
000000c0: fca5 2bbe 917a 1d3d 06c0 363e 48b7 883e
000000d0: 81cf b6bd 3718 51bd ade4 b83e 32e3 63be
000000e0: f0a4 af3d 6ec9 53be fadd 95be adef 47be
000000f0: 88f3 713e 82a6 1b3e f342 65be cc8b 623d
00000100: 886f a13e fc0b 14be fdf1 a2bd 087e 7cbd
00000110: c147 a03e 9b37 af3e 62bf 1ebf d477 d3be
00000120: 2e67 353e 37f4 a33e 95d7 fb3e 73c0 aa3e
00000130: 3422 803d 2ad7 c1be 1c03 693d ad21 72be
00000140: 8759 b4be e64b 9a3e a524 933e 180a c1be
00000150: 8482 6f3d cb12 02be 7e0f 16be 102b 31be
00000160: 081c 8a3e f6e6 68be 0fd0 503e 24b3 8f3e
00000170: f4e9 933e 3bc8 0b3e 0988 bfbe 9d11 7bbe
00000180: 21df 8a3e 582a 6a3d 339f 1dbf 10c7 1cbd
00000190: a7fe 043f 7f54 5bbe 2172 80be 146c 1ebe
000001a0: 198d 83be aa71 32be c34b 55be 61bf 1ebd
000001b0: 7c4f 3dbe be68 9f3d dfd0 4cbe a50d b03e
000001c0: 969e 61be 12a8 b13e 59d6 6b3e b530 a3be
000001d0: 78a7 c0bd a886 343e e46d 1e3e ea4c b13d
000001e0: 80a2 f83d 8807 ab3d 93d2 7cbd cf37 0bba
000001f0: b097 7dbe f911 b03d be8f 86bc 8127 d8bb
00000200: e265 07be 849c 9ebe 1ca8 a4bd 7476 a53d
00000210: f523 7cbe 5cbc efbd b7d4 d03e ad54 063d
00000220: e0d5 cb3d d82a fbbd 8336 603e 0915 843e
00000230: 9bc7 553e 78ae 993d 894d ed3e 37de 60bd
00000240: 5ad7 adbe e943 51be cc0a 373e 8d38 9ebd
00000250: c4cd ffbd bfb3 81bc a21a b5be a354 a3be
00000260: 99f4 e8bd f73e 713e 0210 a13e cd65 3abe
00000270: 57b3 8a3e f46d 97be 8a73 29be e1ae a63c
00000280: 3607 efbd ecdb 85bd 88fe 84be 7b2c 4ebe
00000290: 52aa a8bd c765 5fbd a77d 03be 7fa5 033e
000002a0: 0090 a8bd c0ff 553d 5de0 743e 65de 1dbe
000002b0: 3a06 d43e 5c7e 923e 6ba4 aebe cea8 e6be
000002c0: 88a0 1aba e6e1 e0bd e5c0 873e 7d61 9cbe
000002d0: eb33 2abe 5f14 8fbc 5f29 4e3e 00dc 013e
000002e0: dc30 2d3e c7a8 c73c 92be fabd 0f84 903d
000002f0: 7479 9fbe a0ef 453e 4ccd 753e 49a8 89bc
00000300: d680 88be 1018 8a3c 5b2d 88be 8c98 b9be
00000310: 3734 adbe 077e c33e bea3 66be c01a 07bc
00000320: 4041 823c fa7d 793e b448 92be dc9c 3ebe
00000330: 9171 9abe 5dbd 4e3d 3220 0bbe b241 3e3e
00000340: fe76 2c3e 28b3 db3d 8386 0dbd 49fc 2fbd
00000350: 603d 423d 4cc1 b0bd 000c 2ebb 4088 453d
00000360: e15e 97be f062 abbe ace7 f33e 7a0c 9dbe
00000370: 30ef 6fbd 19c4 ec3e 96b2 1e3e a9de 49bd
00000380: 51ed 0abf f022 263e c9d6 89be 2cbb dbbd
00000390: 56db 01be 27a5 34bd 0079 873b ea6e 283f
000003a0: 6653 24be cf9d bd3e 5290 6a3e 77b0 74be
000003b0: 4a96 2d3e 07cc 88be 81c7 82be 9b3d 563d
000003c0: 9c97 ff3d d736 9a3e 902f f9bd 38f9 f53d
000003d0: a425 9e3e 63e4 04be d014 c23e 3a8c 69be
000003e0: a97b 2bbd d8c2 29be 22e3 80bd 0c4a ee3c
000003f0: 3fb3 8e3e 6f24 8ebe f4f3 45be 0b24 0fbe

bias f4 [64]
0.036684923 0.08250629 0.44418633 0.24399461 0.4216116 0.23821704 -0.30554742 0.44374582
0.12123146 0.09942299 -0.81324124 -0.0148938885 -0.5996292 -0.2720525 0.21764126 -0.024636256
-0.25432643 0.34049293 0.014316317 0.14663501 -0.47671777 0.054366127 0.18359196 0.56312615
0.23878197 -0.30404434 0.24457008 -0.58463764 -0.45090246 0.13226615 -0.24582143 -0.033774853
-0.453806 -0.70642 -0.79845285 0.21216254 0.052061535 0.3534699 0.27395338 0.419938
0.29578787 0.026743107 -0.3160862 -0.24174216 0.31789988 -0.31705996 0.38597238 -0.33242857
-0.46086532 -0.47445133 0.44961876 0.3872979 -0.49014652 0.28719202 0.38459083 0.34173658
0.37843296 -0.31835625 0.28019202 0.16335484 -0.34088555 0.11695837 -0.05777702 0.28443572
00000000: ee42 163d 0ff9 a83d 646c e33e b9d9 793e
00000010: 7add d73e 2bef 733e b670 9cbe a732 e33e
00000020: 3348 f83d 489e cb3d 9430 50bf 7f05 74bc
00000030: 4d81 19bf 774a 8bbe 5add 5e3e f9d1 c9bc
00000040: 1337 82be 1755 ae3e fc8e 6a3c 7d27 163e
00000050: 5a14 f4be 04af 5e3d 88ff 3b3e 0929 103f
00000060: 4383 743e b3ab 9bbe 9470 7a3e d0aa 15bf
00000070: b0dc e6be c770 073e 9db8 7bbe 8057 0abd
00000080: 4359 e8be f1d7 34bf 6867 4cbf 2341 593e
00000090: 7a3e 553d 02fa b43e 9e43 8c3e 1d02 d73e
000000a0: 8271 973e 5c14 db3c 0dd6 a1be 428b 77be
000000b0: c6c3 a23e af55 a2be 2c9e c53e 1434 aabe
000000c0: 8af6 ebbe 49eb f2be 6e34 e63e e94b c63e
000000d0: 7cf4 fabe d50a 933e 17e9 c43e 19f8 ae3e
000000e0: f7c1 c13e 97ff a2be 5475 8f3e 7e46 273e
000000f0: 8d88 aebe df87 ef3d 99a7 6cbd 8fa1 913e

weight f4 [64, 64]
0.052658416 0.07676284 0.18400085 0.054773785 0.06870446 0.0047792443 -0.0078009996 0.005871675
0.057141427 -0.020987026 -0.098297544 -0.1502682 -0.25525764 -0.12418826 0.17315581 0.0011945658
-0.08966915 0.093476236 0.16879274 0.14506914 -0.10708693 -0.07226399 0.018786332 0.13555203
-0.00064896536 -0.18791114 0.03307175 0.0023163855 -0.35124218 0.0289648 -0.060247753 0.023402741
0.010045891 0.0056228186 -0.21134084 0.17121726 -0.08720928 0.15867007 0.0001270318 -0.021852525
0.09600452 -0.14951457 -0.03434359 0.0609062 0.097869754 -0.12990431 0.1221118 -0.012792237
-0.1559047 -0.13386935 0.0521118 0.20500772 -0.012860855 0.16997656 -0.0052338573 0.028527074
0.18942943 0.031873472 0.17038643 0.07895624 0.0155175645 -0.01916417 0.079698265 0.20432863
0.0736445 -0.060649607 0.26003292 0.19091971 0.16419786 -0.13145505 -0.5835261 0.15442553
-0.10577302 0.04202291 -0.12726314 -0.13005085 -0.010235831 0.0862438 0.073897995 -0.1281338
-0.08404832 0.21532777 0.11076237 0.14055356 -0.12331221 0.17147398 0.16926478 0.26139805
-0.1267577 0.0029535259 0.05521218 0.1145556 -0.3050707 -0.04293479 0.033836707 -0.16017821
-0.15348536 0.09173575 0.078609645 0.049842346 0.07768235 0.0642541 0.19554165 0.29819316
0.10205148 0.053804435 -0.07611645 -0.003895317 0.06448153 -0.052131504 0.20747074 -0.05107147
0.08744953 -0.2580534 0.27487704 0.07387794 -0.11949846 0.09110404 0.16168952 0.07182745
0.17546825 -0.20937017 0.19510819 0.034287907 -0.08880701 -0.08732652 -0.104698665 0.11817006
-0.0434555 -0.079653434 0.090156406 0.030730076 -0.02361469 0.24211223 -0.2990683 0.17071667
-0.0019506911 0.055460386 -0.11014798 -0.0063744243 -0.014535265 -0.26415312 -0.19185585 -0.22234595
-0.022962337 0.108956195 0.06110745 0.042665903 -0.021521026 -0.1425279 0.052408073 -0.03642074
-0.071614824 0.14034544 0.038906682 0.18738692 0.09022755 0.12860449 -0.1523619 0.05467859
0.24301645 -0.27078325 -0.14747825 0.18598099 0.5699415 0.04324652 0.20633568 -0.0138315605
0.066605 0.20926271 -0.092751905 0.13780004 0.11824485 0.07528045 0.015079551 -0.16038492
0.091526695 -0.14505097 0.11591993 -0.11343776 0.17027728 0.17893831 0.061145127 -0.066003405
0.10791848 -0.19749577 0.042259313 0.09194093 -0.14314035 0.05330876 -0.15913154 -0.09244885
-0.11916935 -0.025913754 -0.021564675 0.06594209 -0.088208385 0.024575252 -0.023427237 -0.09987439
-0.15370914 -0.137746 0.06979117 -0.05798297 -0.0065371296 0.027891198 0.023377623 0.07060586
0.060871094 -0.12291897 -0.060863335 -0.11146779 -0.11061994 0.002921533 0.07253279 -0.13377392
0.02254059 -0.06480834 -0.054826576 0.08715309 -0.028271288 -0.04253919 -0.08737907 0.08055094
-0.02025917 -0.09142381 0.030599855 -0.10661117 -0.096348196 -0.041653678 0.062755354 -0.06846387
0.02448912 0.082220726 0.025510581 -0.11502761 -0.04637565 -0.03933561 -0.14609902 -0.04147027
0.052260634 0.05599261 -0.0129034715 -0.010150828 -0.08562752 0.060500007 -0.094193086 -0.117871344
-0.01597216 0.048624694 -0.1324281 0.07864368 0.020026386 -0.1421457 -0.074824 0.055061568
00000000: 5ab0 573d d635 9d3d b86a 3c3e 7a5a 603d
00000010: edb4 8c3d 359b 9c3b 879f ffbb 2e67 c03b
00000020: 210d 6a3d fcec abbc 3950 c9bd e8df 19be
00000030: 21b1 82be 6a56 febd c24f 313e fa92 9c3a
00000040: 76a4 b7bd 7870 bf3d 01d8 2c3e 018d 143e
00000050: 6450 dbbd 25ff 93bd cbe5 993c 27ce 0a3e
00000060: 541f 2aba c76b 40be 3e76 073d 80ce 173b
00000070: 04d6 b3be 9747 ed3c 59c6 76bd 1bb7 bf3c
00000080: 8597 243c 9f3f b83b bc69 58be 9453 2f3e
00000090: c79a b2bd 687a 223e d733 0539 1104 b3bc
000000a0: 059e c43d 591a 19be ddab 0cbd c878 793d
000000b0: f06f c83d a305 05be c015 fa3d 8896 51bc
000000c0: 7ba5 1fbe 0c15 09be 2f73 553d 8bed 513e
000000d0: 56b6 52bc 560e 2e3e c780 abbb 9cb1 e93c
000000e0: caf9 413e c28d 023d c879 2e3e cfb3 a13d
000000f0: 623d 7e3c 2dfe 9cbc d838 a33d 863b 513e
00000100: edd2 963d b96b 78bd 0923 853e 7580 433e
00000110: 7c23 283e 279c 06be f761 15bf ba21 1e3e
00000120: 869f d8bd 3720 2c3d 4551 02be 0d2c 05be
00000130: 30b4 27bc 97a0 b03d d557 973d 8235 03be
00000140: 8721 acbd e27e 5c3e 62d7 e23d 46ed 0f3e
00000150: 1d8b fcbd e096 2f3e bf53 2d3e f7d5 853e
00000160: c5cc 01be f18f 413b 2b26 623d 209c ea3d
00000170: 3a32 9cbe 64dc 2fbd 5c98 0a3d c205 24be
00000180: 442b 1dbe f4df bb3d 18fe a03d 7d27 4c3d
00000190: ed17 9f3d a797 833d 123c 483e c6ac 983e
000001a0: 5e00 d13d 0a62 5c3d f1e2 9bbd 9348 7fbb
000001b0: e40e 843d d887 55bd 3673 543e 5130 51bd
000001c0: bd18 b33d 931f 84be afbc 8c3e 514d 973d
000001d0: 9cbb f4bd c194 ba3d f091 253e 451a 933d
000001e0: f3ad 333e 2265 56be 71ca 473e 7a71 0c3d
000001f0: 73e0 b5bd 3fd8 b2bd 416c d6bd 2503 f23d
00000200: 65fe 31bd 5721 a3bd eca3 b83d a4bd fb3c
00000210: 9873 c1bc 45ec 773e 7b1f 99be 5ad0 2e3e
00000220: 55ae ffba 6e2a 633d 4495 e1bd 8ce0 d0bb
00000230: 5225 6ebc 143f 87be dc75 44be a8ae 63be
00000240: 831b bcbc 6d24 df3d ce4b 7a3d 71c2 2e3d
00000250: dd4c b0bc d5f2 11be d9a9 563d ea2d 15bd
00000260: cbaa 92bd b7b6 0f3e 9d5c 1f3d 5be2 3f3e
00000270: 39c9 b83d e5b0 033e c204 1cbe a8f6 5f3d
00000280: 4ed9 783e 1aa4 8abe 8a04 17be cd71 3e3e
00000290: b0e7 113f 4323 313d a949 533e c59d 62bc
000002a0: 3468 883d f748 563e b6f4 bdbd 741b 0d3e
000002b0: 5b2a f23d a32c 9a3d 3910 773c f23b 24be
000002c0: 5972 bb3d 3e88 14be 6e67 ed3d 0e52 e8bd
000002d0: 2b5d 2e3e 9b3b 373e 5073 7a3d cb2c 87bd
000002e0: 5d04 dd3d 553c 4abe 1a18 2d3d 874b bc3d
000002f0: 6293 12be 495a 5a3d 61f3 22be d355 bdbd
00000300: 0f0f f4bd 1549 d4bc 67a8 b0bc a50c 873d
00000310: 99a6 b4bd 0a52 c93c 7aea bfbc f28a ccbd
00000320: ee65 1dbe 4a0d 0dbe acee 8e3d 8d7f 6dbd
00000330: 6b35 d6bb 157c e43c 6e82 bf3c ce99 903d
00000340: f853 793d f1bc fbbd d54b 79bd 3a49 e4bd
00000350: b58c e2bd 3177 3f3b 128c 943d 08fc 08be
00000360: 0ba7 b83c 3cba 84bd d591 60bd 527d b23d
00000370: 3099 e7bc 933d 2ebd ccf3 b2bd e4f7 a43d
00000380: 8ff6 a5bc 683c bbbd 8cac fa3c f556 dabd
00000390: 3452 c5bd 0c9d 2abd e185 803d c936 8cbd
000003a0: 689d c83c 5763 a83d 91fb d03c 9893 ebbd
000003b0: 65f4 3dbd 601e 21bd fb9a 15be bbdc 29bd
000003c0: 3f0f 563d 8258 653d 1569 53bc a94f 26bc
000003d0: 7b5d afbd dbce 773d 4ee8 c0bd 8866 f1bd
000003e0: 0cd8 82bc b02a 473d 3b9b 07be f00f a13d
000003f0: 600e a43c a48e 11be 533d 99bd 3d88 613d

bias f4 [64]
0.28822947 0.33311632 0.0965041 0.06649833 0.18188561 -0.058194455 -0.09025733 -0.04573557
0.10032013 -0.04116024 0.05294907 0.22686824 0.30555445 -0.04473589 -0.087340124 -0.0011657816
0.017023457 0.21875666 -0.065908685 0.00028619924 -0.012071779 0.1678102 0.29683498 -0.022495512
0.28839314 0.13616104 -0.08049363 -0.16897714 -0.078601696 -0.0759635 -0.051578116 -0.029274788
0.11898002 0.16921206 -0.049248375 -0.049770035 -0.016657857 0.098227404 -0.04625737 -0.11674865
0.03731345 0.084044375 -0.010477387 0.17563263 -0.060548514 0.066378854 -0.02314569 -0.10411124
-0.114099056 -0.06164637 0.046233386 0.30427155 -0.14023243 0.34578347 -0.29085088 -0.079626314
-0.017342139 0.20026919 0.2726482 -0.13924032 0.14627057 -0.1114622 0.016345793 -0.026572797
00000000: d092 933e 398e aa3e f1a3 c53d 4730 883d
00000010: 3940 3a3e 4f5d 6ebd d6d8 b8bd 3955 3bbd
00000020: a474 cd3d a497 28bd 20e1 583d 2650 683e
00000030: a271 9c3e fb3c 37bd 61df b2bd 24cd 98ba
00000040: c774 8b3c bf01 603e 22fb 86bd 030d 9639
00000050: b6c8 45bc 70d6 2b3e c1fa 973e 8248 b8bc
00000060: 44a8 933e cd6d 0b3e d8d9 a4bd 5808 2dbe
00000070: edf9 a0bd c092 9bbd 9343 53bd aed1 efbc
00000080: ccab f33d ed45 2d3e aab8 49bd aadb 4bbd
00000090: 0f76 88bc 732b c93d 5e78 3dbd eb19 efbd
000000a0: fdd5 183d 751f ac3d 59a9 2bbc 0ad9 333e
000000b0: b801 78bd a3f1 873d 089c bdbc 4638 d5bd
000000c0: c4ac e9bd e780 7cbd 385f 3d3d 7bc9 9b3e
000000d0: 1799 0fbe 880a b13e 68ea 94be 1f13 a3bd
000000e0: 1a11 8ebc 5e13 4d3e 8b98 8b3e 0495 0ebe
000000f0: f4c7 153e 4b46 e4bd 9de7 853c 32af d9bc

weight f4 [7, 64]
-0.15871218 -0.2631305 -0.25291634 0.04996938 -0.058229335 0.034424447 0.013398531 -0.05594188
-0.033831574 -0.08534229 0.010329667 -0.16474408 -0.2839508 -0.07387481 -0.020557508 -0.08676438
-0.085248366 -0.27443564 0.016877377 0.08593135 0.36775836 -0.116798185 0.048625577 -0.09447458
-0.18753022 -0.18452856 -0.044957 -0.080139704 0.14807041 0.40699184 0.11287786 0.060100473
-0.1531519 -0.1882721 -0.0006672055 -0.036192197 -0.0029907732 0.04334553 -0.15413132 0.023925863
-0.027360557 -0.018762628 0.055148497 -0.026256079 -0.05389399 0.06890629 -0.088755965 -0.009189754
0.06303993 -0.14454855 0.12426578 -0.09247548 0.07935525 -0.11870753 0.011407519 -0.124393314
-0.029128242 -0.19434157 -0.2274243 0.10314721 -0.18271108 -0.18538968 -0.2591625 0.112135194
-0.38611996 -0.12508754 -0.15901594 -0.009991607 -0.13076594 -0.16285263 0.09081218 0.20912035
-0.016868614 0.038339898 0.27140915 -0.045334674 -0.23623857 -0.038331445 -0.16858545 0.18771482
0.23165816 -0.16251424 0.017385455 0.027925692 -0.2302039 -0.08803217 0.03716238 -0.03298421
-0.14201729 0.02441557 0.10728927 -0.09336748 -0.072671756 0.043274306 0.053729627 0.077343814
-0.12256143 -0.017374326 -0.057033487 -0.09443191 0.07591556 -0.07335506 0.14522377 0.039553594
0.027788652 0.120005265 0.09696558 0.045347936 0.02862225 -0.14978395 0.07452555 -0.039693236
-0.08296806 0.044170864 0.0021800194 -0.108847745 0.014284303 -0.21352205 -0.05501764 0.06170203
0.0056772255 -0.31965145 -0.049346644 0.0787616 -0.37614515 0.02633928 -0.096604764 -0.06862867
0.21033686 0.19786242 0.14208835 -0.04671107 0.044981126 -0.019825958 -0.022335036 -0.06338602
-0.0064066257 -0.0800042 -0.12964265 0.06308708 0.30716538 -0.0062537175 0.1566572 0.14796877
0.02792784 0.16342922 0.08613984 -0.02490375 0.18172076 0.09224711 -0.093495995 -0.08634824
0.16908292 0.020925658 0.047915988 -0.050335422 -0.15546422 -0.12763673 -0.035268445 0.027207274
0.1225137 -0.033110384 0.37607285 0.1321496 -0.12874344 0.20269915 0.10822793 0.051874656
-0.067890465 -0.1429884 0.005892854 0.21054016 -0.07436663 0.13960427 0.10204086 -0.09055701
-0.016874561 -0.0853436 0.04971073 0.23075299 0.052794404 0.26431462 -0.17340973 0.025002088
-0.028000874 0.106013335 0.24738576 -0.17096663 0.022543712 0.017939694 0.10986334 -0.009433791
-0.070796706 -0.15669669 0.1180246 0.07933987 0.23657647 -0.037049655 0.03840784 0.097964056
0.8383658 0.07464154 0.005804149 0.31795034 -0.023919884 -0.09997043 0.053034313 0.043206234
-0.10152947 -0.29716513 -0.066642374 -0.061561316 -0.14857532 -0.3117784 0.6385011 0.13279562
-0.15844885 -0.17652987 -0.08710428 -0.09070202 0.22411878 0.3415985 -0.11528888 0.054990012
-0.0039437753 -0.44109178 -0.08377734 -0.08644353 0.028052267 0.096775584 0.048115812 0.01665918
-0.12681255 -0.04862054 -0.1289436 0.6047416 0.011235033 0.07680161 -0.07443015 -0.1440948
-0.022700487 -0.06405869 -0.48843923 -0.3309087 -0.06831751 -0.21444708 0.4160869 0.036401793
0.53016484 -0.0931509 0.16634636 0.06143104 0.05011087 0.022665923 0.023901645 -0.11906807
00000000: 7285 22be 0ab9 86be 407e 81be b1ac 4c3d
00000010: e281 6ebd a600 0d3d 8385 5b3c 5023 65bd
00000020: fa92 0abd f0c7 aebd c33d 293c acb2 28be
00000030: 0062 91be ad4b 97bd 3868 a8bc 86b1 b1bd
00000040: b296 aebd d482 8cbe 6d42 8a3c c7fc af3d
00000050: d34a bc3e e333 efbd 9d2b 473d e37b c1bd
00000060: ec07 40be 0ef5 3cbe d524 38bd 4920 a4bd
00000070: c59f 173e 3c61 d03e 822c e73d ea2b 763d
00000080: dad3 1cbe 67ca 40be 67e7 2eba 453e 14bd
00000090: d900 44bb 158b 313d 9ad4 1dbe 2c00 c43c
000000a0: 3f23 e0bc 15b4 99bc 64e3 613d fd16 d7bc
000000b0: f2bf 5cbd be1e 8d3d b0c5 b5bd 9f90 16bc
000000c0: 141b 813d 8904 14be 0f7f fe3d c963 bdbd
000000d0: 0185 a23d ef1c f3bd 9ae6 3a3c ecc1 febd
000000e0: 5a9e eebc 7a01 47be eae1 68be d83e d33d
000000f0: 9d18 3bbe cbd6 3dbe f2b0 84be 23a7 e53d
00000100: 84b1 c5be f316 00be 13d5 22be d6b3 23bc
00000110: 82e7 05be d7c2 26be bcfb b93d a523 563e
00000120: 0c30 8abc 4c0a 1d3d 24f6 8a3e dab0 39bd
00000130: 86e8 71be 6f01 1dbd aaa1 2cbe 5038 403e
00000140: cc37 6d3e 226a 26be f16b 8e3c 6cc4 e43c
00000150: 92ba 6bbe 364a b4bd 9437 183d 731a 07bd
00000160: fb6c 11be 2903 c83c 7aba db3d 7337 bfbd
00000170: eed4 94bd 6640 313d 9913 5c3d 6f66 9e3d
00000180: 7d01 fbbd 9a54 8ebc f29b 69bd 8465 c1bd
00000190: 9e79 9b3d 2d3b 96bd 8ab5 143e f302 223d
000001a0: 07a5 e33c 52c5 f53d e495 c63d c2be 393d
000001b0: 3579 ea3c f760 19be daa0 983d 6095 22bd
000001c0: 29eb a9bd 82ec 343d a8de 0e3b 91eb debd
000001d0: b608 6a3c 86a5 5abe 2d5a 61bd 45bb 7c3d
000001e0: 0508 ba3b 5ba9 a3be b51f 4abd c34d a13d
000001f0: 1996 c0be 79c5 d73c b8d8 c5bd 308d 8cbd
00000200: 8c62 573e 729c 4a3e 9c7f 113e 1b54 3fbd
00000210: 213e 383d 0c6a a2bc f7f7 b6bc 88d0 81bd
00000220: acee d1bb 3ed9 a3bd 0bc1 04be cd33 813d
00000230: c844 9d3e fceb ccbb bf6a 203e 2085 173e
00000240: edc8 e43c fd59 273e 166a b03d f302 ccbc
00000250: 0215 3a3e 0eec bc3d d47a bfbd 59d7 b0bd
00000260: 1324 2d3e 496c ab3c 8e43 443d 842c 4ebd
00000270: 0332 1fbe 34b3 02be a575 10bd cae1 de3c
00000280: 76e8 fa3d c19e 07bd 9f8c c03e 3a52 073e
00000290: 52d5 03be 5e90 4f3e 9ba6 dd3d 857a 543d
000002a0: 280a 8bbd 8d6b 12be d818 c13b d797 573e
000002b0: 884d 98bd 6cf4 0e3e ccfa d03d f475 b9bd
000002c0: 853c 8abc a0c8 aebd 7a9d 4b3d 834a 6c3e
000002d0: f23e 583d 3f54 873e 5292 31be 2ed1 cc3c
000002e0: 1762 e5bc 851d d93d b152 7d3e e011 2fbe
000002f0: 97ad b83c 44f6 923c 0800 e13d 3090 1abc
00000300: ddfd 90bd 1975 20be e2b6 f13d f17c a23d
00000310: 1a41 723e 61c1 17bd 8a51 1d3d 61a1 c83d
00000320: 249f 563f aadd 983d bb30 be3b 63ca a23e
00000330: a2f3 c3bc 4cbd ccbd 823a 593d 05f9 303d
00000340: afee cfbd 0726 98be cc7b 88bd b827 7cbd
00000350: 2124 18be 6ba1 9fbe cf74 233f 93fb 073e
00000360: 6a40 22be 3fc4 34be bb63 b2bd fbc1 b9bd
00000370: 657f 653e 00e6 ae3e 941c ecbd 353d 613d
00000380: c93a 81bb c8d6 e1be 7493 abbd 4e09 b1bd
00000390: decd e53c 4732 c63d 1615 453d d578 883c
000003a0: 26db 01be 5526 47bd cb09 04be 58d0 1a3f
000003b0: 2513 383c 2a4a 9d3d d66e 98bd 968d 13be
000003c0: 5ff6 b9bc 3431 83bd b514 fabe dd6c a9be
000003d0: 0dea 8bbd 0498 5bbe 5809 d53e 0c1a 153d
000003e0: e2b8 073f e6c5 bebd b356 2a3e 1d9f 7b3d
000003f0: 0e41 4d3d e3ad b93c 62cd c33c f6d9 f3bd

bias f4 [7]
-0.2983007 -0.32518938 0.31589773 0.0011336575 0.18575159 -0.33551937 0.20407343
00000000: dfba 98be 397f a6be 59bd a13e 3c97 943a
00000010: aa35 3e3e 32c9 abbe a0f8 503e

weight f4 [7, 64]
-0.07370127 -0.0976374 -0.068846956 -0.03827923 -0.023468753 0.17212895 -0.01797775 0.025609132
-0.003751082 0.09301302 0.09381433 0.04170773 0.026190734 -0.05085028 0.062464505 0.03174662
-0.007668052 0.0128617985 -0.10402421 0.043467276 -0.023004936 0.051994663 0.0122326715 0.0014233052
-0.1216592 0.042362764 0.074290834 0.11622772 -0.06889937 0.08717424 -0.019172017 -0.05747318
-0.029897347 -0.018922357 0.005535445 -0.013260485 0.066956855 -0.116218194 -0.08458301 0.036196947
0.09511602 0.031038541 -0.13090573 -0.080567986 -0.020226726 -0.020709543 0.10226515 -0.037511915
-0.08080913 -0.030974621 -0.043635268 -0.089383975 0.07181793 -0.031701773 -0.034694474 0.10011592
0.031349037 -0.044102177 -0.026395896 0.06503379 0.027820777 0.12884958 -0.028788403 -0.09337454
-0.01295405 -0.0074484884 -0.14633173 0.08123627 -0.11626442 0.032634605 0.011458011 0.035795946
-0.010173481 -0.034335032 0.13504806 -0.023766104 -0.013225826 0.08940657 -0.03934335 -0.02387975
0.030372145 -0.03587366 -0.027583111 -0.006177172 -0.12412163 -0.053093243 0.02009057 0.0051153842
-0.1261123 -0.065251745 0.03628315 -0.17198016 0.04892443 0.016726999 0.10433562 0.10994263
-0.07872267 -0.12001275 -0.028906075 0.010497166 -0.07424597 -0.032735508 0.04901075 0.018530391
-0.06106013 0.026904289 -0.042863153 -0.0048985253 0.1268952 -0.006424659 0.095902294 0.07445797
-0.019214392 0.12025375 0.014900827 0.019178968 0.024706282 0.012064093 -0.039395988 0.011481216
-0.03633665 -0.08188554 0.018683821 -0.055511262 -0.08427988 0.025369441 -0.031398553 0.031162804
-0.06816773 -0.079978675 0.022551063 -0.071789585 -0.03951958 0.15016264 -0.0759674 0.05175245
0.026965886 -0.037553072 -0.011877991 -0.011922861 -0.08189052 -0.12382122 0.083316825 -0.012173358
-0.10575136 -0.058637694 0.081214145 -0.016120696 -0.106584996 0.010107217 0.03214989 -0.011085783
0.015260038 -0.046023972 0.13728431 -0.06413043 -0.13438158 0.07497909 -0.02481994 0.08733639
-0.093915835 0.0038742526 -0.035770833 0.07975259 0.009221055 -0.040849086 0.058185343 0.16018243
0.065544985 -0.09227899 -0.11724267 -0.027802682 -0.014961632 -0.02083464 0.056455866 -0.018731669
-0.018421443 0.07375079 -0.029814964 -0.027362602 -0.06906213 -0.08646981 0.038462866 -0.014671735
-0.0008661216 -0.04156858 -0.05140242 -0.046233084 -0.010014771 0.052912783 0.040283043 0.089895375
0.094034456 -0.0914128 -0.01520886 0.050325014 -0.03005091 -0.22837672 0.0124256555 -0.09969081
-0.23623365 -0.02057682 0.041357964 -0.027135596 0.017032368 -0.115777016 -0.10861457 0.11426281
-0.054426573 0.04762919 0.086015835 -0.06418073 -0.15654318 -0.054717947 0.12523538 -0.08437475
-0.10467942 -0.08403248 -0.008819691 -0.037730735 0.061004195 0.03746472 -0.08256327 0.008890825
0.05766361 -0.10267711 0.09390517 0.08734367 -0.06310359 -0.111241736 0.068078 0.042702205
0.040825523 -0.053591166 -0.041603208 0.0532515 -0.0709218 -0.090030245 0.0824496 0.19309518
-0.12420046 -0.04632908 -0.07563105 -0.11573964 0.05487023 -0.13252378 0.07974207 0.15076588
0.17352258 -0.043989845 0.06606471 -0.0065248976 0.21872355 -0.06416581 -0.028425481 -0.047985226
00000000: b1f0 96bd 1ef6 c7bd a2ff 8cbd afca 1cbd
00000010: 8b41 c0bc 9242 303e 1346 93bc 3eca d13c
00000020: b7d4 75bb 9c7d be3d ba21 c03d bad5 2a3d
00000030: f38d d63c 6248 50bd c8da 7f3d be08 023d
00000040: 4844 fbbb 4bba 523c a50a d5bd be0a 323d
00000050: d974 bcbc 5bf8 543d 8b6b 483c 338e ba3a
00000060: 7528 f9bd 9484 2d3d cb25 983d cd08 ee3d
00000070: 1d1b 8dbd 6888 b23d a20e 9dbc ff68 6bbd
00000080: 48eb f4bc 0f03 9bbc ae62 b53b 8142 59bc
00000090: ad20 893d ce03 eebd db39 adbd 4043 143d
000000a0: 30cc c23d 8a44 fe3c 270c 06be d400 a5bd
000000b0: 85b2 a5bc 0fa7 a9bc 6470 d13d 18a6 19bd
000000c0: 427f a5bd 7dbe fdbc e5ba 32bd f20e b7bd
000000d0: 4715 933d b8d9 01bd cb1b 0ebd 9309 cd3d
000000e0: d967 003d 7ca4 34bd 353c d8bc 7030 853d
000000f0: 66e8 e33c 25f1 033e a8d5 ebbc 273b bfbd
00000100: 393d 54bc 7312 f4bb fcd7 15be 345f a63d
00000110: 0a1c eebd ddab 053d 62ba 3b3c c59e 123d
00000120: acae 26bc e4a2 0cbd 0a4a 0a3e 22b1 c2bc
00000130: 23b1 58bc cb1a b73d 7e26 21bd 779f c3bc
00000140: 01cf f83c 42f0 12bd faf5 e1bc e069 cabb
00000150: 7b33 febd 4d78 59bd fb94 a43c f49e a73b
00000160: 9523 01be b5a2 85bd a49d 143d 911b 30be
00000170: fc64 483d 0f07 893c eaad d53d 9a29 e13d
00000180: 5a39 a1bd 3fc9 f5bd 6fcc ecbc 4efc 2b3c
00000190: 450e 98bd ab15 06bd 7fbf 483d 0ccd 973c
000001a0: 301a 7abd 6266 dc3c 4691 2fbd cf83 a0bb
000001b0: d1f0 013e f285 d2bb 6c68 c43d 6c7d 983d
000001c0: 8067 9dbc 9947 f63d 9922 743c 361d 9d3c
000001d0: d464 ca3c 79a8 453c b05d 21bd b61b 3c3c
000001e0: bdd5 14bd 9bb3 a7bd d00e 993c c75f 63bd
000001f0: ee9a acbd 93d3 cf3c c59b 00bd 2349 ff3c
00000200: 869b 8bbd dccb a3bd 02bd b83c 6b06 93bd
00000210: 48df 21bd 3cc4 193e cc94 9bbd 61fa 533d
00000220: 90e7 dc3c 40d1 19bd e89b 42bc 1b58 43bc
00000230: 38b6 a7bd fb95 fdbd 03a2 aa3d c472 47bc
00000240: 2b94 d8bd 142e 70bd 9a53 a63d 8d0f 84bc
00000250: 3c49 dabd be98 253c 9aaf 033d 25a1 35bc
00000260: 3d05 7a3c a283 3cbd 4294 0c3e d156 83bd
00000270: 539b 09be a38e 993d 3053 cbbc 6cdd b23d
00000280: f256 c0bd 2ce7 7d3b 7084 12bd 5355 a33d
00000290: e813 173c 5f51 27bd c153 6e3d dd06 243e
000002a0: 733c 863d c4fc bcbd ed1c f0bd 73c2 e3bc
000002b0: a221 75bc 68ad aabc 443e 673d 2873 99bc
000002c0: 91e8 96bc a70a 973d 833e f4bc 8927 e0bc
000002d0: 7270 8dbd 1517 b1bd 3d8b 1d3d b861 70bc
000002e0: 700c 63ba d143 2abd 588b 52bd e75e 3dbd
000002f0: fe14 24bc 13bb 583d d5ff 243d 111b b83d
00000300: 2395 c03d a236 bbbd 952e 79bc 9a21 4e3d
00000310: 532d f6bc 96db 69be fa94 4b3c b22a ccbd
00000320: 3ce7 71be b890 a8bc f866 293d 784b debc
00000330: 7787 8b3c 801c edbd 5171 debd 9f02 ea3d
00000340: 66ee 5ebd d316 433d 1229 b03d 3071 83bd
00000350: db4c 20be ed1f 60bd b43d 003e abcc acbd
00000360: 2a62 d6bd 3919 acbd 7780 10bc 8b8b 1abd
00000370: 89df 793d 9b74 193d ef16 a9bd d3aa 113c
00000380: ad30 6c3d 6048 d2bd 5b51 c03d 3de1 b23d
00000390: 743c 81bd b5d2 e3bd 7a6c 8b3d 82e8 2e3d
000003a0: aa38 273d 6982 5bbd 2068 2abd 3f1e 5a3d
000003b0: 733f 91bd c761 b8bd 56db a83d beba 453e
000003c0: d05c febd 90c3 3dbd 74e4 9abd e808 edbd
000003d0: 9bbf 603d 50b4 07be cf4f a33d 5f62 1a3e
000003e0: e7af 313e b22e 34bd ef4c 873d cfce d5bb
000003f0: 11f9 5f3e 5d69 83bd 8edc e8bc 288c 44bd

bias f4 [7]
-0.00879925 -0.18641864 -0.116716936 0.027379423 -0.06630911 0.016924985 -0.14734277
00000000: bb2a 10bc 87e4 3ebe 4a09 efbd d04a e03c
00000010: 12cd 87bd 44a6 8a3c 06e1 16be

weight f4 [64, 14]
0.4129505 0.12888639 0.09101667 -0.011296626 0.11784228 -0.051117424 0.22051314 0.027279887
0.44452658 -0.4595283 0.08156704 -0.18405873 0.55288744 -0.9487189 0.2103906 -0.05249308
-0.24275912 0.21721213 -0.16652794 -0.2537291 -0.3251969 0.074302554 0.07785392 -0.9275279
-0.029914204 -0.16156252 0.42646644 -0.4270084 -0.78180957 -0.293121 -0.3225579 -0.122247696
-0.053771928 -0.14716409 -0.27774 0.4327305 0.22363807 -0.52161974 -0.05815502 -0.11027698
0.49220154 -2.4500146 -0.26952884 0.20747216 0.15223974 -0.16355306 -0.02015977 0.074709415
0.13030101 0.20022425 0.21552466 0.45050523 -0.374774 0.079237446 -0.48078936 0.13170578
0.06120638 -0.16628014 -0.1104949 -0.16087696 0.06563636 -0.05420881 -0.062141825 0.75493324
0.2226395 -0.73620594 -0.21426448 -0.737469 0.47721228 -0.6820134 -0.2640113 0.4980262
0.016129822 -0.16678993 0.17893536 -0.032320842 0.004782393 -0.58666676 -0.2161098 0.2443001
0.12574229 1.0020453 0.14412175 -0.108213015 -0.40372714 -0.7091513 -0.09081841 0.06742383
-0.046406407 -0.21567269 0.25828183 0.730354 0.025841761 -0.40560448 -0.12248273 -0.6516433
0.25332195 -0.46411684 -0.1366457 0.03118113 0.059601918 0.04194509 0.052326813 -0.13145526
0.030089732 -0.6275375 -0.13627031 0.5012335 0.3215216 0.4096459 -0.49420753 0.7296455
-0.35310087 0.46848565 -0.071705 -0.02669875 -0.051557574 0.19428024 -0.10796265 -0.267703
0.07130217 0.2944973 -0.036730304 -0.007187517 0.2628593 -1.4411275 -0.030372677 -0.0505021
0.05020378 -0.012858741 0.10877602 -0.024478596 -0.21584988 0.032779217 -0.37066785 0.23708005
-0.121741205 0.15858203 0.252979 -0.29376432 -0.35854536 0.03865079 -0.13187392 0.16375272
0.2348292 0.000420884 -0.045717258 -0.023775535 0.2992453 -0.012333473 -0.6445085 -0.16093123
-0.1594135 0.49548846 -0.33070803 0.24522802 0.08160724 -0.09434171 0.16069941 0.23158349
-0.18605314 -0.2676162 0.20160294 0.26425576 0.59410876 0.006491727 0.20156258 0.34927723
-0.29862264 -0.049122825 0.054642797 0.23963451 0.25747353 -0.30330244 -0.4210065 0.21431614
0.27499822 -0.33870375 -0.2759037 0.044541378 0.13702862 -0.21199508 -0.17528696 0.04797898
0.024336385 0.05169248 0.23822634 -0.09908449 0.15894958 0.37560982 -0.55742455 0.08972862
-0.7320429 -0.6538684 -0.29894966 -0.21260698 0.05310828 -0.08992722 0.032916766 -0.08162881
0.18396324 0.14039245 -0.08815072 -0.0038536522 0.13279754 -0.42190447 -0.12356544 0.2617938
0.41137445 0.36451706 -0.35685977 0.2895788 -0.017347194 -0.15939617 0.103620276 -0.05590185
0.2827377 0.57689303 0.27120385 -0.2850515 0.09946684 -0.4552802 0.2297817 -0.18468136
-0.056189317 -0.08874844 -0.09097352 0.12111138 0.00020761552 0.17270997 -0.08334253 0.2916003
-0.04573763 -0.56690055 -0.30884683 0.19007549 0.07008268 0.050985295 0.01853721 0.10126009
0.035060618 -0.14155175 -0.25575772 0.24102482 0.50263613 0.56767744 -0.05217577 -0.030345911
-0.23035198 0.05734078 -0.094263636 -0.7150585 -0.522545 -0.26316652 0.010251498 0.05844378
00000000: 3f6e d33e cbfa 033e f366 ba3d 7c15 39bc
00000010: 4b57 f13d 8160 51bd 32ce 613e 127a df3c
00000020: fd98 e33e 4b47 ebbe 9f0c a73d e479 3cbe
00000030: 088a 0d3f 3edf 72bf a270 573e fc02 57bd
00000040: d995 78be db6c 5e3e 4d86 2abe c8e8 81be
00000050: 3580 a6be f02b 983d e071 9f3d 7872 6dbf
00000060: a20e f5bc a570 25be cf59 da3e d8a0 dabe
00000070: ac24 48bf f513 96be 4f26 a5be 005d fabd
00000080: f43f 5cbd 2fb2 16be f033 8ebe da8e dd3e
00000090: 6101 653e df88 05bf f533 6ebd e6d8 e1bd
000000a0: d701 fc3e 0acd 1cc0 afff 89be 9573 543e
000000b0: bce4 1b3e 747a 27be 1a26 a5bc 4001 993d
000000c0: a16d 053e 9607 4d3e 7fb2 5c3e 9fa8 e63e
000000d0: 61e2 bfbe 3e47 a23d 062a f6be e1dd 063e
000000e0: 8bb3 7a3d 5745 2abe 264b e2bd eebc 24be
000000f0: 5b6c 863d 0f0a 5ebd 6d88 7ebd 4e43 413f
00000100: 9cfb 633e fe77 3cbf 2668 5bbe c5ca 3cbf
00000110: 2b55 f43e 6e98 2ebf 7d2c 87be 4afd fe3e
00000120: b022 843c fbca 2abe d53a 373e dc62 04bd
00000130: 9fb5 9c3b cb2f 16bf e34b 5dbe ce29 7a3e
00000140: 96c2 003e 0543 803f a794 133e c99e ddbd
00000150: 53b5 cebe f18a 35bf 01ff b9bd 8115 8a3d
00000160: a514 3ebd 4dd9 5cbe 843d 843e 7bf8 3a3f
00000170: 1ab2 d33c 64ab cfbe 3ad8 fabd 18d2 26bf
00000180: 6ab3 813e b9a0 edbe daec 0bbe 926f ff3c
00000190: 2421 743d 9dce 2b3d a454 563d 359c 06be
000001a0: be7e f63c 4ca6 20bf 728a 0bbe d750 003f
000001b0: 7b9e a43e 1bbd d13e c508 fdbe 0cca 3a3f
000001c0: a3c9 b4be 5add ef3e 12da 92bd 56b7 dabc
000001d0: 092e 53bd 66f1 463e 861b ddbd 5e10 89be
000001e0: df06 923d 5ac8 963e 8472 16bd 4385 ebbb
000001f0: 7f95 863e de76 b8bf 1fd0 f8bc 4adb 4ebd
00000200: 7ba2 4d3d 78ad 52bc f6c5 de3d 5687 c8bc
00000210: c007 5dbe 8043 063d 2dc8 bdbe 1dc5 723e
00000220: 7453 f9bd 5463 223e 7786 813e 4768 96be
00000230: 4293 b7be 4a50 1e3d f509 07be cbae 273e
00000240: 1177 703e 18aa dc39 0542 3bbd e9c4 c2bc
00000250: ae36 993e 5612 4abc 82fe 24bf 28cb 24be
00000260: 4b3d 23be aab0 fd3e 9052 a9be 0e1d 7b3e
00000270: b221 a73d 3a36 c1bd 638e 243e 3924 6d3e
00000280: b784 3ebe fe04 89be 0071 4e3e 884c 873e
00000290: 8317 183f 8eb8 d43b 6c66 4e3e 77d4 b23e
000002a0: 11e5 98be 0435 49bd 20d1 5f3d c062 753e
000002b0: 92d3 833e 754a 9bbe 2a8e d7be b175 5b3e
000002c0: 91cc 8c3e 946a adbe 4043 8dbe 0571 363d
000002d0: 3b51 0c3e 3d15 59be 6d7e 33be 9b85 443d
000002e0: 195d c73c 7ebb 533d 9bf1 733e cfec cabd
000002f0: aec3 223e ee4f c03e 60b3 0ebf a4c3 b73d
00000300: 2a67 3bbf eb63 27bf ee0f 99be a5b5 59be
00000310: 1188 593d c32b b8bd bbd3 063d 012d a7bd
00000320: dc60 3c3e 0ac3 0f3e 5d88 b4bd 8e8d 7cbb
00000330: 14fc 073e dd03 d8be e10f fdbd d609 863e
00000340: ac9f d23e fba1 ba3e 53b6 b6be ac43 943e
00000350: b41b 8ebc c038 23be de36 d43d 57f9 64bd
00000360: ffc2 903e 43af 133f 3bdb 8a3e 45f2 91be
00000370: 45b5 cb3d 7d1a e9be e54b 6b3e 1c1d 3dbe
00000380: c526 66bd bec1 b5bd 5350 babd 3e09 f83d
00000390: 5eb3 5939 e2da 303e 7daf aabd a24c 953e
000003a0: 6257 3bbd 6520 11bf 2c21 9ebe 26a3 423e
000003b0: 8287 8f3d f5d5 503d 59db 973c 7361 cf3d
000003c0: b99b 0f3d f1f2 10be adf2 82be 36cf 763e
000003d0: c3ac 003f 4f53 113f 43b6 55bd fd97 f8bc
000003e0: 64e1 6bbe 2ade 6a3d 4b0d c1bd 130e 37bf
000003f0: 82c5 05bf c3bd 86be e6f5 273c bf62 6f3d

bias f4 [64]
-0.57841164 -0.61933106 -0.6714634 0.5931862 0.048905794 0.54780644 -0.2210655 0.5745541
-0.4724504 0.9390692 0.37419638 0.4769107 0.5820683 0.720685 0.37891218 0.8154075
0.95001787 -0.20929052 -0.5146795 -0.4671101 -0.4667146 0.400474 0.5239527 -0.24746427
0.79273415 -0.27593493 0.933135 0.59713423 0.88991517 0.0040228087 -0.35583684 0.72087884
-0.2583289 0.8472754 -0.36483103 0.96007043 1.0184783 -0.45466247 -0.5131867 -0.3946387
-0.5056834 0.12160923 -0.2533764 0.94563925 -0.3230448 0.3530077 0.7708137 0.9888191
0.8404357 0.68826437 0.66300166 0.605259 0.120337754 -0.5108925 0.9362269 0.17628823
-0.5939009 0.6515343 0.6204307 1.0358748 0.5547334 1.0157125 0.47719646 0.5271926
00000000: c912 14bf 7b8c 1ebf 06e5 2bbf 0ddb 173f
00000010: 7151 483d 0b3d 0c3f ff5e 62be fa15 133f
00000020: 05e5 f1be d766 703f ab96 bf3e a42d f43e
00000030: 6e02 153f d07e 383f c700 c23e 8cbe 503f
00000040: 5f34 733f 4150 56be 09c2 03bf 0e29 efbe
00000050: 37f5 eebe ee0a cd3e c421 063f 4667 7dbe
00000060: a0f0 4a3f 5847 8dbe efe1 6e3f cadd 183f
00000070: 7bd1 633f c4d1 833b 3f30 b6be 848b 383f
00000080: b043 84be 0ae7 583f 22cb babe 2dc7 753f
00000090: 7f5d 823f 85c9 e8be 3460 03bf 150e cabe
000000a0: 7874 01bf 430e f93d 8dba 81be 6a15 723f
000000b0: 2166 a5be 6dbd b43e 0c54 453f 4023 7d3f
000000c0: cb26 573f 1832 303f 7aba 293f 41f2 1a3f
000000d0: a473 f63d dac9 02bf 91ac 6f3f e784 343e
000000e0: e409 18bf f4ca 263f 8cd4 1e3f 8c97 843f
000000f0: 0203 0e3f de02 823f 1853 f43e 18f6 063f

weight f4 [64, 64]
-0.07330592 0.027153399 -0.011831115 -0.078925535 -0.08048723 -0.015103974 0.039691303 0.09573707
-0.05274877 -0.08324489 -0.09338809 -0.1008568 0.10917721 -0.07993516 -0.1272431 0.0717615
0.08410352 -0.13418034 -0.029410232 0.024217755 0.013220576 -0.07106529 -0.12115842 -0.0957535
0.027348291 -0.068541355 -0.13113807 0.108904056 0.04153544 -0.052422848 0.019946411 -0.05921304
-0.09743562 -0.13060603 0.05112092 -0.12964177 -0.11051988 0.0837162 -0.07872358 -0.05342921
0.0005772561 -0.12343989 -0.12742338 -0.11413822 -0.067879945 -0.06460218 0.09283447 0.063173495
0.10098663 -0.12195716 -0.080322176 0.057885326 0.031891502 -0.09294133 0.07805303 -0.083831176
0.10761304 -0.12715879 0.048429616 -0.033327315 -0.1268809 0.046692297 -0.06248918 -0.040881887
0.19883342 -1.0741918 -0.28940248 0.13722661 0.2603567 0.16739763 0.29899436 0.19588143
0.29070923 -0.42041278 0.025100918 0.11449705 -0.41188976 -0.028032366 0.15084678 -0.063676886
-0.34354246 -0.04784627 0.57182807 0.589755 -0.25887686 0.62445843 0.12618086 -0.8878355
-0.1379898 -0.7275884 -0.022296455 -0.1243651 -0.07719953 0.71582705 0.4236574 -0.051654685
0.8477857 0.1463967 0.020521896 0.024751335 -0.052525297 0.2539359 0.48311737 -0.26142403
-0.6381207 -0.6579551 0.34877497 -0.26585916 0.6603081 0.5478137 -0.007641094 0.08572977
-0.004442786 0.021308491 0.025339814 -0.06476271 -0.53237265 0.3917726 -0.010904018 0.5385954
0.13606422 -0.070182905 -0.12386393 -0.160889 0.29487458 -0.079868056 -0.1355499 0.3272314
0.5259421 0.5069138 0.5057983 0.04340647 0.36183608 -1.7528298 0.5474335 -1.2609857
-0.039978947 -0.75086606 -1.4303806 -1.7478558 0.22943819 0.1041408 -1.3298675 0.44827813
-0.9836912 0.54799694 -0.41128448 0.021006914 0.7523704 -2.6789095 0.264711 0.47140172
0.2267186 -0.6518276 0.3106577 0.40108126 -0.07619983 0.8900278 -0.566657 -0.0009241847
0.9693928 -1.365841 0.2373201 -0.16962641 -0.7574784 0.36129528 -0.45667073 0.4621728
0.036640618 -0.08862659 0.24090917 -0.11448722 -0.043349095 0.36146003 -0.46172616 0.030812956
-0.18986534 0.20379882 -0.63062024 -0.5853106 0.3114421 0.42252633 -0.9387373 -1.995664
0.5172306 0.34151867 -0.44934574 -1.049773 -0.86972713 0.1446746 0.40105176 -1.3103296
-0.6086833 -0.1468756 -0.38582882 0.2575026 0.37859756 0.28738818 -0.18058543 0.39550552
-0.4157152 0.9616583 0.34053692 0.2579431 0.2171052 0.46871692 0.34968707 0.45422897
0.7142972 0.05794466 -0.5169715 -0.508505 -0.10125604 0.6281049 0.3760045 -0.7447586
0.30267143 0.73466974 0.5314411 0.42803633 0.48212653 -0.61791843 -0.17806652 0.24150306
-0.5910612 0.47436935 -0.14128758 0.4545364 0.44676438 0.0056685572 -0.427611 -0.27799913
-0.29822552 0.24177289 -0.08883226 0.4447318 -0.4206886 0.11162234 0.5600439 0.40019402
0.32429102 0.20130622 0.30618763 0.51692075 0.10510476 -0.48012355 0.3843113 0.29028156
-0.3509393 0.27031264 0.4064368 1.1029215 0.28949782 0.34388483 0.23153834 0.384768
00000000: 6a21 96bd ce70 de3c 4bd7 41bc b6a3 a1bd
00000010: 7dd6 a4bd a976 77bc 5993 223d cc11 c43d
00000020: 180f 58bd 4c7c aabd 4142 bfbd 038e cebd
00000030: 4d98 df3d 0cb5 a3bd 044c 02be b1f7 923d
00000040: 773e ac3d 9266 09be baed f0bc 5064 c63c
00000050: 1d9b 583c ae8a 91bd e821 f8bd 691a c4bd
00000060: 8609 e03c 695f 8cbd 0f49 06be 1709 df3d
00000070: 1121 2a3d 57b9 56bd a866 a33c 5f89 72bd
00000080: 548c c7bd 96bd 05be 2b64 513d d0c0 04be
00000090: 3f58 e2bd 6673 ab3d d439 a1bd 96d8 5abd
000000a0: 0053 173a 0ece fcbd 467b 02be 4dc1 e9bd
000000b0: a404 8bbd 264e 84bd 0020 be3d 1b61 813d
000000c0: 14d2 ce3d adc4 f9bd f47f a4bd 2a19 6d3d
000000d0: aaa0 023d 0658 bebd 44da 9f3d aeaf abbd
000000e0: 3a64 dc3d ea35 02be 225e 463d 3982 08bd
000000f0: 11ed 01be 6c40 3f3d a8f4 7fbd c473 27bd
00000100: fd9a 4b3e 1e7f 89bf 902c 94be 2285 0c3e
00000110: 794d 853e 496a 2b3e ca15 993e 2495 483e
00000120: d7d7 943e 5840 d7be 71a0 cd3c 6e7d ea3d
00000130: 37e3 d2be 22a4 e5bc 9477 1a3e 0769 82bd
00000140: cce4 afbe 73fa 43bd 5363 123f 2ffa 163f
00000150: 828b 84be 82dc 1f3f 8e35 013e 3049 63bf
00000160: 334d 0dbe 3c43 3abf 0ea7 b6bc 21b3 febd
00000170: ca1a 9ebd 7140 373f 9fe9 d83e dd93 53bd
00000180: 7c08 593f 04e9 153e 891d a83c 50c3 ca3c
00000190: c424 57bd e303 823e 295b f73e 5fd9 85be
000001a0: e15b 23bf bf6f 28bf a292 b23e b11e 88be
000001b0: f409 293f 853d 0c3f 2462 fabb 1793 af3d
000001c0: ca94 91bb 258f ae3c 7195 cf3c 50a2 84bd
000001d0: 9349 08bf 6b96 c83e c4a6 32bc 63e1 093f
000001e0: 6b54 0b3e 0ebc 8fbd 5fac fdbd 16c0 24be
000001f0: cdf9 963e dd91 a3bd 98cd 0abe e08a a73e
00000200: 24a4 063f 1ac5 013f ff7b 013f fcca 313d
00000210: 9442 b93e ba5c e0bf 9a24 0c3f fb67 a1bf
00000220: f7c0 23bd c238 40bf b616 b7bf bdb9 dfbf
00000230: d8f1 6a3e c647 d53d 1939 aabf b684 e53e
00000240: 30d3 7bbf 8749 0c3f e193 d2be b116 ac3c
00000250: 599b 403f 4173 2bc0 3388 873e 915b f13e
00000260: ec28 683e 2cde 26bf 870e 9f3e 865a cd3e
00000270: a80e 9cbd ddd8 633f 6f10 11bf fc44 72ba
00000280: 202a 783f e1d3 aebf 0a04 733e 8cb2 2dbe
00000290: 1bea 41bf b2fb b83e bfd0 e9be eaa1 ec3e
000002a0: 7914 163d dc81 b5bd e5b0 763e 4778 eabd
000002b0: d28e 31bd 4a11 b93e 5f67 ecbe 746b fc3c
000002c0: 0f6c 42be a3b0 503e 5470 21bf ead6 15bf
000002d0: 5775 9f3e 5f55 d83e 1651 70bf eb71 ffbf
000002e0: 3969 043f 89db ae3e a510 e6be f65e 86bf
000002f0: 70a6 5ebf 9425 143e a856 cd3e e1b8 a7bf
00000300: abd2 1bbf 8f66 16be 5b8b c5be 61d7 833e
00000310: 8ad7 c13e 8b24 933e 63eb 38be b37f ca3e
00000320: 9fd8 d4be 3d2f 763f db5a ae3e 1e11 843e
00000330: d350 5e3e aafb ef3e 2f0a b33e b390 e83e
00000340: 2edc 363f 6157 6d3d 3f58 04bf 622d 02bf
00000350: 545f cfbd 7ccb 203f a983 c03e 80a8 3ebf
00000360: c0f7 9a3e 5113 3c3f 860c 083f 9427 db3e
00000370: 4ad9 f63e e72f 1ebf 1257 36be 944c 773e
00000380: c94f 17bf 8ae0 f23e b1ad 10be ffb8 e83e
00000390: 4dbe e43e 4ebf b93b d4ef dabe e755 8ebe
000003a0: 04b1 98be 5093 773e b0ed b5bd e3b3 e33e
000003b0: 7f64 d7be 419a e43d 095f 0f3f 3be6 cc3e
000003c0: 7909 a63e 3823 4e3e a0c4 9c3e eb54 043f
000003d0: 2a41 d73d c1d2 f5be 73c4 c43e c99f 943e
000003e0: 51ae b3be 6b66 8a3e 7c18 d03e 882c 8d3f
000003f0: 0f39 943e ac11 b03e 6318 6d3e 5000 c53e

bias f4 [64]
-0.018821377 -0.42373034 0.03942183 0.7342624 0.09679687 0.7061489 0.7211269 0.724568
0.7209074 0.6983315 -0.27149156 -0.3176652 0.0049378853 0.7659558 0.7569251 0.87762064
-0.34902477 -0.280131 -0.113491535 0.8176167 0.82925177 0.0003569111 -0.062902965 0.75993323
-0.11477047 -0.15984826 0.07482835 0.7766614 0.81492454 0.87261766 0.007746245 -0.0034635104
-0.32538155 -0.32735637 -0.013434991 -0.080285005 0.8571395 -0.12376925 0.14118691 0.7263493
0.7787865 0.86400205 -0.08487834 -0.07649858 0.76994336 -0.26289737 0.25764775 0.84224457
-0.29520512 0.06264972 -0.061635062 0.2549349 0.7970625 0.6362387 -0.04797649 0.80676734
0.6896623 -0.2424619 -0.08549161 0.8158663 0.76655865 -0.20259073 0.8728832 0.6999524
00000000: 4a2f 9abc 2ff3 d8be c978 213d 9ff8 3b3f
00000010: 703d c63d 2dc6 343f c69b 383f 4a7d 393f
00000020: 638d 383f dac5 323f f100 8bbe 03a5 a2be
00000030: fccd a13b ae15 443f d8c5 413f bfab 603f
00000040: 60b3 b2be 556d 8fbe 406e e8bd 544f 513f
00000050: d849 543f cc1f bb39 45d3 80bd fc8a 423f
00000060: c80c ebbd 43af 23be 9b3f 993d 48d3 463f
00000070: e59e 503f df63 5f3f 36d4 fd3b 10fc 62bb
00000080: 6998 a6be 419b a7be 701e 5cbc 776c a4bd
00000090: 7f6d 5b3f bc7a fdbd 4d93 103e 07f2 393f
000000a0: 8d5e 473f 3d2f 5d3f b2d4 adbd 4aab 9cbd
000000b0: 021b 453f 7c9a 86be 68ea 833e 579d 573f
000000c0: 2025 97be 7f4e 803d 0c75 7cbd d486 823e
000000d0: 4a0c 4c3f 8ae0 223f ff82 44bd 4e88 4e3f
000000e0: b58d 303f ef47 78be 3a16 afbd 9ddc 503f
000000f0: 303d 443f f273 4fbe 4675 5f3f 1530 333f

weight f4 [1, 64]
-0.005264565 -0.5707772 -1.3450116 0.665037 -0.031322755 0.6909882 0.6539011 0.6601238
0.799377 0.6565635 -0.75143695 -0.41963807 -0.042327687 0.76370287 0.6482072 0.71651095
-0.41192365 -0.47230497 -0.09466513 0.76214194 0.69903016 -1.0946959 -0.9235564 0.83273333
0.041312475 -0.040695824 -1.0066402 0.65423685 0.6525643 0.7834923 -1.2610842 -0.020103566
-0.74157786 -0.76712096 -1.2195748 0.08035662 0.6117955 0.00024217641 -1.3751382 0.63211995
0.82705176 0.8212301 -1.0017648 -0.041305713 0.76095074 -0.6957575 -1.0465044 0.6484858
-0.46209309 -0.993684 -0.024234992 -0.7249709 0.68233806 0.738958 -0.08853523 0.7128723
0.6636957 -0.3701582 0.08748499 0.7547649 0.6846906 -0.9928277 0.7585897 0.6559289
00000000: 5f82 acbb 741e 12bf 5729 acbf dd3f 2a3f
00000010: 4a4c 00bd 9ae4 303f 1066 273f e0fd 283f
00000020: f9a3 4c3f 8c14 283f 2c5e 40bf cdda d6be
00000030: cc5f 2dbd 0882 433f e8f0 253f 436d 373f
00000040: a8e7 d2be f5d1 f1be cbdf c1bd bc1b 433f
00000050: a4f3 323f ff1e 8cbf 316e 6cbf 032e 553f
00000060: 4537 293d aab0 26bd 96d9 80bf 117c 273f
00000070: 740e 273f f492 483f 356b a1bf 3cb0 a4bc
00000080: 0cd8 3dbf 0a62 44bf 071b 9cbf 0392 a43d
00000090: a19e 1c3f bcf0 7d39 8704 b0bf 9dd2 213f
000000a0: aab9 533f 233c 523f d439 80bf 2e30 29bd
000000b0: abcd 423f 2a1d 32bf dbf3 85bf 2a03 263f
000000c0: 7797 ecbe 1362 7ebf 7688 c6bc b197 39bf
000000d0: b5ad 2e3f 5a2c 3d3f f551 b5bd cd7e 363f
000000e0: f6e7 293f 6085 bdbe 552b b33d 4638 413f
000000f0: e247 2f3f f529 7ebf ef32 423f f5ea 273f
