log_7_24/pyt_save/model.pt (torch_old, 70579 bytes, 18 tensors)

weight f4 [64, 7]
00000000: 2226 8bbd 278c 133f 6a67 69bf 5166 05be
00000010: d6c7 e4be 0739 1c3c 6784 adbe 7d85 89be
00000020: 6ee8 dd3c c5be ccbe 5c72 fcbe 37d5 043e
00000030: eef7 8bbe d345 3cbf d836 263f 74a2 bf3e
00000040: df97 d9be eb60 95bd dd7d 36bd a685 e5bd
00000050: 3155 bcbe b953 93bb e686 183e 1d8f 13bf
00000060: a666 71be effc 6cbe d3a2 9b3e 4f85 b3be
00000070: 7e2f 24bf eb02 3c3d 91b9 5dbf f350 7bbd
00000080: 28f0 1dbf e0e4 6a3f 0a33 87be 6b91 a8bd
00000090: 9c0a 20bf 8612 903e acc6 32bf 8c2f 0dbf
000000a0: 1649 273f 9466 5dbd 13e1 963e 8223 28be
000000b0: 39f3 4bbf e354 183d 2aa5 bbbe b432 c53e
000000c0: 5e7d a0be 5a11 773d ce2a 303f f132 b73e
000000d0: a25e fcbe 7697 48bd b6db 4fbd c6bc fdbe
000000e0: 52d0 0a3f ec42 243f 8f96 93be e105 5ebf
000000f0: 98bc 96be 809f 803f 299d d1be 7d2a d1be
00000100: 3154 55bf 3570 38bf 4d9e 9d3d f350 87be
00000110: f449 793e b775 223f 69c7 b7bf d3bf 69bf
00000120: 08b5 ba3e cb51 0d3f ce52 c13e 77a5 bdbe
00000130: bef0 49bf 9136 1b3e 53c6 583d 633d 49bf
00000140: 802d 00bf 05a8 babc c290 fdbb 180a c1be
00000150: dca8 cabd a088 88bf ec37 5b3c ec1c 8cbf
00000160: 36f0 363e 3985 eb3c 2cc0 353e b5fe 8b3e
00000170: bf0a a93f a9f1 713e df3c 313e cb91 9fbe
00000180: d2a4 f03e 4f0f 9e3b 9501 1ebf dffe b1be
00000190: b4b1 c2bc aa90 82be 4d63 dc3b 9b00 5c3d
000001a0: 75bf 34bf 5072 43bf 0a34 96be fe9a 03bf
000001b0: a8e2 06bf 3ae4 9b3e 9e17 00be 0e7f c4bd
000001c0: 06cd c4be 04ba 09bf 7294 193e 7a7b 0cbf
000001d0: 541d 9fbc cd6d 103f af5f 59be cd6e 453f
000001e0: 3324 283f 8a49 0dbe 8b77 a53d d964 063e
000001f0: 2ef8 fa3e a490 a9be 6571 813e b5af 153f
00000200: 966a 26be 65a1 a4bd 4a57 65be 389b 023e
00000210: 4569 83be 09a6 d73c c870 ef3d 9b74 18be
00000220: b294 a83e 22de 6cbe f773 b93d d66c 473f
00000230: 4e50 883e e1fd a93f 813f f23e 9f17 97bd
00000240: 5ad7 adbe 6501 9cbe f2bc 063f b3ac 5ebf
00000250: 7860 b8be e6d5 78bc 1f12 b9be 12a7 583d
00000260: 1801 ac3c 6507 4ebe 5ba9 1d3f 7287 1e3f
00000270: 4759 e2be 61d5 48bf 28e6 82bc 8560 bb3e
00000280: 7c17 fc3d 14a1 b23e 390d 9cbe e6dd d83d
00000290: 8eb4 92bd 6a68 8f3e 23ad 823e 5fdc 153e
000002a0: 0029 bebe de7a 273e 31c7 0fbf afb4 06bd
000002b0: 2781 2ebe ff8a 623f 2816 9abe 98bf 2ebf
000002c0: 554a e9be eac9 c1be c621 7a3e e0a2 2ebf
000002d0: e5b0 7ebe 3d3a 69be d951 4d3e be4c cb3e
000002e0: d0d1 82be d76e 30bd 27ff c4be e732 553e
000002f0: 91be 11bf 5d57 7c3f 974c c93f 0ed3 cc3e
00000300: 62b3 b4bf 897c e5be 9579 1dbe ae9b 52bf
00000310: 94b9 b2be 4c64 6a3f 2b35 15bf 3c3b 8abd
00000320: 44bf 183f fa7b 6a3d 4802 8fbe 1e85 863e
00000330: 0ed2 b63e 628c 72be 1c4c fdbe 5f26 a4bd
00000340: 0d17 3a3e 44fb 65be d6b9 72bf 0c6b 6bbe
00000350: 666e ee3e 59fe 0fbf 621b 3dbe 49eb 11be
00000360: d5f8 b6be 49a7 b7bc 6887 d93e aba7 d0be
00000370: 4ef6 4ebe 7215 a83e 5132 d93e fc4a 40be
00000380: d523 72bf b974 d4be 181e 49bf 58fc 5d3d
00000390: 9497 4bbe 9920 4bbd c2cd 17be 0b18 3d3f
000003a0: 291c a4be 86e2 b83e 6712 ba3e d0de 1f3d
000003b0: ffb3 acbe b0e0 c6be 5acb d63e 9b7e be3f
000003c0: 8f66 d5bd d611 883e 1f3c 48be f83d 543f
000003d0: b90d d43e 5c0a f0be 0507 f73e 61c6 e8be
000003e0: ece8 543e 15aa 423d 5176 bd3c 5750 7e3d
000003f0: bc31 fbbe 3ff5 8f3d d609 86be 2761 0dbf
-0.06794383 0.5763573 -0.9117342 -0.13027312 -0.44683713 0.009535081 -0.33890077 -0.26859656
0.02708837 -0.39989296 -0.49306 0.1297196 -0.27337593 -0.73544043 0.64927435 0.3742863
-0.4249868 -0.07293876 -0.044553626 -0.11207132 -0.36783746 -0.0044960645 0.1489521 -0.5764025
-0.23574314 -0.23143362 0.30397663 -0.35062644 -0.6413497 0.04590122 -0.86611277 -0.061356496
-0.61694574 0.91755486 -0.26406127 -0.08230861 -0.6251619 0.28139132 -0.698344 -0.55150676
0.65345895 -0.054052904 0.29468593 -0.16419795 -0.79668003 0.03719033 -0.36649448 0.38515246
-0.31345648 0.060319282 0.68815315 0.35781053 -0.4929095 -0.04897257 -0.050746642 -0.49558085
0.5422412 0.64164615 -0.28825805 -0.8672772 -0.2944076 1.0048676 -0.40940216 -0.40852728
-0.8333159 -0.72046214 0.07696209 -0.26428947 0.24344617 0.6346087 -1.435773 -0.91308326
0.3646624 0.5520293 0.37758487 -0.37040302 -0.7888297 0.15157534 0.05292351 -0.78609294
-0.5006943 -0.022785196 -0.0077382037 -0.37703013 -0.098954886 -1.0666695 0.013380032 -1.0946326
0.1786507 0.028750049 0.17749089 0.27342764 1.3206404 0.23627342 0.17308377 -0.3116592
0.47000748 0.0048236023 -0.61721164 -0.34764764 -0.023766376 -0.25500995 0.0067257048 0.053711515
-0.7060464 -0.763463 -0.29336578 -0.51408374 -0.526896 0.3044756 -0.12509009 -0.09594546
-0.3843767 -0.5379946 0.14998034 -0.5487591 -0.019423164 0.5641754 -0.21227907 0.77122194
0.65680236 -0.13797584 0.08079442 0.13124408 0.4901747 -0.33118165 0.25281826 0.5847123
-0.16251597 -0.08038596 -0.2239658 0.12754524 -0.25666252 0.026324289 0.11691433 -0.14888231
0.32925946 -0.23131612 0.09055322 0.77900445 0.26623768 1.3280603 0.47314075 -0.07377552
-0.33953363 -0.30469814 0.5263206 -0.8698227 -0.360111 -0.015187716 -0.36146638 0.052893706
0.020996615 -0.20120008 0.6158654 0.61925423 -0.44208738 -0.7845059 -0.015978888 0.36597076
0.12309167 0.34888518 -0.30478838 0.10589199 -0.07163344 0.2800935 0.25522718 0.14634846
-0.37140656 0.16355464 -0.56163317 -0.032887157 -0.17041455 0.8849334 -0.3009503 -0.682611
-0.45564523 -0.3784936 0.24426946 -0.6821728 -0.24872167 -0.22776122 0.20050754 0.39706987
-0.255507 -0.043074455 -0.38475916 0.20820199 -0.56931406 0.98570806 1.5726498 0.40004772
-1.4117243 -0.44821575 -0.15378411 -0.822688 -0.3490721 0.9155929 -0.5828425 -0.06749579
0.5966685 0.05724714 -0.27931428 0.26273435 0.35707134 -0.23686364 -0.4947213 -0.08015131
0.18172856 -0.22459131 -0.94814813 -0.22990054 0.46568602 -0.5624748 -0.18467477 -0.1424991
-0.3573672 -0.022418635 0.4248612 -0.4075292 -0.20211145 0.3282886 0.424212 -0.18778604
-0.94585925 -0.41495302 -0.78561544 0.054195732 -0.19882041 -0.049591634 -0.14824584 0.7386481
-0.32052734 0.36110324 0.36342165 0.03903085 -0.33731076 -0.38843298 0.4195202 1.4882387
-0.10419952 0.26576108 -0.19554184 0.82907057 0.4141672 -0.46882904 0.48247543 -0.4546385
0.20791978 0.047525484 0.023127707 0.062088337 -0.49061382 0.07029199 -0.2617938 -0.5522637

bias f4 [64]
00000000: b45b 383f 4a89 213e 26cf 3dbd a7ce 3d3e
00000010: aee0 0a3e 5d85 ef3d 4db7 abbd 16b3 6b3d
00000020: 1414 583e 04f3 26bd 8850 3bbf baea 5e3e
00000030: 447c 863d 9669 1fbd 79e3 d63b bfc9 37bf
00000040: 6fca ce3d b068 64bf 5c22 043e a9c1 f83e
00000050: 6787 3ebf 3c2f 063e cd61 983e 1a1e eb3d
00000060: 0a8a 673e ad89 24bf 0659 eb3e ba8b 8abe
00000070: 88ea 38bf 2059 d03d 22ad f4be d70f 483e
00000080: 78b8 4d3e 7a54 dabe 0f69 ad3e 3a3a 143e
00000090: bb0d 413e c821 363e ee37 e83d 721c 463e
000000a0: fcff e33e bf6b d03d 4c0a a2bf ef9c 103e
000000b0: 2aa2 d8bb 0a53 7a3e eda1 a3bb f4a7 613e
000000c0: 02be 18bf 02ff d3be 10da babb d4b5 2f3e
000000d0: fd04 ea3b bf9f bb3c 72c9 de3d 815d e73d
000000e0: 16d7 9c3d b06e 4e3e 5a9a 83bd b848 213e
000000f0: 5776 973e e97a 813d a547 aa3e 1476 9f3d
0.7201493 0.15775028 -0.04634013 0.18535863 0.13562271 0.11695359 -0.08384571 0.057543837
0.21101409 -0.0407591 -0.73169756 0.21769229 0.065666705 -0.038919054 0.0065578786 -0.71792215
0.10097205 -0.8922224 0.12903732 0.4858525 -0.7442536 0.13103956 0.29762116 0.11480351
0.22611251 -0.64272577 0.45966357 -0.27059728 -0.72232866 0.10173249 -0.4778834 0.19537292
0.200899 -0.42642576 0.33869216 0.14475337 0.18852894 0.17786324 0.11338793 0.19346789
0.44531238 0.10176801 -1.2659392 0.14122365 -0.0066111283 0.2444574 -0.0049936683 0.22036725
-0.5966493 -0.41405493 -0.0057022646 0.17159206 0.007141708 0.022903321 0.108782664 0.11297131
0.07658212 0.20159411 -0.064259246 0.15750396 0.29582474 0.063222714 0.33257785 0.077861935

weight f4 [64, 64]
00000000: a0bf 913e e13e 943e 303c 0dbf a4af 2abe
00000010: 7bdf 77be e5bf 10bf 3b51 4ebe 6bcb a7bb
00000020: 6925 a0be 364e aabf 1b93 b93d 370e 6ebd
00000030: 9506 213d f676 d6bf f5f1 d53e 5060 e0be
00000040: 8bd4 85bf 41b1 163e 444c 21be c781 753e
00000050: 1fb9 99be e109 aebd 2736 a9bc 2c65 4ebe
00000060: dd34 02be 0e99 2f3f e8cb 27be ffaa 12bf
00000070: 0713 37bf de6c 5ebd 2c8a 823e 5b40 a5bc
00000080: 8add 163d 040a a8be 534c 09bf a23d df3d
00000090: 1211 9abe 35fe db3d 8cee 2bbe 1e5c 8dbe
000000a0: 5f6e 143e 8bf8 093d feb9 1ebf 9fa4 553c
000000b0: 92b1 8c3d bde3 cbbe 68b8 d1be 92d1 013e
000000c0: a9cf 9cbf 48e6 473e f2f9 aabf 113a 133f
000000d0: 9f4b b93e 64ef 9cbe 9a20 39bf 477d 76be
000000e0: 4eff 87be 0f85 c13d 2dc5 86bf d4eb 9fbe
000000f0: 6233 633e 5016 f3bd a91e 153f de7a e83d
00000100: bf37 193f d9b3 94be eac6 d2bd a76e 2f3d
00000110: cff0 cd3e 5b2f 41bf 1982 77bf e088 a2be
00000120: 75a6 d3be da11 1e3e c6b9 a1bf 3632 41bf
00000130: 49da 0fbe cc84 a93e d35d 67be 8789 8abe
00000140: 0d64 d4be ac9b 4abe e50f 27be 290d 0e3f
00000150: 6044 cd3e 26e4 03bd 1543 2ebf f224 bb3e
00000160: 362c 35bf 6abb 1dbf 04c3 22bf c935 19bf
00000170: 9dec cdbe b3dc b7be 172f 013e 6ef9 b5be
00000180: 7f98 79bf 7741 53bd 5155 2bbe cbfc a23d
00000190: b9c1 b9be 31d7 fbbe abf8 ba3b 66a4 24bf
000001a0: 540e bebe 516b a1be 0c4c 8c3e aba1 cf3d
000001b0: 9770 b83d e562 63bf 483b c03e 4ff8 1abf
000001c0: a602 01bc e851 cabe 33d9 743d 67a0 183c
000001d0: ecbc 2bbd 186d b8be 0280 1a3e a7b8 14bf
000001e0: 5f29 5dbe 3f8f 21bf 19d5 af3e 0e39 563e
000001f0: 7208 12be 9b5e 17bf e7e8 5cbe 3fb8 e8be
00000200: 60bb c33d 3ec5 753c 8e8a 3f3f cad1 a23e
00000210: 7b50 bfbd 2fe4 c13e 9740 343d b8ac d6be
00000220: 5689 27bf 9c89 1a3d 2e58 a9be 4cb3 96bd
00000230: 9de7 3a3e b129 f2be 9c6d 4fbc be1a cabf
00000240: d5e3 33be c7da 27be 48d0 19be abb2 6c3d
00000250: 632f 67be a177 27be dc16 8ebf 2e37 9dbe
00000260: ef14 51bf 5be1 34be 281e bbbf 6149 8b3e
00000270: 0fc5 49bf 4e75 d6bf 36b0 44be 4262 fabd
00000280: 2cba eabc 8520 3ebf 23bb 90bf 9850 963e
00000290: b771 383e 54ed 313d 0950 293e e8c3 213f
000002a0: 67fb afbf ae14 43bf 5ab4 443f c103 e6be
000002b0: 9f0d 553e e9a9 673e 3bb3 1cbf 5fa0 43be
000002c0: 37a4 56bd 6390 67bf 1e8e ca3d fbca 38bf
000002d0: 7788 793e 8a10 ae3d 7fcb 30be 3c0e f2be
000002e0: a22e 3e3e b1f0 c8bf a5ac a73d 6e32 973e
000002f0: 2dcb 1abf 5127 eabe b9ea 4d3c c4c2 61bf
00000300: 3900 f03d 03a1 823d 8258 683d fb2f 643f
00000310: a7b3 043f 8716 b6be 9dc4 0fbf 4435 15be
00000320: d243 7c3e 23c3 12bf 1307 be3d 5fad 61bd
00000330: fd6e bdbd 9687 60bf 43b0 eb3d b074 bd3e
00000340: c5e1 b03d 460b d3be f61f 333e 7d0b c3bd
00000350: ae39 b2bd a8df de3d d59d 523d 508b 05be
00000360: 5db4 e63e 8088 c6bd 5f4f 0a3f 5421 49bd
00000370: 5f9e 7ebe 2c50 863e ec2d 68bd eb25 b83e
00000380: b1e2 d43d 353a 1abd 8975 3a3d 080c 8bbb
00000390: 1734 993e 5f8e 71be 3d6c 123f 1e43 c73d
000003a0: ad89 2c3f f6f3 cebe f38a 633e 3e06 8ebd
000003b0: 6f6e 38bf f552 fa3c ddf0 c6bf 4e0f e03d
000003c0: a5df 5f3c 5d65 d53d 910d 9ebf d0f5 c83c
000003d0: 046a e3bd 940b f83b 0fd3 723e 0f84 b33e
000003e0: ec37 48be 21e5 f13c 9a58 c9bd a1c2 fe3d
000003f0: 5db4 c23d 48dd c4be af5b ba3e 8966 42be
0.2846651 0.28954223 -0.55169964 -0.16668564 -0.24206345 -0.5654281 -0.20148174 -0.005120685
-0.31278542 -1.3305118 0.09061261 -0.058119025 0.039312918 -1.6755054 0.4178616 -0.4382348
-1.0455488 0.14716054 -0.1575175 0.23975287 -0.3002405 -0.08497978 -0.020655705 -0.20155782
-0.12715478 0.6859292 -0.16386378 -0.5729217 -0.7151341 -0.054303043 0.25496042 -0.020172289
0.03683237 -0.3282014 -0.53632087 0.109004274 -0.3009115 0.107418455 -0.16790217 -0.27609342
0.14495228 0.033684295 -0.6200255 0.013039737 0.06869806 -0.39822188 -0.40961003 0.12677601
-1.2250873 0.19521439 -1.3357527 0.5751048 0.36190507 -0.3065139 -0.7231537 -0.24071227
-0.2656197 0.09449207 -1.0528923 -0.3123461 0.2218757 -0.1186949 0.5824991 0.1135156
0.59850687 -0.29043463 -0.10291846 0.042830136 0.40222785 -0.75462884 -0.9668289 -0.31745052
-0.41337934 0.15436497 -1.2634819 -0.7546724 -0.14048113 0.33109128 -0.22594385 -0.2705805
-0.41482583 -0.19785947 -0.16314657 0.5548883 0.40091228 -0.0322 -0.6807111 0.36551625
-0.70770586 -0.61614096 -0.6357882 -0.59847695 -0.40219584 -0.35910568 0.1261562 -0.35541862
-0.97498316 -0.051576104 -0.16731764 0.07958373 -0.3628061 -0.49187616 0.005705913 -0.6431335
-0.37120306 -0.31527188 0.2740177 0.101382576 0.0900585 -0.88822776 0.37545228 -0.6053514
-0.007874167 -0.39515615 0.05977745 0.009315587 -0.041928217 -0.36020732 0.15087894 -0.5809426
-0.21597813 -0.631092 0.34342268 0.20920202 -0.14261034 -0.5912873 -0.2157322 -0.4545307
0.09557223 0.0150006395 0.7482079 0.3180068 -0.09341522 0.37869403 0.04400691 -0.4192865
-0.65443933 0.03772889 -0.33075088 -0.07358417 0.18252416 -0.47297433 -0.01266041 -1.5789411
-0.1756738 -0.1639205 -0.15020859 0.05778758 -0.2257667 -0.16354229 -1.1100726 -0.3070616
-0.8167257 -0.17664091 -1.4618578 0.2720442 -0.7881631 -1.6754549 -0.19207844 -0.122257724
-0.028653227 -0.7426837 -1.130711 0.29358363 0.18012129 0.043439224 0.16534437 0.63189554
-1.3748597 -0.7620343 0.76837695 -0.4492474 0.20805977 0.2262341 -0.61210984 -0.19104145
-0.0524027 -0.9045469 0.09890388 -0.72184724 0.24368463 0.08499248 -0.17265128 -0.47276485
0.18572477 -1.5698453 0.08187226 0.29530662 -0.6046627 -0.4573312 0.012568169 -0.88187814
0.117187925 0.06378367 0.056725033 0.8913571 0.5183663 -0.35564062 -0.56159383 -0.145711
0.24635246 -0.57329005 0.09278693 -0.05509698 -0.09249685 -0.8770689 0.11508229 0.37003088
0.08636812 -0.41219538 0.17492661 -0.095236756 -0.08702408 0.10882503 0.05142005 -0.13041425
0.4505948 -0.09694004 0.5402736 -0.04910405 -0.24865101 0.2623304 -0.05668442 0.3596643
0.103948005 -0.037653167 0.045522247 -0.0042433776 0.29922554 -0.23589467 0.5719641 0.097295985
0.67397577 -0.40420502 0.22220974 -0.06934784 -0.7204351 0.030557135 -1.5542256 0.10940419
0.013664161 0.10419724 -1.234789 0.024531275 -0.11104205 0.0075697396 0.23713325 0.3506169
-0.19552583 0.029528202 -0.098313525 0.12439466 0.09507058 -0.38450074 0.36398074 -0.18984427

bias f4 [64]
00000000: 1aee 2c3f ca47 aa3c 558a f43e a608 d33d
00000010: 11dc 313e 2cea 6bbd c76d 01be 415b 89bd
00000020: e410 813d 7155 d1bd 535e 8a3d 7d4d 973d
00000030: 0974 ae3e fb74 a13d 61df b2bd c2fa bb3e
00000040: d0f1 763c ea58 853e 6174 d7bd 354a d7bc
00000050: 1922 083f b676 183e 535f 533e 9d1e f63e
00000060: bd6e 233f 512c 053f 8f30 13be 618f 4dbe
00000070: edf9 a0bd 227d 393e 6bac aabd 5005 7abd
00000080: ccab f33d a9aa 1c3f 6bee 4a3f f33f c13d
00000090: df30 4abd 7dca cfbe d1d6 e0bd c79a 38be
000000a0: 4460 313e 9b78 f9be 5ce4 2cbd 4c58 52bb
000000b0: 7416 26be 9bb2 b13e 90a7 3a3e a7d4 c73c
000000c0: 9503 a83e 80f2 eabd e636 1e3d aff7 bf3e
000000d0: a703 37bf 0443 d13d 9ace d93c 623f bcbd
000000e0: 3225 68be 61d2 94be 8a4e 263e c188 42be
000000f0: 9b21 163e 204c 683e 8bd5 473d 97f1 6ebd
0.67550814 0.020786185 0.4776179 0.10304384 0.17369105 -0.05759637 -0.12639533 -0.067068584
0.0630205 -0.10221375 0.06756272 0.073878266 0.34072903 0.078836404 -0.087340124 0.3671475
0.015072301 0.260444 -0.105202444 -0.026280502 0.5317703 0.14889035 0.20641832 0.4807023
0.6384085 0.52020746 -0.14373992 -0.20074226 -0.078601696 0.1811414 -0.08333667 -0.061040223
0.11898002 0.61197907 0.79270047 0.094360255 -0.049363013 -0.40584174 -0.10978473 -0.18027793
0.17321879 -0.48724827 -0.042209968 -0.0032096086 -0.16219503 0.34706578 0.18227983 0.024393393
0.32815233 -0.114720345 0.038626574 0.37493655 -0.7148995 0.1021786 0.026587773 -0.09191777
-0.22670439 -0.29066756 0.16240898 -0.1899748 0.14661257 0.2268529 0.048787635 -0.058335867

weight f4 [7, 64]
00000000: 8731 d8be 21f2 4a3d 3359 b4be 2e80 323f
00000010: eadf f53d c444 0a3e 75dc 5e3d 6a66 c1bd
00000020: 2ede 02bf 8a9b c1bd 6baf d03d 7f3a 3bbe
00000030: 0dec 68bf 4acf cabf 3868 a8bc e9b6 16bf
00000040: 9d96 aebd 1ac5 89bf b97f e9bd 4e8a 5c3d
00000050: 6d0a 95bf 975d f5bd 7377 b73c 9e75 6fbf
00000060: bc17 5d3f 6c29 543f faf7 43bc e12d e5bd
00000070: c59f 173e d665 8d3f 8d83 a73d 40b8 ea3c
00000080: dad3 1cbe da6d 99be 9946 053e 8f79 8c3f
00000090: e74e 2ebd b531 83be 6219 41be e553 19bd
000000a0: b233 3e3f 8c5f 8fbf 29bb c73c 1784 1c3d
000000b0: 6a36 fabc cf73 293f d1aa 0dbf 3918 03bd
000000c0: 539d 3dbe 4650 69bd c734 9b3e d384 0e3f
000000d0: 6b70 11bf f9c0 ea3e 32f1 00bf 3fe9 98bd
000000e0: 9595 03bf ad1c 77bf 488c 5dbf b961 773f
000000f0: b315 3bbe b811 643f a4a3 623f bbc2 0f3e
00000100: f2cb ab3e 9fe3 fb3e 4f05 14c0 0853 213f
00000110: d873 1bbe 569c 8d3e 42b9 7f3d 5535 283e
00000120: dee3 e73d f961 2c3c 3d5e d33e c8ab d03d
00000130: ff9d 363e 818f ddbe aaa1 2cbe 56d9 b83e
00000140: 9231 6d3e 0572 c6be d317 f7bd 8ace 803c
00000150: d873 03c0 d183 afbd c0d0 ff3d 8004 cdbf
00000160: 6332 7cbf 98f6 d63e b47a 973d dd56 7cbd
00000170: eed4 94bd de57 5d3e 3e01 b53c 61ba 3a3d
00000180: 7d01 fbbd 9f26 29bf 959e 123f c31c 7a3f
00000190: e9a1 113d a179 893e 278c e13d 4310 223d
000001a0: 3e30 003f 1fbc 8bbe c7a0 873d 33bb 703c
000001b0: 67c8 e73b 81f0 1bbf 2a6c b4be 1d29 b7be
000001c0: f032 903e 3053 433d 9490 063e 7351 f83d
000001d0: 8f67 90bd 2b43 82be 2df5 09bf ed3e 1cbc
000001e0: 2df8 c33e b526 69bf 1ff2 e7bd d842 513d
000001f0: 0c97 c0be 1ec8 26be fbeb 3a3f 1f90 bebd
00000200: a3dd 95be 16bf a63f a809 96bf 2be7 13be
00000210: dc84 c63d 2530 cfbe e161 75bd 3da3 81bc
00000220: f8e6 b1be 9781 10bd 1547 dabd fb06 013e
00000230: fa1f e3bc efc1 d43d bf6a 203e 2e1d f6bd
00000240: 1bd7 e43c 2739 3b3f 63c2 503d ebc7 85bd
00000250: 2b17 46be 865f b23d d527 bd3c 4eee 233f
00000260: b3a2 5b3c cb40 ebbe 69e6 443d 8412 a8bd
00000270: 0332 1fbe a33c 603f c1be 88bd 4135 713d
00000280: 76e8 fa3d e0c1 cdbe da1f 9c3d 42d9 c5bd
00000290: b2cf d7bd 54fc c9bf 0dea 0c3e 7e9f 533d
000002a0: e2a3 e4be 3b15 18bd f903 b1bc 2b3b c33d
000002b0: aabf ca3c c198 233f e4e9 bc3e 018a e8be
000002c0: a379 923d b27c 20bc 6cc2 6bbd e6e9 473e
000002d0: 32ba 2a3e 2255 c53e 6065 413f 845a 8ebd
000002e0: 8b85 243e d43c 6d3e e575 373f 6fff 3cbf
000002f0: 2d9b b83c 8f78 8f3d 1465 be3b ce8b 0cbd
00000300: cc2b c83f e921 923d 8e7d 0bc0 d07c 0bbf
00000310: 74e2 043e e035 f1be 820a 543d 8305 0c3e
00000320: e300 d13e 83fa a93d 3d26 553e 0645 763e
00000330: cf2c d93e 0321 0dbf 823a 593d 3e2c fe3e
00000340: 62e5 cfbd 28de 843f 3251 93bd 08e2 99bc
00000350: bbbd afbf 960d 9cbe beb2 7d3e 9ffe 29bf
00000360: b884 47bf 58db 68bf 793b c5bc 51cf fabd
00000370: 657f 653e a252 763f 3392 adbd 01b8 be3c
00000380: c93a 81bb f031 163e 2a51 56bd 6951 683f
00000390: a242 9d3d 9348 6f3f 35c4 c93c d09e 3cbd
000003a0: f008 8c3e 8523 dc3e 707a c9bd 849b 843f
000003b0: 9c63 a7bc e072 89bf faf0 85bf d586 b7bd
000003c0: 7ef4 09bf cf78 0dbd 180b 49be c0f3 983e
000003d0: 68b6 6d3e 15c5 8f3e 1cc6 003f 260b c73c
000003e0: 3da0 063f cf58 0040 1ba0 403f 9411 6c3e
000003f0: 4fad 4d3d cbe8 bb3d fcbc 31bb 7873 d0bd
-0.42225286 0.04954732 -0.35224304 0.69726837 0.12005599 0.13502795 0.054409463 -0.09443362
-0.5112027 -0.09453495 0.10189708 -0.18284033 -0.90985185 -1.584451 -0.020557508 -0.5887285
-0.08524821 -1.0763276 -0.11401314 0.053842835 -1.1643807 -0.119807415 0.022395825 -0.93538845
0.8636434 0.82875705 -0.011960978 -0.11190391 0.14807041 1.1046703 0.08179388 0.02865231
-0.1531519 -0.29966623 0.13015212 1.0974597 -0.042555716 -0.2562386 -0.18857339 -0.037433524
0.7429763 -1.1201034 0.024381237 0.03821191 -0.030543525 0.66192335 -0.5533877 -0.032005522
-0.18517046 -0.05696132 0.30313703 0.55671424 -0.5681216 0.4585035 -0.50368035 -0.07466363
-0.5140012 -0.9652813 -0.8654218 0.9663349 -0.18269996 0.89089537 0.88530946 0.14039128
0.33554035 0.491971 -2.312824 0.6301732 -0.1518091 0.27658337 0.062432535 0.16426595
0.11322759 0.010521405 0.41282836 0.10189015 0.17833708 -0.43273547 -0.16858545 0.36103314
0.23163441 -0.38758865 -0.12065091 0.015723485 -2.0539455 -0.08570064 0.12490988 -1.6016998
-0.98514384 0.4198501 0.07396451 -0.061606277 -0.072671756 0.2161555 0.022095319 0.0455879
-0.12256143 -0.66074556 0.57273227 0.97700137 0.0355548 0.26850608 0.1101306 0.03956629
0.5007361 -0.27291963 0.06622463 0.014693069 0.0070734504 -0.60913855 -0.35238773 -0.35773554
0.28163862 0.047686756 0.1314109 0.1212491 -0.07051002 -0.2544187 -0.53889734 -0.009536487
0.3827528 -0.9107469 -0.11325478 0.051089138 -0.3761524 -0.16287276 0.7301633 -0.09304833
-0.29270658 1.3027065 -1.1721697 -0.14443652 0.0969331 -0.4046642 -0.059907798 -0.015824908
-0.34746528 -0.035279837 -0.10658089 0.12600319 -0.027725209 0.103885524 0.1566572 -0.12017284
0.027934602 0.7313408 0.05096663 -0.06532272 -0.19344775 0.08709626 0.023090282 0.640355
0.01340549 -0.4594787 0.0480713 -0.082066566 -0.15546422 0.87592524 -0.066770084 0.058888678
0.1225137 -0.40186977 0.07623263 -0.09660579 -0.105376616 -1.578013 0.13761158 0.051665775
-0.44656283 -0.037129622 -0.02160834 0.0953277 0.024749596 0.6390496 0.36897194 -0.4541779
0.071521066 -0.009795355 -0.057558462 0.19522819 0.1667259 0.38541514 0.7554531 -0.06950858
0.16066568 0.23167735 0.7166427 -0.7382726 0.022534931 0.070054166 0.0058103893 -0.034313016
1.5638366 0.07135374 -2.1795382 -0.54487324 0.1297701 -0.47111416 0.051767834 0.13673978
0.4082099 0.082997344 0.20815368 0.24049768 0.42417 -0.55128497 0.053034313 0.4964313
-0.10151173 1.0380297 -0.07193221 -0.018784538 -1.3729776 -0.30479115 0.24775216 -0.66404146
-0.7793689 -0.9095969 -0.02407621 -0.12246574 0.22411878 0.9621984 -0.08475151 0.0232811
-0.0039437753 0.14667487 -0.052323498 0.9074922 0.07678725 0.93470114 0.024629692 -0.046049893
0.2735057 0.4299585 -0.09837806 1.035996 -0.02043324 -1.0738182 -1.0464165 -0.08961264
-0.5388869 -0.03453904 -0.19633138 0.29873466 0.23214114 0.2808005 0.5030229 0.024297308
0.52588254 2.0054204 0.752443 0.2305358 0.050214108 0.09175261 -0.00271207 -0.10178274

bias f4 [7]
00000000: f01b 013f 080e f3be 04be 57be 835e 1c3f
00000010: cd61 453e 0b40 74be ba2b adbd
0.50433254 -0.47471642 -0.21068579 0.61081713 0.1927559 -0.23852555 -0.08455606

weight f4 [7, 64]
00000000: 92f3 ab3e 6d96 133f 0392 743e 5c2a fd3e
00000010: 439d 83be 87f2 483e 60c0 acbc 7d2a 8c3d
00000020: ea06 d83d 604f 013e 2769 303e 6277 ff3d
00000030: b7cd 43bf 0322 753f c8da 7f3d 8782 27be
00000040: e8d9 fabb e764 493e ca7e 293e 1a67 bb3d
00000050: 41c2 a43e c9f4 423d 0190 833e 65df a03e
00000060: 1115 203f 5199 173f 47d5 693d 0984 173e
00000070: 1d1b 8dbd c9d9 4e3f 449a 373c e81a b4bd
00000080: 48eb f4bc b7ac 60bf df07 78be f497 b53f
00000090: 9afc e33d e73d 0b3f be42 4ebd 5832 c33d
000000a0: bc0e d03d 742a cebd 2121 d0bd 4f40 a93d
000000b0: 2a19 853d f23c f2bd fc37 2abd 8021 47bd
000000c0: 62fd 253e 9981 763d 4454 6d3d a4e9 99bd
000000d0: 3664 d03d d0dd 433e fc11 08be 40d1 243e
000000e0: d2b9 62bd c6ad 5d3e 85a9 a63d 6a96 ab3e
000000f0: d9ea e33c 4fde a23e c9a7 3c3f 3a25 a7bd
00000100: 3ac4 b2bd 6146 283f fde4 4a3d b5ed 1f3e
00000110: b73d a6bd 743a 4d3d 9366 dcbb 0417 b03d
00000120: b492 9fbe 6ad3 aa3d 099e 0a3e 681c 173c
00000130: 96a0 abbe c2b3 21bf 7e26 21bd cffb bebe
00000140: bbae f83c cceb 013f 78e3 74bd c08d d53c
00000150: 1133 243f 0e37 50bd 49a7 8f3e 9883 413e
00000160: 97d5 13bf c646 753e c456 a13d 599b 0fbe
00000170: fc64 483d 7d9b 20bc 4d51 953d 5e11 113e
00000180: 5a39 a1bd c209 9fbe dbb9 6cbb 99d4 cf3f
00000190: dd92 a0bd fb16 913d 6573 9f3d d53e dd3c
000001a0: 7fa5 ea3e cfe6 1c3f 0b2b 64bc 075b ba3c
000001b0: c0e4 1b3e 169b 5abe c5ad 77bd 9000 97bc
000001c0: 4e53 35bc 304f 3c3e 1f3e e8be 557e 4cbe
000001d0: b16e f33e a3e1 30bc 9dba 56be 93fd 8b3d
000001e0: 81c8 263e 3907 0d3f 8796 b63e cf0c 99bd
000001f0: 6495 acbd ad74 523f 34e1 8f3e 1b63 053d
00000200: f671 93bf 45d9 8b3f d7e1 a83f 295a 193e
00000210: b1cf 023d 6a8f bc3e a301 a7bc bc69 cb3d
00000220: fa25 1bbd 7b5e 163e 8ec9 8cbe 73ef 9cbc
00000230: ca89 c13d 2875 1f3f 03a2 aa3d 9edc f0be
00000240: df92 d8bd b5ab 013f 6909 033d e46c dd3c
00000250: dbfc a7bd 30f2 5b3c 3e47 b8bd 8797 d23f
00000260: 5e29 c13e d0d0 ac3b 5fda b13d 88d0 04bd
00000270: 539b 09be d813 453f 4e78 dd3b 45a8 f13d
00000280: f256 c0bd 01af 8abe 2623 1abf a6fa 153f
00000290: dbcb 1c3d 0052 693e 8342 c53d e2e3 633e
000002a0: 25e3 06bf 2377 48bd 31d7 b2bd eb9c 6e3e
000002b0: 51c3 34bc 92ea 043f df11 a63e 323f c0bd
000002c0: 7619 343e 0ce3 af3d 7c67 51be 1c55 13be
000002d0: 06c8 4abe 26c4 c43d 09df 1c3f d6ae 353d
000002e0: e686 85bc 2708 68be 8763 1b3f 2f0e b63e
000002f0: d1fe 23bc 828c 303d 9a39 24bd 21ed 8a3d
00000300: 037d 213f c90a 073f 1571 6a3f b8fe 40be
00000310: c8e7 243e e4f1 353d ff3d 05bd 27a0 8fbd
00000320: 6694 c1bd 55d4 1b3d 715a d3bd f85a c8bc
00000330: 0816 97bd c883 903e 5171 debd 7811 073c
00000340: 37d8 5ebd 90da 1e3f 5539 503d 1174 69bd
00000350: 8bd7 dd3e 8363 4fbd 0287 fb3d ad7c 9c3d
00000360: b09b 493e 043d 303e 151d b73c 3c05 c4bb
00000370: 89df 793d 4dbf 07be d689 e9bd 0ad8 253d
00000380: ad30 6c3d 5d73 e93e 9511 92be 74cf bf3f
00000390: d4d7 1bbd 6ef6 c0bd 42e3 1f3d 229a 153d
000003a0: 137f f03d 8f5c 10bd a2d7 60bc 65c5 243f
000003b0: 1dab 6ebd aea1 98bc 6bd0 ca3e 1a75 bebc
000003c0: 9cd9 72bd 83ee fb3c a86f 26bf 2b99 10bd
000003d0: b1ca a93e b1bf d43d 43ea 1b3e 3d82 bb3d
000003e0: bb69 c03e 42cb 823e 8831 86be 4430 20be
000003f0: 8902 603e bc87 aabe aea2 103f fcaa f8bc
0.33584267 0.57651407 0.23883824 0.4944638 -0.2570592 0.19623767 -0.021087825 0.068440415
0.10548194 0.12627935 0.17227612 0.12473942 -0.7648577 0.9575502 0.062464505 -0.16358386
-0.007655371 0.19667397 0.16552272 0.091505244 0.32179454 0.047596727 0.25695804 0.31420437
0.62532145 0.5921832 0.057088163 0.14796461 -0.06889937 0.80801064 0.011206213 -0.087941945
-0.029897347 -0.8776354 -0.24221753 1.4186997 0.11132164 0.5439133 -0.05035662 0.09531087
0.1015906 -0.10066691 -0.10162569 0.08264219 0.0649894 -0.11828031 -0.041557297 -0.048615932
0.16209939 0.060182188 0.05794169 -0.075152665 0.10175364 0.19127584 -0.1328811 0.16095448
-0.055352993 0.2164832 0.08137802 0.33513194 0.027821945 0.31810233 0.7369352 -0.08161397
-0.087288335 0.6573239 0.049534786 0.15618022 -0.0811724 0.050104573 -0.006726095 0.0859814
-0.31166613 0.08341105 0.13536848 0.009223081 -0.33520955 -0.63164914 -0.03934335 -0.3730149
0.030356755 0.5075042 -0.059787244 0.026068568 0.6414042 -0.050833754 0.28057316 0.18897855
-0.5774779 0.23952779 0.07877877 -0.14024104 0.04892443 -0.009802696 0.072908975 0.14166781
-0.07872267 -0.31062132 -0.003612152 1.6236755 -0.07840512 0.07084461 0.07785682 0.0270075
0.45829388 0.61289686 -0.013926278 0.022748483 0.1522398 -0.21348223 -0.060468454 -0.018432885
-0.011067225 0.18389583 -0.45359895 -0.19970067 0.47545388 -0.0107959835 -0.20969625 0.06835475
0.16287424 0.55089146 0.35661718 -0.07473146 -0.084269315 0.82209283 0.28101504 0.032565217
-1.1519153 1.092568 1.3193921 0.149758 0.03193635 0.36828166 -0.020386523 0.099322766
-0.037878014 0.14684479 -0.27497524 -0.019157147 0.09450109 0.6228814 0.083316825 -0.47043318
-0.105748884 0.5065263 0.031991396 0.027029462 -0.08202525 0.013424441 -0.08997963 1.6452492
0.37726873 0.005273916 0.08684229 -0.032425433 -0.13438158 0.76983404 0.006758726 0.11799673
-0.093915835 -0.27086642 -0.6020988 0.58585584 0.03828035 0.22785187 0.09631827 0.22254899
-0.52690345 -0.048941743 -0.08732451 0.23302047 -0.011032895 0.51920426 0.3243551 -0.093870535
0.17587838 0.08588228 -0.20449632 -0.14387935 -0.19802865 0.09607725 0.61277825 0.04435619
-0.016299676 -0.2265936 0.6069874 0.35557696 -0.010009483 0.04310275 -0.040093996 0.0678351
0.6308138 0.5275083 0.915788 -0.18847167 0.16104043 0.044420138 -0.032529827 -0.070129685
-0.09452133 0.038044292 -0.10319985 -0.02445744 -0.07377249 0.2822554 -0.10861457 0.008243911
-0.054405417 0.6205225 0.050835926 -0.056995455 0.4332851 -0.05063201 0.1228161 0.076409675
0.19688296 0.17210776 0.022352735 -0.0059820693 0.061004195 -0.13256569 -0.11403243 0.040489234
0.05766361 0.45595828 -0.2852904 1.4985185 -0.038047627 -0.09422003 0.03903509 0.036523946
0.117429875 -0.03524452 -0.013723286 0.643637 -0.058268655 -0.018631782 0.39612135 -0.023249198
-0.05928956 0.03075338 -0.65014124 -0.035302322 0.33162454 0.10388125 0.15226083 0.091557
0.37580666 0.25545698 -0.26209664 -0.15643412 0.21875967 -0.33306682 0.5649823 -0.03035497

bias f4 [7]
00000000: f763 14c0 f916 ffbf bd9d 16c0 bf84 fbbf
00000010: 6b1e fabf 82c1 eebf 7ad9 04c0
-2.3186014 -1.9928886 -2.3533776 -1.9649886 -1.9540533 -1.8652804 -2.0757737

weight f4 [64, 14]
00000000: ae54 9a3e 5fca 87bd b88c 50be a99f 1cbe
00000010: b3eb 913e 61d9 30be d152 d03e efdc a03d
00000020: b43c f73e 06b3 1ebf 106c 113e 7782 5cbe
00000030: 073e 373f b820 ccbf bee0 3d3f 8f2e 54be
00000040: 8383 353d 3cf7 abbe 65ba 49be 449d dbbe
00000050: 498f 0ebf c28a c63e 9158 bb3d 248d 38bf
00000060: 5ec6 89bf 899e 9dbe e295 8e3e 2b7c 9bbe
00000070: 439d 55bf 5882 0abe 4ea9 4ebe b587 29be
00000080: 8d24 ffbd 9278 33be 866c 42be 220c 2a3f
00000090: b36d 133f fa6e 1ebf 7a5a 0bbf 7e71 e6bd
000000a0: b2a6 5e3f 7818 99c0 9ae5 00bf 69ca 173e
000000b0: 0daa 2c3f 8cdb f43c b5e1 9d3e 4520 aa3e
000000c0: 50b8 a33f 7224 8c3d c04e 91bc 5e22 443f
000000d0: 366f 42be e813 233e 0a27 90be 07e9 403d
000000e0: f2b1 2b3f 896b debe edff 40bf 6307 bd3e
000000f0: 1bfa a43e 5739 94be 8b1b 82bd 7b3e 633f
00000100: ad11 983e b0b3 48bf 67ca 17bf 5cb3 b8bf
00000110: 6bc4 8d3e 5c10 74bf b1fc 33be 85c6 7cbe
00000120: 30ca 603e be19 29be b051 533f 8083 553d
00000130: 0ce4 8f3e e0cf 56bf 01d2 c53d a11e f53e
00000140: 8c11 8c3e 0315 cc3f 6336 34be 66c8 b23e
00000150: 7c91 13bf 3585 46bf 92da 6b3d cade 8d3d
00000160: c256 2b3f 6de2 ddbe a0e6 b03e 0ac3 423f
00000170: 02f3 ba3d ebed 30bf 14cd 88be 716c 57bf
00000180: 8633 d53e 622f 33bf 12a7 233e 4ee0 a4be
00000190: 8218 023f 9fd1 cbbb e8e6 703f f0a7 2fbe
000001a0: 84bb a13e 8da4 74bf 3543 8cbe 181b 0d3f
000001b0: 2564 7f3e 3a1e a73f dc8f fcbe d897 753f
000001c0: ae3a 56bc 6083 9b3f 895b 89be ff14 0c3d
000001d0: b5d3 eabd b53d 783f 861b ddbd 272e 0ebd
000001e0: 4dfd f0be d02b 01bf cdc8 78bf 770b 053e
000001f0: 1919 f5be b2b2 cfbf 900e 14b9 e121 3ebd
00000200: 1447 ec3e 6d19 ffbc da94 043f a30a 233d
00000210: b953 953e 1c87 3d3d 46a3 7cbe 7174 a63e
00000220: 3298 8bbd 7463 8a3e 1f54 a43e fc3e adbe
00000230: 2cff 02bf 6b3c 89be 92b0 cdbf a758 5a3e
00000240: 4d03 1c3f 6d66 33bd 7f96 e1bd d19d b6bd
00000250: b201 febd 3cbc 153f 1d92 56bf 810a fb3e
00000260: b96e 353d e480 793f 7a85 9dba 3331 8b3d
00000270: 7fbf 723e 2e82 223d ce3c 153f c3b4 9b3e
00000280: 4bc8 20be 9f22 6ebf 6e0d 153f 5379 e13e
00000290: 7c7d 713f 2d54 103f 4061 943e d3fa 783f
000002a0: d6e0 153f 459c cc3f 84d5 6bbf b9d6 633e
000002b0: 8aa0 623f 655f 44be a999 a9be bea8 0dbd
000002c0: a6ff 363e fd12 763c 4ebb 57be ef14 0ebe
000002d0: 1edc 72bd e87b bb3c ebbd 8cbd 554d 433e
000002e0: bd7a 423f 6ca0 e8be 31f4 923e 4261 10be
000002f0: 2c06 193f a4f0 cb3e 8342 aebe f759 3e3c
00000300: cf9e 18bf c2e2 14bf e3f0 12bf 24b8 bcbe
00000310: 3c9e 3a3e bab7 b5be b79a c03e 9fd0 3ebe
00000320: f980 4c3f 5460 ef3e a441 eebd f24a 9cbe
00000330: 64f7 b23e bdeb bdbe 46ab 603e a094 353f
00000340: 5dfd 363f 9fac 263f a794 0dbe 4f9c 7b3e
00000350: 46c9 4a3f 6da5 8abe f20b 113f 591b ba3d
00000360: 0a08 ec3f c2ff 1d3f 4834 463e e1c5 0f3d
00000370: c3c3 59bc 6364 18be 360d d43e 0131 0cbe
00000380: aa02 8d3d 5a4c 12be b155 8d3e c23d 293d
00000390: 743d a83e ad71 873e 5035 f2bc a194 cc3e
000003a0: 4675 623e 66ae c9bd 933f 9fbe 9e1b 433e
000003b0: 10b2 eb3d b405 cd3d fbd3 13bd d48b 363e
000003c0: 02ed b8be f1f0 e23d adf2 82be c53a 4d3f
000003d0: 5330 b03f 4fdc 84bc 6f39 f5bd 686d 4d3e
000003e0: 9beb a3be c5f6 32bf 0387 db3d f54e 50bf
000003f0: d7fe 92be 919d d6bf 6484 2bbe bae3 99bc
0.3014273 -0.06630396 -0.2036618 -0.1529528 0.28500137 -0.17270423 0.40688184 0.0785464
0.482885 -0.6199192 0.14201379 -0.21534143 0.7157902 -1.5947485 0.74171054 -0.20720886
0.044314872 -0.33587062 -0.1970001 -0.42893422 -0.55687386 0.3877774 0.09147752 -0.72090364
-1.0763662 -0.30785015 0.27848727 -0.3036817 -0.8344309 -0.13526285 -0.20181772 -0.16555674
-0.124581434 -0.17526463 -0.18986711 0.66424763 0.5758926 -0.61888087 -0.5443493 -0.11252116
0.86973107 -4.784237 -0.50350344 0.14823307 0.67446977 0.029889844 0.30836263 0.33227745
1.2790623 0.06842889 -0.017737746 0.7661494 -0.18987736 0.15925562 -0.28154784 0.047097232
0.670684 -0.43441418 -0.7539051 0.36919698 0.32222065 -0.28949997 -0.0635291 0.8876721
0.29700986 -0.7839918 -0.59293216 -1.4429736 0.27688918 -0.9533746 -0.17576863 -0.24685104
0.21952128 -0.16513726 0.8254652 0.05212736 0.28103673 -0.8391094 0.09659196 0.4787493
0.27357137 1.5943912 -0.17598872 0.34918517 -0.57643867 -0.7754701 0.05758149 0.06927259
0.66929257 -0.43336812 0.34550953 0.76078856 0.09128381 -0.69113034 -0.26718962 -0.84149843
0.41640872 -0.69994175 0.15981701 -0.3220238 0.50818646 -0.006220057 0.94102335 -0.17153907
0.31588376 -0.95563585 -0.27395025 0.55119467 0.24940546 1.30561 -0.49328506 0.9593482
-0.013075514 1.2149467 -0.26827648 0.03419971 -0.11466161 0.9696916 -0.10796265 -0.034711983
-0.47068253 -0.5045748 -0.971814 0.12992655 -0.4787071 -1.6226408 -0.00014119805 -0.04641903
0.46147978 -0.031140054 0.5178963 0.039805066 0.29165438 0.04627143 -0.24671659 0.32510713
-0.06816138 0.27029002 0.3209543 -0.33837116 -0.5117061 -0.26803908 -1.606951 0.2132288
0.60942537 -0.043798853 -0.11015033 -0.0891682 -0.12402667 0.5849035 -0.838167 0.4903145
0.044295046 0.97462296 -0.0012017929 0.067964934 0.23705862 0.03967493 0.58295906 0.30411348
-0.15701406 -0.9302158 0.5822362 0.44037876 0.943321 0.5637844 0.28980446 0.9725773
0.585462 1.598519 -0.92122674 0.22249879 0.88526213 -0.19177015 -0.33125046 -0.034584753
0.1787096 0.015019176 -0.21067545 -0.13875173 -0.05929195 0.022886232 -0.068721615 0.19072469
0.75968534 -0.45434892 0.28701928 -0.14099601 0.5977504 0.39832032 -0.3403512 0.011618129
-0.5961732 -0.58158505 -0.57398814 -0.36859238 0.18224424 -0.35491735 0.37618038 -0.1863427
0.79884297 0.4675318 -0.11633614 -0.3052593 0.3495437 -0.37093917 0.21940336 0.7092991
0.7148035 0.6510715 -0.13826238 0.24571346 0.7921337 -0.27079335 0.5665885 0.090872474
1.8439953 0.6171838 0.19355881 0.03510082 -0.013291302 -0.14882044 0.4141633 -0.13690569
0.06885274 -0.14286938 0.2760444 0.041318662 0.32859385 0.26453915 -0.029566437 0.39957145
0.22115049 -0.09847717 -0.3110319 0.19053504 0.11508572 0.100108534 -0.036090832 0.17826778
-0.36118323 0.11081112 -0.25575772 0.801678 1.3764747 -0.016218333 -0.11973845 0.20061266
-0.3201569 -0.6990779 0.10719111 -0.8137048 -0.28710052 -1.6766835 -0.16749722 -0.018785346

bias f4 [64]
00000000: b110 a5bf e3ed 8abf 6642 90bf 27d1 2e3f
00000010: f845 08bd 0449 e43e 7dc0 63bf ab7a cf3e
00000020: 3a7e 4fbf 4d1a 773f 69bc 303f b039 813e
00000030: d025 bf3e ecba 763f 6122 d63e c67d 703f
00000040: 7780 7a3f 7740 ebbe 8cd1 60bd f501 6e3e
00000050: fcf4 1abf 71ec 0a3e 1a1b a23e aa6d 19bf
00000060: 1ce0 2a3f 7f7a d3bd 0a06 703f 2399 6d3f
00000070: f451 503f 9319 ebbd 113b 863f 6403 b93e
00000080: 1cc7 cabe 47c3 273f 8d20 5ebe 57df 733f
00000090: ca96 673f 8339 2abf 5e29 a9bf 0409 9fbf
000000a0: 8264 90bf dbc0 42bb 9934 273e 2189 473f
000000b0: 941d de3e 99d5 fe3e d4ba 453f dc13 5d3f
000000c0: 916b 473f e22e a33e 7f69 dd3e bd50 cf3e
000000d0: ce02 7abf 7c28 96bf 34f3 833f 1af5 fbbd
000000e0: 104f aebf c06d 663f 0fa3 363f 683b 803f
000000f0: 5cb6 e73e 918b 5a3f 5e93 343e 7aa3 773f
-1.2895719 -1.0853847 -1.1270263 0.6828789 -0.033269852 0.44586957 -0.8896559 0.40523276
-0.8105198 0.96524507 0.6903749 0.25239325 0.37333536 0.9637897 0.41823104 0.93941915
0.9785227 -0.4594762 -0.05488734 0.23242934 -0.60530066 0.13566758 0.31661302 -0.5993296
0.66748214 -0.10326099 0.93759215 0.92811793 0.8137505 -0.11479487 1.0486776 0.361354
-0.39605033 0.65532345 -0.21692105 0.95262665 0.9046446 -0.66494006 -1.3215749 -1.2424626
-1.1280673 -0.0029717002 0.16328658 0.7794362 0.4338194 0.49772337 0.772382 0.8635843
0.7789851 0.31871706 0.4324455 0.40491286 -0.9766053 -1.1731105 1.0308595 -0.12302609
-1.3617878 0.90011215 0.7134256 1.0018129 0.45256317 0.8536921 0.17634341 0.9673382

weight f4 [64, 64]
00000000: 6a21 96bd ce70 de3c 4bd7 41bc 6145 c0bd
00000010: 7dd6 a4bd 15cd dbbc 5993 223d ab11 a33d
00000020: 180f 58bd 5a81 c0bd 4d21 07be fb4a fabd
00000030: 4d98 df3d 1908 c8bd 2d48 0abe bf9e 823d
00000040: 1792 953d 9266 09be 3445 5fbd 50a5 8d3c
00000050: 60b3 ea3c ae8a 91bd e821 f8bd 691a c4bd
00000060: f914 a53c 695f 8cbd 92cf 0fbe 1709 df3d
00000070: 9a40 063d 57b9 56bd 7c0b 7aba 9675 85bd
00000080: 548c c7bd 9897 19be 2b64 513d 28ce 11be
00000090: 3c7a fbbd 6673 ab3d d439 a1bd 96d8 5abd
000000a0: 0053 173a 0ece fcbd 467b 02be 2faf f7bd
000000b0: 916c a3bd d916 b0bd af3b a73d 072c 5e3d
000000c0: e8d7 8d3d adc4 f9bd 7b5b bebd bf73 353d
000000d0: e2cd ac3c 0658 bebd 7655 3e3d aeaf abbd
000000e0: 3a64 dc3d ea35 02be dbe9 273d 5758 3fbd
000000f0: b864 10be 313e ea3c a8f4 7fbd c473 27bd
00000100: e4de 7d3f ecc6 81c0 afcc 18bf 182f 0f3f
00000110: e6a6 ac3f bd6b 903e 5d82 3d3f 1cbc 7f3e
00000120: dab6 183f 887d b9bd 33b1 353b d77f e13e
00000130: f45b 83bf 7ba7 383f 7cc9 d03e c3c9 4b3d
00000140: df15 693f 51c2 46bf bd3e 7e3e 37a1 373f
00000150: 8db1 08bf cffd c73f eb80 05bf b0fe b3c0
00000160: b45e edbd 08e2 e6bf 4cf8 bcbd 133b 053e
00000170: fd0e a83c 928a 1840 16a0 953f 12b6 5abd
00000180: 61e4 2740 1f20 d43e 1747 d53e 270e ad3e
00000190: dc3d b93e d3b6 9a3e 68d7 a53f 8052 2d3f
000001a0: 99af 6ebf 8116 b1bf 6caa 8d3f 83c0 4b3d
000001b0: bd36 993f c85f 243f a64e 933f 045a e13c
000001c0: dae6 e33a 71fb c0be f19d 5b3d 6c15 f53c
000001d0: 60d8 71c0 374e e83f 3f6d ce3d 9871 523f
000001e0: 52fc c33f 00f0 13be 8399 373f 5c80 483d
000001f0: 0179 a73e 0082 a5bd 4587 d5be ce70 7e3f
00000200: 43a3 d63f aee6 a13f 1ef1 a23f 1c8c 2e3e
00000210: 8be3 a6bd 6b4a 18c0 0137 9d3f 9a20 00c0
00000220: 8e2b 06bf 1e34 39bf 6435 8ac0 f83b 8cc0
00000230: 2482 8a3e a16c b73e af3b 75c0 4fc9 4a3f
00000240: 239d 52bf b28a 903f 424c a9bf 25ec 36be
00000250: 8e0e 3640 4808 afc0 b11f 2d3f adbd 5b40
00000260: d03b fb3e 5109 e8be f8b7 0d3f e2f7 343f
00000270: 516d c33d ce8c 3240 79af 04c0 f2d9 7a3d
00000280: eb94 3b40 8e1c 13c0 bc57 0d3d a320 553d
00000290: 6f53 4dbf 52ed 773f 6716 033e d3d6 c23f
000002a0: 8ebd 53be a454 65bf feff 143f d0bb b7bd
000002b0: d4a4 e0bd c947 2b3f cb42 32bf 53f8 833e
000002c0: be1c 78be e289 ac3d 81c4 50bf ae8b 94bf
000002d0: e299 793f b28b dd3f 1f05 92bf 87a6 b8c0
000002e0: c1e5 a23f ab90 193f ebe1 28c0 7a93 7fbf
000002f0: b9ce b2bf 152b a03e a3b8 1d3f 56d2 8cc0
00000300: d973 f6bf 35b5 80bf e833 1ac0 51a0 2c3f
00000310: d1c1 083f bf2a b73e 61c1 87bf 1e2c ed3e
00000320: 8749 a9bf 5ad7 723f 3e5c d23e 25c1 0d3e
00000330: 925a 333f d85c b13e 47d4 d23e c4b6 7c3f
00000340: 2b90 d13e 1b33 c93f 9979 92bf 5114 8dbf
00000350: ecd1 98be 84a6 e93e 7c60 a03f 5c35 60bf
00000360: 4c11 173f 4b9a 3040 518f 813f 6d62 583f
00000370: d6d7 463f 44f5 09c0 7df4 afbf c3cc f23e
00000380: 9337 13c0 cb4f 033f cae1 e0be 6508 213f
00000390: a63b 093f 9f85 8cbd eb0d 4fc0 7234 9dbf
000003a0: c98c a6bf 3313 4d3f 41cb 49bf 356b 073f
000003b0: 061d 73bf 0017 2a3f a6d7 98be 0579 593f
000003c0: 6e88 3e3f 56ca 073f b75e 2e3f f545 053f
000003d0: 42b0 b73f 5fb6 08c0 413f 263f 3044 21be
000003e0: f1b8 11c0 c3ca 473f 2f3f 063e 7f28 a33f
000003f0: 6310 f73e 1e54 273f d18d 4e3f 0c95 283e
-0.07330592 0.027153399 -0.011831115 -0.09388233 -0.08048723 -0.02683119 0.039691303 0.07962354
-0.05274877 -0.09399672 -0.13196297 -0.12221333 0.10917721 -0.097671695 -0.13504095 0.06377935
0.07303255 -0.13418034 -0.054509357 0.017290741 0.028649986 -0.07106529 -0.12115842 -0.0957535
0.020151602 -0.068541355 -0.14044026 0.108904056 0.032776453 -0.052422848 -0.00095384545 -0.06516568
-0.09743562 -0.14999235 0.05112092 -0.14238799 -0.12279174 0.0837162 -0.07872358 -0.05342921
0.0005772561 -0.12343989 -0.12742338 -0.120939605 -0.07979692 -0.08598108 0.081656806 0.054241206
0.069259465 -0.12195716 -0.09294792 0.044299837 0.021094266 -0.09294133 0.04646822 -0.083831176
0.10761304 -0.12715879 0.040994506 -0.046715107 -0.14100921 0.028594108 -0.06248918 -0.040881887
0.9916823 -4.0555325 -0.5968732 0.55931234 1.3488433 0.28207198 0.74027044 0.24974102
0.5965401 -0.09057146 0.0027724027 0.44042847 -1.0262437 0.72130555 0.4077872 0.04975296
0.91049 -0.77640253 0.2482862 0.7173037 -0.5339592 1.5624331 -0.5214984 -5.62484
-0.11590329 -1.8037729 -0.09227046 0.13010816 0.02051496 2.3834577 1.1689479 -0.053396292
2.6233141 0.41430756 0.416558 0.3379986 0.36180007 0.3021761 1.2956362 0.6770401
-0.9323669 -1.3834993 1.1067634 0.04974414 1.196983 0.6420865 1.1508377 0.027508743
0.0017387525 -0.37691835 0.05361742 0.029917441 -3.7788315 1.8148869 0.10079431 0.8220458
1.5311377 -0.14447021 0.71718615 0.048950538 0.32709506 -0.08081436 -0.41704765 0.99390876
1.6768574 1.2648523 1.2729833 0.17045635 -0.08148869 -2.379542 1.2282411 -2.0019898
-0.5241021 -0.7234515 -4.3190174 -4.3823204 0.27052414 0.35825065 -3.8317678 0.7921342
-0.8227102 1.1292326 -1.3226397 -0.1786352 2.8446383 -5.469761 0.6762648 3.433452
0.4906907 -0.45319608 0.5535884 0.7069074 0.09542335 2.789844 -2.07321 0.061243005
2.9309642 -2.2986178 0.0345075 0.052033078 -0.80205435 0.968465 0.12801515 1.5221809
-0.20677778 -0.89582276 0.58203113 -0.08971369 -0.109689385 0.6690641 -0.6963317 0.25775394
-0.24229714 0.084247366 -0.8154984 -1.1605127 0.9750043 1.7308257 -1.1407813 -5.770328
1.2726365 0.5998637 -2.638789 -0.99834406 -1.3969337 0.3128287 0.6160986 -4.400676
-1.9254104 -1.00553 -2.409418 0.67432123 0.5342074 0.357748 -1.060589 0.4632272
-1.3225564 0.9485985 0.41086 0.1384321 0.70060074 0.34641147 0.4117758 0.9871638
0.40930304 1.5718721 -1.1443359 -1.1021825 -0.29847658 0.45634854 1.2529445 -0.8758142
0.5901077 2.7594173 1.0121862 0.84525186 0.7767309 -2.1555948 -1.3746487 0.47421846
-2.300267 0.5129363 -0.43922263 0.62903434 0.5360664 -0.06861424 -3.2352245 -1.228163
-1.3011714 0.8010742 -0.78825766 0.5289796 -0.9496616 0.66441345 -0.29852027 0.84950286
0.74426925 0.53043115 0.68113273 0.5205987 1.4350665 -2.136131 0.6494027 -0.15748668
-2.276913 0.78043765 0.1311004 1.2746733 0.4825469 0.6536273 0.80685145 0.16463107

bias f4 [64]
00000000: 82a8 fbbc afc1 4b3e 5b40 f33d 1954 2e3f
00000010: 3010 bb3d c679 263f 46a7 353f 7daf 2c3f
00000020: 1f22 273f 401e 203f 3e9c 93be 94b0 3ebf
00000030: fccd a13b 82ea 343f 39bf 3a3f f8f2 5f3f
00000040: 4a07 9fbf 6024 debe c3bd 14be 00c0 433f
00000050: 2cd9 4e3f 397f a4bb 4eb4 0dbd 7641 3e3f
00000060: 7a0b 16be ed43 bfbe 3464 b03d c51f 413f
00000070: df24 433f ec6d 523f e805 273d 15ed 1f3e
00000080: a723 c5bf 73b2 b3bf be08 883d b897 f3be
00000090: 70ee 4b3f 9d51 12be 092b 3a3e 287e 2c3f
000000a0: bdc9 403f 2103 4e3f 6f83 35bd 4aab 9cbd
000000b0: 16d9 343f 5e57 89bf 4c0f a03e 7a14 473f
000000c0: 2630 a9bf 5bfc 5d3d 4347 bfbd c2bc 6f3e
000000d0: dbf8 3c3f df4e 133f e34f a3bd e22e 3c3f
000000e0: c727 233f d10c 7bbf 74c1 d03d 7331 433f
000000f0: bbdc 313f 6835 1fbf 81c9 513f b868 233f
-0.03072 0.19898103 0.11877509 0.6809707 0.09133947 0.6502956 0.70958364 0.67455274
0.6528644 0.6254616 -0.2883014 -0.74488187 0.0049378853 0.7067033 0.7294803 0.87480116
-1.24241 -0.43387127 -0.14525513 0.76464844 0.8080013 -0.005020049 -0.03459578 0.74318635
-0.14652815 -0.3735651 0.08612862 0.754391 0.76228136 0.8219898 0.040777117 0.15617783
-1.5401505 -1.4038833 0.066422924 -0.4757669 0.796607 -0.14288945 0.18180479 0.6738
0.7530783 0.80473524 -0.044314798 -0.07649858 0.70643747 -1.0729787 0.3126167 0.7776562
-1.3217819 0.054195743 -0.09339764 0.23411849 0.73817223 0.5754222 -0.079742216 0.7350904
0.6373257 -0.9806643 0.10193148 0.7624733 0.6947743 -0.62190866 0.81948096 0.63831663

weight f4 [1, 64]
00000000: 84e4 df3c 716a eebf efc3 81c0 ddd1 aa3f
00000010: 68cf 28bb c727 ab3f 6d5c a53f 097b a73f
00000020: 2c0c bd3f 4fe8 aa3f 89c2 ecbf 2308 1ac0
00000030: cc5f 2dbd 5186 b83f 13e8 a43f cf81 aa3f
00000040: 6f26 26c0 a579 04c0 25e1 80bd 1e41 b33f
00000050: a438 aa3f c6d7 73c0 89fe 0ec0 342c bb3f
00000060: 7ed5 1e3c db20 dabf 1e49 52c0 7754 a63f
00000070: cb23 aa3f a990 b83f 2cd1 7dc0 90b6 4bc0
00000080: f099 2bc0 f1d2 3bc0 8490 7dc0 0327 b23f
00000090: b8f9 a13f f5d3 c93c a000 82c0 a1b8 a83f
000000a0: d109 bd3f 6932 be3f f5f3 57c0 2e30 29bd
000000b0: 5054 b73f 49b5 63c0 91bf 46c0 6ab0 a93f
000000c0: d976 5bc0 f6e7 51c0 59b7 f63b 92ba 05c0
000000d0: 9a16 aa3f f373 bd3f c687 68bd 5b66 b53f
000000e0: 4ab1 a93f 3e55 22c0 823b b53e a59d b63f
000000f0: 08d5 b13f 3743 79c0 8d12 b63f 69b3 a83f
0.027330644 -1.8626233 -4.0551677 1.3345295 -0.002575839 1.3371514 1.2918831 1.3084422
1.476934 1.3352145 -1.8496867 -2.4067466 -0.042327687 1.441599 1.2883323 1.3320864
-2.5960958 -2.0699246 -0.06292943 1.4004247 1.3298535 -3.8100448 -2.2342856 1.4622865
0.009694455 -1.7041277 -3.2857127 1.2994527 1.3292173 1.4419147 -3.9658918 -3.1830177
-2.6812706 -2.9347498 -3.9619455 1.3918155 1.2654333 0.024637202 -4.0625763 1.3181344
1.4768621 1.4859134 -3.374265 -0.041305713 1.4322605 -3.5579398 -3.1054423 1.3256962
-3.429129 -3.2797828 0.007529181 -2.0895123 1.3288147 1.480101 -0.05677011 1.4171861
1.3257229 -2.5364528 0.35396963 1.4266859 1.3893137 -3.8947275 1.4224411 1.3179752
