log_7_24/pyt_save/model.pt (torch_old, 70579 bytes, 18 tensors)

weight f4 [64, 7]
000000 9d 9d 29 be b6 37 bb 3e 75 ef 58 bf 54 69 51 be
       -0.16564031 0.36565942 -0.8474038 -0.20450336
000010 d6 c7 e4 be 87 a2 34 3d 03 52 b3 be e3 18 36 be
       -0.44683713 0.04410031 -0.35023507 -0.17782931
000020 46 47 b8 be b7 98 47 bf 17 93 3b be f8 41 4f bd
       -0.35991877 -0.779674 -0.18317829 -0.050600022
000030 d9 cf af be 29 40 f0 be c9 0f 45 3f 2c 61 26 be
       -0.34338263 -0.4692395 0.7697721 -0.16248006
000040 16 20 2d bf 98 2b 84 3d 13 e3 5f be 72 1a d1 bd
       -0.67627084 0.06453627 -0.21863966 -0.10210122
000050 44 13 4f bf 80 48 a1 bd e7 44 56 3e 1d 8f 13 bf
       -0.8088877 -0.078751564 0.20924722 -0.5764025
000060 78 33 a3 be ef fc 6c be 14 df c2 3c 4f 85 b3 be
       -0.31875205 -0.23143362 0.023788013 -0.35062644
000070 22 b0 55 bf 1a 5b 8c be 5c e8 bb bf eb 03 29 bd
       -0.8347188 -0.27413255 -1.4680285 -0.041263502
000080 44 98 3d bf d6 2e 31 3f 66 0c 95 be fe 9e 51 bd
       -0.74060464 0.6921209 -0.29111022 -0.051177017
000090 b5 d6 0a bf 74 39 70 3e bf 96 6f bf 54 51 15 bf
       -0.54233867 0.23459417 -0.93589395 -0.5832722
0000a0 8a df 20 3f e4 1a 19 bd 24 f1 82 3d 7d 7e 93 3e
       0.62841094 -0.03737916 0.0639365 0.2880744
0000b0 39 f3 4b bf 5d 3c 63 3e 2a a5 bb be 7c 3e c6 3e
       -0.79668003 0.22190996 -0.36649448 0.38719547
0000c0 8c fd d4 be 9b 44 a4 3d b5 b3 5d 3f 3e 80 b1 3e
       -0.4159969 0.08020898 0.86602336 0.34668154
0000d0 51 6f 24 be 7f 36 e0 be 14 2c 9c bd 0f cd 05 bf
       -0.16058089 -0.43791577 -0.07625595 -0.5226602
0000e0 85 9e 47 3f ca 0a d5 3e 29 39 f6 be f6 f5 87 bf
       0.77976257 0.41609794 -0.48090485 -1.0621936
0000f0 7f a3 a4 be c9 9e 89 3f 27 ef 96 be 91 c8 4a bf
       -0.32155988 1.0751582 -0.29479334 -0.7921229
000100 95 b4 4f bf dc 3a b6 be f9 78 1f 3e a4 b8 dc be
       -0.8113492 -0.3559178 0.15573491 -0.4310962
000110 51 61 1e bd 10 a6 b4 3e ff 35 a9 bf f0 05 c5 be
       -0.038667027 0.35282946 -1.3219603 -0.38481092
000120 82 78 db 3e 44 2e be 3e da 90 b0 3e 93 55 de be
       0.42865378 0.37144673 0.34485513 -0.43424663
000130 59 8e 7f bf 3e 1e a1 3d 2d 58 60 be 63 3d 49 bf
       -0.9982658 0.07867096 -0.21908636 -0.78609294
000140 0d 34 ff be c7 56 9f bd d5 08 f9 bc af 4d d1 be
       -0.498444 -0.07780223 -0.03039972 -0.4087958
000150 fc c3 e6 3d b8 50 71 bf 1a 1f 0b 3e 6a 1a 45 bf
       0.1126785 -0.9426379 0.13586083 -0.7699343
000160 f4 a9 55 3e 84 99 fe bd c3 6e de 3e f0 62 ad 3e
       0.20865613 -0.124316245 0.4344388 0.33864546
000170 e4 a8 a4 3f ce b1 aa 3e a2 1f 20 3e cb 91 9f be
       1.2864041 0.3333878 0.15637067 -0.3116592
000180 99 a2 e5 3e 9d a0 55 bd 58 0c 7f bf 78 b1 5d be
       0.44850615 -0.052155126 -0.9962821 -0.2164973
000190 0e 29 d3 bd 82 00 80 3e 9b d8 47 be 8d be ae bc
       -0.10310565 0.25000387 -0.19516222 -0.021331096
0001a0 75 bf 34 bf e7 bf 28 bf ac 22 f6 bd 72 fb 52 bf
       -0.7060464 -0.6591782 -0.12018332 -0.82414925
0001b0 dc 16 74 3e fd 7a c1 bd d7 ff a7 be 22 a8 eb bd
       0.23836845 -0.09447286 -0.32812378 -0.11506678
0001c0 80 71 10 bf 62 2d 55 bf d5 5d 88 3d a3 fe c0 be
       -0.5642319 -0.83272374 0.06658522 -0.37694272
0001d0 c1 3c 83 3d 1a 3a cc 3e 5b 41 50 be d1 be 8d 3f
       0.06408072 0.39888078 -0.20337431 1.1073858
0001e0 8f 7b 85 3d f7 35 7f bd 51 81 09 bd 84 29 07 3e
       0.065177076 -0.062307324 -0.03357059 0.1319943
0001f0 a5 2d 5b 3f 8e f2 2c bf 96 25 f4 3c 77 27 7c 3f
       0.85616523 -0.6755761 0.029803079 0.9849772
000200 dd 28 36 3e 81 d2 54 3e 5e 69 d6 bd 49 ea ba 3d
       0.17789026 0.20783426 -0.10469316 0.091267176
000210 4d 63 37 be 07 42 18 bc e5 83 67 3e 1e 67 f7 bd
       -0.17908974 -0.009293086 0.22608908 -0.12080215
000220 ae b5 73 3e 22 de 6c be 65 1e 58 3e 9f a1 08 3f
       0.23799774 -0.23131612 0.21105345 0.53371614
000230 12 38 97 3e 06 24 a2 3f 92 4b 99 3e 1b 94 f3 bd
       0.29534966 1.2667243 0.29940468 -0.11893483
000240 5a d7 ad be f8 ee 9e be 18 d8 ef 3e 60 e0 45 bf
       -0.33953363 -0.31041694 0.46844554 -0.77295494
000250 a1 28 fa be 34 e1 fb 3d 81 73 79 bf 68 09 d2 3c
       -0.48859122 0.122988135 -0.9744187 0.02563925
000260 1b db ed bd 5e 76 66 bd da b1 08 3f b9 30 2d 3f
       -0.11614057 -0.056265227 0.5339638 0.6765247
000270 d1 98 7e bf c0 bb 4c bf 92 46 a2 bc 25 f0 d9 3d
       -0.9945193 -0.79973984 -0.019809041 0.10641507
000280 9d af c7 bd 60 cd ad 3e 05 53 fa be 3b bc 18 bc
       -0.097502925 0.3394575 -0.48891464 -0.009322221
000290 48 53 9b be 6f 20 5c 3e c8 5c 31 3f 48 c8 cb 3d
       -0.30336976 0.21496747 0.692822 0.0995031
0002a0 c5 35 08 bf 03 55 0d 3f 4e 39 92 bf 76 0e 68 3a
       -0.53207046 0.5520784 -1.1423738 0.00088522525
0002b0 ba 59 88 bd 3a 73 14 3f 7d 61 5c be b4 bb 17 bf
       -0.06657739 0.5798832 -0.21521564 -0.5927079
0002c0 c3 ca 1b bf 12 59 21 be f9 16 8d 3e 1e 3f 80 bf
       -0.60856265 -0.15756634 0.2755659 -1.0019262
0002d0 82 c3 a7 be 0a d4 e4 be bf 1c 38 3e c8 87 ac 3e
       -0.32766348 -0.44693023 0.17979716 0.33697343
0002e0 c3 50 1e bf 85 1c 01 be 27 ff c4 be 64 18 82 3d
       -0.6184198 -0.12608536 -0.38475916 0.063523084
0002f0 99 cb 27 bf 7c 11 99 3f 31 45 b4 3f 9d 3c 03 3e
       -0.6554504 1.1958461 1.4083616 0.12816091
000300 b9 74 a8 bf 98 8b 97 be 94 28 53 be 63 b9 6f bf
       -1.3160621 -0.2959869 -0.20620948 -0.9364225
000310 64 ef 01 bf ee 6d 7d 3f ca b3 1b bf 3c c4 71 be
       -0.50755906 0.98995864 -0.6082121 -0.23610014
000320 ae 3f 17 3f 9a 1b f3 3d 2b 8c ac be 75 3b 54 3f
       0.5908154 0.11870499 -0.3370069 0.82903224
000330 02 8c 4c 3d 75 7c e3 be 5d dd 53 bf 80 bf 37 3c
       0.04993821 -0.4443089 -0.8275965 0.011215091
000340 23 65 26 3f da 9c 85 be 46 c9 20 bf 42 a9 89 be
       0.6499807 -0.2609623 -0.6280712 -0.26886946
000350 f2 c5 b0 3e 4e 29 c1 3c 6e 95 89 bd bf da 01 be
       0.3452602 0.023579266 -0.067179546 -0.12681101
000360 35 bc dc be 5d 3b aa 3a 84 4c 09 3f 97 0f 7c 3d
       -0.4311234 0.0012987662 0.5363238 0.061538305
000370 2e 67 8c be 46 db c2 3e 68 4d 41 3f 6c ff 87 be
       -0.2742247 0.38057917 0.7550874 -0.2656206
000380 f6 6d 64 bf ea 51 40 3c c2 d9 99 bf cd b1 af bc
       -0.8923029 0.01173828 -1.201958 -0.021447087
000390 64 6b f6 be 04 e1 18 be 5e 54 32 bc e1 7c 74 3f
       -0.48128808 -0.14929587 -0.0108843725 0.9550305
0003a0 d6 37 cd be 2c 8e 87 3e e4 21 53 3e b0 31 e0 bd
       -0.40081662 0.26475656 0.20618397 -0.10946977
0003b0 f4 75 93 be 81 89 ff be 2a 91 17 3f 8f 4c c4 3f
       -0.2880093 -0.49909595 0.5920588 1.5335864
0003c0 ff ff 96 3d b6 1b 97 3e f3 70 91 3d 2f c4 83 3f
       0.07373046 0.2951333 0.071016215 1.0294245
0003d0 7c 98 08 3f 53 3d 22 be 87 26 06 3f 1d 7d 73 bf
       0.5335767 -0.15843706 0.5240254 -0.9511278
0003e0 8f c6 05 be 0a cd 57 3e 6a 30 9a 3d be 90 18 bd
       -0.13064025 0.2107431 0.075287655 -0.037247412
0003f0 47 b4 4e be d1 58 9e be 6a 70 1f bf b6 cd 40 bf
       -0.20185958 -0.30927137 -0.62280905 -0.7531389

bias f4 [64]
000000 d6 a5 e6 3e 34 43 e6 3b d3 3f 47 bb 09 a3 d8 3d
       0.45048398 0.007027054 -0.0030403032 0.105779715
000010 29 6e 7f 3d 86 1d 88 3c e7 ae c6 be 76 10 9e 3d
       0.062360916 0.01661564 -0.38805315 0.077179834
000020 cc ba 54 bd ef 4d 79 be 8d b4 53 bf b4 b0 5c bc
       -0.051935956 -0.24346136 -0.82697374 -0.013469864
000030 89 cb 81 bd 23 13 95 be 34 89 f0 bc dd e1 9c bf
       -0.063376494 -0.29116163 -0.029362299 -1.2256428
000040 31 36 f0 bd 73 1b 44 bf 80 7e 01 bf d8 b7 4c 3e
       -0.11729086 -0.76604384 -0.5058365 0.19992006
000050 ee ba 96 bf 16 6f 67 3e a6 de 70 3d ff ba ca bd
       -1.1775796 0.2260097 0.058806084 -0.09898948
000060 e0 5c 92 bc 69 e7 22 bf 5b d1 60 3e 28 e1 ab 3c
       -0.017866552 -0.63634354 0.21954863 0.020981386
000070 e1 5c 4d bf df f3 86 bd b5 3e 8d bf 90 29 50 3c
       -0.80219847 -0.065894835 -1.1034762 0.012705222
000080 92 d9 81 3d 58 05 0e bf 78 b2 0d bf 2a a4 01 3d
       0.06340326 -0.55476904 -0.55350447 0.0316507
000090 b8 0b fa 3d 83 ba a8 bd 1b 33 4a be 50 e3 bf 3d
       0.122092664 -0.08238699 -0.19746058 0.09369528
0000a0 00 f7 99 3e cc 26 5c 3e 82 d3 8b bf d9 b8 2b 3d
       0.3007126 0.21499175 -1.0923922 0.04192433
0000b0 12 6b 79 be 22 89 88 3e c1 80 d6 bc 9c 31 29 3e
       -0.2435725 0.26667124 -0.026184442 0.1652283
0000c0 84 0c 64 bf d2 b0 2e bf be 2d 60 3e 1a f0 d5 3d
       -0.890816 -0.68238556 0.2189245 0.10446186
0000d0 43 a8 8d 3e 16 7e 34 3d 0d d0 46 3e f1 91 29 3e
       0.27667436 0.044065557 0.19415303 0.16559578
0000e0 82 35 2d bd e5 c3 1f 3d 00 f7 1b 3e cc bb 91 3e
       -0.042287357 0.03900518 0.15230942 0.2846359
0000f0 6a 59 14 3c 32 41 9d bb cb d7 c1 3e cc 64 99 3e
       0.009054521 -0.0047990317 0.3785995 0.29959714

weight f4 [64, 64]
000000 a8 af 2e 3e b8 cc ab 3e 5b b1 8c be a3 04 93 be
       0.17059195 0.33554626 -0.2747906 -0.28714475
000010 ed 63 9b be d0 0c 34 bf 32 48 80 bd 2a 3a 31 3d
       -0.30349675 -0.7033205 -0.0626377 0.04326836
000020 10 0e 11 bf f2 97 d4 bf b6 91 f7 bd ff 59 44 be
       -0.5666208 -1.660887 -0.12088339 -0.19174956
000030 d1 93 0a 3e 88 14 81 bf a9 bc be 3d b3 e0 b4 3e
       0.1353295 -1.0084391 0.09313328 0.35327682
000040 23 13 80 bf 9b f0 f2 bd bc f4 19 bf ec e4 52 3e
       -1.000584 -0.11862298 -0.6013906 0.2059514
000050 63 17 82 be 43 aa ea bd f9 57 0e bd 99 e2 eb bd
       -0.25408468 -0.11458256 -0.034751866 -0.115178294
000060 b9 1d 3b 3d 34 63 57 3f e4 ca 8f be 1d d7 9f be
       0.045682643 0.84135747 -0.2808448 -0.31218806
000070 44 72 44 be 22 96 1d 3e a2 dd 16 bf f8 54 3c 3d
       -0.19184214 0.15389302 -0.58931935 0.04597947
000080 66 8b 1c bd 4d 42 5a be ac 99 3b bf 10 fe 1a 3d
       -0.03821888 -0.21314354 -0.7328136 0.03783995
000090 dc 0a b6 be c2 60 24 3d f3 1c d6 3e 38 64 ad be
       -0.3555516 0.040131338 0.41818962 -0.33865523
0000a0 ee 29 32 3d 5e 11 83 3d 12 ad 1c bf 9d 3a 1a 3e
       0.04349702 0.06399797 -0.61201584 0.15061422
0000b0 b5 9f 38 3f 2c 9a c9 be 40 8f e0 3d 43 77 58 3d
       0.72118694 -0.39375436 0.10964823 0.05284811
0000c0 b9 4d a9 bf 89 13 b3 3e d0 e8 a4 bf 43 91 08 3f
       -1.3226844 0.34975842 -1.2883549 0.5334665
0000d0 f8 aa cf 3d fe b7 d2 bc f9 c8 3d bf 37 25 16 be
       0.101400316 -0.0257225 -0.74134785 -0.14662634
0000e0 8c ac bd be b3 0e 3f 3e 4a d3 36 bf ab 54 23 be
       -0.37045705 0.18657951 -0.7141615 -0.15950267
0000f0 cf 28 83 3e 34 39 03 3e 9f e9 04 3f d2 d3 89 3e
       0.25617072 0.1281479 0.5191898 0.2691942
000100 7d a5 29 3f 40 13 51 bf 11 94 93 bc 5e c4 98 3d
       0.6626814 -0.8167 -0.01801494 0.07459329
000110 98 9b 2e bc e5 92 96 bf db 12 a4 be 6d 3a 10 be
       -0.010657214 -1.1763579 -0.32045636 -0.14084788
000120 9d 85 ac 3d 1c e1 76 3e 30 0e 93 bf a8 10 39 bf
       0.08423922 0.2410931 -1.1488705 -0.7229104
000130 d7 ba 32 be e7 29 0f 3f e1 91 ce 3e 04 94 48 ba
       -0.17454086 0.5592331 0.40345672 -0.00076514506
000140 4d a4 df be 29 7b 12 3d db 52 2c 3e 57 5f 15 3f
       -0.4368004 0.035761986 0.16828482 0.583486
000150 cd a2 ed 3e 96 a9 02 bf 9a 24 fe be 49 a7 cc 3e
       0.4641327 -0.5104002 -0.496373 0.39971378
000160 99 17 b0 bf f2 57 79 3e bd 61 99 bf 91 b6 ee be
       -1.3757201 0.24349955 -1.1982952 -0.46623662
000170 74 1f d3 be db 07 89 3e 8c 69 20 3e 13 8e fd 3d
       -0.41234934 0.26763806 0.15665263 0.12380614
000180 f0 f1 5f bf 8d b4 35 bd 26 92 67 3d d5 7c 08 3e
       -0.8747854 -0.04436164 0.056535862 0.1332887
000190 b9 c1 b9 be 94 f2 8c be db db 72 3e 31 fd 52 bf
       -0.3628061 -0.27528822 0.2371668 -0.8241759
0001a0 cf e8 82 bd d9 a9 93 bd 36 67 95 3e 33 90 03 3d
       -0.06392061 -0.0721013 0.29180306 0.03211994
0001b0 8e ce 80 3e ad 8d 1d bf f0 22 44 3f bb 30 82 bf
       0.2515759 -0.61544305 0.7661581 -1.0171121
0001c0 7e 43 b3 3e 99 e6 e6 be 98 0d 0e 3e a1 1e 18 bd
       0.3501243 -0.45097807 0.13872373 -0.037138585
0001d0 c2 13 46 be 31 d5 91 be 7f 81 ad bc ef 6b 72 be
       -0.19343475 -0.28482965 -0.021179913 -0.23673986
0001e0 05 81 7e be 46 81 82 be 62 fa ea 3e 28 f3 45 3d
       -0.24853905 -0.25489253 0.45894152 0.048327595
0001f0 d9 8e a4 be 81 3a e1 be 17 8c 4d be 13 9f c9 be
       -0.32140234 -0.43989947 -0.20072971 -0.39379176
000200 bd 81 8b 3e 8f f8 e1 bd 38 08 8c 3f 0a 8c 26 3f
       0.2724742 -0.11033737 1.0940008 0.6505743
000210 17 9a b3 be ad d8 0b 3e 74 45 ad 3e 10 f2 d6 be
       -0.350785 0.13656874 0.3384205 -0.41981554
000220 b4 84 1e bf 46 93 d4 bd ce fe 06 be 11 49 bf bb
       -0.6192124 -0.10379653 -0.13183138 -0.0058375676
000230 fc 65 20 3d 79 aa af be 4d 20 ce 3d 0f aa 0e c0
       0.03915976 -0.34309748 0.10064755 -2.2291296
000240 1b 5a 59 be 28 3c 50 be 68 c1 2c 3e fc 51 f3 3d
       -0.21225779 -0.20335448 0.16870654 0.11880872
000250 a4 68 1e bc b6 1f 23 be ca 90 b3 bf 48 9b 2d be
       -0.009668503 -0.15930066 -1.4028561 -0.16953766
000260 bc 21 4b bf db 10 cd be 24 12 7e bf 39 69 c0 3e
       -0.7934835 -0.40051922 -0.9924643 0.3758028
000270 51 7d 0c bd 82 be a3 bf c9 01 ee bd af ff 32 3f
       -0.0342992 -1.2792513 -0.11621434 0.6992139
000280 cb 63 3a be 6d cd 05 bf 40 52 10 bf a5 d4 3c 3f
       -0.1820213 -0.5226658 -0.56375504 0.7376197
000290 29 6c d4 bc a4 e7 46 bc 3b 7b 36 bf 1c 7e bb 3e
       -0.025930481 -0.012140188 -0.71281785 0.3661965
0002a0 0d 10 8b bf 4c 08 81 bf 39 fd 84 3f 4d 6a f7 be
       -1.0864273 -1.0080657 1.0389777 -0.4832329
0002b0 73 bf b7 be 55 ec ad 3d b1 dc d1 bf f8 0d c2 be
       -0.35888252 0.084923424 -1.6395475 -0.37901282
0002c0 92 63 bd be 1a e5 0e bf ba ca 78 3d bb 28 49 bf
       -0.3699003 -0.5581833 0.06074021 -0.78577775
0002d0 55 d6 89 3e 9e 0e de 3e 69 5d 07 bf d9 0c d8 be
       0.26921335 0.43370527 -0.5287691 -0.42197302
0002e0 b1 0c 88 bd ff 2a d9 be 05 41 6c be 68 40 5c 3e
       -0.06643046 -0.42415616 -0.23071678 0.21508944
0002f0 87 c9 0a bf 3b d2 a7 be 58 54 90 3e d4 16 46 bf
       -0.54213756 -0.3277758 0.2818935 -0.7737858
000300 74 97 2c 3d a3 ec 54 3e b0 8f b8 39 dd 19 46 3f
       0.042136624 0.20793395 0.0003520227 0.77383214
000310 99 2e f9 3e 0b 90 f3 be 26 95 e1 be 0b 23 2f be
       0.48668364 -0.47570834 -0.44059104 -0.17103212
000320 e8 24 c7 3e 3a b0 07 bf ac 49 32 3e 01 21 ac bd
       0.38895345 -0.53003275 0.17410916 -0.084047325
000330 8c 81 94 3e 7b 59 11 bf d4 2e 5b 3e 53 df bf 3e
       0.29005086 -0.5677716 0.21404582 0.3747507
000340 01 50 66 3c 6a 4e 46 bf 9e 59 4c 3e d8 e8 18 be
       0.01405716 -0.774634 0.19956061 -0.14932573
000350 6f d9 35 bf 82 04 61 3d 19 fc a6 bc dc a4 5c 3e
       -0.710349 0.05493594 -0.020383881 0.21547264
000360 40 ef 05 3f c2 41 43 3e 48 b7 e4 3e 00 cb 3f bd
       0.5231819 0.19068053 0.44671082 -0.046824455
000370 52 61 b2 be b5 56 dc 3e 9c d8 97 bd af 82 b6 3e
       -0.34839875 0.43034902 -0.07414362 0.3564658
000380 dc 21 96 3c 90 cf 40 be e5 e9 7a 3d 4a 64 36 be
       0.018326692 -0.18829179 0.061258215 -0.17811695
000390 37 d1 e1 3d 8e 25 e4 be 74 59 5e 3f 9e 02 a4 ba
       0.11026233 -0.44559902 0.86855245 -0.0012512987
0003a0 17 f6 0c 3f c8 4d dd be 38 cb 55 3e 70 c1 80 be
       0.55063003 -0.43223405 0.20878303 -0.2514758
0003b0 85 7b c3 3c c6 36 6b bd b3 26 87 bf 07 aa 94 3e
       0.02386261 -0.057425283 -1.0558685 0.2903597
0003c0 40 9e 1c bd ba d9 5b 3e 87 22 81 bf ab 57 40 be
       -0.038236856 0.21469775 -1.0088662 -0.18783443
0003d0 47 ef 47 be 55 3b 83 3e 29 d6 34 3e 95 47 f0 3d
       -0.19524871 0.25631204 0.1765982 0.11732403
0003e0 6f 26 b3 bd 89 77 ab 3e a6 36 d5 3d db 38 6d 3d
       -0.08747565 0.33489636 0.10410814 0.05791555
0003f0 d8 c9 71 bc 69 8a a0 3d 39 14 54 3e 3a 32 98 be
       -0.014757596 0.078389 0.2071084 -0.2972582

bias f4 [64]
000000 2b fa 1f 3f 89 d9 a9 bd 91 45 8c 3e a7 4c cf b9
       0.624911 -0.08293445 0.27396825 -0.00039539227
000010 cf 5b 12 3f 2c ea 6b bd c7 6d 01 be 41 5b 89 bd
       0.5717134 -0.05759637 -0.12639533 -0.067068584
000020 06 05 00 3d 71 55 d1 bd 53 5e 8a 3d 7d 4d 97 3d
       0.03125479 -0.10221375 0.06756272 0.073878266
000030 63 55 ae 3e fd b7 f0 bd 61 df b2 bd 84 80 05 3f
       0.3404952 -0.11753843 -0.087340124 0.52149224
000040 c5 be 88 bc 37 dc 63 3d 61 74 d7 bd 35 4a d7 bc
       -0.016692529 0.055629935 -0.105202444 -0.026280502
000050 1c ab 11 3f b6 76 18 3e ff 03 27 3e 61 30 18 3f
       0.5690172 0.14889035 0.16310118 0.5944882
000060 44 10 e1 3d 03 89 2c 3f 8f 30 13 be 61 8f 4d be
       0.109894305 0.67396563 -0.14373992 -0.20074226
000070 34 08 e2 bd 51 da ef bd 86 f7 e9 bd 50 05 7a bd
       -0.11036721 -0.117115624 -0.114241645 -0.061040223
000080 cc ab f3 3d a5 65 42 3f c4 08 58 3f c7 c3 17 3b
       0.11898002 0.7593635 0.84388375 0.0023157464
000090 df 30 4a bd 8e ae be be d1 d6 e0 bd c7 9a 38 be
       -0.049363013 -0.3724255 -0.10978473 -0.18027793
0000a0 1c 38 9d 3e 9b 78 f9 be 5c e4 2c bd 4c 58 52 bb
       0.3070687 -0.48724827 -0.042209968 -0.0032096086
0000b0 74 16 26 be d8 a9 06 3f bb b3 8f 3d e8 3e 86 3e
       -0.16219503 0.5260291 0.07016703 0.2621987
0000c0 0a ec 5a 3e 80 f2 ea bd 7b d4 e1 3c 51 c5 28 3f
       0.21379104 -0.114720345 0.027567139 0.6592608
0000d0 6b 30 6f be 45 d7 6e 3d 39 f8 28 3e 62 3f bc bd
       -0.23358314 0.058310766 0.1650094 -0.09191777
0000e0 5a be f4 3c 1a d5 fe be 39 09 91 3e 07 7f fa be
       0.029875923 -0.4977196 0.2832735 -0.4892504
0000f0 dc 34 eb 3d cf 9c d8 3e 76 f6 20 3c 97 f1 6e bd
       0.114846915 0.42307135 0.009824386 -0.058335867

weight f4 [7, 64]
000000 29 f4 64 be 36 a8 8b b9 46 26 88 be c5 a0 2b 3f
       -0.22358765 -0.00026637473 -0.265917 0.6704219
000010 05 65 82 3e c4 44 0a 3e 75 dc 5e 3d 6a 66 c1 bd
       0.25467697 0.13502795 0.054409463 -0.09443362
000020 3f 80 f5 be 8a 9b c1 bd 6b af d0 3d 7f 3a 3b be
       -0.47949407 -0.09453495 0.10189708 -0.18284033
000030 50 f5 47 bf 4a 26 1f 3e 38 68 a8 bc 69 1b 42 bf
       -0.7810869 0.1554195 -0.020557508 -0.75823075
000040 21 70 5b bd f3 88 b5 be b9 7f e9 bd 4e 8a 5c 3d
       -0.05357373 -0.35456046 -0.11401314 0.053842835
000050 f6 0c 05 c0 97 5d f5 bd 90 cf bf bc 9d da 5f 3e
       -2.078916 -0.119807415 -0.023414403 0.21860738
000060 40 17 f6 3d bb d4 80 3f fa f7 43 bc e1 2d e5 bd
       0.12016153 1.006492 -0.011960978 -0.11190391
000070 10 4d ee 3d 76 a2 f6 3e 48 84 93 3d 40 b8 ea 3c
       0.11635792 0.48170823 0.07202965 0.02865231
000080 da d3 1c be cf a0 ef be 59 21 f8 bd 2d 30 68 3f
       -0.1531519 -0.46802375 -0.121157356 0.9069851
000090 e7 4e 2e bd f0 28 2b be 62 19 41 be e5 53 19 bd
       -0.042555716 -0.16714835 -0.18857339 -0.037433524
0000a0 76 f9 17 3f 8c 5f 8f bf 29 bb c7 3c 17 84 1c 3d
       0.5936502 -1.1201034 0.024381237 0.03821191
0000b0 6a 36 fa bc de 87 02 3f b4 82 ab be e4 98 32 be
       -0.030543525 0.50988567 -0.33498156 -0.17441136
0000c0 56 8b 75 be 46 50 69 bd 43 5b 6e 3e a3 be 08 3f
       -0.23978934 -0.05696132 0.23277001 0.5341589
0000d0 6f 3c 8c 3a 4b 33 b2 3e 1e 74 2c bf 3f e9 98 bd
       0.0010699163 0.34804758 -0.6736468 -0.07466363
0000e0 9f 4b e1 be 1c 00 9b bf 97 ba b3 bf ca 77 48 bf
       -0.44003007 -1.2109408 -1.4041318 -0.78307784
0000f0 17 9c 5b be b2 3b 88 3d bf cc 4a 3f bb c2 0f 3e
       -0.21446262 0.06652011 0.7921867 0.14039128
000100 b9 3f 0c bf 1f 60 6f 3e 7f 79 e5 3e 44 7e 21 3f
       -0.54784733 0.23376511 0.44819257 0.6308329
000110 9c 4d ef be 56 9c 8d 3e 42 b9 7f 3d 55 35 28 3e
       -0.467389 0.27658337 0.062432535 0.16426595
000120 5a 5f 14 3e f9 61 2c 3c 3d 5e d3 3e c8 ab d0 3d
       0.14489499 0.010521405 0.41282836 0.10189015
000130 56 29 8b 3d bb 2d 13 3e aa a1 2c be 64 fd db 3e
       0.067949936 0.14372914 -0.16858545 0.4296676
000140 21 96 82 3e b9 27 24 3f d3 17 f7 bd 8a ce 80 3c
       0.25505164 0.6412311 -0.12065091 0.015723485
000150 37 b5 21 c0 d1 83 af bd 52 f4 0f 3e 6b 05 14 c0
       -2.5266855 -0.08570064 0.14058045 -2.3128307
000160 17 86 74 bf 17 7c 8f 3e b4 7a 97 3d dd 56 7c bd
       -0.95517105 0.2802436 0.07396451 -0.061606277
000170 48 c3 27 bd 0b bc 23 3e d0 af 31 3c 61 ba 3a 3d
       -0.04095772 0.15989701 0.01084514 0.0455879
000180 7d 01 fb bd a7 bd 48 3f 42 a1 24 3f ef dd 7d 3f
       -0.12256143 0.78414387 0.6430856 0.9916677
000190 e9 a1 11 3d b4 43 eb 3e 27 8c e1 3d 43 10 22 3d
       0.0355548 0.4595009 0.1101306 0.03956629
0001a0 b2 df 0d 3f 1f bc 8b be c7 a0 87 3d 33 bb 70 3c
       0.55419457 -0.27291963 0.06622463 0.014693069
0001b0 67 c8 e7 3b 94 10 2e bf 6b 56 6b bf c0 dc 30 bf
       0.0070734504 -0.67994046 -0.9192874 -0.6908684
0001c0 92 e8 f7 3e 30 53 43 3d f7 7a ce 3d bd 67 8b 3e
       0.48419625 0.047686756 0.100820474 0.27227584
0001d0 30 d1 0d 3f 44 f6 9c bd b2 cd 6f be ed 3e 1c bc
       0.5539732 -0.07664159 -0.2341831 -0.009536487
0001e0 0c 0d 2f 3f 44 8f 77 bf 6d e6 5e 3f ef d7 04 bf
       0.6837928 -0.9670298 0.8707035 -0.5189199
0001f0 86 53 b0 be c3 75 39 be c4 be 4d 3f 1f 90 be bd
       -0.34438723 -0.18111329 0.8036921 -0.09304833
000200 bb f5 9b be d8 a1 0f 40 95 c1 b1 bf cb 68 9e 3d
       -0.30460915 2.2442532 -1.3887202 0.077348314
000210 a6 1f 9a be 25 30 cf be e1 61 75 bd 3d a3 81 bc
       -0.3010227 -0.4046642 -0.059907798 -0.015824908
000220 c0 a3 a1 be 97 81 10 bd 15 47 da bd fb 06 01 3e
       -0.31570244 -0.035279837 -0.10658089 0.12600319
000230 4c 55 8f bd 6b 0d fa 3e bf 6a 20 3e 38 ab 42 3c
       -0.06998691 0.48838362 0.1566572 0.011881642
000240 26 f0 53 3d 41 ad 83 3f 63 c2 50 3d eb c7 85 bd
       0.051742695 1.0287248 0.05096663 -0.06532272
000250 31 39 49 3f 86 5f b2 3d 1d 24 e6 bc 32 ef 77 40
       0.7860289 0.08709626 -0.028093392 3.8739743
000260 0e cb 81 be e0 83 44 bf 69 e6 44 3d 84 12 a8 bd
       -0.2535023 -0.76763725 0.0480713 -0.082066566
000270 48 b7 3f be 09 7a fb be 66 2d 8d bc 41 35 71 3d
       -0.1872226 -0.49116543 -0.017233562 0.058888678
000280 76 e8 fa 3d 8b af 5a be 88 f1 57 3e d0 7a 0c be
       0.1225137 -0.21356027 0.2108823 -0.13718724
000290 b2 cf d7 bd 3f fc b8 bf 0d ea 0c 3e 7e 9f 53 3d
       -0.105376616 -1.4451979 0.13761158 0.051665775
0002a0 76 14 10 bf 3b 15 18 bd f9 03 b1 bc 2b 3b c3 3d
       -0.5628122 -0.037129622 -0.02160834 0.0953277
0002b0 aa bf ca 3c 44 11 0f 3f 33 af e1 3d cd c6 1e bf
       0.024749596 0.5588572 0.11019745 -0.62022096
0002c0 4e f6 a4 3d b2 7c 20 bc e5 f4 be bc 2a a7 91 3f
       0.080547914 -0.009795355 -0.023310134 1.137914
0002d0 f9 dc a7 3f 64 3d f0 3e 21 87 fb 3e 84 5a 8e bd
       1.311431 0.46921837 0.49126533 -0.06950858
0002e0 76 b5 82 3e dd 00 78 be 2d 10 a9 3f bf 6d 94 bf
       0.2552907 -0.2421908 1.3208061 -1.1595992
0002f0 8f 2a 17 bc c3 79 11 be ed 1e 01 3d ce 8b 0c bd
       -0.009226455 -0.14206605 0.031523634 -0.034313016
000300 a0 f7 6a 3f 3c 00 48 3d 25 0e f6 bf b7 0c 46 bf
       0.91784096 0.04882835 -1.9223067 -0.7736315
000310 a1 1c 62 3f e0 35 f1 be 82 0a 54 3d 83 05 0c 3e
       0.88324934 -0.47111416 0.051767834 0.13673978
000320 d3 43 e1 3e 83 fa a9 3d 3d 26 55 3e 06 45 76 3e
       0.43997058 0.082997344 0.20815368 0.24049768
000330 b8 ae 36 be 9c fb 7e bd 82 3a 59 3d 11 64 7d bf
       -0.17840087 -0.062251672 0.053034313 -0.98980814
000340 75 df 07 be 8a 89 29 3f 32 51 93 bd 08 e2 99 bc
       -0.13268836 0.6622549 -0.07193221 -0.018784538
000350 a4 0a 34 c0 96 0d 9c be b2 76 4d 3e cf 8c 8d 3f
       -2.8131495 -0.30479115 0.2006481 1.1058596
000360 44 db 77 bf 11 14 4e bf 79 3b c5 bc 51 cf fa bd
       -0.9681895 -0.8049937 -0.02407621 -0.12246574
000370 82 02 83 3e a6 8e 98 3e 06 9c 41 be 01 b8 be 3c
       0.2558785 0.29796332 -0.18907174 0.0232811
000380 c9 3a 81 bb 6b 50 f6 3f 54 30 d6 3d 7f b2 3d 3f
       -0.0039437753 1.9243292 0.104584366 0.7410049
000390 a2 42 9d 3d 92 2b 1a be 35 c4 c9 3c d0 9e 3c bd
       0.07678725 -0.15055683 0.024629692 -0.046049893
0003a0 f1 f8 73 3e 85 23 dc 3e 70 7a c9 bd 84 9b 84 3f
       0.23825432 0.4299585 -0.09837806 1.035996
0003b0 9c 63 a7 bc a3 ef 8b bf 27 6a c5 be 3d d4 9c be
       -0.02043324 -1.0932506 -0.3855755 -0.30630675
0003c0 17 0b 6a bf cf 78 0d bd 93 01 16 be 27 54 f7 3e
       -0.9142317 -0.03453904 -0.14649038 0.4830639
0003d0 c5 c5 0c 3e cf ff 80 3e 86 87 31 3f 26 0b c7 3c
       0.13747318 0.25195166 0.6934742 0.024297308
0003e0 d2 82 46 3f 66 2e ee 3f e5 1a 9a 3e 9b 03 43 3d
       0.77543366 1.860791 0.30098644 0.04761086
0003f0 a2 e4 a7 3d 6a 66 ee 3e 3e cd 7d 3d 78 73 d0 bd
       0.08197905 0.4656251 0.061963312 -0.10178274

bias f4 [7]
000000 ae c7 91 3e bf 64 11 bf 21 54 2a be ba 16 3c 3f
       0.28472656 -0.5679435 -0.16633655 0.7347218
000010 97 ec fd bc e6 c5 6d 3e 23 55 5d be
       -0.030996604 0.23220024 -0.21614508

weight f4 [7, 64]
000000 2f 90 ce be 37 d0 91 3f a5 68 80 be d6 4c c2 3e
       -0.40344378 1.1391667 -0.25079837 0.37949246
000010 ac d0 b6 bc 87 f2 48 3e 60 c0 ac bc 7d 2a 8c 3d
       -0.0223163 0.19623767 -0.021087825 0.068440415
000020 7c 5f 0c 3e 60 4f 01 3e 27 69 30 3e 62 77 ff 3d
       0.137083 0.12627935 0.17227612 0.12473942
000030 88 4d d0 be c4 e6 46 3d c8 da 7f 3d 9c d1 a3 be
       -0.40684152 0.04855992 0.062464505 -0.31995857
000040 b2 2c df bc 29 a4 7e 3e ca 7e 29 3e 1a 67 bb 3d
       -0.027242992 0.2486731 0.16552272 0.091505244
000050 20 ee ba 3f c9 f4 42 3d de 5a 78 3e 01 be 8b 3f
       1.460392 0.047596727 0.24253413 1.091736
000060 5e d5 5f 3e ac 13 4b 3f 47 d5 69 3d 09 84 17 3e
       0.21858737 0.7932689 0.057088163 0.14796461
000070 a6 d0 cd bd e5 81 5d 3f b0 e5 ae 3d e8 1a b4 bd
       -0.10049562 0.8652633 0.08539903 -0.087941945
000080 48 eb f4 bc 2d 17 f1 3d 4c 8c 3b be cb 00 d1 3f
       -0.029897347 0.117719986 -0.18315238 1.6328367
000090 9a fc e3 3d 9f c2 ca 3d be 42 4e bd 58 32 c3 3d
       0.11132164 0.09900402 -0.05035662 0.09531087
0000a0 1a 13 e4 3e 74 2a ce bd 21 21 d0 bd 4f 40 a9 3d
       0.44545823 -0.10066691 -0.10162569 0.08264219
0000b0 2a 19 85 3d 8d 75 7f 3e c6 63 b2 3e 48 57 b9 bf
       0.0649894 0.24947186 0.34841746 -1.4479761
0000c0 78 0b 17 bd 99 81 76 3d a4 81 34 3d ec b5 ca 3e
       -0.03687617 0.060182188 0.044068947 0.3959192
0000d0 bd 20 bf 3e 78 89 58 3e 20 ea fd bc 40 d1 24 3e
       0.37329665 0.2114619 -0.030995429 0.16095448
0000e0 b5 29 da be 10 f5 04 3f 73 cf 6c 3f dd 72 0d 3e
       -0.42609945 0.51936436 0.9250404 0.13813348
0000f0 12 d9 73 3d 52 70 0d bf b4 41 3e 3f 3a 25 a7 bd
       0.059533186 -0.5524951 0.74319005 -0.08161397
000100 6c c8 f0 be 1f fd 7a 3f 3b 5d d5 3d a6 ae da 3e
       -0.4702791 0.9804248 0.10418173 0.4271137
000110 71 b8 ba 3e 74 3a 4d 3d 93 66 dc bb 04 17 b0 3d
       0.36468843 0.050104573 -0.006726095 0.0859814
000120 6a 7c 8f be 6a d3 aa 3d 09 9e 0a 3e 68 1c 17 3c
       -0.28024608 0.08341105 0.13536848 0.009223081
000130 4d 03 38 3e 69 3f 71 bc 7e 26 21 bd 6a 62 8f be
       0.17970009 -0.014724591 -0.03934335 -0.2800477
000140 1d 86 68 3d 9b 01 32 3f 78 e3 74 bd c0 8d d5 3c
       0.056768525 0.695337 -0.059787244 0.026068568
000150 c2 b6 58 3f 0e 37 50 bd 8a 16 b8 3e fb 8d dc 3f
       0.84653866 -0.050833754 0.35954696 1.7230829
000160 1c fb 04 3e ef 9e e1 3e c4 56 a1 3d 59 9b 0f be
       0.12986416 0.4406657 0.07877877 -0.14024104
000170 5a 05 a5 3d 6b 2d 31 3f a4 e5 3e 3e 5e 11 11 3e
       0.08057661 0.6920993 0.18642288 0.14166781
000180 5a 39 a1 bd 8d 85 0b 3f 26 4b de bd d1 70 e5 3f
       -0.07872267 0.5450066 -0.10854177 1.7925054
000190 dd 92 a0 bd 8b e3 7b be 65 73 9f 3d d5 3e dd 3c
       -0.07840512 -0.2459852 0.07785682 0.0270075
0001a0 12 c1 d5 3e cf e6 1c 3f 0b 2b 64 bc 07 5b ba 3c
       0.41748863 0.61289686 -0.013926278 0.022748483
0001b0 c0 e4 1b 3e db 70 5e be f4 f8 a8 3e fc f5 3c bf
       0.1522398 -0.21722738 0.33002436 -0.7381284
0001c0 8f 3b 09 3e 30 4f 3c 3e 39 4b ac be 28 40 07 3e
       0.13401626 0.18389583 -0.3365114 0.13208067
0001d0 d8 57 72 3f ff 2f 9f bd 3f 61 8d 3d 93 fd 8b 3d
       0.9466529 -0.077728264 0.06903314 0.06835475
0001e0 06 74 05 3e 89 89 09 3f 32 26 aa 3f 36 4a 45 3e
       0.1303254 0.53725487 1.3292906 0.1926659
0001f0 ee 18 57 bd 33 9c 7b bf 5d 3c 81 3e 1b 63 05 3d
       -0.05251401 -0.98285216 0.25241366 0.032565217
000200 ee a2 8a be 51 68 b6 3f 6a d1 aa bc ac c8 e3 3e
       -0.2707743 1.4250585 -0.02085181 0.44489038
000210 ba 99 ce be 6a 8f bc 3e a3 01 a7 bc bc 69 cb 3d
       -0.4035166 0.36828166 -0.020386523 0.099322766
000220 1e 68 e4 bb 7b 5e 16 3e 8e c9 8c be 73 ef 9c bc
       -0.0069704195 0.14684479 -0.27497524 -0.019157147
000230 26 5a 88 3c d6 aa 1d 3f 03 a2 aa 3d f0 e4 3e be
       0.016644549 0.615888 0.083316825 -0.1864202
000240 e2 33 a3 bd d6 df a2 3f 69 09 03 3d e4 6c dd 3c
       -0.0796888 1.2724559 0.031991396 0.027029462
000250 dc f1 55 3f 30 f2 5b 3c cb d5 28 be 96 c3 5d 40
       0.83572173 0.013424441 -0.16487806 3.4650626
000260 7b df 31 3e 0d c7 61 be 5f da b1 3d 88 d0 04 bd
       0.17370407 -0.22048588 0.08684229 -0.032425433
000270 28 a3 d2 bd 47 15 88 3f c1 f0 53 3e 45 a8 f1 3d
       -0.10285026 1.0631493 0.20697309 0.11799673
000280 f2 56 c0 bd 44 92 0f 3f b7 05 81 be 89 1d 27 3f
       -0.093915835 0.5608256 -0.25199673 0.6527944
000290 db cb 1c 3d 0c c0 84 3e 83 42 c5 3d e2 e3 63 3e
       0.03828035 0.2592777 0.09631827 0.22254899
0002a0 09 cf 6d bd 23 77 48 bd 31 d7 b2 bd eb 9c 6e 3e
       -0.058058772 -0.048941743 -0.08732451 0.23302047
0002b0 51 c3 34 bc 03 1a ab 3e a0 d4 ea 3d d0 42 67 bf
       -0.011032895 0.33418283 0.11466336 -0.9033632
0002c0 16 d1 65 3e 0c e3 af 3d d1 a7 90 be 45 d8 2e 3f
       0.22443041 0.08588228 -0.28253034 0.6829875
0002d0 0e 0f c5 3f 75 5a b1 3d 1c 32 8b 3f d6 ae 35 3d
       1.5395219 0.086598314 1.0874667 0.04435619
0002e0 84 fd 06 3d 0f 24 b1 3c 75 45 ed 3f 79 76 66 be
       0.032956615 0.02162364 1.8536822 -0.22506131
0002f0 b6 88 b1 3c e3 4d a0 be 07 a0 99 bc 21 ed 8a 3d
       0.021671634 -0.31309423 -0.018753065 0.0678351
000300 d4 f3 47 be 19 fe 02 3f a2 ce 54 3f e0 cb 0a 3d
       -0.19526607 0.5116897 0.83127797 0.033885837
000310 70 bf 0b 3f e4 f1 35 3d ff 3d 05 bd 27 a0 8f bd
       0.54588985 0.044420138 -0.032529827 -0.070129685
000320 cf 3e 01 be 55 d4 1b 3d 71 5a d3 bd f8 5a c8 bc
       -0.12621616 0.038044292 -0.10319985 -0.02445744
000330 59 03 4f 3e c5 81 da 3e 51 71 de bd 9e 79 0b bf
       0.20216121 0.4267713 -0.10861457 -0.5448245
000340 93 63 c4 bc 11 8d 87 3f 55 39 50 3d 11 74 69 bd
       -0.023973262 1.0589925 0.050835926 -0.056995455
000350 1e 2d 75 3f 83 63 4f bd 2b 7a 1a 3e b4 58 1b 40
       0.9577197 -0.05063201 0.15085666 2.427289
000360 5e 09 f4 be 2f 96 93 bd 15 1d b7 3c 3c 05 c4 bb
       -0.47663397 -0.072063796 0.022352735 -0.0059820693
000370 a1 e8 bd 3d 02 ec 2e 3f b0 e9 6f bc 0a d8 25 3d
       0.09272886 0.6832887 -0.014643118 0.040489234
000380 ad 30 6c 3d 1e 54 3b 3f 2c a8 32 be 0a b3 d1 3f
       0.05766361 0.7317523 -0.17446965 1.6382763
000390 d4 d7 1b bd d8 be 03 3e 42 e3 1f 3d 22 9a 15 3d
       -0.038047627 0.1286577 0.03903509 0.036523946
0003a0 e4 2d 43 3f 8f 5c 10 bd a2 d7 60 bc 65 c5 24 3f
       0.762419 -0.03524452 -0.013723286 0.643637
0003b0 1d ab 6e bd fb 53 c9 bd 1e 4d 7c 3f 18 9b 0c 3e
       -0.058268655 -0.09830471 0.9855517 0.13731039
0003c0 44 a4 e4 bd 83 ee fb 3c a1 4a 20 bf 6e 6b 9e 3e
       -0.11164144 0.03075338 -0.62613875 0.30941337
0003d0 5f 14 4f 3f 92 11 a7 bd 8e 8f 11 3f 3d 82 bb 3d
       0.8089046 -0.08157648 0.5685967 0.091557
0003e0 aa 53 b9 3e d0 10 07 3f 9f 58 03 40 59 c2 bd 3e
       0.36196643 0.5276003 2.052284 0.37062338
0003f0 76 7c 3f 3e 0a a7 4b 3f 99 23 1f 3f fc aa f8 bc
       0.18699822 0.79551756 0.6216369 -0.03035497

bias f4 [7]
000000 55 4a 3c c0 76 ae 2c c0 11 a0 40 c0 00 c0 29 c0
       -2.9420369 -2.6981483 -3.0097697 -2.6523438
000010 cd 36 2c c0 74 36 22 c0 99 2a 4a c0
       -2.6908448 -2.5345736 -3.15885

weight f4 [64, 14]
000000 05 b4 16 3f 65 41 98 bd cb 7b 1d be a0 a2 f2 be
       0.5886844 -0.07434348 -0.15379255 -0.47389698
000010 cb a2 89 3e 71 e6 3e be fc e0 d4 3e fb f2 ae 3d
       0.26882014 -0.18642594 0.415779 0.085424386
000020 63 d9 06 3f c4 09 20 bf d2 f5 4a 3d 5b a0 89 be
       0.52675456 -0.625149 0.04955084 -0.26880154
000030 ec 2b 4c 3f 7e e1 d6 bf 79 c0 ad 3f 18 a2 e2 bc
       0.7975452 -1.6787565 1.3574363 -0.027665183
000040 31 af 4d 3e f5 c7 6c 3e 4b af 1f be 77 d0 c9 be
       0.20086361 0.23123153 -0.15594213 -0.3941686
000050 d3 22 c1 be d2 a2 48 3e 71 a3 30 3d 97 e3 a9 be
       -0.3772188 0.19593361 0.04312462 -0.3318145
000060 a8 5c 10 bf 57 4b 67 bd 80 ac 84 3e 2c 7f 57 be
       -0.5639138 -0.056468334 0.25912857 -0.21044606
000070 60 c9 3d bf ef bd c4 bd 20 6c b4 be 8e 20 83 be
       -0.741354 -0.096065395 -0.35238743 -0.25610775
000080 8d 24 ff bd 9f ec 57 be ab 97 9e bd 99 8c 18 3f
       -0.124581434 -0.21086358 -0.07743772 0.59589535
000090 8a 96 e8 3e a7 36 13 bf 84 5a bc be 54 3a 68 be
       0.45427352 -0.5750527 -0.36787808 -0.226785
0000a0 be 1d 2a 3f 57 03 9d c0 8e 1a 04 bf bf e0 1b 3e
       0.6645163 -4.9066577 -0.5160302 0.15222453
0000b0 4a 42 20 3f e3 25 1c 3e b5 7e e1 3e 1d c7 aa 3e
       0.6260115 0.15248828 0.44041982 0.33355036
0000c0 bb 0c a9 3f 8a 81 94 3c 86 fe 15 3e c6 7b 70 3f
       1.320701 0.018128175 0.14647874 0.93938863
0000d0 26 db 68 be 7d 14 c3 3d 5d 53 a9 bd 5d b1 21 3e
       -0.22739848 0.09525392 -0.082678534 0.15790315
0000e0 af 61 24 3f af 56 fd be 21 28 87 bf 04 16 da bd
       0.64211553 -0.49480197 -1.0559121 -0.106487304
0000f0 68 47 91 3e 54 80 a0 be 26 51 03 be 7b 26 85 3f
       0.2837479 -0.31347907 -0.12823924 1.0402368
000100 3e b3 5b 3e 29 bc 50 bf f3 91 ca be 9b fa d8 bf
       0.21455094 -0.8153711 -0.39564475 -1.6951479
000110 3a 24 8b 3e 22 fa 81 bf 17 cb ed 3d e3 03 26 bf
       0.27176076 -1.015446 0.11611002 -0.6484968
000120 c8 05 e6 3d a0 c0 66 3d 50 fe 7b 3f d4 ca 0a 3e
       0.112315714 0.056336045 0.98434925 0.13553935
000130 d9 20 a2 3e 42 3f 63 bf e5 20 1b 3e 33 de f0 3e
       0.31665686 -0.887684 0.15149267 0.47044525
000140 38 4b d0 3e 2b 95 d3 3f 23 8d 04 be 46 c7 e3 3e
       0.40682387 1.6529897 -0.12944464 0.4448797
000150 a7 e2 3e bf 7f 89 97 bf 14 c6 f0 be cb 87 36 be
       -0.74564594 -1.1838835 -0.47026122 -0.17825238
000160 5a 98 18 3f 1e ba 03 bf 6b 17 c2 3e 94 08 44 3f
       0.5960747 -0.5145587 0.37908491 0.7657559
000170 9e 3d 84 3d b0 da 1b bf d7 cc 9d be b9 09 2a bf
       0.06457065 -0.60880566 -0.30820343 -0.66421086
000180 c6 1f 56 3e a2 71 d8 be 13 21 d6 3e 3e a2 38 bf
       0.20910558 -0.42274195 0.4182211 -0.7212256
000190 1c 63 de 3e bd a2 da 3d 64 1b a5 3f ee 2e 4f be
       0.4343499 0.10675571 1.2898984 -0.20232746
0001a0 e8 30 bc 3e 6c 33 75 bf 19 8c 6c be e5 77 54 3f
       0.36756063 -0.9578159 -0.23100318 0.82995445
0001b0 bf 30 a8 3e 46 8b a4 3f 76 f9 f9 be 13 c5 62 3f
       0.3284969 1.2855003 -0.48823136 0.8858196
0001c0 c4 8b ad be fb 4e c4 3f 67 37 86 bd 75 75 ff 3d
       -0.33895695 1.5336603 -0.06553536 0.12473575
0001d0 b5 d3 ea bd 72 d3 84 3f f1 63 15 3f ea 65 aa 3e
       -0.11466161 1.0377028 0.58355623 0.3328088
0001e0 45 4d 0a bf 45 cb 0e bf 8b 14 f3 be 09 9f ba bd
       -0.54024154 -0.55778915 -0.4747661 -0.09112365
0001f0 97 66 8f be be 8a df bf c6 45 dc 3c ca 6c 7e be
       -0.28007957 -1.7464216 0.02688874 -0.24846187
000200 58 c4 d4 3e 86 68 b8 3d 53 bb 27 3f 1a 2d c3 3d
       0.41556048 0.09004311 0.6552021 0.09530087
000210 32 98 94 3e bb 2c 78 3c 9a ce 88 be 64 e4 8d 3e
       0.29022366 0.015147383 -0.26720124 0.2771331
000220 5b 9c f0 bd ce 30 70 3e df 39 91 3e 2b 6a bd be
       -0.117485724 0.23456118 0.28364465 -0.36995062
000230 e0 37 82 be 43 fd f5 be 2e 96 8c bf 92 60 65 3e
       -0.25433254 -0.48044786 -1.0983331 0.2240012
000240 7b ae 45 3f d2 8f 77 3d 59 8e 2c be 34 e2 8b be
       0.7721936 0.060439892 -0.16851176 -0.27321017
000250 99 56 80 be 04 bd 08 3f 52 42 5c bf 72 f3 21 3f
       -0.2506607 0.53413415 -0.86038697 0.63262093
000260 87 3b b9 bd 6c 9c 79 3f 63 60 f8 3d 8d 89 0d 3d
       -0.09044557 0.97504306 0.12127759 0.034555007
000270 69 8c 84 3e 29 19 16 be 3f af 25 3f cb b0 bd 3e
       0.25888374 -0.14658035 0.6472053 0.37048945
000280 ad 1f e3 bd 87 8d 66 bf 89 e7 4d 3f bc 55 d8 3e
       -0.11090026 -0.90059704 0.8043142 0.4225291
000290 88 09 a3 3f 9b b0 33 3f 96 a4 9a 3e 82 8c 89 3f
       1.2737284 0.70191354 0.30203694 1.0746005
0002a0 df 17 d1 3e d8 c0 f6 3f 19 15 46 bf a7 76 c2 3d
       0.40838525 1.9277601 -0.7737594 0.094952874
0002b0 88 f1 86 3f 4c f7 37 be ff 2e 88 be 6c 38 4d 3d
       1.054246 -0.1796543 -0.26598355 0.050102636
0002c0 81 ed be bc 8d a0 8f bd 4a dd d8 bd 45 57 f1 be
       -0.02330661 -0.070130445 -0.105890825 -0.47136894
0002d0 86 ab 22 be b2 1e 42 bd 40 9b 17 3e c3 a9 3e bd
       -0.15885743 -0.047392555 0.14805317 -0.046548616
0002e0 bb 94 56 3f 0f c3 f1 bc 89 9e e1 3e 77 cd 9f bd
       0.83820695 -0.029511956 0.44066265 -0.07802861
0002f0 d8 82 aa 3e da 5e 3f 3f 93 54 45 be b0 ce 0b 3e
       0.3330295 0.74754107 -0.19270544 0.13653064
000300 5f 06 1b bf 68 5b e5 be 7d b9 eb be 43 a6 0a bf
       -0.60556597 -0.447963 -0.46039954 -0.54159945
000310 6c c6 88 3d 5f 16 17 bf b8 0a b2 3e d0 40 1a be
       0.06678471 -0.5901851 0.34773803 -0.15063787
000320 3b 68 64 3f fa 24 a1 3e ca 0b 4f bd a5 c5 b0 be
       0.89221543 0.31473523 -0.050548352 -0.3452579
000330 80 28 e7 3e f2 5a bd be 30 1a 8c 3e e1 91 7c 3f
       0.45148087 -0.36983448 0.2736373 0.98660094
000340 55 ad 2e 3f 5a f9 54 3f 5f a6 c5 be d3 d0 50 3e
       0.68233234 0.8319298 -0.38603494 0.2039216
000350 00 78 3d 3f 3a 77 7d bd 95 f5 33 3f b7 22 e5 3d
       0.7401123 -0.06188128 0.70296603 0.11188262
000360 22 a7 f5 3f ee 71 e4 3e 48 ee 5b 3e c4 bd ac 3d
       1.919163 0.4461817 0.21477616 0.084346324
000370 20 6a 44 bd 85 34 12 be d0 f9 02 3f fb 0e 00 be
       -0.04795277 -0.14277847 0.51162434 -0.12505715
000380 c0 e2 a2 bd d6 44 0a be 7f 72 51 3e c2 0d 90 bd
       -0.079534054 -0.13502821 0.20453833 -0.07033874
000390 d7 05 ec 3e cd 8a aa 3e 89 f1 8d 3d e6 44 d1 3e
       0.46098205 0.33309022 0.06930835 0.40872878
0003a0 db 4c 7c 3e 74 36 15 be 7b ec d1 be 0f 55 81 3e
       0.24638693 -0.14571553 -0.41000733 0.25260207
0003b0 5e 19 c2 3d 43 4b 81 3e c3 45 90 bd 99 53 34 3f
       0.09477495 0.25252733 -0.07044556 0.7044006
0003c0 83 4b 06 bf a5 72 6f 3d ad f2 82 be 20 7d 5b 3f
       -0.5245897 0.058458943 -0.25575772 0.857378
0003d0 57 50 bf 3f cb 8e 51 be c1 81 93 3e 3e 94 a2 3e
       1.4946393 -0.20464627 0.28809932 0.31753725
0003e0 b2 ac 0a 3e a1 d9 0e bf 70 ba 15 3e b3 7f 48 bf
       0.1354244 -0.55800825 0.14621902 -0.78319854
0003f0 19 92 01 bf 04 f8 d7 bf 93 53 fd 3d 72 d9 33 bd
       -0.5061355 -1.6872563 0.12369456 -0.043908544

bias f4 [64]
000000 b7 48 b5 bf f8 ed ad bf 87 bf b0 bf 13 c2 2b 3f
       -1.4162816 -1.3588247 -1.380845 0.6709301
000010 01 50 61 3d e7 69 05 3f 11 11 93 bf 2d b2 d2 3e
       0.05500794 0.5211472 -1.1489583 0.41151562
000020 09 e5 8a bf 9c 50 92 3f c4 97 a6 3f aa 4f c3 3e
       -1.0851146 1.143085 1.3015065 0.38146716
000030 ca 6d 0a 3f f1 0f 9b 3f cd 91 eb 3e f3 32 87 3f
       0.54073775 1.211424 0.46009675 1.0562423
000040 ee 79 96 3f 3d 4f 25 bf a5 eb 70 3d 5b 40 91 3e
       1.175596 -0.64574033 0.058818478 0.28369412
000050 06 8b 38 bf 51 1e e0 3e 99 db 5b 3e f5 76 20 bf
       -0.7208713 0.4377313 0.21470489 -0.62681514
000060 6c a1 57 3f db b4 0f be bc 32 86 3f 07 27 e8 3f
       0.84230685 -0.14033835 1.0484233 1.813691
000070 0b e7 65 3f 5e c8 60 be 22 b6 b1 3f ed 62 8e 3f
       0.8980567 -0.21951434 1.3883708 1.112394
000080 e9 a8 f0 be 43 5d 32 3f b1 05 03 bf ce 9b 8c 3f
       -0.47003868 0.69673556 -0.5118056 1.0985048
000090 8a c7 7f 3f a2 cd 80 bf b7 57 87 bf c3 8c b0 bf
       0.9991385 -1.0062754 -1.0573643 -1.3792957
0000a0 d4 f3 e5 bf d1 3b 94 3e d7 11 8c be 5d 4a 68 3f
       -1.7965035 0.28951886 -0.2735736 0.9073847
0000b0 17 91 54 3e 7d c3 80 3f 83 ae be 3f 70 bb 7b 3f
       0.20758472 1.0059658 1.4897007 0.9833288
0000c0 0e 82 b4 3f 17 7f eb 3e 88 6f d2 3e c3 2c ff 3e
       1.410219 0.459954 0.41100717 0.49838838
0000d0 59 41 0a c0 18 26 b5 bf ac 46 e6 3f 99 60 ba bd
       -2.1602385 -1.415225 1.7990317 -0.09100456
0000e0 b3 08 bf bf b0 f2 d2 3f 6f 83 89 3f 15 14 90 3f
       -1.492453 1.6480312 1.0743235 1.1256129
0000f0 69 d3 9a 3f e8 b8 7b 3f 3c 34 60 3f f3 c7 b2 3f
       1.2095767 0.9832902 0.87579703 1.396727

weight f4 [64, 64]
000000 75 27 2a bd fc 4b 72 3d 4b d7 41 bc d0 6e 7e bd
       -0.041541535 0.059154496 -0.011831115 -0.062117398
000010 b9 64 8e bc 46 03 70 bd 59 93 22 3d 8e 28 3b 3d
       -0.017382013 -0.05859687 0.039691303 0.045692973
000020 18 0f 58 bd 30 5e da bd 6d a8 27 be e1 12 3a be
       -0.05274877 -0.10662496 -0.16372843 -0.18171264
000030 29 8f d2 3d 18 01 6b bd 5d cf 2a be 66 4b 8f 3d
       0.10281212 -0.05737409 -0.16680665 0.06996803
000040 c4 26 47 3d 92 66 09 be 34 45 5f bd 50 a5 8d 3c
       0.048620954 -0.13418034 -0.054509357 0.017290741
000050 32 90 87 3d cf 98 d2 bd e8 21 f8 bd d2 d5 1a bd
       0.066193 -0.10283052 -0.12115842 -0.03780157
000060 fb 1c 00 3c 69 5f 8c bd 82 88 1b be fe ff bc 3d
       0.0078194095 -0.068541355 -0.15188792 0.09228514
000070 5a 62 9a 3c 57 b9 56 bd 7c 0b 7a ba f5 a5 a0 bd
       0.018845726 -0.052422848 -0.00095384545 -0.07844154
000080 54 8c c7 bd 09 51 4a be 5c 34 ee 3c db 7d 12 be
       -0.09743562 -0.19757475 0.029077701 -0.14305823
000090 49 c4 19 be 66 73 ab 3d d4 39 a1 bd 96 d8 5a bd
       -0.15016283 0.0837162 -0.07872358 -0.05342921
0000a0 00 53 17 3a 3e ee 1e be 70 31 25 be 4b 32 fd bd
       0.0005772561 -0.1552057 -0.1613214 -0.12363108
0000b0 89 a1 d1 bd b4 86 dc bd a5 89 aa 3d 9f 84 25 3d
       -0.102358885 -0.1076788 0.08327035 0.04040968
0000c0 91 83 4e 3d c3 63 07 be a0 9d 14 be cb 34 23 3d
       0.05041844 -0.1322165 -0.14513254 0.03984527
0000d0 55 9b 90 3d 06 58 be bd ba 89 c6 3c d7 7f 5d bd
       0.07060877 -0.09294133 0.024235595 -0.054076996
0000e0 32 31 b9 3d 8c f2 0a be ab d5 b0 3c 7b da 8d bd
       0.090425864 -0.13569087 0.02158626 -0.069264375
0000f0 5f f2 2a be e8 6e ec 3c 65 55 90 bd 76 8f 77 bd
       -0.1669402 0.028861478 -0.07047538 -0.06043955
000100 84 5f b5 3f bb 3c 7f c0 0e 29 63 bf b4 fd 1d 3f
       1.4169774 -3.9880817 -0.8873452 0.61715245
000110 70 9a 84 3f 93 5e 45 3e 90 67 4b 3f d5 3d 32 3e
       1.035963 0.19274358 0.794549 0.174064
000120 13 1f d1 3f 05 ba 88 be b3 96 c7 be 6e 16 fa 3e
       1.6337608 -0.26704422 -0.38982162 0.48845237
000130 c7 2d 9f bf 57 84 4d 3f 97 e8 9b 3e 42 91 aa 3d
       -1.2435845 0.8028006 0.3045089 0.08328487
000140 ba a0 5d 3f 53 9a 6f bf 66 e0 8a bd a5 05 30 3f
       0.86573374 -0.93594855 -0.06781082 0.6875861
000150 24 12 80 be 94 a0 af 3f 3c 45 21 bf a9 d8 b0 c0
       -0.2501384 1.372088 -0.6299627 -5.526448
000160 7c 47 00 be 18 14 02 c0 d7 c1 e8 bd a1 b0 6d bc
       -0.12527269 -2.0324764 -0.11365097 -0.014507444
000170 68 7c 81 3b ca 7e 2a 40 43 a5 90 3f 29 a8 4f be
       0.003951598 2.6639886 1.1300434 -0.20278992
000180 81 7a 3a 40 5b 30 db 3e 20 41 07 3f b8 50 a1 3e
       2.913727 0.4281033 0.5283375 0.31506896
000190 ee 01 bd 3e 9f 79 cb 3e 46 6a 65 3f c7 cd 7d 3f
       0.36915535 0.39741227 0.89615285 0.99142116
0001a0 57 90 a7 bd a7 b8 e7 bf 76 01 45 3f 34 58 5e 3d
       -0.081818275 -1.8103226 0.76955354 0.054283336
0001b0 8d 31 8e 3f 3e d5 20 3f 7e 06 8f 3f ac b3 9e 3c
       1.1108872 0.6282538 1.1173856 0.019372784
0001c0 bf 29 e0 bd 4a 49 19 bf 31 ac cb 3d 93 44 00 be
       -0.109454624 -0.59877455 0.09944952 -0.12526159
0001d0 3c b2 a4 c0 d5 80 10 40 85 b1 79 be ff 85 50 3f
       -5.146757 2.2578633 -0.24384125 0.8145446
0001e0 33 45 f6 3f ca 86 7a be 84 59 3a 3f 0a 09 80 3b
       1.9239868 -0.2446548 0.7279284 0.0039073275
0001f0 7a c1 f2 3d 42 35 86 bd fc 35 d2 be f5 88 0d 3f
       0.11853309 -0.06553127 -0.41056812 0.55287105
000200 64 37 ef 3f 9e 77 98 3f e7 1e f9 3e 2e 6e 34 3e
       1.8688779 1.1911504 0.4865639 0.17620155
000210 69 00 d0 bd 55 90 24 c0 57 8c a4 3f 2b b7 06 c0
       -0.10156328 -2.5713093 1.2855328 -2.1049297
000220 0e e3 00 be 94 c0 39 bf 2f b8 97 c0 2f 1a ab c0
       -0.12586614 -0.72559476 -4.7412333 -5.3469462
000230 69 a9 47 be 0d 5d c5 3e d1 2f 87 c0 5d bb 4e 3f
       -0.19498219 0.38547555 -4.224587 0.80754644
000240 5c e6 45 bf 20 e5 94 3f 39 da cb bf 7b f1 90 be
       -0.77304626 1.1632423 -1.5925971 -0.28309235
000250 cd 4d 40 40 65 3d c5 c0 99 90 2c 3f f6 71 67 40
       3.0047486 -6.1637444 0.6740814 3.6163306
000260 29 fb 05 3f 89 e6 e0 be 1f f4 10 3f 31 fd 36 3f
       0.52336365 -0.43925884 0.566225 0.7148009
000270 05 4e ee 3d 49 90 48 40 88 cd 0b c0 d1 00 5d 3d
       0.11635975 3.1338065 -2.1844196 0.053955857
000280 73 9d 52 40 e0 16 26 c0 95 ff f5 3d 5d 1f 82 3d
       3.29086 -2.5951462 0.12011639 0.06353638
000290 f8 2c 4f bf c4 ed 90 3f 01 97 19 3e d3 d6 c2 3f
       -0.8092799 1.132256 0.1499901 1.5221809
0002a0 93 15 f5 3d e9 e1 3d bf c2 63 4c 3f 26 37 bb bd
       0.119670056 -0.74172837 0.7983972 -0.09141378
0002b0 23 89 bd bb 7e 16 2e 3f 9f 5a 6b bf d5 cd 8f 3e
       -0.0057841702 0.6800307 -0.9193515 0.28086725
0002c0 82 eb 7d be bc 63 da be 5a e5 51 bf b8 cc b8 bf
       -0.2479687 -0.42654216 -0.8199059 -1.4437475
0002d0 39 64 5c 3f b2 8b dd 3f bb 28 98 bf eb 6d dc c0
       0.8609043 1.7308257 -1.188743 -6.8884177
0002e0 a3 b8 94 3f 12 72 19 3f 34 c9 4f c0 de 34 7f bf
       1.1618847 0.5993968 -3.2466555 -0.99690044
0002f0 dc 48 bf bf d8 dd 9d 3e 67 fa 1d 3f 9a 95 9b c0
       -1.494411 0.30833316 0.6171021 -4.862012
000300 aa 61 10 c0 e9 97 c0 bf 24 d7 23 c0 06 4f 2e 3f
       -2.255961 -1.5046359 -2.5600061 0.6808933
000310 8f 8d 2d 3f e1 f0 cf 3e 8c 67 9e bf 64 3c 01 3f
       0.67794126 0.40613464 -1.237535 0.50482774
000320 cd 83 10 c0 e7 8e 80 3f 99 1b 3f 3f 34 33 07 3e
       -2.2580445 1.004361 0.74651486 0.13203126
000330 e0 d4 66 3f 8b a6 83 3e f6 bd f9 3e 82 fa 82 3f
       0.9016857 0.25713 0.4877774 1.0232699
000340 2e 69 f0 3e eb 1c fc 3f 82 88 8f bf 08 72 a0 bf
       0.46955246 1.9696325 -1.1213534 -1.25348
000350 2b 27 20 bf 5e 9a 24 3f 76 2f ae 3f 9f 46 25 bf
       -0.62559766 0.64298046 1.3608234 -0.64560884
000360 90 94 1a 3f 1f eb 3f 40 2e 3a 88 3f 39 32 90 3f
       0.6038294 2.9987257 1.0642755 1.1265327
000370 3c 2e 53 3f 04 00 20 c0 a4 04 c9 bf 42 a6 33 3f
       0.82492423 -2.500001 -1.5704541 0.70175564
000380 5e 5f 28 c0 c1 71 14 3f 45 c1 0d bf a5 cd 34 3f
       -2.6308208 0.57986075 -0.5537303 0.7062629
000390 db f3 13 3f 7a cd 0c be d8 7d 72 c0 e5 b1 d6 bf
       0.5779397 -0.13750258 -3.788931 -1.6773039
0003a0 1e 83 09 c0 16 56 9b 3f 5f 24 18 bf af 63 06 3f
       -2.1486278 1.2135646 -0.594305 0.52495855
0003b0 ea 80 69 bf 3b 0d 56 3f a4 e5 f3 be 7a ac 67 3f
       -0.9121233 0.8361394 -0.4763614 0.90497553
0003c0 c2 ef 7f 3f 3d 1f 43 3f 5a 43 33 3f a5 73 19 3f
       0.99975216 0.7621954 0.70024645 0.59942085
0003d0 ca 3f e4 3f fb 9a 21 c0 89 0c 85 3f 73 24 ac be
       1.7831967 -2.5250843 1.039445 -0.3362156
0003e0 26 25 2d c0 38 18 82 3f 3e a6 4b 3d f9 77 ae 3f
       -2.7053924 1.0163641 0.049719088 1.3630363
0003f0 46 f4 32 3f 23 66 35 3f d1 8b 6d 3f d4 55 f9 3e
       0.6990398 0.70858973 0.9279147 0.48698294

bias f4 [64]
000000 d7 1d 2b bd e0 79 36 3d e5 86 ab 3d 08 f1 4d 3f
       -0.041776504 0.044549823 0.083753385 0.8044591
000010 30 10 bb 3d 85 92 3f 3f 55 40 57 3f ce 00 46 3f
       0.09133947 0.74832946 0.8408254 0.7734498
000020 03 13 46 3f 88 2f 3e 3f dc 55 e1 be 4f 7c 20 bf
       0.7737276 0.74291277 -0.44010818 -0.6268968
000030 fc cd a1 3b 66 c0 53 3f 02 b9 58 3f 6c 71 81 3f
       0.0049378853 0.8271545 0.846573 1.0112739
000040 4b c9 e1 bf c5 37 9b be c3 bd 14 be d3 02 5e 3f
       -1.7639555 -0.30315986 -0.14525513 0.8672306
000050 52 9a 65 3f 1f 58 fc bc e7 ad 1a be 6b fa 5b 3f
       0.896886 -0.030803738 -0.15105401 0.8592898
000060 7a 0b 16 be 59 61 4c bf 67 4a 6a 3e 16 6d 5f 3f
       -0.14652815 -0.7983604 0.22879945 0.87275827
000070 97 a8 61 3f 7d 55 72 3f d4 0d b8 3c 91 6d 80 3f
       0.8814787 0.94661695 0.022467531 1.0033437
000080 2e cf f6 bf 03 95 e9 bf 61 2c 80 3c ea d6 50 bf
       -1.9281976 -1.82486 0.015646162 -0.8157793
000090 66 c6 69 3f 9d 51 12 be 06 ea 26 3e 42 f2 49 3f
       0.91318357 -0.14288945 0.1630021 0.7888528
0000a0 ac 28 5b 3f ca b4 6d 3f 17 ba 94 3d 4a ab 9c bd
       0.85608935 0.9285399 0.07262056 -0.07649858
0000b0 9d c9 52 3f c1 1a c7 bf ad 27 92 3e 3d 05 63 3f
       0.8233889 -1.555504 0.28545895 0.8867987
0000c0 55 f8 b0 bf 2c 25 42 3e 43 47 bf bd 88 35 4f 3e
       -1.3825785 0.18959492 -0.09339764 0.20235264
0000d0 45 dd 5a 3f 30 cb 30 3f e3 4f a3 bd d8 38 58 3f
       0.8549388 0.6906004 -0.079742216 0.84461737
0000e0 f0 da 40 3f b0 cb bb bf e9 8e e1 bc 3e 95 60 3f
       0.7533407 -1.4671535 -0.027533965 0.87727726
0000f0 d0 b1 4e 3f 34 87 88 bf 97 c2 6c 3f e2 60 42 3f
       0.8074007 -1.0666261 0.9248442 0.7592908

weight f4 [1, 64]
000000 19 c7 c4 39 17 f1 05 c0 f9 68 8e c0 19 57 d0 3f
       0.00037532373 -2.09284 -4.450314 1.627658
000010 68 cf 28 bb c0 f0 ce 3f 82 7c c6 3f e9 5d cb 3f
       -0.002575839 1.6167221 1.5506747 1.5888034
000020 9d fc e2 3f aa da d1 3f 24 fe 02 c0 0e 49 42 c0
       1.7733341 1.6394856 -2.0467615 -3.035709
000030 cc 5f 2d bd 7d 82 de 3f 0a 56 c6 3f 12 50 cb 3f
       -0.042327687 1.7383572 1.5495007 1.588381
000040 d9 a4 7a c0 d5 48 20 c0 25 e1 80 bd e5 13 d7 3f
       -3.9163115 -2.5044453 -0.06292943 1.6802946
000050 ed 8d cb 3f 90 96 86 c0 3e 59 0a c0 29 86 dc 3f
       1.5902687 -4.205879 -2.161697 1.7228442
000060 7e d5 1e 3c 12 99 46 c0 59 8d 6f c0 17 cd c6 3f
       0.009694455 -3.1030927 -3.7430022 1.5531338
000070 5c 12 d0 3f c7 2e de 3f eb 92 8b c0 f8 a6 ad c0
       1.6255603 1.7358025 -4.3616843 -5.426632
000080 ef 57 65 c0 6b f0 7a c0 1b 90 8b c0 dd 09 fb 3f
       -3.583492 -3.920924 -4.361341 1.9612385
000090 25 c2 c7 3f f5 d3 c9 3c 00 a1 8e c0 eb 77 cf 3f
       1.5606123 0.024637202 -4.4571533 1.6208471
0000a0 2c fe de 3f 13 74 e4 3f 35 d7 74 c0 2e 30 29 bd
       1.7421317 1.7847923 -3.8256352 -0.041305713
0000b0 cd e6 dc 3f 63 15 89 c0 d6 8a 5f c0 c3 50 d0 3f
       1.7257935 -4.2838607 -3.4928489 1.6274647
0000c0 64 f9 84 c0 89 22 6e c0 59 b7 f6 3b 1e b2 03 c0
       -4.155443 -3.7208579 0.007529181 -2.0577464
0000d0 49 32 cf 3f fe 2b e5 3f c6 87 68 bd b0 1a dd 3f
       1.6187221 1.790405 -0.05677011 1.7273769
0000e0 3e ff ce 3f 40 de 75 c0 f8 9c 3f 3f 60 7d db 3f
       1.6171644 -3.84169 0.7484889 1.7147636
0000f0 af 7e d9 3f 36 72 95 c0 62 94 db 3f 6d 61 ce 3f
       1.6991786 -4.670192 1.7154658 1.6123482
