log_7_27/old_model.pt (torch_old, 70579 bytes, 18 tensors)

weight f4 [64, 7]
-0.20772879 -0.00018834342 -0.7101266 -0.76433915 -0.6378736 -0.5876085 0.7660373 -0.9329454
-0.64510685 1.0159193 -0.0070530176 -0.833904 -0.3957466 0.07716132 -0.30548573 0.43491346
-0.6451186 -0.011002907 -4.6229744 -0.6246194 1.1366693 -0.16513857 0.522063 -0.21865095
-0.29031113 0.7717432 -0.015169671 -0.159334 -0.23489803 -0.23491532 -1.5278699 0.25477257
-0.43640915 0.08690008 -1.0982894 -0.4456011 -0.3807614 0.424942 0.097201675 -0.56168956
0.063433774 0.4240148 0.55770093 -0.56277406 -0.005239269 -0.5414528 0.797288 0.82438135
-0.58628106 -0.7325601 0.42918828 3.135204 0.7360416 0.5954886 0.45283198 -0.3723701
-0.12603109 -0.58248264 -0.07139207 0.023318294 -0.7500985 -0.042300146 -0.7512582 -0.70988005
-0.5059821 4.39368 -0.019750891 -1.1422424 -0.4230284 0.19558558 0.26999673 -0.70222425
-0.28105375 -0.26682466 -0.19661137 1.5840802 -0.327737 -0.44703108 1.7648476 -0.28049108
0.15228713 1.1952679 0.2265721 -2.0200422 -1.6922534 0.85260105 -0.40889874 1.1747636
1.557248 -0.033550426 -0.43478668 1.0732201 0.17721672 0.35261896 -0.18903248 -0.004611617
0.89260256 -0.63637483 -0.6602013 -0.06639369 2.3941536 -0.1122289 0.26004347 1.6504987
-0.19761679 -1.5802475 0.31056955 0.23855154 -1.1852782 -0.3058713 -0.32804245 1.4605634
-0.19017023 0.75122654 1.8065836 0.1696042 -0.07811932 -0.039324537 -0.7779033 -0.38929927
-0.040847495 -0.7433533 -0.40145454 -0.5153588 1.0875697 0.03478622 -0.012710356 -0.5188861
0.1480914 -0.53049195 -0.1415865 0.09595109 -0.7360762 0.05226877 0.16300915 0.46760032
-0.38424045 0.13521883 1.0626217 -0.05620002 0.61279845 0.18020694 1.3403264 0.22717191
-0.34489492 0.034891933 0.94127077 -1.5427504 0.7955537 -1.0030323 -0.6831318 0.23274381
-0.11424391 -2.766389 -0.76504654 -0.4162825 3.8596897 -0.1600439 0.2951 0.081705496
0.017486144 0.010104895 0.4245088 -0.029048461 -0.47846228 -0.86716086 0.67095006 -0.27351126
0.033910997 0.23249516 -2.282564 -0.88891894 0.10470415 0.29601797 -0.08654972 0.7494754
-0.37817216 -1.7149122 0.15905489 -0.79585385 1.1914445 -0.50654644 -1.523583 -0.14379129
4.503222 -0.16270363 -1.0804805 -0.32336727 -0.03170103 0.61588323 1.5992318 -0.55426246
-0.90292645 -0.42845246 0.8590934 -0.37236008 -0.48326674 0.18858871 3.8063807 -1.6485062
0.37001413 0.24307208 -0.45847443 -0.7254428 -0.4234742 -0.2020566 -0.24974622 1.9729306
0.06660063 -0.7384056 -0.51214445 -0.461698 0.912362 0.0038400867 1.313416 1.3245441
-0.7669494 -0.3491709 0.98495007 0.055017818 -0.051671017 0.016889839 -0.21574004 -0.15314078
-1.2563195 -0.018156782 2.3182364 0.37895998 -1.2587842 0.43360212 -0.16800405 0.24787235
-0.6448483 -0.67374885 0.37745124 -2.6634197 0.025346631 -0.36693168 -0.061146293 0.8378479
-0.049873892 -0.22308636 -0.596407 0.78413075 0.1356358 -0.5403891 -0.24785595 -0.6389334
-0.0003354248 0.33775184 0.030794097 -1.1474035 0.28313568 0.28624958 -0.23553254 -0.8447052
00000000: dbb6 54be 0d7e 45b9 dbca 35bf bbab 43bf
00000010: af4b 23bf 836d 16bf 051b 443f 82d5 6ebf
00000020: b925 25bf a509 823f 001d e7bb bc7a 55bf
00000030: 4c9f cabe c106 9e3d a068 9cbe faac de3e
00000040: 7e26 25bf 8945 34bc 68ef 93c0 0fe7 1fbf
00000050: 617e 913f 161a 29be eca5 053f 09e6 5fbe
00000060: a9a3 94be f690 453f 368a 78bc 7428 23be
00000070: 1c89 70be a48d 70be 3e91 c3bf 8d71 823e
00000080: 0571 dfbe abf8 b13d bf94 8cbf d425 e4be
00000090: 29f3 c2be ff91 d93e ac11 c73d e3ca 0fbf
000000a0: 91e9 813d 7818 d93e 7dc5 0e3f f611 10bf
000000b0: 2dae abbb a79c 0abf 111b 4c3f a80a 533f
000000c0: 8416 16bf 0f89 3bbf 91be db3e 2fa7 4840
000000d0: 396d 3c3f f171 183f 98d9 e73e 4ba7 bebe
000000e0: 4b0e 01be 951d 15bf 0136 92bd 0206 bf3c
000000f0: 7506 40bf eb42 2dbd 7552 40bf b3ba 35bf
00000100: 0b88 01bf 0799 8c40 9fcc a1bc 0035 92bf
00000110: 2e97 d8be 9647 483e 033d 8a3e f8c4 33bf
00000120: 47e6 8fbe 3e9d 88be 7e54 49be 24c3 ca3f
00000130: 25cd a7be 42e1 e4be 87e6 e13f 879c 8fbe
00000140: 28f1 1b3e 8afe 983f 8402 683e 5f48 01c0
00000150: c29b d8bf 1044 5a3f 2d5b d1be a75e 963f
00000160: e753 c73f 2c6c 09bd 5c9c debe 475f 893f
00000170: 4d78 353e 798a b43e bb91 41be 0c1d 97bb
00000180: 9a81 643f 76e9 22bf f402 29bf 6af9 87bd
00000190: d039 1940 44d8 e5bd 6b24 853e 8b43 d33f
000001a0: 0e5c 4abe 8d45 cabf f902 9f3e db46 743e
000001b0: 32b7 97bf 2a9b 9cbe 2ef5 a7be bef3 ba3f
000001c0: fcbb 42be 6250 403f 223e e73f b9ac 2d3e
000001d0: 06fd 9fbd c412 21bd ac24 47bf 3c52 c7be
000001e0: b44f 27bd 674c 3ebf 738b cdbe 8eee 03bf
000001f0: 7c35 8b3f ff7b 0e3d 193f 50bc b8d5 04bf
00000200: 46a5 173e 52ce 07bf 0dfc 10be 0182 c43d
00000210: 7d6f 3cbf c717 563d dfeb 263e 4f69 ef3e
00000220: 2abb c4be ce76 0a3e fd03 883f fe31 66bd
00000230: 5ce0 1c3f 2b88 383e d18f ab3f c19f 683e
00000240: 1196 b0be d8ea 0e3d 1ff7 703f d878 c5bf
00000250: 68a9 4b3f 5d63 80bf bae1 2ebf 6554 6e3e
00000260: b6f8 e9bd 840c 31c0 17da 43bf fb22 d5be
00000270: 2805 7740 8ce2 23be 5917 973e 3655 a73d
00000280: 1a3f 8f3c 008f 253c 3859 d93e 0af7 edbc
00000290: 02f9 f4be 41fe 5dbf 62c3 2b3f ab09 8cbe
000002a0: 42e6 0a3d 3613 6e3e 8715 12c0 3190 63bf
000002b0: 216f d63d ab8f 973e fb40 b1bd 9fdd 3f3f
000002c0: c89f c1be 3e82 dbbf 49df 223e 14bd 4bbf
000002d0: 4181 983f 07ad 01bf c504 c3bf 063e 13be
000002e0: 651a 9040 c89b 26be 2f4d 8abf 6590 a5be
000002f0: f0d8 01bd 86aa 1d3f a1b3 cc3f 25e4 0dbf
00000300: 3026 67bf 1f5e dbbe 8ced 5b3f fba5 bebe
00000310: bd6e f7be 661d 413e be9b 7340 4002 d3bf
00000320: 7e72 bd3e e3e7 783e 29bd eabe 9fb6 39bf
00000330: 9cd1 d8be ede7 4ebe 79bd 7fbe fd88 fc3f
00000340: e965 883d 2608 3dbf e61b 03bf ae63 ecbe
00000350: 8e90 693f f7a9 7b3b 041e a83f a98a a93f
00000360: cc56 44bf 87c6 b2be b025 7c3f 5d5a 613d
00000370: fda4 53bd 8f5c 8a3c f5ea 5cbe f0d0 1cbe
00000380: 14cf a0bf 88bd 94bc fc5d 1440 0b07 c23e
00000390: d71f a1bf 1901 de3e 4109 2cbe 40d2 7d3e
000003a0: c714 25bf ce7a 2cbf 4a41 c13e 7875 2ac0
000003b0: bda3 cf3c 78de bbbe 8974 7abd 337d 563f
000003c0: 9148 4cbd c070 64be 21ae 18bf cbbc 483f
000003d0: 1ce4 0a3e f156 0abf f3cd 7dbe 2491 23bf
000003e0: f4db afb9 cfed ac3e e743 fc3c 1ede 92bf
000003f0: 29f7 903e 4e8f 923e 712f 71be 9a3e 58bf

bias f4 [64]
0.47153234 -3.6316361 -1.339487 0.36516345 -0.107839294 -0.12358703 0.4191735 -0.65053904
-0.23271427 0.37361756 0.12479721 0.7500847 -1.3860872 -0.4979661 0.55394727 -2.6203396
0.3163306 0.2927036 0.25311926 0.9257585 -2.9084947 -0.80879676 -0.61440164 0.5340648
0.24087717 0.49092832 0.81063074 -1.1749244 1.1219771 -0.6862727 -0.59641236 -0.62888217
-0.50938535 -2.500707 0.34071994 0.40695715 0.73076 0.40639716 0.51925963 0.47885364
-0.4735869 0.43290037 0.26839015 -0.5635999 0.47250792 -0.70631975 0.37058336 0.14572798
-2.066833 0.62652653 0.84823954 0.44900036 0.4693103 0.49451587 0.30134717 0.21283059
0.66930133 0.6692599 -0.6894129 0.33995384 0.5068736 0.50108117 0.09890473 -0.62286514
00000000: b06c f13e ba6c 68c0 4f74 abbf b4f6 ba3e
00000010: d9da dcbd 321b fdbd e99d d63e ba89 26bf
00000020: a64c 6ebe cd4a bf3e ae95 ff3d 8d05 403f
00000030: 4e6b b1bf 6af5 febe 7dcf 0d3f a5b3 27c0
00000040: 16f6 a13e 3fdd 953e d998 813e 82fe 6c3f
00000050: c724 3ac0 4e0d 4fbf 6d49 1dbf 79b8 083f
00000060: 81a8 763e f55a fb3e 7f85 4f3f ec63 96bf
00000070: f29c 8f3f 91af 2fbf 7bae 18bf 6cfe 20bf
00000080: 1467 02bf 950b 20c0 d872 ae3e b05c d03e
00000090: 1613 3b3f 4a13 d03e 33ee 043f 4e2c f53e
000000a0: fb79 f2be 1ea5 dd3e 6f6a 893e 1548 10bf
000000b0: 8fec f13e 5fd1 34bf 1abd bd3e b739 153e
000000c0: fe46 04c0 0b64 203f 3a26 593f 60e3 e53e
000000d0: 7149 f03e 2f31 fd3e 2d4a 9a3e 43f0 593e
000000e0: 5557 2b3f 9e54 2b3f 5d7d 30bf 6e0e ae3e
000000f0: 78c2 013f db46 003f 908e ca3d 1774 1fbf

weight f4 [64, 64]
0.22167464 -0.41196638 -1.0759238 0.17692734 -0.06006889 0.41458812 -0.09018709 -0.64926165
0.8137572 0.051612876 -0.5768287 -0.36380464 0.016616482 0.1495048 0.3513134 -0.9223368
1.029251 -0.38225892 -1.2794067 -0.05966779 -0.25879917 -1.01085 0.519469 0.11376045
0.14682797 -1.522205 -0.06912153 -0.11604861 -0.4395801 0.27344087 0.6242286 -1.746464
-1.6333587 -0.98155874 -0.25721735 0.1453755 -0.89456445 0.38538113 0.28368494 0.22060116
-0.22068582 -1.4219325 -0.9287839 -0.94336355 0.33215058 0.3509636 -0.16053465 -0.8076909
-1.1293153 0.69497925 -0.9350344 -0.06780509 0.6857524 0.5527968 0.59482604 0.0757457
0.097572625 -0.86090827 0.409779 -2.2756639 -0.35661885 -2.1359448 -1.0124598 -0.31440446
-0.9679642 -0.11931231 -0.80249524 0.22897829 0.10459086 -0.05495153 -0.16701019 -1.1133779
-0.3342575 -0.02930097 -0.3664919 -0.012666022 0.06138433 0.9440219 -0.027249856 -0.3096866
-0.24822687 0.40758768 -0.26974997 -1.5647296 -0.8173885 -1.5860505 0.10247008 0.1966662
-0.6075849 -0.24359679 -0.73552316 -0.16520652 -0.9144083 0.008883483 0.032578353 0.7609955
-1.4095442 -0.23048994 -0.3624588 -0.49831873 0.16985162 -0.33270743 -0.39689603 0.16132984
-0.087004736 -0.098992966 0.33645236 -0.20069474 0.068614215 0.020724187 -0.40269077 -0.55684274
-0.4603191 -0.3273317 -0.5712377 0.1329373 -0.8841632 0.072002135 0.46128255 0.35552412
0.06645585 -0.52286446 0.17702824 -0.61666 -0.18791017 -1.1981076 -0.7909042 0.032148767
-0.113104165 0.01793331 -0.012930948 -0.09585243 -0.12521973 0.048904475 -0.10445075 0.047639582
-0.14606424 -0.087989666 0.03623219 -0.058016893 0.06606367 -0.13101375 -0.13231665 -0.036419954
-0.035478372 0.01847041 -0.092774525 -0.016047498 -0.03133838 -0.061067093 0.06466418 -0.17717946
-0.078478865 0.077553086 -0.06458879 0.12528846 -0.04694234 0.030143077 -0.12091629 -0.09480186
-0.021955803 0.040510625 0.0039467486 0.022228085 -0.06718761 -0.094760254 0.041564517 -0.10624559
0.051539805 -0.11498185 -0.044432525 -0.061681014 -0.031293586 0.053697202 -0.0914001 -0.104447335
0.0490405 0.03739147 -0.041173335 -0.108368516 0.05230241 0.05141546 -0.08986643 -0.21525367
0.017883383 -0.1565005 -0.007995839 -0.045718964 -0.08127786 -0.040924124 -0.11531833 -0.02065712
-0.19309868 -0.16955888 -0.38967946 0.07321684 -0.13342431 0.07098018 -0.16296811 -0.29759547
-0.29840806 -0.044849623 -0.06482552 -0.41193274 -0.22896068 0.018888855 0.008402422 0.089241736
0.05390576 -0.03922476 -0.15587164 -0.054325365 -0.1484321 -0.19749643 0.012685635 -0.12056613
-0.34780425 -0.2758002 -0.23889092 0.07074531 -0.06933167 0.041318562 -0.20995049 -0.05710973
-0.1293012 -0.29262063 0.08604787 -0.25123137 -0.29030758 -0.16539255 -0.049120698 -0.080954045
0.012937212 -0.026175356 0.12899339 -0.29359028 -0.015129527 -0.18510854 -0.13243009 -0.15762293
0.12805514 -0.012874838 -0.37424314 -9.198112e-05 -0.09063513 0.092308335 0.0008825681 -0.04293394
-0.006831592 -0.016287295 -0.11453366 -0.29625857 -0.07691278 -0.36513197 -0.3270053 -0.16581842
00000000: adfe 623e 42ed d2be dfb7 89bf 712c 353e
00000010: cc0a 76bd e544 d43e 02b4 b8bd 0336 26bf
00000020: 6452 503f 0668 533d 0cab 13bf 9a44 babe
00000030: 4a1f 883c c917 193e 5adf b33e 441e 6cbf
00000040: 7fbe 833f 71b7 c3be 99c3 a3bf 3666 74bd
00000050: 5381 84be 8863 81bf ecfb 043f 3dfb e83d
00000060: 125a 163e 9dd7 c2bf 978f 8dbd e5aa edbd
00000070: a510 e1be 7100 8c3e 72cd 1f3f 228c dfbf
00000080: e611 d1bf 6f47 7bbf feb1 83be 51dd 143e
00000090: 2d02 65bf ad50 c53e 273f 913e 45e5 613e
000000a0: 77fb 61be e201 b6bf c8c4 6dbf 4680 71bf
000000b0: a40f aa3e 80b1 b33e 3263 24be d5c4 4ebf
000000c0: 678d 90bf 29ea 313f 6a5e 6fbf 65dd 8abd
000000d0: 788d 2f3f 1784 0d3f 8546 183f 9020 9b3d
000000e0: 28d4 c73d 7c64 5cbf 8ece d13e 7aa4 11c0
000000f0: bf96 b6be 52b3 08c0 4898 81bf 9ff9 a0be
00000100: 80cc 77bf 035a f4bd 5470 4dbf 4979 6a3e
00000110: bc33 d63d db14 61bd b804 2bbe 2b83 8ebf
00000120: cd23 abbe 9608 f0bc d4a4 bbbe 2685 4fbc
00000130: 236e 7b3d 6bab 713f 173b dfbc 3e8f 9ebe
00000140: 2f2f 7ebe 55af d03e ab1c 8abe 0f49 c8bf
00000150: 5f40 51bf b403 cbbf d5db d13d dd62 493e
00000160: af8a 1bbf 7071 79be 3f4b 3cbf e62b 29be
00000170: aa16 6abf 078c 113c e170 053d 9ad0 423f
00000180: f26b b4bf 8e05 6cbe 3394 b9be a223 ffbe
00000190: 95ed 2d3e a158 aabe f535 cbbe a633 253e
000001a0: 8a2f b2bd d3bc cabd 7c43 ac3e ec82 4dbe
000001b0: 9c85 8c3d c5c5 a93c 7c2d cebe 3f8d 0ebf
000001c0: f2ae ebbe 0598 a7be a23c 12bf b720 083e
000001d0: 8558 62bf db75 933d 3a2d ec3e 4207 b63e
000001e0: 011a 883d 72da 05bf e446 353e 6edd 1dbf
000001f0: 866b 40be 975b 99bf b378 4abf 6dae 033d
00000200: 28a3 e7bd e0e8 923c 54dc 53bc 474e c4bd
00000210: 9a39 00be 0f50 483d 46ea d5bd b921 433d
00000220: dd91 15be ed33 b4bd 3468 143d 1fa3 6dbd
00000230: 644c 873d 7828 06be 047e 07be 172d 15bd
00000240: c551 11bd 424f 973c 9200 bebd 0b76 83bc
00000250: ac5c 00bd 7d21 7abd a76e 843d 886e 35be
00000260: 87b9 a0bd 27d4 9e3d 2147 84bd 9e4b 003e
00000270: 9c46 40bd 9dee f63c f6a2 f7bd 7a27 c2bd
00000280: a8dc b3bc 78ee 253d ba53 813b ac17 b63c
00000290: a899 89bd aa11 c2bd 8e3f 2a3d 4a97 d9bd
000002a0: 671b 533d 9b7b ebbd e1fe 35bd 3ba5 7cbd
000002b0: b42d 00bd 99f1 5b3d fa2f bbbd 7ce8 d5bd
000002c0: b1de 483d cc27 193d 5fa5 28bd 50f0 ddbd
000002d0: 0d3b 563d 0499 523d e40b b8bd 756b 5cbe
000002e0: 2c80 923c ab41 20be fb00 03bc cf43 3bbd
000002f0: 0275 a6bd 0ea0 27bd 042c ecbd 1f39 a9bc
00000300: a9bb 45be d8a0 2dbe 1184 c7be b6f2 953d
00000310: 62a0 08be 0e5e 913d 1de1 26be 6f5e 98be
00000320: f1c8 98be 3db4 37bd 3ec3 84bd d9e8 d2be
00000330: ab74 6abe cdbc 9a3c 50aa 093c 5fc4 b63d
00000340: 49cc 5c3d 24aa 20bd d19c 1fbe 4684 5ebd
00000350: 96fe 17be 813c 4abe 69d7 4f3c 60eb f6bd
00000360: 6613 b2be af35 8dbe d29f 74be ebe2 903d
00000370: c3fd 8dbd a73d 293d 43fd 56be e4eb 69bd
00000380: 8967 04be 5fd2 95be de39 b03d 66a1 80be
00000390: 32a3 94be aa5c 29be c932 49bd 3ccb a5bd
000003a0: 9af6 533c b36d d6bc d816 043e 7751 96be
000003b0: d6e1 77bc 188d 3dbe c19b 07be e867 21be
000003c0: e320 033e fcf0 52bc cc9c bfbe fde5 c0b8
000003d0: e99e b9bd 270c bd3d 255c 673a 80db 2fbd
000003e0: 8cdb dfbb ef6c 85bc a090 eabd 34af 97be
000003f0: 7384 9dbd 94f2 babe 3d6d a7be 4ecc 29be

bias f4 [64]
0.70999014 0.31939775 -0.10591195 0.11098129 0.88877445 -0.23221718 -0.10529899 -0.1102196
0.7659988 0.12968424 0.5083187 0.016092453 0.48542833 -0.12093101 0.052948773 0.46486786
0.85567576 0.4985167 0.4583477 0.6383138 -0.11572164 0.14509615 0.062772684 0.13493475
0.06973313 0.23944451 -0.15251365 0.4711665 -0.020207668 0.6920732 0.73066294 -0.019532857
0.013013959 0.0036839445 0.46758446 0.5396894 -0.6954551 -0.07688611 -0.16156183 -1.016838
-0.0015524116 0.49754873 0.26037475 -0.1429017 -0.07646383 0.531165 -0.04737253 0.18880925
0.089620434 -0.080097705 0.3860427 -0.09197065 0.53705645 0.0892618 0.333238 -0.1608218
0.26520917 -0.0541325 0.2579289 -0.118857786 -0.012225107 0.4580615 -0.11367757 0.22514823
00000000: eac1 353f 1a88 a33e 5de8 d8bd 294a e33d
00000010: b986 633f 57ca 6dbe ffa6 d7bd d0ba e1bd
00000020: 7f18 443f f2cb 043e 2d21 023f 52d4 833c
00000030: 108a f83e adaa f7bd d0e0 583d 2903 ee3e
00000040: 910d 5b3f 953d ff3e 8dac ea3e 8868 233f
00000050: 78ff ecbd 1694 143e f78e 803d 562c 0a3e
00000060: 3ed0 8e3d f130 753e 8a2c 1cbe bc3c f13e
00000070: 8d8a a5bc b62b 313f ba0c 3b3f 5f03 a0bc
00000080: 8038 553c 556e 713b 3b67 ef3e 1629 0a3f
00000090: 5809 32bf 7776 9dbd 7770 25be bf27 82bf
000000a0: 4a7a cbba b5be fe3e d74f 853e d354 12be
000000b0: 1299 9cbd 6efa 073f b309 42bd 3657 413e
000000c0: eb8a b73d 440a a4bd 64a7 c53e 1c5b bcbd
000000d0: 887c 093f e4ce b63d 2c9e aa3e 78ae 24be
000000e0: 7fc9 873e 0aba 5dbd 420f 843e b66b f3bd
000000f0: d14b 48bc 0987 ea3e c9cf e8bd 428d 663e

weight f4 [7, 64]
-0.6335513 -0.25852752 -0.17869742 0.06469127 -1.8486573 -0.034552477 0.045319542 0.06824821
2.6196578 0.6398172 0.44408622 -0.11709218 -1.296843 -0.03265445 0.2422668 -0.505892
2.3189728 -0.8764082 0.32690686 -0.5233755 0.09501961 -0.3579425 -0.051464222 0.0951683
0.6320494 -0.056841295 -0.054260805 0.26922157 0.15455705 -1.3150715 -4.4731073 0.04677951
-0.15175983 1.4180335 -0.39665365 0.05214886 0.10821926 0.09657083 -0.65971804 0.7037114
0.08775722 0.15971585 -0.33961067 -0.09296153 -0.024246594 -0.6563408 -0.04044665 0.2503179
0.7215682 0.020535083 0.54726213 0.05545392 2.787493 -0.24876118 2.5444705 0.11491869
0.34484276 -0.0029679197 -1.7027618 0.02266642 -0.09285325 1.2587379 0.0061626458 0.3262152
2.6746602 -0.83866894 -0.16702035 -0.43500394 0.90153253 -0.04622478 0.076942295 0.104441054
-1.6038245 -0.708373 -0.9253668 -0.10318239 -1.3446374 -0.11142494 0.12510054 2.9984448
1.098061 0.8451122 -0.14106376 1.1174061 0.17490986 -0.5189415 0.016747447 -0.08376861
-0.51749295 1.4871551 0.06527697 0.36584848 -0.006732107 3.9897947 0.078229934 0.089277185
-0.099818684 -0.4899609 0.31088084 -0.51327825 1.190863 0.029167777 -0.25496614 1.1569914
0.019886943 -0.2659522 0.12850596 -0.08874415 0.05722265 -0.83961403 0.06609638 -0.8072199
-0.040290114 0.11264366 -0.8896738 0.54391176 -0.15086518 -0.026612878 -1.122075 0.025822302
0.025246471 -0.0076301913 0.8911144 -0.0634761 -0.07339132 -0.3415885 0.13479394 0.92531747
1.240446 0.12799755 -0.058781464 0.19816615 0.84544784 -0.045401637 0.026209189 -0.057745434
0.35032234 0.5061304 0.6217069 -0.039989118 -0.5965306 0.012997926 0.021380445 -0.7962356
0.1667477 0.8640425 -0.24485548 -0.63270956 -0.35523608 -0.14990962 0.0030365954 -0.454367
0.05296774 -0.5111644 0.09043372 0.58337426 -0.058118336 -0.7831996 0.5538222 -0.03311007
-0.016094433 0.02256421 0.67735314 0.73873687 0.007037642 -0.11562485 -0.008751142 2.1372428
-0.0843584 0.1851727 0.31989828 0.23393713 -0.03574955 0.3073401 0.01969672 0.056172125
-0.11243201 -0.1235882 1.5656818 -0.47501257 -1.7691919 0.1838714 -1.938614 0.011707425
-0.43133566 0.06995697 0.17110969 -0.10298002 -0.012160894 -1.765203 0.021891026 1.4829335
0.7567971 -0.49801275 -0.031475917 -0.0150518725 -1.8272569 0.12299365 -0.0006092822 0.056471292
4.05514 0.4856312 -0.050701804 0.07144852 0.022094857 -0.055417538 0.4677522 0.11719777
0.5892762 -0.5914717 -0.21000244 -0.7334639 0.046255264 0.1355919 0.066941045 1.348329
-0.7573037 0.779789 -0.13128515 0.49292117 0.018208172 0.51523817 -1.8359659 0.068816885
0.02385757 0.17966016 0.5542028 0.5672339 0.04581324 -0.03326223 0.4074099 0.77123284
-0.10674313 0.20685649 0.2755467 0.04075241 0.10332107 -0.6574294 -0.055807684 0.18121843
0.00355101 -0.021679819 -0.14954652 -1.0925584 2.130876 0.036611035 2.8525317 0.045678616
-0.047353018 -0.12177488 -0.69691515 0.055343557 0.09564254 -0.115449116 0.003823583 -0.95316654
00000000: 6b30 22bf b85d 84be 75fc 36be db7c 843d
00000010: cda0 ecbf e686 0dbd fca0 393d b8c5 8b3d
00000020: 79a8 2740 0fcb 233f 455f e33e 06ce efbd
00000030: f4fe a5bf acc0 05bd ca14 783e 2382 01bf
00000040: 0d6a 1440 4a5c 60bf 5660 a73e f0fb 05bf
00000050: a499 c23d 3d44 b7be 26cc 52bd 99e7 c23d
00000060: fdcd 213f 6bd2 68bd 9440 5ebd 69d7 893e
00000070: 3444 1e3e 4354 a8bf b223 8fc0 df9b 3f3d
00000080: ee66 1bbe 1f82 b53f 3016 cbbe 0b9a 553d
00000090: 0fa2 dd3d edc6 c53d 48e3 28bf 6e26 343f
000000a0: 0fba b33d 8d8c 233e 73e1 adbe 9d62 bebd
000000b0: cba0 c6bc f305 28bf 63ab 25bd ab29 803e
000000c0: b2b8 383f 3139 a83c 5f19 0c3f a623 633d
000000d0: 4966 3240 40bb 7ebe 9bd8 2240 7d5a eb3d
000000e0: 3b8f b03e 6e81 42bb 19f4 d9bf eeae b93c
000000f0: d829 bebd 531e a13f 05f0 c93b ae05 a73e
00000100: a22d 2b40 02b3 56bf 6207 2bbe d6b8 debe
00000110: d6ca 663f 3256 3dbd ec93 9d3d 31e5 d53d
00000120: 1f4a cdbf ef57 35bf d7e4 6cbf 4a51 d3bd
00000130: 141d acbf c232 e4bd 5b1a 003e 85e6 3f40
00000140: 438d 8c3f 4659 583f 0573 10be 2a07 8f3f
00000150: 921b 333e 5ad9 04bf f131 893c e18e abbd
00000160: 6b7a 04bf 195b be3f efaf 853d 7e50 bb3e
00000170: 0299 dcbb cc58 7f40 0437 a03d f5d6 b63d
00000180: bd6d ccbd 28dc fabe c62b 9f3e 3466 03bf
00000190: 336e 983f 43f1 ee3c ec8a 82be 4b18 943f
000001a0: f1e9 a23c e32a 88be 1197 033e 7ebf b5bd
000001b0: 4c62 6a3d f2f0 56bf 8a5d 873d f7a5 4ebf
000001c0: 3f07 25bd b8b1 e63d aac1 63bf cd3d 0b3f
000001d0: 677c 1abe 4003 dabc 27a0 8fbf 4b89 d33c
000001e0: b0d1 ce3c af06 fabb 1320 643f c2ff 81bd
000001f0: 304e 96bd b0e4 aebe 6c07 0a3e 9be1 6c3f
00000200: efc6 9e3f ca11 033e d5c4 70bd 11ec 4a3e
00000210: 456f 583f 11f7 39bd a7b4 d63c 7a86 6cbd
00000220: 735d b33e c391 013f 2f28 1f3f a1cb 23bd
00000230: 3bb6 18bf 41f5 543c 0b26 af3c 19d6 4bbf
00000240: e9bf 2a3e e431 5d3f 65bb 7abe 41f9 21bf
00000250: 81e1 b5be e881 19be 9e01 473b cba2 e8be
00000260: b3f4 583d acdb 02bf 5035 b93d 0458 153f
00000270: 7e0d 6ebd c57f 48bf 4bc7 0d3f 6d9e 07bd
00000280: 79d8 83bc 94d8 b83c 0467 2d3f dc1d 3d3f
00000290: 059c e63b b9cc ecbd f360 0fbc 96c8 0840
000002a0: 19c4 acbd ea9d 3d3e b5c9 a33e 378d 6f3e
000002b0: 1f6e 12bd ae5b 9d3e 045b a13c be14 663d
000002c0: c142 e6bd cf1b fdbd 4368 c83f d934 f3be
000002d0: e174 e2bf c948 3c3e 8124 f8bf 80d0 3f3c
000002e0: 07d8 dcbe 9a45 8f3d 6137 2f3e 30e7 d2bd
000002f0: 7d3e 47bc 2cf2 e1bf cf54 b33c c4d0 bd3f
00000300: 74bd 413f 87fb febe e4ec 00bd 219c 76bc
00000310: 8ee3 e9bf 18e4 fb3d 3cb8 1fba 714e 673d
00000320: b5c3 8140 a7a4 f83e b2ac 4fbd 9a53 923d
00000330: 4600 b53c 80fd 62bd 377d ef3e 6205 f03d
00000340: ceda 163f b06a 17bf e10a 57be 4ac4 3bbf
00000350: 2976 3d3d 9ad8 0a3e 6318 893d 0b96 ac3f
00000360: a8de 41bf 40a0 473f 9d6f 06be 2a60 fc3e
00000370: 4e29 953c a6e6 033f ee00 ebbf deef 8c3d
00000380: f370 c33c d5f8 373e 3ce0 0d3f 3e36 113f
00000390: aaa6 3b3d fa3d 08bd 0898 d03e 846f 453f
000003a0: 249c dabd 30d2 533e 7514 8d3e 00ec 263d
000003b0: ff99 d33d 4b4d 28bf 9996 64bd 5391 393e
000003c0: 10b8 683b e099 b1bc b922 19be f4d8 8bbf
000003d0: 4660 0840 74f5 153d e18f 3640 8019 3b3d
000003e0: 3df5 41bd 1c65 f9bd 0869 32bf edaf 623d
000003f0: 3ce0 c33d 9670 ecbd 1495 7a3b b902 74bf

bias f4 [7]
0.39607212 -0.3724409 0.31249744 0.40572664 -0.8844507 -0.24581431 0.5947212
00000000: f7c9 ca3e 93b0 bebe aaff 9f3e 67bb cf3e
00000010: 5c6b 62bf bfb6 7bbe a63f 183f

weight f4 [7, 64]
0.2957123 -0.2927847 0.069980785 -0.18327227 0.84099 0.19976935 0.006128372 0.098759726
0.3145396 0.0054876693 0.10101974 0.053442087 0.20753103 -0.07956794 -0.43862596 0.29282063
1.2413958 0.45668042 -0.15386721 -0.33078757 -0.015561364 -0.14755523 0.086326405 0.21384029
-0.14372893 -0.007294499 0.20557925 -0.10092793 0.027405756 1.1311933 1.7564679 -0.056436393
0.031288873 0.28153735 0.096800156 0.06329487 -0.1567987 -0.13801728 0.57943064 0.59610224
0.082048215 0.6138203 -0.13021334 0.13157368 -0.009712907 0.121076345 0.17102085 -0.38404453
0.11429845 0.13351086 0.27293795 0.052932814 0.88485867 -0.016621009 0.86893946 0.039566305
0.037274584 0.12249997 0.51997066 0.10093895 0.036707934 0.543909 0.13606872 -0.13580722
1.0036325 0.1370606 -0.013119898 0.24033801 0.27984422 0.09953928 0.0458468 -0.014405362
2.2970963 0.36408558 -0.08996331 0.07524029 -0.23746243 0.15080464 0.11523712 0.956817
0.9083768 0.016573908 -0.21498714 -0.20125768 0.06834322 -0.120168135 0.29415995 0.09840279
0.30295503 0.51435405 0.1946123 -0.16302988 -0.0089857755 1.3316529 -0.44566584 0.08806898
-0.077053525 0.29952732 0.16982852 0.18088004 0.1838215 -0.0077996557 0.24933055 1.0470957
-0.009670909 0.27667546 0.2284316 0.05391323 0.07025489 0.21770234 0.063877754 0.2520771
0.1276086 0.008627578 0.4491224 0.12228699 0.36419082 0.20827559 0.30578423 -0.026067326
0.22831057 -0.107548766 0.12945387 -0.04353217 -0.0018385559 0.3964103 0.030027866 0.29130524
0.83828676 -0.09310072 0.075222455 0.018366914 1.2990347 0.077590756 -0.007129406 0.06767116
0.7080613 0.38142034 0.10362076 -0.007768496 0.03265374 0.0125624575 -0.04776914 0.36434853
0.766252 0.11641168 -0.14850006 0.29245642 0.10175256 -0.10241987 0.0010288968 0.3246331
0.09900707 0.28382808 0.1931633 0.055809096 -0.074596226 0.041538883 1.1881157 0.08458326
-0.017607626 -0.011704406 0.2324483 0.10597684 -0.13434151 0.0014102258 0.16472451 0.6357684
0.059965175 0.19988605 0.11631043 0.04952999 -0.044706374 0.2222343 0.072735585 0.07120303
0.23695436 0.100953035 0.25222227 0.022598859 0.13123663 -0.1280264 0.26317322 0.12646292
0.10105682 -0.086838014 0.19171691 -0.038464624 -0.041004814 -0.5846776 0.15031207 0.85362434
0.697727 0.0055846586 0.1405761 0.019955348 1.0792704 -0.02179516 -0.041461498 -0.059370156
0.63583386 0.33976093 -0.24886873 -0.09125522 -0.07766205 -0.024811007 0.3248187 0.48723602
1.101812 0.11202738 -0.12971374 -0.7534848 0.18218294 -0.2169771 0.013909305 0.8938543
0.7542838 0.55052185 0.064145066 -0.02153415 -0.019899499 0.7224931 0.4617322 0.05831723
0.10545318 0.09433989 0.32958072 0.16382053 -0.09674442 -0.023273973 0.042157374 0.6664481
0.118975535 0.77859986 -0.12315862 0.08765948 -0.05105027 0.04527034 0.120259866 -0.2094668
0.06985058 0.059351373 -0.07811919 0.33298102 1.5122951 -0.090359904 0.8886066 0.13331182
0.81140876 0.15000555 0.17038181 -0.045212675 -0.11684902 0.79239804 0.107090496 0.3571504
00000000: 9a67 973e e0e7 95be 1652 8f3d baab 3bbe
00000010: 1f4b 573f 5690 4c3e 83d0 c83b 8a42 ca3d
00000020: 560b a13e e8d1 b33b 70e3 ce3d 17e6 5a3d
00000030: 0483 543e 84f4 a2bd 9593 e0be 96ec 953e
00000040: 0fe6 9e3f 04d2 e93e 5e8f 1dbe fd5c a9be
00000050: 17f5 7ebc b818 17be e6cb b03d f3f8 5a3e
00000060: ad2d 13be b106 efbb 5e83 523e 4db3 cebd
00000070: 0982 e03c f1ca 903f f1d3 e03f d929 67bd
00000080: c328 003d aa25 903e 293f c63d bea0 813d
00000090: d78f 20be 6754 0dbe 9155 143f 289a 183f
000000a0: e508 a83d 5423 1d3f a556 05be 40bb 063e
000000b0: e222 1fbc e0f6 f73d 1720 2f3e 7ca1 c4be
000000c0: 4e15 ea3d 12b7 083e 86be 8b3e 14d0 583d
000000d0: 1986 623f c828 88bc d172 5e3f 4710 223d
000000e0: 3cad 183d 44e1 fa3d cc1c 053f 15b9 ce3d
000000f0: 0f5b 163d 9f3d 0b3f 9955 0b3e 0c11 0bbe
00000100: 0877 803f 9d59 0c3e d7f4 56bc 2b1b 763e
00000110: be47 8f3e 40db cb3d dbc9 3b3d 7804 6cbc
00000120: a003 1340 6d69 ba3e af3e b8bd 9517 9a3d
00000130: 5a29 73be 886c 1a3e 7001 ec3d f5f1 743f
00000140: 628b 683f 01c6 873c 9725 5cbe 7e16 4ebe
00000150: 88f7 8b3d b61a f6bd 229c 963e 6787 c93d
00000160: ec1c 9b3e b5ac 033f 7248 473e 4ef1 26be
00000170: 1339 13bc 9a73 aa3f 502e e4be 825d b43d
00000180: 3dce 9dbd a55b 993e 87e7 2d3e 9e38 393e
00000190: b43b 3c3e 4194 ffbb 8250 7f3e 3b07 863f
000001a0: bb72 1ebc 68a8 8d3e f9e9 693e 1ed4 5c3d
000001b0: cce1 8f3d 5ded 5e3e 57d2 823d 4010 813e
000001c0: d4ab 023e af5a 0d3c 5ff3 e53e 9a71 fa3d
000001d0: 3877 ba3e 3246 553e c08f 9c3e 258b d5bc
000001e0: 3fca 693e 8742 dcbd 8e8f 043e ca4e 32bd
000001f0: b3fb f0ba 4af6 ca3e 00fd f53c f625 953e
00000200: f699 563f 97ab bebd 3b0e 9a3d 3676 963c
00000210: c546 a63f e7e7 9e3d cb9d e9bb 2d97 8a3d
00000220: 8143 353f 8749 c33e 1f37 d43d de8e febb
00000230: eebf 053d c4d2 4d3c 93a9 43bd e48b ba3e
00000240: 1729 443f 3f69 ee3d 6610 18be d9bc 953e
00000250: a563 d03d 82c1 d1bd 0cdc 863a 4f36 a63e
00000260: 38c4 ca3d ea51 913e 9acc 453e 1498 643d
00000270: e8c5 98bd ad24 2a3d 2d14 983f fd39 ad3d
00000280: de3d 90bc d6c3 3fbc ed06 6e3e 630a d93d
00000290: d290 09be 53d7 b83a 8bad 283e b8c1 223f
000002a0: 0b9e 753d eeae 4c3e 2a34 ee3d f5df 4a3d
000002b0: 081e 37bd 6391 633e 65f6 943d e5d2 913d
000002c0: 2aa4 723e 77c0 ce3d 4723 813e 3e21 b93c
000002d0: e562 063e 5a19 03be a4be 863e 7f7f 013e
000002e0: e1f6 ce3d 21d8 b1bd 7051 443e 158d 1dbd
000002f0: aaf4 27bd 6ead 15bf 68eb 193e 2087 5a3f
00000300: 3d9e 323f 83ff b63b 2ef3 0f3e 6679 a33c
00000310: 8825 8a3f c38b b2bc 88d3 29bd 1f2e 73bd
00000320: 02c6 223f 25f5 ad3e 72d7 7ebe 04e4 babd
00000330: 480d 9fbd 7440 cbbc a34e a63e 0077 f93e
00000340: 2d08 8d3f 9c6e e53d aed3 04be 61e4 40bf
00000350: 2a8e 3a3e 3f2f 5ebe dbe3 633c a3d3 643f
00000360: be18 413f 00ef 0c3f 7d5e 833d 6368 b0bc
00000370: 4604 a3bc 4ff5 383f 2a68 ec3e 0cde 6e3d
00000380: d6f7 d73d 4635 c13d cebe a83e 92c0 273e
00000390: f021 c6bd 0fa9 bebc 36ad 2c3d 589c 2a3f
000003a0: 72a9 f33d 5252 473f 963a fcbd d086 b33d
000003b0: 171a 51bd 646d 393d ce4a f63d 777e 56be
000003c0: d20d 8f3d 6d1a 733d f4fc 9fbd 7d7c aa3e
000003d0: e392 c13f 9d0e b9bd b97b 633f e582 083e
000003e0: 7cb8 4f3f 0e9b 193e 9278 2e3e ed30 39bd
000003f0: 8a4e efbd 99da 4a3f 4352 db3d 6bdc b63e

bias f4 [7]
-3.4013155 -3.4249802 -3.1969182 -3.0201213 -3.1070766 -3.8825252 -2.821574
00000000: 27af 59c0 e032 5bc0 4f9a 4cc0 ab49 41c0
00000010: 58da 46c0 4b7b 78c0 ab94 34c0

weight f4 [64, 14]
1.0673558 -0.39763603 3.7520158 -0.19281629 -0.37748235 -0.29329687 -0.003523577 2.817196
-0.17447253 -0.039853036 1.9462159 -0.62938184 4.391924 -0.67639 1.6251963 1.267211
-0.55898863 0.062498026 -1.5526853 -0.49568823 0.9416738 3.1240022 -0.91711175 0.7867994
2.1448686 -1.0829403 5.081552 0.4803249 1.1848594 -0.31516096 -1.0485694 0.6443862
-0.27111426 -0.8376632 0.25141647 0.12225094 -0.5236039 0.15618746 -0.13777082 -0.16055998
0.46332365 -0.030305486 0.6486926 -1.0238314 -0.22201426 -0.95386565 -9.659789 1.5570104
-2.0130627 1.186215 -1.2080164 0.6110458 0.25418335 -0.32014555 1.4416949 0.19658981
0.7969182 0.42682227 -6.1250477 -2.2748406 1.1920887 3.7094035 -1.9011437 -0.15688421
0.38671347 0.23596992 0.034584075 0.10793053 -0.014233445 0.20919459 -0.13131003 0.132256
-2.940411 -2.9709792 1.6385541 -0.6114185 2.4127426 0.037070494 -0.28109807 -0.68568265
-0.9239639 0.25998366 -0.3194467 -0.2231225 0.49180883 -0.36169055 -0.021058839 0.366095
0.47961164 -0.032265224 -0.32971177 1.3325994 0.42941424 -0.3947208 1.5213753 -0.4150376
1.6684031 0.72732747 0.46870798 1.5716993 -3.3728096 -0.0060041575 -0.6463941 0.36866492
0.58560824 1.1575766 -0.036595583 -0.261355 -0.18741639 -0.8455138 1.0963323 -1.111173
0.9256618 1.0642623 -4.5500665 0.49590918 0.59641683 1.9746689 0.1094947 0.2870075
0.10917761 0.25714448 0.62899673 0.012000989 0.0056955907 0.35824016 0.5727088 -0.47792196
-0.08076047 -0.20935792 0.7061024 -0.070967376 -0.62283975 1.1390171 -1.7019085 0.86089325
0.6238867 -0.20754384 1.5850298 -0.07120679 -1.2980655 1.3682345 -0.81188697 -0.07177902
0.7675958 -0.35893908 -2.5578697 1.7460674 -0.6048167 0.6052214 0.8211518 0.5946498
0.7858396 -1.0642934 1.045468 1.0814381 -0.23065096 -0.36546114 -1.173083 -0.2150337
1.2205017 3.783071 -0.00367513 0.29482082 1.7096137 -1.0781149 4.7211747 -1.1374832
0.27159533 1.5520685 -0.9912685 0.00074129447 -1.4366883 -0.21832928 -5.3668356 -0.39936888
-1.8642015 -1.2745557 0.33477157 -2.357726 0.4559729 -0.3300206 0.84007114 -1.1139324
-0.28692248 0.71797174 -4.7592854 2.361515 -2.1007812 1.6420748 -0.87655264 0.43062955
0.35316488 -0.06288274 2.5869455 -0.027349813 0.46786574 -1.1023465 -0.75209284 0.24319275
1.5387971 -0.25715247 0.37300608 0.28686148 1.1008998 -0.6663046 -0.14432506 0.1331483
0.5704611 0.22001976 0.034465294 -1.1218903 -1.5631264 -0.5664621 0.15182789 0.1970592
3.030921 5.6700044 1.3379878 1.4084122 3.0255783 0.35329592 7.449073 -1.0666625
-0.1432074 -0.098702274 -3.9600258 0.060340803 0.77353543 -0.4149971 0.94207644 0.272234
-0.5544491 -0.24808007 0.66186565 -1.0507196 0.63946235 -0.41808227 1.1568748 0.8936081
-0.84827816 0.28759876 -0.118371755 -0.04337026 0.5674724 0.8523837 0.31593925 -0.19694132
0.03184119 -1.3767779 0.9260543 -1.1861159 1.0812118 -0.116806485 -0.7741661 0.62225974
00000000: 1d9f 883f f396 cbbe 0721 7040 a271 45be
00000010: 5e45 c1be 022b 96be d0eb 66bb f04c 3440
00000020: eda8 32be f03c 23bd 9a1d f93f 2b1f 21bf
00000030: a48a 8c40 e527 2dbf 6f06 d03f f833 a23f
00000040: e119 0fbf eefd 7f3d 64be c6bf d9ca fdbe
00000050: 8911 713f a7ef 4740 d6c7 6abf af6b 493f
00000060: 8745 0940 ca9d 8abf 139c a240 25ed f53e
00000070: 79a9 973f c75c a1be 8637 86bf 7ef6 243f
00000080: 7dcf 8abe 1871 56bf a9b9 803e b35e fa3d
00000090: e80a 06bf 9bef 1f3e cb13 0dbe d669 24be
000000a0: c238 ed3e 3643 f8bc b810 263f e80c 83bf
000000b0: b557 63be 8a30 74bf 7f8e 1ac1 1e4c c73f
000000c0: 05d6 00c0 e5d5 973f 48a0 9abf 7f6d 1c3f
000000d0: 5224 823e 1eea a3be 7589 b83f d74e 493e
000000e0: d502 4c3f 7388 da3e 6400 c4c0 fd96 11c0
000000f0: 5d96 983f de66 6d40 ad58 f3bf 41a6 20be
00000100: 4fff c53e 19a2 713e 08a8 0d3d af0a dd3d
00000110: 6533 69bc 1b37 563e 2376 06be 1e6e 073e
00000120: b22f 3cc0 8624 3ec0 24bc d13f ec85 1cbf
00000130: 606a 1a40 3bd7 173d 16ec 8fbe e688 2fbf
00000140: e688 6cbf 941c 853e 858e a3be 3a7a 64be
00000150: 5ece fb3e 812f b9be 9683 acbc ce70 bb3e
00000160: a88f f53e 8a28 04bd fbcf a8be 9e92 aa3f
00000170: 2fdc db3e d818 cabe 6dbc c23f cf7f d4be
00000180: 3c8e d53f 2232 3a3f 7efa ef3e 712d c93f
00000190: 1ddc 57c0 86be c4bb 157a 25bf a6c1 bc3e
000001a0: 6cea 153f 782b 943f 40e5 15bd 53d0 85be
000001b0: 15ea 3fbe 9873 58bf 9e54 8c3f eb3a 8ebf
000001c0: 2cf8 6c3f bf39 883f 259a 91c0 cfe7 fd3e
000001d0: c6ae 183f f3c1 fc3f c23e e03d a6f2 923e
000001e0: 8398 df3d 71a8 833e ee05 213f cc9f 443c
000001f0: 14a2 ba3b 416b b73e 0b9d 123f 30b2 f4be
00000200: bf65 a5bd ec61 56be 20c3 343f 5857 91bd
00000210: 6d72 1fbf 50cb 913f 23d8 d9bf 8063 5c3f
00000220: 0ab7 1f3f 5f86 54be 42e2 ca3f ded4 91bd
00000230: 0327 a6bf 4f22 af3f d3d7 4fbf e100 93bd
00000240: 2981 443f ddc6 b7be 23b4 23c0 237f df3f
00000250: 44d5 1abf caef 1a3f 0137 523f f83a 183f
00000260: c92c 493f c43a 88bf e5d1 853f 906c 8a3f
00000270: c42f 6cbe b91d bbbe 9527 96bf cb31 5cbe
00000280: 6639 9c3f d61d 7240 73da 70bb c1f2 963e
00000290: 9fd4 da3f abff 89bf dd13 9740 0d99 91bf
000002a0: 8b0e 8b3e 2eaa c63f c6c3 7dbf 6e53 423a
000002b0: 67e5 b7bf b691 5fbe 1ebd abc0 147a ccbe
000002c0: 289e eebf a424 a3bf 2e67 ab3e fce4 16c0
000002d0: 4875 e93e 76f8 a8be e70e 573f 5695 8ebf
000002e0: 81e7 92be ffcc 373f 114c 98c0 1023 1740
000002f0: 3373 06c0 822f d23f c165 60bf 7a7b dc3e
00000300: 07d2 b43e aac8 80bd 8490 2540 b70c e0bc
00000310: 198c ef3e b119 8dbf 2889 40bf 8507 793e
00000320: 4ef7 c43f 7da9 83be a7fa be3e 82df 923e
00000330: 49ea 8c3f f092 2abf f3c9 13be 0758 083e
00000340: bd09 123f dc4c 613e 7b2b 0d3d 1a9a 8fbf
00000350: 8714 c8bf a903 11bf c578 1b3e e3c9 493e
00000360: 9cfa 4140 ad70 b540 2f43 ab3f da46 b43f
00000370: 13a3 4140 34e3 b43e ce5e ee40 6688 88bf
00000380: f6a4 12be 6b24 cabd 1071 7dc0 eb27 773d
00000390: 6b06 463f 807a d4be ec2b 713f 4162 8b3e
000003a0: 60f0 0dbf b408 7ebe 0770 293f fb7d 86bf
000003b0: ceb3 233f e10e d6be 7914 943f 80c3 643f
000003c0: c228 59bf 2540 933e e46c f2bd 04a5 31bd
000003d0: df45 113f d135 5a3f cac2 a13e fcaa 49be
000003e0: e86b 023d 423a b0bf e511 6d3f a5d2 97bf
000003f0: 2665 8a3f 3d38 efbd c02f 46bf 6a4c 1f3f

bias f4 [64]
3.3108473 5.876826 -7.078903 3.7712448 0.19392522 2.2088528 7.9749284 -0.11415347
-0.43557614 6.613693 -5.5561314 6.6871743 -3.9501364 4.5016065 -3.4904675 5.4838414
0.66893595 5.3931537 -5.8823237 -5.1212506 3.0088425 7.206492 8.548569 -8.197695
6.3844886 5.147428 6.4006667 -0.63381416 -2.7959108 6.9389563 0.8186246 0.82903695
-7.3524637 5.776798 -6.8993793 7.4370904 7.2643914 0.84506273 -8.657384 5.5455656
-6.7843566 -4.410622 -6.309414 5.876481 4.509196 -4.153451 7.4585676 3.6842704
4.9516835 -0.11916163 5.72799 2.8143082 7.966902 3.1522377 3.5353787 -4.7347827
-6.527499 2.037139 5.6318274 2.0178761 8.805938 6.645687 -0.37363625 1.1910701
00000000: ece4 5340 f50e bc40 6086 e2c0 135c 7140
00000010: 5594 463e d85d 0d40 9d32 ff40 4bc9 e9bd
00000020: d603 dfbe 60a3 d340 d4cb b1c0 55fd d540
00000030: 09cf 7cc0 290d 9040 d263 5fc0 a17b af40
00000040: 633f 2b3f b794 ac40 ff3b bcc0 49e1 a3c0
00000050: e090 4040 959b e640 f0c6 0841 c229 03c1
00000060: bb4d cc40 bbb7 a440 43d2 cc40 a541 22bf
00000070: 34f0 32c0 ee0b de40 6291 513f c43b 543f
00000080: 6247 ebc0 87db b840 b7c7 dcc0 a5fc ed40
00000090: e575 e840 0856 583f a584 0ac1 4675 b140
000000a0: 7319 d9c0 d123 8dc0 b8e6 c9c0 220c bc40
000000b0: 554b 9040 12e9 84c0 96ac ee40 16cb 6b40
000000c0: 3174 9e40 030b f4bd b24b b740 a01d 3440
000000d0: dcf0 fe40 43be 4940 a543 6240 5783 97c0
000000e0: 46e1 d0c0 7c60 0240 ee37 b440 e224 0140
000000f0: 1fe5 0c41 78a9 d440 404d bfbe fc74 983f

weight f4 [64, 64]
-0.07287024 -0.005714533 -0.0030782819 -0.0954336 -0.09933471 0.010426383 -0.0192266 0.10700945
-0.05274877 -0.117162585 -0.09349523 -0.13049524 0.07722911 -0.07593879 -0.09162498 0.0273139
0.03544431 -0.12208346 -0.027063671 0.0045851585 0.005048122 -0.089268185 -0.12702265 -0.09963666
-0.004264994 -0.120260604 -0.12765925 0.07777778 0.011307934 -0.050624825 -0.01735329 -0.08953031
-0.11034461 -0.12944669 0.06428585 -0.15064234 -0.13992022 0.058078103 -0.11047694 -0.08835343
-0.019160267 -0.17414793 -0.12804455 -0.14573742 -0.037617184 -0.057248916 0.074293226 0.046545256
0.08682655 -0.15365304 -0.07530119 0.068471156 -0.0037835315 -0.12605122 0.04850822 -0.1195441
0.07388343 -0.1457213 0.028522048 -0.053651355 -0.15396754 0.018266475 -0.09061514 -0.0117389215
-0.90956557 0.5546953 -1.3744729 0.45417783 0.30724144 1.2066987 2.3075993 0.6016747
0.53500783 1.8119302 -2.1962159 1.3563588 -0.48043203 0.5054727 -0.7787556 0.1684129
0.11654652 0.48097357 -0.38151997 -0.86460865 0.076571025 -0.10900225 1.2077295 -2.3443768
-1.4118457 -1.2405292 -0.91863364 -0.25081033 -1.2088612 0.923299 0.91133946 -0.24078701
-4.376617 2.2626345 -7.2067475 2.2121856 2.3466895 0.67116266 -0.9002462 0.55970657
-3.210273 -3.358593 -1.2666221 1.4316645 -1.0550375 -0.6057378 -0.2787542 0.71031165
0.38978365 -0.19219506 0.36616543 1.7572811 1.4486514 -0.83920014 0.8111578 -1.782192
-1.5538726 0.024571586 1.8809342 1.0583137 0.8231059 0.90760475 -0.6388557 0.23352903
0.7240993 0.5926371 0.2198485 -0.049692083 -6.335158 -1.722185 0.67904204 -1.2059994
-3.2926643 0.9264495 -0.3191926 0.20212191 0.27556065 -0.25658926 -0.30670217 2.2873385
-0.65589035 -1.1078296 0.30737695 -0.72660017 0.49941304 -0.8655084 0.5232385 -0.4576592
0.76238406 1.1561254 0.9421048 0.029503886 -0.8136232 1.0049617 -2.2610273 0.07102905
1.4490947 -0.07962369 -1.0635394 0.4821049 0.77120894 -0.90940976 -0.024146399 0.72093546
1.258652 1.7846802 0.24462578 1.4280068 -0.14806809 0.46452922 -1.5941243 -0.018744878
0.22042353 0.27786967 1.3173465 -0.15193363 0.22800279 0.7549147 0.19925205 -0.32079756
0.548431 1.5382898 0.12449869 -0.34006897 1.6119752 1.6112157 0.26382443 -1.7628753
-1.3317392 0.61183095 -1.8435171 0.353018 -0.1543792 0.97757804 2.3028913 0.40245482
-0.08782847 2.2505553 -2.271577 1.2846091 -0.80983686 0.74395365 -1.5963533 0.3662335
0.09029893 0.6774671 -1.6142389 -1.5627993 -0.23790082 0.5084775 1.0986655 -2.4924393
-1.3174487 -1.2241048 -1.0502673 -0.6512617 -1.5043399 1.5386792 0.96674603 -0.6583421
-3.3343594 2.5346773 -5.2006364 2.3097537 2.196026 0.37915048 -1.8591832 0.6020247
-2.4542668 -2.459515 -1.7622733 1.1324261 -1.6975626 -1.3872486 -0.016368823 0.50999707
0.6347978 -0.6354721 0.14693998 1.8314168 1.6502095 -1.2854873 0.9858604 -1.9184813
-1.6648717 -0.27025595 2.545065 1.4685818 0.94299436 0.6407253 -0.6995717 0.2708282
00000000: fe3c 95bd fa40 bbbb 00bd 49bb b172 c3bd
00000010: ff6f cbbd 6cd3 2a3c 1a81 9dbc c527 db3d
00000020: 180f 58bd f0f2 efbd 6d7a bfbd 8ba0 05be
00000030: 4c2a 9e3d cc85 9bbd e1a5 bbbd 66c1 df3c
00000040: 0e2e 113d e506 fabd a2b4 ddbc 193f 963b
00000050: b76a a53b 3dd2 b6bd 3a12 02be 4e0e ccbd
00000060: 5dc1 8bbb 314b f6bd 1bb9 02be f549 9f3d
00000070: ea44 393c fa5b 4fbd 7d28 8ebc ab5b b7bd
00000080: 5bfc e1bd ac8d 04be 4da8 833d fc41 1abe
00000090: 3f47 0fbe 4ee3 6d3d bc41 e2bd a5f2 b4bd
000000a0: fef5 9cbc d653 32be 1c1e 03be 313c 15be
000000b0: 7a14 1abd d77d 6abd 0c27 983d 3da6 3e3d
000000c0: 1ed2 b13d 3957 1dbe 8337 9abd 9b3a 8c3d
000000d0: 20f5 77bb 9213 01be 8eb0 463d 89d3 f4bd
000000e0: 3250 973d f737 15be 12a7 e93c 86c1 5bbd
000000f0: aba9 1dbe 93a3 953c 6e94 b9bd 9b54 40bc
00000100: 4ad9 68bf 8300 0e3f baee afbf ff89 e83e
00000110: c04e 9d3e 1a75 9a3f b5af 1340 5a07 1a3f
00000120: 46f6 083f 54ed e73f cd8e 0cc0 2a9d ad3f
00000130: 30fb f5be a966 013f 875c 47bf 6e74 2c3e
00000140: f1af ee3d 2b42 f63e 9656 c3be fe56 5dbf
00000150: 45d1 9c3d 923c dfbd e196 9a3f 450a 16c0
00000160: 5cb7 b4bf a9c9 9ebf 932b 6bbf 366a 80be
00000170: f7bb 9abf 535d 6c3f 8b4d 693f df90 76be
00000180: 3f0d 8cc0 01cf 1040 ad9d e6c0 7394 0d40
00000190: 2930 1640 51d1 2b3f 8976 66bf ee48 0f3f
000001a0: 1d75 4dc0 30f3 56c0 ac20 a2bf c840 b73f
000001b0: 780b 87bf a211 1bbf dfb8 8ebe fcd6 353f
000001c0: b991 c73e c8ce 44be 097a bb3e 96ee e03f
000001d0: 696d b93f d2d5 56bf 0aa8 4f3f de1e e4bf
000001e0: 4ce5 c6bf 5a4a c93c 74c2 f03f d376 873f
000001f0: 11b7 523f c958 683f 0c8c 23bf 3c22 6f3e
00000200: 925e 393f 11b7 173f f71f 613e ed89 4bbd
00000210: 9db9 cac0 8f70 dcbf b3d5 2d3f 305e 9abf
00000220: 03bb 52c0 cb2b 6d3f 366d a3be 0cf9 4e3e
00000230: 4916 8d3e ab5f 83be 1108 9dbe c163 1240
00000240: 6ee8 27bf 5ccd 8dbf 8360 9d3e 7802 3abf
00000250: 11b3 ff3e f591 5dbf f5f2 053f 4f52 eabe
00000260: 9a2b 433f ebfb 933f c82d 713f 22b2 f13c
00000270: 9c49 50bf 96a2 803f acb4 10c0 ae77 913d
00000280: ef7b b93f bf11 a3bd 0f22 88bf 74d6 f63e
00000290: f36d 453f 14cf 68bf abce c5bc 3a8f 383f
000002a0: 821b a13f 6770 e43f 2e7f 7a3e edc8 b63f
000002b0: 299f 17be c6d6 ed3e 440c ccbf dc8e 99bc
000002c0: b5b6 613e ef44 8e3e cf9e a83f 7d94 1bbe
000002d0: 9079 693e 1742 413f bb08 4c3e 943f a4be
000002e0: f965 0c3f aee6 c43f 2bf9 fe3d 851d aebe
000002f0: 3455 ce3f 513c ce3f ff13 873e e6a5 e1bf
00000300: 6e76 aabf f4a0 1c3f 5ef8 ebbf c6be b43e
00000310: 9515 1ebe 8e42 7a3f 9262 1340 8f0e ce3e
00000320: 6adf b3bd 1909 1040 8461 11c0 126e a43f
00000330: 7851 4fbf bf73 3e3f 4e55 ccbf f582 bb3e
00000340: a5ee b83d 7c6e 2d3f 619f cebf cf09 c8bf
00000350: 469c 73be 952b 023f 12a1 8c3f 2084 1fc0
00000360: 29a2 a8bf 77af 9cbf 296f 86bf 16b9 26bf
00000370: 368e c0bf 71f3 c43f ab7c 773f 1c89 28bf
00000380: 2566 55c0 2738 2240 9d6b a6c0 01d3 1340
00000390: b18b 0c40 0320 c23e b7f9 edbf 4a1e 1a3f
000003a0: b512 1dc0 b268 1dc0 2c92 e1bf 57f3 903f
000003b0: bb49 d9bf 5d91 b1bf e917 86bc 2b8f 023f
000003c0: 1c82 223f 4dae 22bf 6f77 163e de6b ea3f
000003d0: 113a d33f d98a a4bf 5961 7c3f cc90 f5bf
000003e0: 841a d5bf fd5e 8abe 58e2 2240 7dfa bb3f
000003f0: 1468 713f 9306 243f 2217 33bf fea9 8a3e

bias f4 [64]
-0.07705923 6.0586457 0.58049107 6.3822384 0.18134502 6.37118 6.544519 6.4154716
6.639962 6.4350467 0.35042638 6.4955196 -0.06972998 6.5171957 6.539469 6.642687
0.21212192 -0.17643775 0.5584083 6.3862305 6.660531 0.35483202 -0.21304636 6.452342
4.059548 -4.566216 -0.53568876 6.628431 6.054839 6.621766 0.3122624 0.02417166
0.86735684 2.286391 0.44869623 -0.1161243 6.439115 6.449848 0.062910296 6.5390797
6.436397 6.510277 2.2061958 -0.09680431 6.424425 -5.2654023 5.994233 6.555378
-0.070018515 4.731854 -0.09671705 0.23076986 6.53017 5.796714 -0.07276756 6.583078
5.4698663 0.07684416 -0.1000765 6.502719 6.486121 -4.1419706 6.494059 6.3902164
00000000: 3bd1 9dbd 6de0 c140 109b 143f 4c3b cc40
00000010: 82b2 393e b5e0 cb40 b36c d140 8b4b cd40
00000020: 927a d440 e7eb cd40 166b b33e 4cdb cf40
00000030: 97ce 8ebd de8c d040 5443 d140 e490 d440
00000040: 7d36 593e 19ac 34be d9f3 0e3f 005c cc40
00000050: 1223 d540 8bac b53e d328 5abe 9679 ce40
00000060: d1e7 8140 711e 92c0 e622 09bf 1b1c d440
00000070: 3ec1 c140 82e5 d340 dbe0 9f3e a503 c63c
00000080: 190b 5e3f 3b54 1240 83bb e53e 94d2 edbd
00000090: 3b0d ce40 2865 ce40 1dd7 803d 2440 d140
000000a0: f7f6 cd40 3054 d040 5032 0d40 5741 c6bd
000000b0: e494 cd40 2d7e a8c0 c2d0 bf40 a8c5 d140
000000c0: de65 8fbd 596b 9740 9713 c6bd ef4e 6c3e
000000d0: 27f7 d040 ae7e b940 2907 95bd 93a8 d240
000000e0: 2509 af40 7960 9d3d e8f4 ccbd 4616 d040
000000f0: 4e8e cf40 068b 84c0 55cf cf40 a77c cc40

weight f4 [1, 64]
-0.017858122 2.704871 -1.7462173 2.043454 -2.3651063 1.887757 1.8448125 1.9333755
2.0451844 1.9369788 -2.3736799 2.2703254 -0.012517148 2.0205152 1.9509636 1.9026442
-3.0646758 -1.2593449 -4.955074 1.9635868 1.8430903 -2.4267395 -0.046228845 1.977772
10.51034 -2.4461582 -2.3520117 1.9252317 1.4747062 2.0640252 -4.0546575 -0.029128933
-1.7582299 -0.3936804 -1.7688235 0.16759978 1.8485558 1.7946708 -0.03583631 1.8364772
2.0126603 1.9113301 4.499499 -0.022663983 1.9853264 -2.0192463 2.1184971 1.3449012
-0.022735447 3.9491777 0.012458707 -2.5827096 1.8413502 7.246817 -0.063240476 1.8920358
2.794821 -0.058395397 0.06203803 1.8760703 1.9527441 -1.884448 2.2024374 1.940828
00000000: 324b 92bc 9b1c 2d40 0c84 dfbf f3c7 0240
00000010: e75d 17c0 05a2 f13f d122 ec3f d978 f73f
00000020: 4de4 0240 ecee f73f 5fea 17c0 034d 1140
00000030: b914 4dbc 1f50 0140 2db9 f93f d889 f33f
00000040: a623 44c0 3732 a1bf f78f 9ec0 d056 fb3f
00000050: 62ea eb3f b34f 1bc0 755a 3dbd a227 fd3f
00000060: 5a2a 2841 db8d 1cc0 5c87 16c0 fe6d f63f
00000070: 2cc3 bc3f fd18 0440 c1bf 81c0 cd9f eebc
00000080: ad0d e1bf 7a90 c9be cf68 e2bf 479f 2b3e
00000090: 7a9d ec3f c6b7 e53f 18c9 12bd af11 eb3f
000000a0: 6dcf 0040 77a6 f43f e5fb 8f40 d1a9 b9bc
000000b0: 2d1f fe3f 553b 01c0 7595 0740 b925 ac3f
000000c0: b03f babc 54bf 7c40 9b1f 4c3c 1d4b 25c0
000000d0: 5db1 eb3f ede5 e740 3984 81bd 3b2e f23f
000000e0: 59de 3240 0330 6fbd 971b 7e3d 1223 f03f
000000f0: 85f3 f93f 9835 f1bf bcf4 0c40 0d6d f83f
