log_7_25/model_bak.pt (torch_old, 75895 bytes, 18 tensors)

weight f4 [64, 10]
-0.88960916 0.08700982 0.7055098 1.9983019 -1.2714789 1.2764333 -0.32073092 0.78332597
-0.6336414 -0.17006056 -0.34918377 0.3259499 -0.81618726 -1.216642 -0.0027280739 1.8944316
0.931253 0.05235567 -0.29492763 -0.42168832 -0.50848716 -0.12916312 -0.49363405 0.1082322
1.2223632 1.514955 0.5562593 0.1572987 -0.64079416 -0.23509023 -1.0929083 -1.0386766
-0.11727866 -2.2834404 -0.66728544 0.5913241 -1.6748586 0.4367447 -0.11427997 -0.0068607796
-0.5822654 -0.46905223 -1.5534251 -0.6777322 0.82432485 -0.30675283 1.7510507 -0.6174647
-2.3393817 0.0924014 1.2202548 0.3179558 0.35260394 -0.52305657 0.055508573 -0.09980697
-2.0026913 -0.8195892 0.036382113 -0.10088552 -0.17836669 -0.5268496 -0.4891412 0.5337688
0.1736002 -0.4133419 -0.796078 0.332629 1.8954318 0.42114735 -1.1268061 0.12583114
0.19022171 -1.3957611 2.658477 0.4682194 0.9069807 -0.37356278 -0.7547501 -0.07281551
-0.7763381 -0.6321957 0.71407926 -0.089811906 -2.398661 -0.22288772 -0.894853 -0.16150287
-0.28917116 -0.2494307 0.63694525 0.12343412 0.059000093 0.83675325 -1.0461076 0.60771185
1.1434166 -1.1174245 -0.6518598 0.2661943 -0.2674518 -0.62292504 0.9151471 -2.3178322
-0.0375304 0.7946738 -0.35705164 -0.99158907 0.56999797 -0.37256566 0.13411957 0.53449917
0.8547706 1.3199496 0.47119948 -0.23121648 -0.16328387 0.7999141 -0.40541488 0.09498963
-0.23069383 0.84569365 -2.9087005 -0.33751914 0.4785343 0.13270044 0.07353589 -0.5113112
-0.32410696 -0.5593908 0.43404764 0.19050658 -1.239442 -0.8019405 0.383772 -0.28996378
-1.4686782 -0.052279662 0.24662682 0.19195534 -0.58106345 1.3445824 -0.1591328 -0.2146756
-0.13052428 0.49392948 1.0657475 0.14854428 -0.6410777 -0.1924519 -0.24212314 -0.15492596
-1.4394884 -1.4548836 -0.5130834 0.047290422 -0.10747941 -0.8662578 -1.0525028 -0.15372604
0.47781518 0.29785258 0.7542686 0.32745507 -0.4008442 -0.52186763 0.8667367 -0.22985363
1.040348 0.26256615 0.4866566 -0.72121143 0.32140738 -0.8387657 -1.1709315 0.23533414
-0.6954425 -0.3826363 1.2991296 -0.20139806 -0.16892914 0.2067729 -1.4527534 -1.100873
0.89754456 1.0949773 0.5736068 -1.1758118 0.5330131 0.48324528 0.9261279 -0.17525733
0.6832057 2.1878164 -0.80779094 0.73836845 0.5118568 -0.7658059 -0.6740476 -0.32553315
0.16191031 -0.060395528 -0.046983372 -2.5114715 -0.26929456 1.6044737 0.33492133 0.62720644
-0.6536004 0.46135035 -0.16786891 0.08720798 0.6267139 -0.16666888 -0.63278806 1.0555503
1.2296727 -0.10842301 1.9665391 0.39852405 0.7138754 0.45585248 0.9569772 -0.75812465
0.62152535 -0.49376023 1.1266743 -0.02073264 0.054271027 0.098005 0.1918505 -0.9198822
-1.472741 0.47042143 -1.3976759 -0.01992235 -1.4750996 1.3467124 -1.6345427 0.38288507
0.692279 1.0312189 -0.596866 0.12435817 0.77423924 -0.28526503 -2.0842052 -0.80282915
0.046325453 -0.052288625 -1.0124518 0.20686772 -0.248836 -0.116828166 1.4514112 -0.44483256
00000000: 6dbd 63bf 3432 b23d 4a9c 343f 5bc8 ff3f
00000010: d2bf a2bf 2b62 a33f d836 a4be 0d88 483f
00000020: 5336 22bf 5b24 2ebe 37c8 b2be e8e2 a63e
00000030: a6f1 50bf edba 9bbf 7cc9 32bb bc7c f23f
00000040: 9966 6e3f e672 563d c100 97be 88e7 d7be
00000050: 372c 02bf 5643 04be 9abd fcbe d8a8 dd3d
00000060: 6676 9c3f 0cea c13f 0267 0e3f e912 213e
00000070: 160b 24bf 7ebb 70be 6be4 8bbf 5bf3 84bf
00000080: cb2f f0bd e323 12c0 38d3 2abf 0461 173f
00000090: c461 d6bf 009d df3e 9e0b eabd 64d0 e0bb
000000a0: 580f 15bf 9d27 f0be a2d6 c6bf dc7f 2dbf
000000b0: f406 533f b50e 9dbe 6e22 e03f 2b12 1ebf
000000c0: 6eb8 15c0 f23c bd3d 4f31 9c3f 1acb a23e
000000d0: 8188 b43e 09e7 05bf f55c 633d 9967 ccbd
000000e0: 182c 00c0 99d0 51bf 6905 153d 119d cebd
000000f0: c2a5 36be 9edf 06bf b770 fabe 12a5 083f
00000100: 40c4 313e 8da1 d3be c5cb 4bbf 594e aa3e
00000110: 829d f23f a0a0 d73e 2f3b 90bf e1d9 003e
00000120: 7bc9 423e 4da8 b2bf 7d24 2a40 74ba ef3e
00000130: e32f 683f 9f43 bfbe 4d37 41bf 4c20 95bd
00000140: 18be 46bf 94d7 21bf e6cd 363f 4eef b7bd
00000150: a983 19c0 ae3c 64be 1615 65bf 0261 25be
00000160: 3e0e 94be c36a 7fbe d80e 233f 07cb fc3d
00000170: 15aa 713d 7635 563f dbe6 85bf 0193 1b3f
00000180: 7a5b 923f c407 8fbf 49e0 26bf 9f4a 883e
00000190: 71ef 88be 0478 1fbf 1547 6a3f 5d57 14c0
000001a0: 7ab9 19bd be6f 4b3f 79cf b6be c8d8 7dbf
000001b0: 63eb 113f edc0 bebe a456 093e f0d4 083f
000001c0: 3fd2 5a3f 1cf4 a83f 0f41 f13e 03c4 6cbe
000001d0: e333 27be 2cc7 4c3f 8a92 cfbe ec89 c23d
000001e0: 013b 6cbe 617f 583f 2628 3ac0 4fcf acbe
000001f0: 7302 f53e a0e2 073e fc99 963d 4ae5 02bf
00000200: 59f1 a5be 3c34 0fbf 7e3b de3e 2814 433e
00000210: 09a6 9ebf f94b 4dbf c37d c43e 2276 94be
00000220: a6fd bbbf 3323 56bd be8b 7c3e f18f 443e
00000230: 93c0 14bf 471b ac3f b5f3 22be ecd3 5bbe
00000240: 28a8 05be 53e4 fc3e 6a6a 883f fe1b 183e
00000250: ab1d 24bf 1c12 45be 21ef 77be e9a4 1ebe
00000260: 2841 b8bf a039 babf 6f59 03bf 9ab3 413d
00000270: 2a1e dcbd 12c3 5dbf 69b8 86bf 5c6a 1dbe
00000280: 31a4 f43e 2280 983e bf17 413f 31a8 a73e
00000290: 733b cdbe 1e99 05bf 75e2 5d3f c05e 6bbe
000002a0: 202a 853f 126f 863e 0e2b f93e 50a1 38bf
000002b0: 828f a43e 59b9 56bf 15e1 95bf 6ffb 703e
000002c0: 8508 32bf e8e8 c3be e149 a63f 4b3b 4ebe
000002d0: c3fb 2cbe 46bc 533e d3f3 b9bf 68e9 8cbf
000002e0: 7bc5 653f 3728 8c3f e5d7 123f 0081 96bf
000002f0: 8c73 083f ed6b f73e b816 6d3f a876 33be
00000300: 92e6 2e3f 2f05 0c40 63cb 4ebf b705 3d3f
00000310: 0c09 033f db0b 44bf 628e 2cbf 48ac a6be
00000320: d1cb 253e 4d61 77bd a371 40bd f3bb 20c0
00000330: fae0 89be 655f cd3f cf7a ab3e 9a90 203f
00000340: 5b52 27bf 1d36 ec3e d4e5 2bbe 199a b23d
00000350: 5270 203f 3fab 2abe 66fe 21bf 461c 873f
00000360: ea65 9d3f e20c debd 8eb7 fb3f 580b cc3e
00000370: 8ac0 363f 7f65 e93e 75fc 743f 7514 42bf
00000380: 491c 1f3f 24ce fcbe dd36 903f 7fd7 a9bc
00000390: 4c4b 5e3d d8b6 c83d 7574 443e 667d 6bbf
000003a0: c782 bcbf 14db f03e 0be7 b2bf 3234 a3bc
000003b0: 10d0 bcbf 1261 ac3f b238 d1bf 8309 c43e
000003c0: 3239 313f fbfe 833f 36cc 18bf 7faf fe3d
000003d0: 8b34 463f 420e 92be 9e63 05c0 3686 4dbf
000003e0: c2bf 3d3d 992c 56bd 0598 81bf 22d5 533e
000003f0: ddce 7ebe 9b43 efbd d8c7 b93f 18c1 e3be

bias f4 [64]
-0.42653567 0.18113253 0.15230456 -1.0028119 -1.5099515 0.4939736 -1.4021094 -0.13197187
0.23953462 -0.28122997 0.6877283 0.94211465 0.6162848 -2.8168533 -2.1027179 0.36109915
-1.7897723 -0.3475379 -1.7149243 -0.3862453 -0.69862473 -0.41824874 -1.1201375 -1.3977058
0.22096844 -1.9438696 0.73286766 0.2942657 -2.4643297 0.39656636 -0.14912081 0.22325917
-0.05066854 -0.15040639 0.21392569 -1.3320029 0.16064855 0.8882252 0.73008335 -1.5478892
0.52166635 -1.9242712 -0.6370052 -1.5504043 -0.36032596 -0.0440452 -2.0458713 -0.50182843
0.27957356 0.47108403 0.7325042 -0.33287862 -0.94890124 0.5405214 -1.1098636 0.19580658
0.8288762 -1.3657538 -0.4928178 0.3364101 -0.6796337 0.37640914 0.77838194 0.8210228
00000000: e262 dabe ce7a 393e baf5 1b3e 245c 80bf
00000010: 1746 c1bf 1cea fc3e 5278 b3bf a223 07be
00000020: 9048 753e 60fd 8fbe f60e 303f 6d2e 713f
00000030: d7c4 1d3f 5347 34c0 ee92 06c0 fde1 b83e
00000040: 4217 e5bf 7df0 b1be a482 dbbf f2c1 c5be
00000050: 12d9 32bf b324 d6be aa60 8fbf 06e8 b2bf
00000060: 8d45 623e b8d0 f8bf 379d 3b3f fea9 963e
00000070: 94b7 1dc0 bf0a cb3e 20b3 18be 0d9e 643e
00000080: d189 4fbd 2204 1abe 560f 5b3e 127f aabf
00000090: 0e81 243e ba62 633f bee6 3a3f 3c21 c6bf
000000a0: ed8b 053f 854e f6bf c612 23bf a673 c6bf
000000b0: a57c b8be bd68 34bd 8eef 02c0 d477 00bf
000000c0: 4424 8f3e ed31 f13e 6585 3b3f 116f aabe
000000d0: 31eb 72bf 9c5f 0a3f 0310 8ebf 8581 483e
000000e0: 3b31 543f 05d1 aebf 9d52 fcbe f23d ac3e
000000f0: 79fc 2dbf b3b8 c03e 0a44 473f 8d2e 523f

weight f4 [64, 64]
-0.97704536 -1.1898359 1.1026711 0.24446948 -0.031203225 0.28651622 0.35312468 -2.1837568
0.75082445 0.7230269 0.79300153 -0.87363106 -0.3443264 -0.24651486 0.40898722 -1.1228607
0.52065897 0.46192735 -1.3088685 -2.0271754 -0.21377833 -0.40186572 -0.29202867 -0.14010148
0.29335266 -3.220745 -0.43507004 -0.057090513 0.6166672 0.7758411 0.49563596 0.88263875
-0.9526988 -0.85149485 -0.9380824 0.19581589 -4.3113427 -0.28407687 -0.7349571 -1.5577279
0.9657779 -0.3716948 -0.53100115 0.54769075 0.2966587 -1.2081555 -1.1814921 -0.42422247
0.046113126 -0.0525798 -2.201646 0.058674697 -0.2680839 0.4915864 0.77267927 -2.599757
-2.2075036 -0.90451825 0.72822595 -0.48123947 -1.916351 0.090329155 -0.17883614 0.47437716
-0.27486733 -0.12228566 1.504279 -1.4832102 -0.92234087 -0.6683937 -1.2035208 -1.1066444
0.37840044 0.9780048 0.62637776 -0.9602566 -0.69278544 -0.2066718 0.050553463 -0.61044484
1.3770522 -0.97487515 -0.7201538 0.4395852 -0.6419081 0.037589364 -0.1899655 -0.6796538
0.6395699 -0.9817337 -0.23623925 0.5060746 -0.99334 0.6958292 -0.833585 -0.53154606
0.67235994 -1.4038574 0.22519998 0.8776704 -0.093858115 0.04146994 0.65034133 -0.78606606
-0.380897 -2.1058729 -1.8351204 -0.7665263 -1.8722309 -0.23149848 -0.40245265 -1.6097559
0.5270692 0.88481385 -0.0912181 -0.32519004 -0.093676016 0.71941733 -0.4725228 0.45722663
-0.5523509 -0.62468386 -1.8385812 0.68191445 -0.011414328 -0.21778396 -0.7513249 0.9365326
0.39272156 -0.33224052 0.30401906 1.5465705 -1.6145396 1.4247289 -1.1364547 0.46813637
-0.08612458 -0.16807744 0.50283414 -0.7511285 -0.31013206 0.14672904 -0.6858328 -1.1122813
-0.081690446 0.24204028 0.42269707 -1.1140172 1.0719819 0.49722782 0.86061877 0.49940613
0.8447877 -1.4185083 0.27457908 -0.80225706 -1.3990328 -0.45729515 0.09829467 0.3629057
0.6425288 -0.6835079 0.26778346 -0.45248473 -0.81468797 1.0601661 -0.9960231 -0.76949275
1.3680593 0.10186539 -0.8370313 0.19979292 0.7463496 0.25268525 -1.107547 -1.2430899
-0.23361698 0.47976696 -1.0004208 -1.2392261 1.0287808 0.99227476 -0.7298834 -0.23093446
-0.17381369 0.4633174 -0.06057269 0.04050081 -0.7424782 0.5772519 -1.8687373 -0.53943485
-0.042753026 -0.4950799 0.5819484 -0.6094318 0.61966205 -0.08776992 0.63542134 0.49331003
0.29768813 -0.80545616 0.54336524 0.5157989 0.35789445 -2.3739948 -0.7920974 0.70349073
-1.4402529 0.27132395 -0.62870294 0.7659889 0.13030848 -0.877501 -0.8107555 0.08352823
0.19002493 0.47831285 -0.4417047 1.1345989 -0.26994264 0.4352443 -0.44103009 -0.44216898
-0.7852422 -0.16273445 0.6539795 -1.0268911 -0.7978803 0.6567612 -0.6423963 0.89630353
0.16904657 -0.5595189 -0.85054547 0.3822384 0.5674109 0.5921842 0.37817279 -1.4198949
-0.19663376 0.38734257 0.34547552 -0.34398705 -1.0205071 0.6317463 -1.9253116 0.11430514
0.7086978 -0.5327455 0.5538565 -0.45099357 -1.0740212 0.284202 -0.7826296 -0.433643
00000000: a51f 7abf 8b4c 98bf 5424 8d3f 3556 7a3e
00000010: e89d ffbc 41b2 923e c2cc b43e acc2 0bc0
00000020: 0836 403f 4a18 393f 2602 4b3f 49a6 5fbf
00000030: 8d4b b0be 646e 7cbe c666 d13e e6b9 8fbf
00000040: e849 053f be81 ec3e 0189 a7bf 3ebd 01c0
00000050: b5e8 5abe 58c1 cdbe c884 95be c376 0fbe
00000060: 5232 963e b020 4ec0 80c1 debe bed7 69bd
00000070: e7dd 1d3f 869d 463f ffc3 fd3e 9df4 613f
00000080: 12e4 73bf 91fb 59bf 2b26 70bf f683 483e
00000090: 85f6 89c0 8672 91be 2626 3cbf a163 c7bf
000000a0: 383d 773f c84e bebe b1ef 07bf 7635 0c3f
000000b0: a6e3 973e d7a4 9abf 223b 97bf b033 d9be
000000c0: 1ee1 3c3d eb5d 57bd c5e7 0cc0 e154 703d
000000d0: 4b42 89be 36b1 fb3e 4fce 453f 6b62 26c0
000000e0: bd47 0dc0 828e 67bf 046d 3a3f 0565 f6be
000000f0: fd4a f5bf 7efe b83d d220 37be 90e1 f23e
00000100: 69bb 8cbe e770 fabd 378c c03f d5d9 bdbf
00000110: 881e 6cbf d91b 2bbf f80c 9abf 86a6 8dbf
00000120: b4bd c13e 865e 7a3f 4b5a 203f 60d3 75bf
00000130: 635a 31bf c6a1 53be 2611 4f3d 1d46 1cbf
00000140: 3f43 b03f 6b91 79bf 005c 38bf 5011 e13e
00000150: 1754 24bf 4ef7 193d 5186 42be cbfd 2dbf
00000160: daba 233f e652 7bbf b4e8 71be 1b8e 013f
00000170: 884b 7ebf dd21 323f d465 55bf 6713 08bf
00000180: c81f 2c3f 99b1 b3bf d39a 663e 02af 603f
00000190: af38 c0bd 62dc 293d c57c 263f a03b 49bf
000001a0: ee04 c3be 9fc6 06c0 3ae5 eabf 113b 44bf
000001b0: 43a5 efbf f00d 6dbe 460e cebe 7b0c cebf
000001c0: 02ee 063f 2983 623f 8ed0 babd 4f7f a6be
000001d0: 36d9 bfbd bc2b 383f 82ee f1be 9c19 ea3e
000001e0: de66 0dbf 48eb 1fbf a156 ebbf f291 2e3f
000001f0: 2903 3bbc c202 5fbe d456 40bf 9ac0 6f3f
00000200: cd12 c93e 6e1b aabe 63a8 9b3e 06f6 c53f
00000210: 3ca9 cebf 845d b63f 5977 91bf 92af ef3e
00000220: 1562 b0bd 7e1c 2cbe bdb9 003f f549 40bf
00000230: a1c9 9ebe 2340 163e bd92 2fbf 3c5f 8ebf
00000240: 524d a7bd 68d9 773e c06b d83e 1e98 8ebf
00000250: b436 893f a594 fe3e 8351 5c3f 29b2 ff3e
00000260: 0244 583f ae91 b5bf a195 8c3e b860 4dbf
00000270: 8213 b3bf 9722 eabe b74e c93d c7ce b93e
00000280: c47c 243f 60fa 2ebf ea1a 893e 14ac e7be
00000290: 648f 50bf 86b3 873f 5ffb 7ebf 7afd 44bf
000002a0: 911c af3f cd9e d03d af47 56bf 8496 4c3e
000002b0: c410 3f3f f65f 813e 1ac4 8dbf 921d 9fbf
000002c0: 4a39 6fbe 04a4 f53e ca0d 80bf f69e 9ebf
000002d0: 17af 833f b805 7e3f a3d9 3abf 157a 6cbe
000002e0: 37fc 31be f037 ed3e 121b 78bd 2de4 253d
000002f0: 0d13 3ebf c8c6 133f c932 efbf 6718 0abf
00000300: cc1d 2fbd 1d7b fdbe 92fa 143f b903 1cbf
00000310: 2ca2 1e3f b7c0 b3bd f9aa 223f 2293 fc3e
00000320: 946a 983e 6032 4ebf fc19 0b3f 660b 043f
00000330: f13d b73e 88ef 17c0 e5c6 4abf f817 343f
00000340: 355a b8bf f9ea 8a3e adf2 20bf d917 443f
00000350: 966f 053e e8a3 60bf ac8d 4fbf d910 ab3d
00000360: e595 423e 6ce5 f43e 1e27 e2be 893a 913f
00000370: ec35 8abe 57d8 de3e b2ce e1be f963 e2be
00000380: a205 49bf dca3 26be 336b 273f 2b71 83bf
00000390: e241 4cbf 8121 283f 1574 24bf 2674 653f
000003a0: 8b1a 2d3e a13c 0fbf 59bd 59bf c0b4 c33e
000003b0: d741 113f 6299 173f dd9f c13e 1ebf b5bf
000003c0: 5c5a 49be c451 c63e 2be2 b03e 121f b0be
000003d0: fa9f 82bf 20ba 213f 9c70 f6bf d018 ea3d
000003e0: 386d 353f 0262 08bf 8ac9 0d3f a1e8 e6be
000003f0: 8779 89bf ed82 913e 6a5a 48bf 7506 debe

bias f4 [64]
0.42225334 0.11016497 -0.09082925 0.30338186 -0.18072537 -0.12512636 0.106404744 0.020588247
0.34694964 -0.11458265 -0.44661036 0.08767462 0.56389177 -0.114895344 0.010754381 0.39858893
-0.13735482 -0.42270383 0.029231524 -0.13744208 0.48148665 1.282337 -0.34272242 0.061865933
0.17773196 -0.1456279 0.3330783 -0.35781643 -0.19792481 0.88888043 -0.09441988 0.26445362
-0.14635815 -0.024709122 -0.22239739 0.019842038 0.12185949 -0.4333017 -0.014068501 -0.0019537616
0.2188739 0.41121534 0.15130578 0.092979945 0.05951074 0.34141737 0.05939264 -0.09855623
0.042150036 -0.19449177 0.17515913 0.82725066 0.13643794 0.054752775 0.26491594 0.15048109
-0.34051287 0.6236766 -0.07784263 1.4782095 -1.2865077 -0.47008368 0.137908 -0.07297395
00000000: 9731 d83e 2c9e e13d b004 babd de54 9b3e
00000010: 1210 39be 2021 00be bbea d93d afa8 a83c
00000020: 62a3 b13e 4faa eabd 1daa e4be c08e b33d
00000030: 365b 103f 404e ebbd 2533 303c d913 cc3e
00000040: bea6 0cbe a36c d8be f376 ef3c 9ebd 0cbe
00000050: 6b85 f63e 9e23 a43f 5079 afbe 2267 7d3d
00000060: 5eff 353e 7b1f 15be 3d89 aa3e b733 b7be
00000070: cdac 4abe ab8d 633f 365f c1bd 7766 873e
00000080: e9de 15be c96a cabc 24bc 63be c58b a23c
00000090: 7891 f93d b8d9 ddbe 927f 66bc ae0a 00bb
000000a0: 7b20 603e d18a d23e e7ef 1a3e 456c be3d
000000b0: 89c1 733d 42ce ae3e b245 733d d9d7 c9bd
000000c0: 84a5 2c3d da28 47be ea5c 333e b3c6 533f
000000d0: 63b6 0b3e 7244 603d 10a3 873e b717 1a3e
000000e0: b457 aebe 45a9 1f3f f56b 9fbd f835 bd3f
000000f0: 49ac a4bf cfae f0be c137 0d3e 5e73 95bd

weight f4 [10, 64]
-0.8512024 0.8384636 0.12759659 -0.30405375 0.022138935 0.07971549 -0.031273805 -0.18733943
0.41200712 -1.0359688 0.33343384 -0.5641147 0.2687354 -0.03280489 0.01557855 1.425312
0.19845413 -0.22818007 -0.70594376 0.015140544 0.3939544 0.31785604 -0.031052731 -0.2935249
0.45171914 0.38412914 -1.1346109 0.26261178 -0.16227 0.25053564 -0.6946998 0.38067412
0.047084473 -0.5513013 -0.28218478 -0.27901486 0.44250798 -0.1468645 -0.12462124 -0.047215898
-0.8590179 -0.56297106 -0.32987407 -0.35314283 1.2568983 1.8886228 0.30084598 0.06895866
-0.40789992 0.005508464 -0.23012637 -0.6385482 -1.9895679 0.12056844 -0.1933031 -0.32661712
-2.0381057 -0.89105964 0.22088754 1.0993024 0.12492391 -1.7269417 0.13443798 0.33428836
-1.4971094 0.020337902 0.40533203 -0.37237552 -0.0017286799 0.0026417584 -0.3492031 0.54647934
0.69031215 -1.2976131 0.29373527 -1.1108018 -1.0033242 -0.0500227 0.16039765 -1.1051015
0.2508237 -0.69576246 0.15447083 0.023618672 -2.1161814 1.4670832 -0.3605562 0.9556221
2.6743584 -0.28829864 0.23403051 0.022007868 -0.11036122 -0.18639597 1.0681282 -0.14539132
0.004642143 -0.41035077 -0.057821814 -1.633203 0.70256805 -1.3344462 1.159413 -0.069561124
0.06902814 1.1745168 -3.1635551 -0.26564485 0.040107027 -3.793143 -4.1065874 0.100114346
0.040958315 0.123911485 0.51595646 -2.0728676 -1.60004 0.44871652 -0.69664127 0.39317766
0.38597396 0.08194332 -0.12089292 -0.08062841 -0.27069715 -1.5446143 0.0049550897 1.1235564
-0.080366015 0.7596975 0.374552 0.40148187 -0.16683732 -0.033902504 -0.08346696 -1.6518705
0.6343768 0.2001488 -1.1613002 0.69547474 -0.78887427 -0.0069038826 0.07363346 0.07077925
0.35373387 1.2548662 0.5781908 0.06173401 -0.5054149 0.48435396 0.87544054 -0.3672139
-2.1904933 1.0510803 0.18558061 -0.8169118 0.032813653 -0.058748275 0.07475222 0.0055971816
0.03612399 -1.5577807 -0.25297448 -1.1665173 0.28044903 0.13841201 -0.73615843 0.015281604
-0.17187326 0.37968552 -0.92458886 -0.5904545 0.4576803 -1.6888254 -2.9991758 0.15734726
0.026127866 -0.37196982 0.15110457 -1.3366139 -1.1772716 -0.18002416 -0.13267478 -0.5060228
2.013176 -1.2495977 -0.20622024 0.26222566 -0.69474113 0.048119742 0.058147367 -0.19236998
2.6745334 -0.18319067 0.24305099 0.062730685 0.07210636 0.081978746 0.37346116 0.65290326
0.26609254 1.2531161 -0.60270995 0.49209306 -0.27844223 -0.040068597 -0.054790776 -0.27798465
0.5553234 -0.040260546 0.47886336 0.0063192514 1.7844558 -0.74643457 -0.110360965 -0.068487555
-1.8290327 0.40756902 0.29843426 0.14637896 0.11241831 -0.25400314 -1.2153668 0.1228447
-0.008628836 -0.18013903 0.03722548 0.36315495 -0.097892344 1.1804483 1.339977 -0.0033349267
0.34816238 1.3682953 0.15599087 -0.034304492 -0.3689966 0.38094872 1.8192538 0.000118411495
1.1558429 0.008773018 -0.4336986 0.25413448 1.133171 -0.27807975 0.4510653 -0.42489457
2.040772 0.6233053 -0.037900865 -0.14336325 -0.31695592 1.535352 0.1284132 0.1368647
00000000: 67e8 59bf 8da5 563f aea8 023e efac 9bbe
00000010: b65c b53c e041 a33d f618 00bd e8d5 3fbe
00000020: 99f2 d23e a09a 84bf d7b7 aa3e d269 10bf
00000030: b097 893e 6c5e 06bd 2d3d 7f3c a070 b63f
00000040: 8f37 4b3e 09a8 69be bbb8 34bf 0b10 783c
00000050: 64b4 c93e 07be a23e 4c62 febc e548 96be
00000060: bb47 e73e 93ac c43e ee3a 91bf 0d75 863e
00000070: 1b2a 26be 3546 803e d9d7 31bf b8e7 c23e
00000080: a6db 403d 1522 0dbf 867a 90be 09db 8ebe
00000090: 6890 e23e a663 16be 6c39 ffbd 7565 41bd
000000a0: 99e8 5bbf df1e 10bf 41e5 a8be 23cf b4be
000000b0: 0be2 a03f 64be f13f 7c08 9a3e 333a 8d3d
000000c0: 42d8 d0be 5880 b43b 3fa6 6bbe e577 23bf
000000d0: 29aa febf 96ec f63d 3ff1 45be 5c3a a7be
000000e0: 5370 02c0 7c1c 64bf 5830 623e f1b5 8c3f
000000f0: 1bd8 ff3d 6d0c ddbf 1caa 093e d827 ab3e
00000100: 48a1 bfbf ac9b a63c ae87 cf3e 01a8 bebe
00000110: df94 e2ba 5a21 2d3b c0ca b2be 12e6 0b3f
00000120: 4cb8 303f 3018 a6bf 7864 963e c12e 8ebf
00000130: ed6c 80bf 9ae4 4cbd 483f 243e f773 8dbf
00000140: f76b 803e 7d1d 32bf 9a2d 1e3e f27b c13c
00000150: 846f 07c0 62c9 bb3f d29a b8be a6a3 743f
00000160: b028 2b40 e19b 93be b2a5 6f3e d849 b43c
00000170: 1005 e2bd 96de 3ebe 6db8 883f 76e1 14be
00000180: 1e1d 983b 7f19 d2be 91d6 6cbd cc0c d1bf
00000190: 80db 333f 22cf aabf a567 943f 1076 8ebd
000001a0: a05e 8d3d 9156 963f b077 4ac0 9a02 88be
000001b0: 4447 243d dbc2 72c0 2a69 83c0 c008 cd3d
000001c0: e8c3 273d 4ec5 fd3d b915 043f dda9 04c0
000001d0: 1cce ccbf 2cbe e53e 1557 32bf 954e c93e
000001e0: 619e c53e e6d1 a73d b596 f7bd 8220 a5bd
000001f0: d198 8abe ecb5 c5bf 4e5e a23b b2d0 8f3f
00000200: f096 a4bd 897b 423f 48c5 bf3e 088f cd3e
00000210: 67d7 2abe 5add 0abd baf0 aabd 7e70 d3bf
00000220: 8566 223f cff3 4c3e 7ca5 94bf a20a 323f
00000230: aaf3 49bf f739 e2bb 24cd 963d b6f4 903d
00000240: 9b1c b53e 759f a03f 5004 143f cddc 7c3d
00000250: df62 01bf 3efd f73e df1c 603f 7603 bcbe
00000260: 0b31 0cc0 cd89 863f d808 3e3e 2221 51bf
00000270: 9c67 063d 08a2 70bd b117 993d 9068 b73b
00000280: c0f6 133d 5c65 c7bf df85 81be 7050 95bf
00000290: 0497 8f3e e1bb 0d3e e174 3cbf b15f 7a3c
000002a0: 8bff 2fbe 2466 c23e dbb1 6cbf 0728 17bf
000002b0: 1355 ea3e 6e2b d8bf 7ff2 3fc0 a41f 213e
000002c0: 1b0a d63c d472 bebe 28bb 1a3e 2a16 abbf
000002d0: d6b0 96bf 4158 38be e6db 07be b68a 01bf
000002e0: e0d7 0040 d1f2 9fbf 662b 53be 7142 863e
000002f0: 8eda 31bf 3519 453d ef2b 6e3d a3fc 44be
00000300: 8e2b 2b40 5696 3bbe 5ce2 783e f278 803d
00000310: 80ac 933d 79e4 a73d 4d36 bf3e ab24 273f
00000320: 483d 883e 1c66 a03f 334b 1abf 9ff3 fb3e
00000330: fb8f 8ebe f81e 24bd 4b6c 60bd 0154 8ebe
00000340: ad29 0e3f 3ee8 24bd 942d f53e b911 cf3b
00000350: 0c69 e43f 5616 3fbf ee04 e2bd 3443 8cbd
00000360: be1d eabf e3ac d03e 60cc 983e 5ee4 153e
00000370: 923b e63d b30c 82be 2491 9bbf 0196 fb3d
00000380: f65f 0dbc 5e76 38be bf79 183d 72ef b93e
00000390: c87b c8bd ee18 973f 5e84 ab3f c98e 5abb
000003a0: 5742 b23e 4d24 af3f 12bc 1f3e de82 0cbd
000003b0: 1fed bcbe b60b c33e 4fdd e83f b053 f838
000003c0: a9f2 933f b4bc 0f3c be0d debe ea1d 823e
000003d0: bf0b 913f 7860 8ebe 08f2 e63e c88b d9be
000003e0: 029c 0240 f090 1f3f f03d 1bbd d1cd 12be
000003f0: 0c48 a2be 6a86 c43f c07e 033e 4326 0c3e

bias f4 [10]
1.0110128 0.6797096 -0.2108689 0.33681545 -0.047766697 -0.87205756 0.3771881 -1.2285703
-1.1998513 -0.19872902
00000000: de68 813f 7301 2e3f 04ee 57be 1373 ac3e
00000010: 03a7 43bd 2a3f 5fbf cc1e c13e cb41 9dbf
00000020: ba94 99bf 9f7f 4bbe

weight f4 [10, 64]
0.55412155 0.216178 -0.012574569 0.1445056 -0.15205252 -0.114460625 -0.5201966 0.3422757
0.08022556 1.2369348 0.40977675 -0.03408994 0.0499718 -0.06051698 0.027681334 0.43540186
0.043095034 -0.6067441 -0.13186653 0.030896073 0.4075557 0.13301653 0.048491534 0.024202408
0.52426827 0.84919757 -0.009130391 0.057354767 0.22100206 -0.015422798 -0.015475379 0.03063127
0.123125404 -0.0015115578 0.052753553 1.5183508 0.060497705 0.77946454 1.3035231 0.0036474823
0.012831575 0.03542897 0.2879269 -0.19419105 0.6716196 1.4378619 1.2772151 0.0002524864
0.21829645 0.0723328 -0.08878375 0.2358937 0.47280443 0.16194701 0.100726485 0.014360581
-0.36326316 -0.18079104 -0.055090684 0.16238847 -0.09293556 0.650569 -0.12710151 -0.01955251
0.982343 -0.053677816 0.16181102 0.030568726 0.1055076 0.05877717 0.032087963 0.40644956
0.3467337 1.284691 0.9104524 -0.15474841 -0.16996299 -0.08485617 -0.07617664 0.04083376
-0.09525511 -0.0062138294 0.03798953 0.01153993 2.4556987 0.3804666 -0.08908967 0.22002107
0.9058506 0.7601122 0.2848775 0.077822894 0.15806913 -0.14288764 0.19469777 -0.22201233
-0.111605465 -0.69378626 0.17473304 1.0157127 0.18221541 0.35282186 0.35399592 0.11812151
0.022962907 -0.33005604 0.7395049 -0.73442686 0.61289066 0.008380581 1.5440756 -0.03458906
0.2526919 -0.011239622 0.16654848 -0.5309408 0.13649686 0.8137623 -0.18504216 0.16609387
-0.33034566 0.08475157 -0.0052638804 0.076596536 0.099963486 0.6630528 0.04051954 0.019174762
0.39124912 0.23165412 0.04339301 0.0025544155 0.13033196 0.050272956 -0.31118006 0.39819255
0.1762817 0.9534232 0.84093374 0.36586267 0.17635326 0.038735703 0.04925388 -0.06461897
0.06339046 0.61225253 0.116410136 0.090591975 -0.15143952 0.26030806 0.14303274 0.07331212
0.89168775 1.092077 0.4857153 -0.029000852 0.092666894 -0.15431331 0.76482534 0.2417312
-0.044908263 -0.012392656 0.04704976 0.6233134 0.082791775 0.7656919 1.2254598 0.10859698
-0.03863862 -0.1203718 0.066866666 -0.10494625 0.59018165 1.1706712 1.354034 0.04695895
0.13180995 0.26263228 0.028907247 -0.25983307 -0.1807525 0.17031097 0.10829113 0.38527808
0.83797514 0.17941108 0.029387567 0.13620836 -0.044583898 0.16221377 -0.076458104 -0.15161128
2.1047165 0.0136490455 0.070109874 0.16479255 0.010790465 0.0075522875 0.042719007 0.9017391
0.10735128 1.9413893 0.19772676 -0.008176242 -0.07124876 0.020968854 -0.018141873 -0.22648051
0.12633055 0.25639108 0.12081098 0.1201605 0.44273767 0.011494925 -0.09837403 0.340467
1.7732333 0.85639465 0.3245711 0.074144624 0.14318003 -0.09251844 0.20838436 0.0950155
0.098369606 -0.2280036 -0.049331494 1.4322885 0.016562596 0.9400103 1.7129594 0.0047589536
0.047346827 0.7332601 0.7285117 -0.020385852 0.15258195 0.336953 1.6418018 0.05697056
0.5765849 0.12873301 0.08615803 0.40516806 0.52531165 0.0834545 0.05068249 0.21669458
1.301151 0.098989785 0.06919604 -0.025741102 0.15114874 1.099588 -0.14789833 -0.11484951
00000000: e9da 0d3f c45d 5d3e 9105 4ebc 47f9 133e
00000010: a8b3 1bbe 556a eabd 9b2b 05bf c33e af3e
00000020: 4c4d a43d e153 9e3f 42ce d13e e5a1 0bbd
00000030: 3baf 4c3d a7e0 77bd f7c3 e23c feec de3e
00000040: 6b84 303d 9553 1bbf 0508 07be c319 fd3c
00000050: 24ab d03e 7c35 083e 0f9f 463d 2144 c63c
00000060: 7236 063f 0365 593f a397 15bc d5ec 6a3d
00000070: 5d4e 623e e7af 7cbc 728c 7dbc 6eee fa3c
00000080: 2c29 fc3d 771f c6ba 1c14 583d 5259 c23f
00000090: 71cc 773d fd8a 473f d8d9 a63f 990a 6f3b
000000a0: 873b 523c f81d 113d 286b 933e 05da 46be
000000b0: 43ef 2b3f dc0b b83f c97b a33f 2760 8439
000000c0: 1b89 5f3e 3823 943d 41d4 b5bd 1e8e 713e
000000d0: 6c13 f23e 70d5 253e b049 ce3d a448 6b3c
000000e0: a1fd b9be 4921 39be c5a6 61bd 2a49 263e
000000f0: 0055 bebd b18b 263f e626 02be 962c a0bc
00000100: d57a 7b3f 45dd 5bbd cab1 253e 446b fa3c
00000110: 5e14 d83d 54c0 703d ab6e 033d 281a d03e
00000120: 1487 b13e c170 a43f 6913 693f 5e76 1ebe
00000130: c70a 2ebe 12c9 adbd 8002 9cbd 4d41 273d
00000140: 1c15 c3bd 619d cbbb e99a 1b3d f911 3d3c
00000150: 2b2a 1d40 85cc c23e a574 b6bd 344d 613e
00000160: d3e5 673f b796 423f 77db 913e 9c61 9f3d
00000170: e0dc 213e 2351 12be da5e 473e 3357 63be
00000180: 6891 e4bd fa9b 31bf 38ed 323e e002 823f
00000190: ad96 3a3e 11a5 b43e f43e b53e b1e9 f13d
000001a0: b51c bc3c 1bfd a8be 3150 3d3f 6603 3cbf
000001b0: 67e6 1c3f b44e 093c 45a4 c53f 42ad 0dbd
000001c0: d560 813e 6426 38bc af8b 2a3e bceb 07bf
000001d0: d5c5 0b3e ba52 503f b17b 3dbe 8314 2a3e
000001e0: 1123 a9be 3b92 ad3d a17c acbb a5de 9c3d
000001f0: a8b9 cc3d d4bd 293f d1f7 253d 6414 9d3c
00000200: ce51 c83e bd36 6d3e debc 313d fb67 273b
00000210: be75 053e 04eb 4d3d fe52 9fbe e5df cb3e
00000220: 3183 343e 8b13 743f 6f47 573f 5a52 bb3e
00000230: f395 343e 54a9 1e3d 70be 493d f356 84bd
00000240: dcd2 813d 95bc 1c3f 7068 ee3d 4988 b93d
00000250: f612 1bbe 1947 853e 2d77 123e aa24 963d
00000260: a645 643f 2ec9 8b3f adaf f83e 3293 edbc
00000270: 24c8 bd3d 4f04 1ebe 98cb 433f 6288 773e
00000280: baf1 37bd 910a 4bbc 40b7 403d 7891 1f3f
00000290: bc8e a93d 6204 443f dedb 9c3f 1868 de3d
000002a0: 8843 1ebd 7e85 f6bd 64f1 883d 0fee d6bd
000002b0: 2516 173f 8ed8 953f fc50 ad3f 0758 403d
000002c0: 30f9 063e bd77 863e e4ce ec3c d708 85be
000002d0: 2f17 39be 0066 2e3e bdc7 dd3d 2b43 c53e
000002e0: 8a85 563f 8ab7 373e 32be f03c 347a 0b3e
000002f0: 9b9d 36bd 5e1b 263e 1196 9cbd fd3f 1bbe
00000300: adb3 0640 3fa0 5f3c c495 8f3d 61bf 283e
00000310: 7eca 303c 2e79 f73b 20fa 2e3d 60d8 663f
00000320: fdda db3d 727f f83f e278 4a3e a5f5 05bc
00000330: dfea 91bd e0c6 ab3c 449e 94bc 82ea 67be
00000340: cc5c 013e b145 833e bf6b f73d b516 f63d
00000350: 83ae e23e 3655 3c3c 5378 c9bd b151 ae3e
00000360: 4ff9 e23f ae3c 5b3f 2f2e a63e 23d9 973d
00000370: c99d 123e 4f7a bdbd b662 553e 7d97 c23d
00000380: 0176 c93d c779 69be d20f 4abd 3b55 b73f
00000390: 48ae 873c 84a4 703f 4142 db3f fff0 9b3b
000003a0: bfee 413d efb6 3b3f be7f 3a3f 3b00 a7bc
000003b0: 713e 1c3e 1b85 ac3e 9026 d23f f659 693d
000003c0: 119b 133f 96d2 033e 9f73 b03d 3072 cf3e
000003d0: d37a 063f 31ea aa3d 7198 4f3d 2fe5 5d3e
000003e0: 1e8c a63f 28bb ca3d a7b6 8d3d 01df d2bc
000003f0: bcc6 1a3e 4dbf 8c3f a972 17be 3836 ebbd

bias f4 [10]
-3.1614277 -2.608806 -3.421302 -3.8775218 -3.3425953 -2.9659805 -3.6211548 -3.2697763
-3.5748663 -3.305181
00000000: d554 4ac0 adf6 26c0 9df6 5ac0 5129 78c0
00000010: 15ed 55c0 a0d2 3dc0 00c1 67c0 0444 51c0
00000020: 9cca 64c0 1688 53c0

weight f4 [64, 20]
-1.1230068 0.40163305 0.82118124 1.5466331 -0.9482242 -0.13483858 0.87691945 0.6921413
-0.3754402 -0.427225 -0.63673884 -1.0639808 -0.75639653 -0.34250286 -0.32458034 -0.53752375
-1.3499478 -0.43118227 -0.4458637 -0.13872778 0.09366244 -0.42961106 0.101854585 0.83552593
-0.5153449 -0.66827464 -2.466093 -0.8164808 0.027585307 -0.7951418 -0.71720856 -0.23061846
0.68050766 0.95511466 -0.4291525 0.3654799 -0.52564543 -0.24416116 0.22450648 -0.10064522
1.0403271 0.82161343 -5.7107162 0.2031601 0.07963709 -0.80263984 -0.80848426 -0.048193857
-1.4420773 -0.28127235 -2.2364392 -0.68729067 -1.3277293 -0.16750151 0.04513176 -1.1551462
-0.96948117 -0.88756764 -1.3315809 -0.53881323 1.5570886 -2.259786 -0.2507083 -1.29263
1.0952044 0.3090235 -0.16087918 2.1076121 0.3354614 0.2655635 -0.107797384 -0.05449868
0.5974387 1.0824431 -0.47736135 0.17231871 0.42739916 -0.03691117 0.840878 0.22426336
-0.09154651 0.3690268 2.6842506 2.2991347 -0.7257771 3.6660168 0.30284858 2.6990962
2.1292205 -1.0469674 0.060762394 0.54618585 0.3502672 -0.23093313 0.072994195 -0.0019705936
0.112610824 -0.029316979 0.48460206 -0.2024376 -1.2311149 0.42952108 0.12968524 -5.657171
-0.22153258 0.06920509 0.04372512 -1.6903231 1.7627003 -1.1045365 0.30767667 -0.035081886
-0.36555666 -0.36615026 -0.06027625 0.11843652 -0.10138957 -0.25187796 -0.3193661 0.038902033
-0.98525745 0.17027834 1.842357 -0.98471373 -0.8824912 -0.004129584 -1.8369778 -0.47508943
-2.4769013 0.2382791 -1.128802 -0.118855074 -1.6628678 -1.5642571 -0.2356649 -0.06835809
0.9818842 -0.19096579 -0.86290085 0.08595559 -0.30122095 0.9820394 1.5748075 1.0574608
-0.68512005 0.14137426 -0.48146224 1.5539814 -0.55634356 0.24924234 -0.086880445 -0.07477913
0.24377543 0.7145641 -0.25143984 -0.07911946 0.013382088 -0.3148286 0.41963714 0.27172363
1.5982583 -0.38996068 1.4152123 0.4779884 -0.25452617 -1.0133334 0.40418634 -0.3626059
-1.9002979 0.95256263 -0.13518402 0.25591877 0.3198405 -0.21484448 -0.35443735 0.18415347
0.35208026 0.45792478 -0.061657023 -0.06349211 -1.0262506 0.77520096 0.8091673 -0.14718395
0.18677363 0.25546804 -6.9526334 -1.630113 -0.97452414 -0.070261344 1.5454109 0.46474352
-0.8369512 0.7464265 -0.24801815 0.8889154 0.69996226 -0.07392695 0.25689787 -0.5130606
-0.2533025 -0.102362126 1.0778797 3.9717083 0.9201947 -0.01907684 -1.1291362 -0.6596718
-1.4571371 -1.8968102 1.0499828 0.20083645 0.7023047 -0.5954597 0.26005968 0.21811101
0.27147084 0.49092245 0.5293361 0.6640659 -1.1763967 -0.1392811 0.3639067 0.27280584
0.5167242 -0.89923966 0.8678449 1.7063209 0.8122821 0.024170283 -0.43855324 0.3564942
1.3287144 1.0953249 0.11587901 0.40304244 0.8076622 0.20795737 0.17880043 1.1150535
0.28939265 0.8246126 0.8462053 -5.935247 -0.0038682611 -0.20508468 1.4933969 -2.5532396
-1.182916 -0.20126258 0.2682794 -0.17629832 -0.5470667 -0.17664729 0.08581218 0.24402346
00000000: b0be 8fbf d9a2 cd3e ef38 523f 13f8 c53f
00000010: d2be 72bf 2013 0abe cb7d 603f 2c30 313f
00000020: b339 c0be 3cbd dabe 5101 23bf 8630 88bf
00000030: 34a3 41bf 895c afbe 652f a6be 289b 09bf
00000040: 17cb acbf ecc3 dcbe 3f48 e4be a80e 0ebe
00000050: 18d2 bf3d fbf5 dbbe 2399 d03d 07e5 553f
00000060: a5ed 03bf 0c14 2bbf 78d4 1dc0 e304 51bf
00000070: 95fa e13c 6a8e 4bbf fb9a 37bf 3f27 6cbe
00000080: c035 2e3f 6582 743f e0b9 dbbe 2e20 bb3e
00000090: b390 06bf 6205 7abe 07e5 653e 151f cebd
000000a0: 7029 853f 4255 523f 30be b6c0 3409 503e
000000b0: c518 a33d ce79 4dbf d3f8 4ebf ec66 45bd
000000c0: fd95 b8bf ee02 90be d221 0fc0 48f2 2fbf
000000d0: 09f3 a9bf 8485 2bbe 15dc 383d d5db 93bf
000000e0: eb2f 78bf a237 63bf 3e71 aabf aaef 09bf
000000f0: ae4e c73f 55a0 10c0 d75c 80be e674 a5bf
00000100: a82f 8c3f 5438 9e3e 83bd 24be 1ee3 0640
00000110: 99c1 ab3e f0f7 873e e0c4 dcbd 023a 5fbd
00000120: bef1 183f 7f8d 8a3f b568 f4be 5174 303e
00000130: 10d4 da3e 2b30 17bd c843 573f 4ba5 653e
00000140: bd7c bbbd 15f1 bc3e c3ca 2b40 0625 1340
00000150: 87cc 39bf 05a0 6a40 f80e 9b3e febd 2c40
00000160: 2645 0840 0703 86bf fde1 783d d6d2 0b3f
00000170: 3956 b33e bc79 6cbe fb7d 953d 1325 01bb
00000180: 81a0 e63d 292a f0bc c31d f83e cd4b 4fbe
00000190: 2c95 9dbf 30ea db3e 35cc 043e 8b07 b5c0
000001a0: 70d9 62be 66bb 8d3d 1d19 333d 825c d8bf
000001b0: 2aa0 e13f 7461 8dbf cc87 9d3e 06b2 0fbd
000001c0: 3e2a bbbe 0c78 bbbe 3be4 76bd d98e f23d
000001d0: 56a5 cfbd 26f6 80be f483 a3be bd57 1f3d
000001e0: d539 7cbf 725d 2e3e 5bd2 eb3f 3316 7cbf
000001f0: f1ea 61bf 7651 87bb 1722 ebbf ec3e f3be
00000200: 8d85 1ec0 70ff 733e 957c 90bf 4a6a f3bd
00000210: dad8 d4bf 9439 c8bf 2452 71be 54ff 8bbd
00000220: c35c 7b3f 898c 43be 12e7 5cbf 7c09 b03d
00000230: a239 9abe ef66 7b3f 4b93 c93f e05a 873f
00000240: 0764 2fbf 6ac4 103e 3882 f6be dde8 c63f
00000250: 886c 0ebf 6239 7f3e 60ee b1bd cd25 99bd
00000260: 44a0 793e aced 363f b9bc 80be 6209 a2bd
00000270: 8c40 5b3c 3731 a1be aeda d63e 5c1f 8b3e
00000280: ba93 cc3f eda8 c7be ad25 b53f e5ba f43e
00000290: 4151 82be e9b4 81bf 83f1 ce3e 7ba7 b9be
000002a0: f63c f3bf 25db 733f ae6d 0abe c907 833e
000002b0: 22c2 a33e 3100 5cbe d078 b5be ba92 3c3e
000002c0: dd43 b43e 1e75 ea3e 138c 7cbd 2708 82bd
000002d0: 2e5c 83bf 9273 463f 9725 4f3f 64b7 16be
000002e0: 9641 3f3e b5cc 823e f97b dec0 8ba7 d0bf
000002f0: 6a7a 79bf 2ee5 8fbd 06d0 c53f ddf2 ed3e
00000300: 6f42 56bf cf15 3f3f 78f8 7dbe f68f 633f
00000310: ba30 333f 0367 97bd 1e88 833e f157 03bf
00000320: deb0 81be 3ca3 d1bd f6f7 893f 7830 7e40
00000330: e191 6b3f 0847 9cbc 8987 90bf 40e0 28bf
00000340: 7883 babf adca f2bf d665 863f 12a8 4d3e
00000350: 3eca 333f 0c70 18bf 8b26 853e 7e58 5f3e
00000360: 3afe 8a3e 305a fb3e 9282 073f 3900 2a3f
00000370: 2b94 96bf b49f 0ebe fb51 ba3e 35ad 8b3e
00000380: 0a48 043f 9234 66bf 152b 5e3f b968 da3f
00000390: b8f1 4f3f c200 c63c 0d8a e0be 6886 b63e
000003a0: 5013 aa3f 9b33 8c3f f951 ed3d 945b ce3e
000003b0: f3c2 4e3f c7f2 543e 7617 373e 13ba 8e3f
000003c0: 462b 943e d019 533f e9a0 583f 8bed bdc0
000003d0: a782 7dbb b801 52be a127 bf3f 4768 23c0
000003e0: cb69 97bf c717 4ebe eb5b 893e 8c87 34be
000003f0: 900c 0cbf 07e3 34be 4cbe af3d 49e1 793e

bias f4 [64]
2.0107582 3.8992083 -3.2180684 2.0988257 2.0688589 1.8635402 -3.551828 4.6122804
2.313629 0.5093413 2.6428232 -3.5336668 1.2670211 2.8705125 4.9027486 -1.6217296
3.5946813 -5.0398564 3.57717 1.0615622 0.39003706 4.2697787 0.5818568 0.8048425
-3.8180778 1.7539259 2.8905742 -0.8967113 1.7587608 3.6411514 1.1610162 1.631456
3.5638871 1.5629996 -6.619625 4.0504403 1.1024249 3.3333018 2.955423 5.3415656
2.7616656 3.030292 1.1886542 5.183082 -0.51718956 4.505415 2.1617458 -6.1466
-1.7087027 1.4833 2.8750374 1.4983966 -1.8356041 5.329115 4.718839 1.4760269
-3.1112394 -6.398395 4.5752196 2.2051113 -2.8136947 3.3558037 -5.803089 -1.2569984
00000000: 43b0 0040 a18c 7940 d5f4 4dc0 2953 0640
00000010: 2f68 0440 7c88 ee3f 2651 63c0 cd97 9340
00000020: 7f12 1440 3164 023f 0424 2940 9927 62c0
00000030: bf2d a23f 7ab6 3740 51e3 9c40 d694 cfbf
00000040: 420f 6640 8146 a1c0 5af0 6440 45e1 873f
00000050: f0b2 c73e 07a2 8840 91f4 143f 280a 4e3f
00000060: 635b 74c0 a580 e03f 2bff 3840 df8e 65bf
00000070: 131f e13f a008 6940 2e9c 943f 8dd3 d03f
00000080: ba16 6440 5f10 c83f f8d3 d3c0 359d 8140
00000090: 421c 8d3f d154 5540 a725 3d40 1bee aa40
000000a0: 21bf 3040 4ef0 4140 d225 983f cfdb a540
000000b0: 8966 04bf 5c2c 9040 0b5a 0a40 f2b0 c4c0
000000c0: c5b6 dabf c6dc bd3f 9d00 3840 76cb bf3f
000000d0: 13f5 eabf 1c88 aa40 bb00 9740 73ee bc3f
000000e0: 8c1e 47c0 a7bf ccc0 3368 9240 8b20 0d40
000000f0: 9313 34c0 7dc5 5640 e8b2 b9c0 53e5 a0bf

weight f4 [64, 64]
1.189613 1.4638737 -2.7693334 -1.7960709 2.135282 1.3893622 -1.2409642 2.24692
0.81520206 -1.4277979 1.2419115 -1.5080487 2.285574 1.4003327 2.7756627 -1.6813418
0.87868935 -1.3253585 1.0207258 -2.1017783 3.1081257 2.4339705 1.7941258 1.0931555
-0.82692486 2.3972526 0.65433264 2.558496 -2.6749156 1.4415475 1.2622409 0.36283287
1.6629801 1.0627313 -2.426918 2.1662278 -2.6755075 1.5398282 2.5307033 2.5395577
-2.0729938 2.380084 0.9327725 2.3055034 1.0066386 1.7670754 -2.0985105 -2.3546515
0.91648114 1.8675281 1.1604447 1.497502 -1.9375802 2.0955303 1.4980687 1.8032917
-0.787254 -3.806374 3.0461257 2.149267 -2.034772 1.3499688 -2.929778 1.1696136
0.056179587 0.06329763 0.06403319 0.0460351 -0.032743867 -0.005044466 -0.09471032 -0.029668758
-0.054052904 -0.17080732 0.03369967 -0.06454478 0.032130487 0.027608866 -0.09965937 -0.00020316384
-0.1186084 -0.06152375 0.0028381387 -0.007478031 -0.10823676 -0.1267263 0.06263788 -0.082792774
-0.11566427 -0.13761228 0.0036461425 0.021443212 0.08707306 -0.13069163 -0.04854008 -0.007451001
-0.056241177 -0.011604373 -0.120543845 -0.15192983 -0.088658564 -0.020269176 -0.054060902 -0.0813975
-0.19343655 0.041215744 -0.120639876 -0.0020855053 -0.12817797 0.05326806 0.037082084 -0.065322205
0.07040754 -0.07450398 -0.19007225 -0.057064805 -0.12611477 -0.0056928475 -0.007610483 -0.12374954
-0.06780668 0.005079325 -0.1002008 0.051391885 -0.12433176 0.03621321 -0.09631696 -0.10941398
1.2885075 1.3389122 -2.805054 -1.6453389 2.1049743 1.4752227 -1.3370702 2.314969
0.6803807 -1.4934286 1.0678445 -1.7248493 2.120532 1.1189709 2.7313464 -1.5643646
0.9275745 -1.4344374 0.92271197 -2.1040354 3.328866 2.218729 1.88684 1.1352112
-0.9396322 2.3345702 0.66204053 2.639151 -2.6606364 1.3732921 1.2230252 0.26481158
1.4969832 1.1292953 -2.7135274 2.2323325 -2.7230327 1.3781172 2.8799622 2.602692
-2.1960201 2.4060628 1.1159083 2.4083047 1.0442181 1.6734402 -2.0238183 -2.8016622
0.89072907 1.761528 1.3839335 1.3513575 -2.1236765 2.1324725 1.3741987 1.7788782
-0.86457103 -3.584625 3.0037372 2.2383204 -1.6789708 1.4077693 -3.293053 1.1153439
0.6947798 1.1335748 -1.5829524 0.9883099 -2.5052419 1.6152579 0.118507825 0.8524806
-0.502163 -0.6805989 -0.013432853 -0.81912076 2.0812964 -0.65785855 -1.038103 -1.3588719
1.8469756 0.2699188 -3.895297 1.0478085 0.6992125 0.33094475 -2.7835448 1.1666799
0.40830487 -3.2729995 -0.3131043 1.1430708 0.3371413 -0.017155224 1.4674102 0.22270742
-4.668071 1.5551181 -0.44812334 -0.8787451 0.70061064 -1.2763523 -0.27636483 -1.4388412
0.8782846 -3.5833797 -1.8472573 -2.7504165 -2.7279172 -3.3786411 0.5059308 0.9452409
3.530972 -3.9866784 -3.3849123 -0.90998983 0.9676842 -4.353012 1.391861 2.369562
1.468585 0.5272093 -5.7825274 -0.8917274 1.3373467 -2.487939 1.791168 1.5149424
00000000: 3d45 983f 3760 bb3f c23c 31c0 a7e5 e5bf
00000010: 76a8 0840 9fd6 b13f ead7 9ebf 8acd 0f40
00000020: 15b1 503f 15c2 b6bf f5f6 9e3f bd07 c1bf
00000030: d846 1240 1a3e b33f 75a4 3140 3536 d7bf
00000040: c9f1 603f 59a5 a9bf 25a7 823f 8983 06c0
00000050: 88eb 4640 2cc6 1b40 eaa5 e53f 85ec 8b3f
00000060: 59b1 53bf 966c 1940 5882 273f 66be 2340
00000070: d131 2bc0 a184 b83f 1c91 a13f 3bc5 b93e
00000080: 88dc d43f 9407 883f a052 1bc0 7aa3 0a40
00000090: 843b 2bc0 1719 c53f 0bf7 2140 1d88 2240
000000a0: eeab 04c0 4c53 1840 2eca 6e3f 5e8d 1340
000000b0: 89d9 803f 872f e23f ff4d 06c0 9cb2 16c0
000000c0: 829e 6a3f 290b ef3f 7489 943f 25ae bf3f
000000d0: a102 f8bf 2b1d 0640 b7c0 bf3f 43d2 e63f
000000e0: 7a89 49bf a29b 73c0 b9f3 4240 978d 0940
000000f0: b439 02c0 c7cb ac3f 7c81 3bc0 e6b5 953f
00000100: 911c 663d 30a2 813d d523 833d 4d8f 3c3d
00000110: 6f1e 06bd 0c4c a5bb 7cf7 c1bd e50b f3bc
00000120: 9466 5dbd 1de8 2ebe aa08 0a3d 0e30 84bd
00000130: 429b 033d fd2b e23c 361a ccbd 6108 55b9
00000140: f6e8 f2bd 5400 7cbd 1100 3a3b 450a f5bb
00000150: 3cab ddbd 8ac4 01be 4a48 803d 428f a9bd
00000160: 64e1 ecbd 3cea 0cbe 1ff4 6e3b ada9 af3c
00000170: 5c53 b23d 07d4 05be f7d1 46bd 8727 f4bb
00000180: 265d 66bd 4520 3ebc b1df f6bd 7e93 1bbe
00000190: 9f92 b5bd 8b0b a6bc f76e 5dbd bcb3 a6bd
000001a0: 3b14 46be d7d1 283d 0a12 f7bd f9ac 08bb
000001b0: 1641 03be 9c2f 5a3d 62e3 173d a6c7 85bd
000001c0: d431 903d 8b95 98bd 4da2 42be c9bc 69bd
000001d0: 3b24 01be 118b babb 5c61 f9bb 6670 fdbd
000001e0: 3bde 8abd 7770 a63b 1436 cdbd 4c80 523d
000001f0: a6a1 febd 4e54 143d d441 c5bd 7014 e0bd
00000200: d0ed a43f 7a61 ab3f 0186 33c0 779a d2bf
00000210: e6b7 0640 19d4 bc3f 1e25 abbf 7428 1440
00000220: 6e2d 2e3f ab28 bfbf 21af 883f ddc7 dcbf
00000230: ccb6 0740 703a 8f3f 61ce 2e40 193d c8bf
00000240: 8675 6d3f a59b b7bf da36 6c3f 84a8 06c0
00000250: 240c 5540 a8ff 0d40 f983 f13f 9a4e 913f
00000260: bc8b 70bf 9969 1540 7d7b 293f dae7 2840
00000270: de47 2ac0 09c8 af3f 178c 9c3f 6295 873e
00000280: 259d bf3f c08c 903f 6faa 2dc0 89de 0e40
00000290: 2b46 2ec0 2566 b03f 4d51 3840 8192 2640
000002a0: 988b 0cc0 effc 1940 15d6 8e3f aa21 1a40
000002b0: f0a8 853f 4a33 d63f 3d86 01c0 6f4e 33c0
000002c0: d206 643f c079 e13f bc24 b13f 48f9 ac3f
000002d0: 51ea 07c0 6e7a 0840 bee5 af3f 48b2 e33f
000002e0: 8754 5dbf 7f6a 65c0 3b3d 4040 a440 0f40
000002f0: 84e8 d6bf c931 b43f 61c1 52c0 97c3 8e3f
00000300: 17dd 313f fb18 913f 2f9e cabf e101 7d3f
00000310: e255 20c0 c5c0 ce3f 3bb4 f23d 2b3c 5a3f
00000320: c18d 00bf bb3b 2ebf 7815 5cbc e6b1 51bf
00000330: f633 0540 6b69 28bf 8fe0 84bf 84ef adbf
00000340: b269 ec3f cc32 8a3e 8c4c 79c0 971e 863f
00000350: 97ff 323f 9771 a93e 9925 32c0 c455 953f
00000360: 560d d13e d378 51c0 354f a0be 2550 923f
00000370: c99d ac3e 1d89 8cbc 19d4 bb3f 6a0d 643e
00000380: d660 95c0 1c0e c73f 6c70 e5be 70f5 60bf
00000390: 385b 333f 835f a3bf b17f 8dbe f32b b8bf
000003a0: 42d7 603f 1856 65c0 ed72 ecbf d306 30c0
000003b0: 3296 2ec0 a83b 58c0 ae84 013f 4ffb 713f
000003c0: 72fb 6140 bd25 7fc0 67a2 58c0 18f5 68bf
000003d0: 27ba 773f e04b 8bc0 8028 b23f e7a6 1740
000003e0: 98fa bb3f 30f7 063f 770a b9c0 3f48 64bf
000003f0: 2d2e ab3f 643a 1fc0 fe44 e53f a2e9 c13f

bias f4 [64]
4.262432 -0.18239988 4.3080955 -1.9871655 -2.3072643 4.209306 -0.111155644 4.1520367
0.698386 -1.7591126 3.9809382 4.3128448 -0.9822028 4.1351037 0.05252335 -2.6742935
4.164414 -1.7002413 -0.83019483 4.187763 4.2551947 0.74013096 -0.56026566 -0.12742835
4.268883 -0.23919362 0.7164028 -0.9259459 -1.6815414 4.2595863 -0.07384483 4.0839086
-1.3135862 4.2809544 -1.5625182 4.099411 -0.035408784 4.2629614 -1.7993339 0.09998437
-1.6741824 0.79986656 4.330843 4.1561546 1.3492894 4.146074 4.4737864 0.87616813
-3.0042565 4.251225 -1.5646724 3.8993149 2.6026173 -2.1520174 -1.0313684 4.148933
-4.525849 -1.2906877 -1.2522198 -1.5639812 -0.6312433 -0.19192953 4.2799554 4.000297
00000000: d865 8840 09c7 3abe ebdb 8940 705b febf
00000010: 38aa 13c0 a2b2 8640 92a5 e3bd 7cdd 8440
00000020: 6dc9 323f 9a2a e1bf b1c7 7e40 d302 8a40
00000030: a571 7bbf c552 8440 b922 573d a027 2bc0
00000040: e142 8540 82a1 d9bf a687 54bf 2802 8640
00000050: 8e2a 8840 3979 3d3f 926d 0fbf 947c 02be
00000060: b19a 8840 2cef 74be 2d66 373f ca0a 6dbf
00000070: c03c d7bf 884e 8840 f53b 97bd 61af 8240
00000080: 9823 a8bf 94fd 8840 9900 c8bf 602e 8340
00000090: cd08 11bd 2e6a 8840 9350 e6bf 9bc4 cc3d
000000a0: 9c4b d6bf 0ec4 4c3f 4496 8a40 38ff 8440
000000b0: 84b5 ac3f a3ac 8440 4229 8f40 8e4c 603f
000000c0: bd45 40c0 090a 8840 2f47 c8bf 608e 7940
000000d0: 4891 2640 a7ba 09c0 e103 84bf 0fc4 8440
000000e0: c1d3 90c0 4135 a5bf bd48 a0bf 8930 c8bf
000000f0: 2999 21bf 2d89 44be 65f5 8840 6f02 8040

weight f4 [1, 64]
3.5823658 0.05081956 3.9453552 -5.0455847 -4.318715 3.288806 -0.6855285 3.267915
-5.2724986 -3.8957222 3.7574127 3.5515206 -4.319456 3.335198 0.006922011 -4.6712503
3.4274938 -4.535193 -3.8449483 3.3841023 3.6467142 -3.8096764 -5.003406 -5.5060353
3.4098709 -0.8895368 -4.8048954 -3.4629562 -5.413584 3.2308414 -3.1385183 3.3312895
-4.2152243 3.9902303 -4.7701917 3.0629737 -4.138633 3.4577236 -4.6828375 -0.79343605
-4.8199754 1.5638945 4.4236183 3.596021 -6.3607593 3.362783 3.6490898 -3.9465685
-4.9107842 3.50283 -6.8976965 3.1729517 2.3251362 -4.635108 -4.2997375 3.1438138
-5.337715 -4.431693 -4.886992 -3.3993793 -3.7721825 0.012023506 3.90093 3.3764892
00000000: 7b45 6540 2c28 503d b380 7c40 6e75 a1c0
00000010: ea32 8ac0 cc7b 5240 cc7e 2fbf 8525 5140
00000020: 4fb8 a8c0 8353 79c0 7379 7040 1d4c 6340
00000030: fc38 8ac0 e273 5540 09d2 e23b e27a 95c0
00000040: 0f5c 5b40 4d20 91c0 a213 76c0 2295 5840
00000050: c463 6940 bdd1 73c0 e71b a0c0 7131 b0c0
00000060: 533b 5a40 afb8 63bf b4c1 99c0 13a1 5dc0
00000070: 153c adc0 1bc6 4e40 7cdd 48c0 d933 5540
00000080: 1ee3 86c0 ef5f 7f40 69a5 98c0 c307 4440
00000090: ae6f 84c0 584b 5d40 ced9 95c0 a01e 4bbf
000000a0: 3d3d 9ac0 b22d c83f 488e 8d40 3525 6640
000000b0: 578b cbc0 d637 5740 b08a 6940 9494 7cc0
000000c0: 2525 9dc0 5e2e 6040 eeb9 dcc0 a411 4b40
000000d0: 08cf 1440 ce52 94c0 7397 89c0 3f34 4940
000000e0: 90ce aac0 6ed0 8dc0 3d62 9cc0 6e8f 59c0
000000f0: 706b 71c0 3dfe 443c d6a8 7940 6618 5840
