model_old.pt (torch_old, 75895 bytes, 18 tensors)

weight f4 [64, 10]
000000 bc 73 86 bf 1d 42 65 3e 71 35 fb 3e 08 95 fd 3e
       -1.0504069 0.22388501 0.4906421 0.49527764
000010 72 70 f9 bd ba 38 81 3e d9 c4 78 3d 42 c8 4b 3f
       -0.1217965 0.2523859 0.060734604 0.79602444
000020 3d d8 b8 be 6e 7f 9b be 8e 98 8f be cc 5f da 3d
       -0.36102477 -0.3037066 -0.28046077 0.10662803
000030 bf 6e a7 bf be 6f 6c bf 9e d2 06 be 14 b7 85 3f
       -1.3080672 -0.92358005 -0.13166282 1.0446496
000040 42 3a 60 3e 6c 9e 29 3e 65 7f 11 bf 74 b3 06 be
       0.21897224 0.1656434 -0.56835014 -0.13154393
000050 11 f7 02 bf 17 15 a3 3c 8e 69 86 3e be 20 dd be
       -0.51158243 0.019907517 0.26252407 -0.43189043
000060 4a 43 77 bc 14 b3 88 3f 07 de 9e be 02 54 85 bb
       -0.015091727 1.067965 -0.31028768 -0.0040688524
000070 d7 f2 cd bf 97 e1 ac 3d 46 28 6c bf e8 25 71 bf
       -1.6089734 0.08441465 -0.9224895 -0.94198465
000080 02 48 5c bf cd d1 50 bf 58 3b 62 be c7 d8 05 3f
       -0.86047375 -0.8157013 -0.2209295 0.522839
000090 92 70 e7 be 59 f9 ba 3e cd a6 96 be 66 62 90 be
       -0.45203072 0.36518362 -0.29424134 -0.28200072
0000a0 ca 0b bf be 8b 5b 6e bf 58 6b 75 bf c6 bc b9 be
       -0.37313682 -0.93108433 -0.9586692 -0.36276835
0000b0 0c 56 73 3a 65 17 ec 3c 6e 9e 5c 3f 15 6e 80 bf
       0.00092825363 0.02881975 0.86179245 -1.0033594
0000c0 41 0e c9 bf a9 07 81 3e 28 31 af 3f b3 e0 9c 3d
       -1.5707475 0.25201157 1.3686876 0.076600455
0000d0 8a ea 53 3e 9e 0d e2 3d d6 76 37 3c 50 7f cd be
       0.20694938 0.110377535 0.011197766 -0.40136194
0000e0 e5 90 ec be 08 c7 76 bf 2a 7a c5 be 9b a5 9d bd
       -0.46204296 -0.9639745 -0.38569766 -0.07697602
0000f0 39 ef cc be bc 9d 84 bf 17 97 ec 3e 41 86 74 3e
       -0.40026262 -1.0360637 0.46209022 0.23879339
000100 40 c4 31 3e 6d f1 4d 3e 44 18 79 bf 16 fc a0 3e
       0.1736002 0.20111628 -0.9730265 0.31442326
000110 f9 47 ca 3f 1d 45 94 3e 05 ac 48 bf 16 10 c7 3e
       1.5803214 0.2895898 -0.7838748 0.3887946
000120 88 eb a5 3e 2c ab 52 bd c5 98 2c bb 93 48 31 be
       0.3240626 -0.051432773 -0.0026336175 -0.17312841
000130 6e 01 35 3f e2 c1 15 bf e5 b5 93 bf 86 8d 5d 3c
       0.70705307 -0.58498967 -1.1539885 0.013522511
000140 58 e5 47 bf 54 60 77 be c1 53 0d 3f 10 90 f6 be
       -0.78084326 -0.2415784 0.55205923 -0.48156786
000150 23 ad 6c 3e c3 b3 17 3e 87 d6 4c 3d bd 1b 8f be
       0.23112921 0.14814667 0.050009277 -0.2795085
000160 cd d3 81 bf 60 f7 74 be 09 0d 31 3f 31 dc 11 3f
       -1.0142761 -0.23922491 0.69160515 0.5697661
000170 f5 29 29 bf 8e 06 56 3e 1c a6 a6 be 1a 7b d1 3e
       -0.66079646 0.20900938 -0.32548606 0.40914232
000180 9e 1d 44 3f 6d 64 bb bf 54 64 9d bf b8 72 5c be
       0.7660769 -1.4640023 -1.2296243 -0.21528137
000190 5d 3f d8 bd c7 3d 8e be 02 bd c9 3e 29 4d 1e 3e
       -0.105589606 -0.27781507 0.39402014 0.15459122
0001a0 38 93 ed be b8 1d 3a 3e 91 e4 8a 3d 06 6e 84 bf
       -0.46401381 0.181754 0.06781877 -1.0346076
0001b0 7b 2f 75 3d c6 96 5f be f4 ef dd be 8f 2a 92 3e
       0.059859734 -0.21834859 -0.43347132 0.28548095
0001c0 60 64 e3 3e 08 bd 02 3f 72 e9 5d 3e d6 d8 83 3b
       0.44412518 0.5106969 0.21671084 0.0040236516
0001d0 4a bb fa bd 9e 24 64 3f 08 0d 9f bd b3 4a 53 3e
       -0.12242754 0.89118373 -0.077661574 0.20633964
0001e0 98 ff 27 bf 23 53 89 3f ce fb 2e c0 be 6b e1 3d
       -0.6562438 1.0728496 -2.734119 0.11006878
0001f0 9e 00 ea be aa bf a5 be 1c cc 3e bf 3a af 1b bf
       -0.45703596 -0.3237279 -0.74530196 -0.6081425
000200 2a 64 cc be 7c 57 22 be 96 c2 11 3f 76 ac 9b 3c
       -0.3992017 -0.15853685 0.5693754 0.019003134
000210 9b fa ad bf 9e 07 3b 3e 47 17 97 3e 48 ce 22 bc
       -1.3592104 0.18264624 0.29509947 -0.009936877
000220 3f 3a 65 bf 10 f9 0f be 71 ad e6 be 31 4b 55 3e
       -0.89542 -0.14059854 -0.450542 0.20829464
000230 c6 ef 4b bf f4 61 ae 3f 0c 14 1b 3f 96 8f 7d bf
       -0.7966274 1.3623643 0.60577464 -0.9904722
000240 0c 8d b7 be 6f 2d 2e 3f a3 f5 4d 3f 61 d1 5a 3f
       -0.35849798 0.68038076 0.80452937 0.85475737
000250 50 bb 8c bf fb 9e 91 bd 0c d6 4f be ed 68 88 be
       -1.0994663 -0.07110401 -0.20296496 -0.26642552
000260 39 0a d0 bf 7b 38 ad 3e e1 ba 4d 3e b0 36 78 3e
       -1.625312 0.33832154 0.2009082 0.24239612
000270 5e 21 56 be 28 f3 45 bf fa c3 62 bf 2c a4 32 bc
       -0.20911166 -0.7732415 -0.88580287 -0.010903399
000280 27 32 5e 3f 9b 19 83 be 76 fe 1f 3e a9 eb 38 bd
       0.86795276 -0.25605473 0.15624413 -0.045146618
000290 b2 a1 28 3e 38 34 cf bd d6 50 83 3f c8 ce 72 bd
       0.16467932 -0.10117382 1.0259044 -0.059279233
0002a0 9c 0b 96 3f e0 67 30 3e 70 a4 e1 3e 5e eb 1f bf
       1.1722293 0.17227125 0.44070768 -0.62468517
0002b0 dd 2d db 3e fe 47 b2 3e a6 bc 0d bd 14 e6 2a be
       0.42808428 0.3482055 -0.034603737 -0.1668933
0002c0 6e b6 46 bf fb 8c 37 bf 1e 3a 90 3f 56 08 f3 3d
       -0.77622116 -0.71699494 1.1267736 0.11866824
0002d0 6d f0 17 3e 52 64 1e 3d 5b ef 88 bf 33 dc 43 bf
       0.14837809 0.03866989 -1.0698045 -0.7650787
0002e0 c0 04 99 3e dd f6 7e 3f 56 9f 45 3f ac 75 4c bf
       0.29886436 0.99595433 0.7719625 -0.79867053
0002f0 3a b8 d2 be c7 1a 32 3f c1 b7 4f 3f c7 19 ae 3e
       -0.4115618 0.6957211 0.8113976 0.34004042
000300 99 68 3f 3e c3 9d 54 3f 08 4d 24 be 06 c0 97 3f
       0.18692245 0.83053225 -0.1604501 1.1855476
000310 70 c2 0e be 75 b4 97 bf 74 c1 92 bf ea f8 e9 bd
       -0.1394136 -1.1851946 -1.1465287 -0.1142443
000320 e1 b3 db 3e 00 3a d3 3d 61 e1 36 3e 96 10 42 bf
       0.42910674 0.10313797 0.17859413 -0.7580656
000330 e6 ce 8a be 2c 85 0c 3f 71 a8 5f be a5 c6 0b be
       -0.27110976 0.54890704 -0.21841599 -0.13649996
000340 df 81 a8 be 33 f5 28 3f a5 5d 3a be a7 c4 88 3e
       -0.32911584 0.65999144 -0.18199785 0.26712534
000350 f7 ec 7a 3f 41 9c 91 be fa ee 20 be c8 16 df 3e
       0.9801783 -0.28439525 -0.15716162 0.43572068
000360 6d c9 b1 3f 08 5c 0b 3f 29 b8 91 3f 36 17 4d 3e
       1.3889595 0.54437304 1.1384326 0.20028386
000370 ff 31 71 3f d1 fa 86 3d 74 5d 46 3f ac 2c 87 bd
       0.94216913 0.06590808 0.7748635 -0.06600317
000380 d7 43 49 be 29 3f 34 3f 4b e8 37 3f e7 84 8d be
       -0.19654785 0.70408875 0.71838826 -0.2764046
000390 af 8d 05 3e 87 3e d6 3e 6a b5 88 3f 6a 5c 99 bf
       0.13042329 0.4184458 1.0680363 -1.1981328
0003a0 36 e2 0f c0 45 d7 9d 3e f3 78 91 3e e8 0f 6b be
       -2.2481818 0.308283 0.2841259 -0.22955287
0003b0 da 70 47 bf 94 5d 31 3f b8 12 a0 bf 51 47 6e bd
       -0.7790657 0.69283414 -1.2505713 -0.05817348
0003c0 6f a2 99 3e 1d 70 5d 3f ac dd 92 bf 67 5b 2f bf
       0.3000674 0.86499196 -1.1473899 -0.68498844
0003d0 a2 b1 af 3e 64 7c 8e bd 3b 1f d7 bf aa 87 78 bf
       0.3431521 -0.069573194 -1.6806406 -0.97082007
0003e0 74 66 06 3f db 7e c4 3d bb 64 48 bf 16 46 00 bf
       0.5250008 0.09594508 -0.782787 -0.5010694
0003f0 08 9b bb 3e 70 85 05 be 1c 40 a6 be 00 8a b8 bd
       0.36641717 -0.13039184 -0.32470787 -0.090106964

bias f4 [64]
000000 5e cb 70 bf bd fd 45 3e a4 62 42 bd 46 42 ac bf
       -0.94060314 0.19335075 -0.047457352 -1.3457725
000010 49 fb f5 bf a4 d4 b1 3b 68 78 ad bf bf d4 3d bf
       -1.9217311 0.00542696 -1.355237 -0.7415275
000020 84 d0 ba bc ae c2 f6 3b 66 c4 4a 3f 04 b2 1a bf
       -0.022804506 0.007530532 0.7920593 -0.6042788
000030 d4 2f e8 3e 4a de ef bf 8f 4c 05 c0 e7 31 24 be
       0.4534899 -1.8739712 -2.0827978 -0.16034661
000040 87 ac d0 bf 6e c9 15 3e cc 61 3f bf 89 6d fe be
       -1.6302651 0.1462762 -0.747586 -0.49692944
000050 17 3a 37 bf c0 f3 95 be 29 60 7d bf a4 22 81 bf
       -0.71573013 -0.2928753 -0.98974854 -1.0088696
000060 67 9b a2 3e 80 2f cf be d8 df 9f 3e ea 03 47 3e
       0.31759188 -0.40465927 0.31225467 0.19435087
000070 27 ab de bf f6 e0 12 3f f5 14 1e bf 1c 2f bf be
       -1.7395982 0.57374513 -0.6175073 -0.3734063
000080 c2 42 f7 be 28 0f cf 3e 1c 08 7d 3e 0a f1 3d be
       -0.4829312 0.4044125 0.24710125 -0.1854898
000090 e4 e5 3e 3d 7d 52 08 3f 84 32 22 3f d5 71 ba bf
       0.04660596 0.5325087 0.6335833 -1.4565989
0000a0 a3 84 d4 3e ed 85 00 c0 0a 8c 81 bf cc cf 84 bf
       0.41507444 -2.0081742 -1.0120862 -1.0375915
0000b0 b5 4a 6c bd f5 0d b5 3e f4 df 13 c0 3b 7c 43 bf
       -0.057688434 0.3536221 -2.310544 -0.76361436
0000c0 a1 50 9f 3e 01 9e 1f bf 60 01 8c 3e 27 c5 86 bf
       0.31116202 -0.6235047 0.273448 -1.0528916
0000d0 62 ae 08 bf e1 30 30 3e 36 e1 c7 be 8a 9f 06 3f
       -0.5339109 0.17206146 -0.3903901 0.5258719
0000e0 e9 d7 38 3e c4 e0 9c bf db 0a c8 3d b9 38 84 3e
       0.18051113 -1.2256093 0.097676955 0.25824526
0000f0 7d 43 94 bf da 1c 21 3d 0b 1b 1c 3f 62 3a b0 3e
       -1.1583096 0.039334156 0.60978764 0.34419543

weight f4 [64, 64]
000000 93 34 27 bf 87 e9 fb be ba a1 7a 3f de 64 8d 3e
       -0.65314597 -0.49201605 0.97903025 0.27616018
000010 e8 9d ff bc 0c 71 46 3e ab 35 07 bf 56 5b f0 bf
       -0.031203225 0.19379061 -0.52816266 -1.8777874
000020 29 33 63 3f e9 b6 3d 3e 3b 3b 62 3f 72 0a 3c 3f
       0.8874994 0.18526806 0.8837163 0.7345344
000030 fd 26 c1 be 2b e7 5b be 1c 4c a3 be 99 b9 64 bf
       -0.37725058 -0.21474902 -0.31894004 -0.893457
000040 f9 2a 12 3f 15 d3 26 3f c1 70 ad bf 14 5d 3b c0
       0.5709682 0.65165836 -1.3550035 -2.927556
000050 7b 2d 96 bd c9 17 ba be 0c a0 77 be 55 ae 0a be
       -0.073328935 -0.36346272 -0.24182147 -0.13543065
000060 bc af b8 3e b0 20 4e c0 83 48 b0 be 52 ae ae 3d
       0.36071575 -3.220745 -0.34430322 0.08529343
000070 f1 86 08 3f 3e a2 57 3f f2 9b d1 3e fa 7a 69 3f
       0.53330904 0.84231937 0.4093929 0.9120327
000080 14 92 c1 be 53 33 58 bf 0a 41 17 bf c5 88 6a 3e
       -0.3780676 -0.84453315 -0.59083617 0.22903736
000090 58 2b 73 c0 cf d9 b3 be 74 41 36 bf a1 63 c7 bf
       -3.7995205 -0.35127112 -0.71193624 -1.5577279
0000a0 a4 4a 24 be c8 4e be be 02 76 04 bf b2 a3 08 3f
       -0.16044098 -0.3716948 -0.51742566 0.5337478
0000b0 91 c0 34 3e 16 b4 79 bf 1e 20 8e bf a2 e2 28 bf
       0.17651583 -0.97540414 -1.1103551 -0.65970814
0000c0 c2 a8 d9 3c f4 4b b1 bd 1a d4 05 c0 28 0a 56 be
       0.026569728 -0.08657065 -2.0910707 -0.20902312
0000d0 22 f9 57 be 20 57 09 3f 27 3c 82 3e ed 84 45 c0
       -0.2109113 0.5364857 0.25436518 -3.0862381
0000e0 a4 82 87 be 82 8e 67 bf 70 46 ee 3d 70 12 96 3e
       -0.26466858 -0.90451825 0.11634529 0.29310942
0000f0 b8 33 00 c0 2d 7e 1c 3e 41 56 e0 3d 38 6a 0c 3f
       -2.0031567 0.15282507 0.109539516 0.54849577
000100 2a 68 56 bf 30 b9 03 3e 3d 75 5a 3f 44 95 ba bf
       -0.8375269 0.12863612 0.8533514 -1.4576802
000110 df 69 44 3d 03 c6 89 bf c6 3a a4 bf e8 b6 f8 bd
       0.04795253 -1.0763553 -1.2830436 -0.121442616
000120 b3 1c 15 bc 3a 7c 2f 3f 96 71 93 3e 4c 08 ff 3e
       -0.009101081 0.6854893 0.28797597 0.49811018
000130 b8 12 98 bf 75 67 77 bf 72 68 01 bf 18 2a ab be
       -1.1880713 -0.9664224 -0.50549996 -0.33430552
000140 13 e1 87 3f f2 a8 82 bf c8 ec 59 bf d9 25 89 3e
       1.0615562 -1.0207808 -0.85126925 0.26786688
000150 23 5e 6a bf 17 f4 92 bd 9f 78 47 bf 7b 4d 29 bd
       -0.9154989 -0.07175463 -0.7791843 -0.041333657
000160 c7 20 b3 3e be 92 0e bf 35 5c 6e 3d 51 59 ab bc
       0.34985945 -0.5569266 0.058193404 -0.020916613
000170 2a 91 96 bf 46 7c 31 3e 79 b9 fe bc 61 3a 74 be
       -1.176305 0.17332563 -0.0310943 -0.23850395
000180 ee 1e 89 3f c1 c1 00 bf bb 06 b8 3e 72 d0 48 3d
       1.0712564 -0.50295645 0.35942635 0.049026914
000190 5f 03 7f 3e 0c 8b 78 3e 4e 6a 02 3f 6a 7f b1 bf
       0.2490363 0.24271792 0.5094346 -1.3867009
0001a0 67 52 d3 be 86 2b 55 bf 43 2d b8 bf 22 0b 02 bf
       -0.41273805 -0.83269536 -1.4388813 -0.5079824
0001b0 bf 28 f5 bf e3 c6 92 3d a2 0a 2e bd d0 ed 02 c0
       -1.915306 0.07166841 -0.04249061 -2.045765
0001c0 46 26 a9 3d cc 20 85 3f 9a 11 eb bd e7 29 49 3d
       0.08259253 1.0400634 -0.114779666 0.049112227
0001d0 ce 98 12 be 14 83 3d 3f 54 b7 38 be ea 70 85 3e
       -0.14316103 0.74028134 -0.18038684 0.2606271
0001e0 86 f4 0e be 2d 85 e3 be b6 ad 1e bf 69 1c cb 3e
       -0.13960466 -0.44437543 -0.6198381 0.39670113
0001f0 8c e2 c9 3e 94 de 1f 3b b4 a0 cc be be 04 41 3f
       0.39430654 0.0024394142 -0.39966357 0.7539786
000200 f0 8a ea 3e b5 9a 48 3e a7 fd 61 3e 68 72 25 3f
       0.45809126 0.19590266 0.22069417 0.64627695
000210 1d a5 fa bf f4 42 09 3f 96 46 88 bf e3 eb 80 3e
       -1.9581639 0.5361779 -1.0646541 0.25179967
000220 e1 53 1b bf b9 b7 f9 be eb 86 88 3e 78 ec 8c bf
       -0.60674864 -0.48772982 0.26665434 -1.1009665
000230 7e b1 83 be 80 82 c8 bd f8 24 96 bf 01 fb ff be
       -0.25721353 -0.09790516 -1.1730032 -0.49996188
000240 92 fe d9 3d ff ff e6 3e ae b4 34 bf ec 8f a1 bf
       0.106442586 0.45117185 -0.70588195 -1.2622046
000250 2e 70 16 3f b9 a5 d5 be 83 55 6b 3f f3 2e 2a 3f
       0.5876492 -0.41728 0.91927356 0.6647789
000260 bd 08 2c 3f 4d 78 a9 bf 06 26 90 bd 64 3e ee be
       0.67200834 -1.3239838 -0.070385024 -0.46531975
000270 04 88 48 bf 89 a2 07 bf 4c 73 80 be 6c 69 f1 3e
       -0.78332543 -0.52982384 -0.25087965 0.47150743
000280 a5 ce 4d 3f 98 39 35 bf 6e 72 99 3e 62 07 2c bf
       0.8039344 -0.70791006 0.29970115 -0.67198765
000290 85 6e 1d bf 0b 2f 6f 3f 72 0c 52 be e8 43 4e bf
       -0.61496764 0.93431157 -0.2051256 -0.80572367
0002a0 e2 31 9e 3f a8 f9 b2 be d1 21 0d bf 8a 6f 8a bc
       1.2358973 -0.34956098 -0.55129725 -0.01689889
0002b0 d8 a3 30 3f f3 29 5c 3e a7 bd d7 be d9 cd 7c bf
       0.69000006 0.21500377 -0.4213688 -0.987516
0002c0 83 cf a3 be 54 8d f2 3e 1b d5 7e bf a9 23 ed bf
       -0.31994256 0.4737345 -0.99543923 -1.8526508
0002d0 ed a2 32 3f c3 57 84 3f 8d 02 db be 5c 86 3b be
       0.69779855 1.0339283 -0.42775384 -0.18312973
0002e0 95 77 88 bd 21 2f e1 3e 82 a4 cd be 63 8c 63 be
       -0.066634335 0.4398127 -0.40164572 -0.22221522
0002f0 21 d7 62 be ff 64 7d 3e c0 d9 b0 bf a2 b9 9e be
       -0.22152378 0.24745558 -1.3816452 -0.31001002
000300 8f fa d8 be e8 39 47 bf e0 41 06 bf cf 46 4b be
       -0.4237866 -0.7782273 -0.5244427 -0.1985123
000310 12 85 20 bf 8b 11 c1 3e bb ba e4 bd 99 de 16 3f
       -0.6270305 0.37708697 -0.111684285 0.5893341
000320 0d 39 26 bf 1b 0a 8f bf aa 32 34 bd a9 f5 af 3e
       -0.649308 -1.1174959 -0.04399363 0.3436711
000330 c8 54 31 3f ba a1 1c c0 ba 62 b4 be ce 2a 7f be
       0.6926999 -2.447371 -0.35231572 -0.24918672
000340 ea 96 09 be b7 5f 89 be 21 7c 8e bf 5f b6 62 be
       -0.13436475 -0.26830837 -1.1131631 -0.22139882
000350 31 a4 e5 be 8c e3 7f bf 2b 8a 8e be 72 29 d9 3e
       -0.4485183 -0.99956584 -0.2783979 0.42414433
000360 96 9b 90 3e c2 bf 1d bf d5 d7 e2 bd 92 01 0f 3f
       0.28243703 -0.61620724 -0.11076323 0.5586177
000370 56 47 76 3f 8c eb b3 be 3a 6c 49 bf b1 c1 b5 bd
       0.962026 -0.35140646 -0.78680766 -0.08874834
000380 15 24 c7 bf d3 b3 1d 3d 89 d5 a2 3d 9b 31 97 bf
       -1.5557886 0.038501572 0.07950885 -1.1812013
000390 5a 7a 82 bf e6 cd 10 3f 35 36 35 3e 77 8a 94 3f
       -1.0193589 0.56564176 0.1769646 1.1604756
0003a0 c7 f8 a1 be 40 32 ec bf 87 dc 26 bf e4 e9 18 bf
       -0.31635115 -1.8452835 -0.6518025 -0.5973189
0003b0 b6 84 1c bd ab 5c 81 be c5 8e 26 3f dc 1a a5 bf
       -0.0382125 -0.25266013 0.650616 -1.2898822
0003c0 51 c0 58 bf 36 7b dc bd 31 4b 90 3e 25 b9 0f bf
       -0.8466845 -0.10765688 0.28182366 -0.56141883
0003d0 ad 34 35 bf 56 5e 6d 3f 4f 70 64 3f e1 25 c4 be
       -0.707835 0.9272207 0.8923387 -0.3831015
0003e0 cf 00 52 3e 5c 4b dc be da 65 df 3e d4 9b 42 3d
       0.20508121 -0.43026245 0.43632394 0.04751189
0003f0 9f 6d 0e bf 26 fb 25 3e ed ac ac be b6 2e b5 be
       -0.5563602 0.16209087 -0.33725682 -0.353872

bias f4 [64]
000000 66 25 21 3f 74 6d b8 3e bb 35 07 3f 6c cc 53 3e
       0.6294769 0.36021006 0.5281636 0.2068345
000010 12 10 39 be 20 21 00 be bb ea d9 3d 02 e3 f5 3d
       -0.18072537 -0.12512636 0.106404744 0.12006189
000020 14 ad 09 3f e7 9b a9 bd e2 bd cb be 01 59 00 3f
       0.5377972 -0.08281689 -0.39793307 0.5013581
000030 47 f0 6e 3e 40 4e eb bd 7a fa 0a 3d 04 4f c1 3e
       0.23333846 -0.114895344 0.03393028 0.37755597
000040 4a 26 a0 3e 20 b6 61 be b4 11 71 3e 9e bd 0c be
       0.31279212 -0.22042131 0.2354191 -0.13744208
000050 c3 6b 80 3e 73 91 75 3f 3e ad 95 be 71 70 d1 3e
       0.25082216 0.9592506 -0.29233736 0.40906098
000060 30 af dd 3e a4 34 63 bc 3d 89 aa 3e b1 83 a7 3e
       0.4329772 -0.013867531 0.3330783 0.3271766
000070 cd ac 4a be 08 f7 2d 3e d3 f8 bc be 4d d5 5b b9
       -0.19792481 0.16988766 -0.36908588 -0.00020964928
000080 e9 de 15 be e6 3b 3a bb 24 bc 63 be 18 9f ea 3d
       -0.14635815 -0.002841705 -0.22239739 0.11456126
000090 bf 2c 2b 3f df e1 96 be 70 e6 c1 3e ae 0a 00 bb
       0.6686515 -0.294692 0.37871122 -0.0019537616
0000a0 8e ba 80 3c 8e 0e 22 3f bc 0b bd 3e d6 02 69 3e
       0.015713956 0.6330346 0.36923015 0.22754988
0000b0 89 c1 73 3d 64 b3 ef 3e 89 75 b6 3e d9 d7 c9 bd
       0.05951074 0.46816552 0.35636547 -0.09855623
0000c0 e7 7a af 3d da 28 47 be c1 ca e9 3e fb e1 5f 3f
       0.08568364 -0.19449177 0.456625 0.87454194
0000d0 42 20 e3 3e 72 44 60 3d 7b c8 fc 3e b7 17 1a 3e
       0.44360548 0.054752775 0.49371704 0.15048109
0000e0 cf 17 8c be 37 a8 cb 3e f5 6b 9f bd ec ee 01 3f
       -0.27361915 0.39776775 -0.07784263 0.5075519
0000f0 67 74 40 be 63 a6 c4 be c1 37 0d 3e 14 79 c9 3e
       -0.18794404 -0.38408193 0.137908 0.39350188

weight f4 [10, 64]
000000 4f 0a 20 bf 9d 22 0e bf 97 76 ae 3e 17 a9 87 bf
       -0.6251573 -0.55521566 0.34074852 -1.0598477
000010 b6 5c b5 3c e0 41 a3 3d f6 18 00 bd f4 df 30 bf
       0.022138935 0.07971549 -0.031273805 -0.69091725
000020 a2 03 00 bf 29 93 80 bf 24 a7 49 3f 89 db c7 be
       -0.50005543 -1.004491 0.7877066 -0.3903468
000030 06 3c 64 be 6c 5e 06 bd d7 c1 07 bb 31 3c ab 3f
       -0.22288522 -0.03280489 -0.0020714903 1.3377744
000040 ee 20 5c bd 5f f5 11 bf ac 03 59 be 0b 10 78 3c
       -0.05374234 -0.5701503 -0.21192807 0.015140544
000050 53 22 bd bf 1c d8 12 3f 9d 26 f1 3e 7b 2f 66 be
       -1.47761 0.57361007 0.47099772 -0.2247905
000060 32 e5 28 3f cf 68 3f 3f ee 3a 91 bf fc 94 9f 3f
       0.65974724 0.747693 -1.1346109 1.2467341
000070 1b 2a 26 be 1e 59 de 3d 26 9a a4 be 9e 32 77 3e
       -0.16227 0.108568415 -0.32148856 0.24140403
000080 a6 db 40 3d 09 38 b7 be 86 7a 90 be c1 c5 9e be
       0.047084473 -0.3578494 -0.28218478 -0.3101025
000090 41 68 be 3e 27 17 11 be 97 bb 5f 3f 75 65 41 bd
       0.37188914 -0.14168988 0.87395614 -0.047215898
0000a0 3f 2a ae be b8 5a 66 bf fc cc be be 97 ab 71 be
       -0.34016606 -0.89982176 -0.37265766 -0.23600613
0000b0 0b e2 a0 3f 7c bd f7 3f 4c b4 bd bf 33 3a 8d 3d
       1.2568983 1.9354701 -1.4820647 0.06895866
0000c0 93 b5 40 bf 58 80 b4 3b 64 26 47 3e 2d 7c b5 be
       -0.7527706 0.005508464 0.19448239 -0.354463
0000d0 e7 2f cb be 96 ec f6 3d 52 ac 8b 3e 5c 3a a7 be
       -0.39684984 0.12056844 0.27279907 -0.32661712
0000e0 77 b5 b7 be f6 27 f5 be 58 30 62 3e 00 6f 7b 3f
       -0.35880634 -0.4788205 0.22088754 0.9821625
0000f0 6d 50 3b bf 7a 49 e2 bf 1c aa 09 3e b5 a2 99 bf
       -0.73169595 -1.7678673 0.13443798 -1.2002779
000100 32 70 06 c0 2b 47 d7 3d dc 24 cf 3e d0 04 87 bf
       -2.1005979 0.10511621 0.4045781 -1.0548344
000110 df 94 e2 ba 5a 21 2d 3b c0 ca b2 be 20 eb 84 bf
       -0.0017286799 0.0026417584 -0.3492031 -1.0384254
000120 5d 04 9d be 3c 50 a2 bf ca e2 46 3f a0 08 b6 3e
       -0.3066739 -1.2680736 0.776898 0.35553455
000130 ff 46 cf 3e 9a e4 4c bd 42 0c 38 3e 6e 51 84 bf
       0.40483853 -0.0500227 0.17973426 -1.033735
000140 1e bd 6a bf a0 0c bf 3d 2d 6c d0 be f2 7b c1 3c
       -0.9169482 0.0932858 -0.40707532 0.023618672
000150 00 e9 24 c0 bd c7 9d 3f 13 ae 68 3e f1 66 ed 3e
       -2.5767212 1.232658 0.22722654 0.463676
000160 82 ed 37 40 4b f7 90 3e b2 a5 6f 3e 39 07 a3 bf
       2.8738713 0.2831367 0.23403051 -1.2736579
000170 10 05 e2 bd eb c3 2d bf 8f 6b 96 bd a3 28 3a be
       -0.11036122 -0.6787707 -0.07344734 -0.18179564
000180 1e 1d 98 3b 94 f9 08 3e 91 d6 6c bd dc 2b dd bf
       0.004642143 0.13376456 -0.057821814 -1.727901
000190 0a 4b 85 3f 8c 20 c2 bf 33 78 b5 3f 10 76 8e bd
       1.0413525 -1.5166183 1.4177307 -0.069561124
0001a0 6f 36 3a be 72 95 96 3f ca c0 50 c0 cf e1 26 3e
       -0.18184827 1.1764357 -3.261767 0.16297077
0001b0 44 47 24 3d d9 c7 5a c0 70 5f 72 c0 c0 08 cd 3d
       0.040107027 -3.4184477 -3.787075 0.100114346
0001c0 db b3 20 bf 4e c5 fd 3d 69 45 bf 3f a5 26 da bf
       -0.6277444 0.123911485 1.4943057 -1.7043043
0001d0 bd ea 97 3f 2c be e5 3e 0c 6e 97 3e 95 4e c9 3e
       1.1868511 0.44871652 0.29576147 0.39317766
0001e0 ef db 9e 3d 33 fb de bf b5 96 f7 bd 8e 8a 01 3e
       0.07756793 -1.742041 -0.12089292 0.1265051
0001f0 57 a6 e0 3e f9 f2 ca bf 4e 5e a2 3b 3e 48 e3 bf
       0.43876907 -1.5855399 0.0049550897 -1.7756422
000200 b1 f9 8f be cf cd fb 3f 3f a9 19 3f 9a a7 48 bf
       -0.28120187 1.9672183 0.60023874 -0.7838074
000210 67 d7 2a be 5a dd 0a bd ba f0 aa bd 8f f8 da bf
       -0.16683732 -0.033902504 -0.08346696 -1.7107104
000220 d7 84 2f be 3c 03 6d 3e 24 d7 33 bf e1 89 21 40
       -0.17140518 0.23145765 -0.70250154 2.5240405
000230 a9 63 d3 3e f7 39 e2 bb 0a 92 17 3e 87 6e 3b be
       0.41286972 -0.0069038826 0.14801803 -0.18303882
000240 81 09 ff 3e ca b1 9f 3f fa 41 e6 be cd dc 7c 3d
       0.49811938 1.2476132 -0.4497221 0.06173401
000250 12 03 46 3f bc 28 b8 bf 28 ae 34 3f 64 b3 20 3f
       0.77348435 -1.4387431 0.7057824 0.6277373
000260 04 b0 06 c0 00 ba 88 3f d8 08 3e 3e b6 18 ef 3d
       -2.1044931 1.0681763 0.18558061 0.11674635
000270 9c 67 06 3d ef 2d d2 be 88 d9 1d be bb 77 28 3d
       0.032813653 -0.4105067 -0.15415013 0.04112981
000280 c0 f6 13 3d 06 3c fa be df 85 81 be 1d b6 91 bf
       0.03612399 -0.4887392 -0.25297448 -1.1383702
000290 33 1f e8 be e3 3d 9f bc 77 3a 5d 40 b1 5f 7a 3c
       -0.45336303 -0.01943869 3.4566934 0.015281604
0002a0 44 c2 09 bf 3b 80 bc 3e 6b 8a 3c bf 4c af e5 be
       -0.5381205 0.36816582 -0.7364871 -0.44860303
0002b0 13 55 ea 3e f8 37 10 c0 db 85 45 be a4 1f 21 3e
       0.4576803 -2.253416 -0.19289343 0.15734726
0002c0 c1 84 45 3f d4 72 be be 51 0a ca 3e 81 77 87 3f
       0.7715569 -0.37196982 0.39460996 1.0583345
0002d0 f3 e3 9f 3f 41 58 38 be d6 18 96 be b6 8a 01 bf
       1.249144 -0.18002416 -0.29315823 -0.5060228
0002e0 c8 c0 0d 3d 7e 5f 82 bf 66 2b 53 be 3a 3b c0 3e
       0.03460768 -1.0185392 -0.20622024 0.37545186
0002f0 f7 e4 ac be 2a 31 12 bc ef 2b 6e 3d 7a dc 6d bf
       -0.33768436 -0.008922854 0.058147367 -0.92914546
000300 84 51 30 40 4e 06 2b 3e ac e8 1f 3f 65 64 0f 3f
       2.7549753 0.16701624 0.62464404 0.56012565
000310 80 ac 93 3d 79 e4 a7 3d 4d 36 bf 3e f3 45 0f 40
       0.07210636 0.081978746 0.37346116 2.2386444
000320 c7 0c 1f 3d d9 76 a4 3f 0a 3e 11 bf f0 86 9b 3f
       0.038830545 1.284877 -0.5673529 1.2150555
000330 bf 40 8c 3d f8 1e 24 bd 68 d2 e7 bd 4b 60 17 3d
       0.06848287 -0.040068597 -0.11319429 0.036957067
000340 88 7a 45 3c 0a 33 43 bf c3 ed 05 3f b9 11 cf 3b
       0.0120531395 -0.76249754 0.5231592 0.0063192514
000350 02 85 d2 3f 15 3a d6 be 03 e9 84 be 7b a2 e3 be
       1.6446841 -0.41841188 -0.25959024 -0.444599
000360 a8 2b 00 c0 45 2d 6e 3f 60 cc 98 3e aa 10 36 be
       -2.0026646 0.93037826 0.29843426 -0.17779794
000370 92 3b e6 3d 0a b2 14 bf ce 4a 66 3d a7 bd e8 bd
       0.11241831 -0.58084166 0.056223683 -0.11364298
000380 f6 5f 0d bc 4c b0 0f 3e bf 79 18 3d bf 4f dd 3e
       -0.008628836 0.14032096 0.03722548 0.43224904
000390 95 b5 82 be db c5 a9 3f c7 dc 3e bf c9 8e 5a bb
       -0.2552916 1.3263506 -0.7455563 -0.0033349267
0003a0 91 22 a7 3e 0f 39 4b 3e 04 db fc 3e e6 89 0a 3f
       0.3264356 0.19845985 0.49385846 0.54116666
0003b0 1f ed bc be dc 2b b9 3c ac 5a 42 40 b0 53 f8 38
       -0.3689966 0.022603922 3.0367842 0.000118411495
0003c0 e0 07 97 3f b4 bc 0f 3c c4 a6 34 bf 5c 2c de 3f
       1.1799278 0.008773018 -0.70566964 1.7357287
0003d0 4d 0b b2 be 78 60 8e be 53 6f b4 3e c8 8b d9 be
       -0.34774247 -0.27807975 0.35241184 -0.42489457
0003e0 ea 6d 9a 3f af 8a 9e 3f f0 3d 1b bd 70 30 41 3d
       1.2064793 1.2386073 -0.037900865 0.047165334
0003f0 e9 c5 a7 3e 77 c3 c9 3f c0 7e 03 3e 55 a5 19 3f
       0.3276818 1.5762776 0.1284132 0.600179

bias f4 [10]
000000 19 60 87 3f f4 c2 36 3f a7 88 11 bc f3 bb 58 3e
       1.0576202 0.71391225 -0.008882678 0.21165447
000010 cc b1 3b bf 03 45 24 bf 09 3f 15 bd e1 ea 98 bf
       -0.7331817 -0.64167804 -0.036437068 -1.1946679
000020 15 ff 7d bf 11 14 34 be
       -0.9921735 -0.1758578

weight f4 [10, 64]
000000 49 e5 3d be 34 55 2c 3e c7 99 7d 3e 18 0d 55 bd
       -0.18544497 0.16829377 0.24765693 -0.05201444
000010 a8 b3 1b be 55 6a ea bd 9b 2b 05 bf 19 1c 96 3e
       -0.15205252 -0.114460625 -0.5201966 0.29318312
000020 d0 94 0d 3d d1 54 9a 3f 2c 6f 8c 3e 63 9c a9 be
       0.034565747 1.2057134 0.27428567 -0.33127126
000030 f7 64 e6 bd a7 e0 77 bd 80 c6 df bc 79 dd ce 3e
       -0.11249726 -0.06051698 -0.027316332 0.40403345
000040 89 6f c1 3d 42 c5 56 be d5 60 dd 3d c3 19 fd 3c
       0.09445102 -0.20973685 0.10809485 0.030896073
000050 1e ce 0b 40 21 b8 0a 3e 0c 15 26 3e f1 e6 30 bc
       2.1844554 0.13546802 0.16218966 -0.010797248
000060 2d c1 dc 3e 0c 8b 30 3f a3 97 15 bc ef 92 84 3d
       0.4311613 0.6896217 -0.009130391 0.06473338
000070 5d 4e 62 3e 4f 08 94 3d 88 6a ae 3e 6c 36 aa bc
       0.22100206 0.07228147 0.34065652 -0.020777903
000080 2c 29 fc 3d fc d7 a6 be 1c 14 58 3d 93 43 b6 3f
       0.123125404 -0.32586658 0.052753553 1.4239372
000090 0d 18 d6 3d 47 a7 39 3f ec 8d c1 3e 99 0a 6f 3b
       0.10453806 0.7252087 0.3780359 0.0036474823
0000a0 cb 0a 76 bd 3b 52 f3 bd 7d a0 d1 3e 75 00 01 3e
       -0.060068887 -0.118809186 0.40942755 0.1259783
0000b0 43 ef 2b 3f e2 09 cf 3f 38 1d 4c 3e 27 60 84 39
       0.6716196 1.6174891 0.19933021 0.0002524864
0000c0 21 e7 b9 bd 38 23 94 3d f5 a1 72 be 5a 88 b5 be
       -0.090772875 0.0723328 -0.23694594 -0.3545559
0000d0 f6 9a b7 3e 70 d5 25 3e c1 f2 9b 3d a4 48 6b 3c
       0.35860413 0.16194701 0.07614661 0.014360581
0000e0 e9 a4 89 3e 40 d1 f4 bd c5 a6 61 bd de 7f 8b 3e
       0.2688363 -0.11953974 -0.055090684 0.27245992
0000f0 e9 d5 10 bf b0 c5 2f 3f e6 26 02 be f4 c4 b0 3d
       -0.565764 0.6866102 -0.12710151 0.08631316
000100 a8 1e b3 3f c1 e4 3a bd 4f 63 0c 3e f1 f0 37 3e
       1.399373 -0.045628313 0.13709758 0.17963006
000110 5e 14 d8 3d 54 c0 70 3d ab 6e 03 3d de 9c c6 3e
       0.1055076 0.05877717 0.032087963 0.38791555
000120 76 b3 f1 3d 0c 76 a0 3f 99 39 05 3e 3d 08 13 bd
       0.118018076 1.2536025 0.13010253 -0.03589653
000130 3a 3f 60 3c 12 c9 ad bd 5e 35 58 bd 20 11 d3 bc
       0.013686949 -0.08485617 -0.05278527 -0.025765002
000140 87 9f 8c 3d eb 90 40 3e 89 98 6e 3d f9 11 3d 3c
       0.06866365 0.18805282 0.058250938 0.01153993
000150 b3 4c 04 3f a5 78 4d 3d 32 85 c2 3c 8c 38 be 3b
       0.51679534 0.050163884 0.023745153 0.0058050808
000160 57 f4 30 3f 4d 9b 31 3f 77 db 91 3e 75 3d 2a be
       0.69122833 0.69377595 0.2848775 -0.16625006
000170 e0 dc 21 3e 8f 4d 44 3b d1 1b a4 3d 5b d7 d2 bc
       0.15806913 0.0029953455 0.08013118 -0.025737455
000180 68 91 e4 bd 2b d9 4b 3e 38 ed 32 3e 86 0d 7c 3f
       -0.111605465 0.19907062 0.17473304 0.98458135
000190 5a ef 7d 3e b7 10 99 3e fb 0b 05 3f b1 e9 f1 3d
       0.24798337 0.29895565 0.51971406 0.11812151
0001a0 fe be 06 3d b5 25 5a 3e 0d 8e 35 3f 7a 1e 06 bd
       0.032896988 0.21303447 0.7091988 -0.03274391
0001b0 67 e6 1c 3f 4b 9e e7 be 64 6b 41 3f 42 ad 0d bd
       0.61289066 -0.45237955 0.7555449 -0.03458906
0001c0 3e d6 92 bd 64 26 38 bc 01 9f 96 be ca 4f a8 be
       -0.0716977 -0.011239622 -0.29418185 -0.32873374
0001d0 0b f6 6a 3c ba 52 50 3f 0f a8 94 3d 83 14 2a 3e
       0.014340888 0.8137623 0.07258617 0.16609387
0001e0 d7 d8 51 be 48 99 1b 3e a1 7c ac bb 7f 56 d4 3d
       -0.20492874 0.15195191 -0.0052638804 0.1036806
0001f0 5a c3 0d bc d4 bd 29 3f d1 f7 25 3d 5b b1 d9 3d
       -0.0086525325 0.6630528 0.04051954 0.10629531
000200 82 0f 82 3e d2 5a 50 3d ea 68 36 3e 1a 77 39 bd
       0.25402457 0.050867863 0.17813459 -0.0452796
000210 be 75 05 3e 04 eb 4d 3d fe 52 9f be 99 1b af 3e
       0.13033196 0.050272956 -0.31118006 0.34200743
000220 38 4e 97 3d f8 18 6c 3f 22 56 bd 3e 1b 84 cf bd
       0.07387966 0.922256 0.36979777 -0.10132619
000230 a5 5d e4 bd 54 a9 1e 3d ac 5f 9b bc a6 f5 a3 3e
       -0.11150674 0.038735703 -0.018966518 0.32023352
000240 ea ef 46 bd 1e 3f 30 3e bf 15 32 3e 49 88 b9 3d
       -0.048568644 0.17211577 0.17391108 0.090591975
000250 a2 10 63 bd 93 08 8f 3e e4 7a 2b be b6 fd 0a be
       -0.055435784 0.2793623 -0.16746098 -0.13573346
000260 10 8d 13 3f 7a c3 a6 be ad af f8 3e b4 08 ff bd
       0.5763712 -0.32571012 0.4857153 -0.12452832
000270 24 c8 bd 3d ef 9c d0 3d d9 02 a5 3e 88 ad cd bc
       0.092666894 0.10186183 0.32228735 -0.02510716
000280 ba f1 37 bd 56 f5 89 3c 40 b7 40 3d 2e 69 07 3f
       -0.044908263 0.016840618 0.04704976 0.52894866
000290 e3 0b 14 3d b9 43 1e 3f 6b 5e e0 3e 18 68 de 3d
       0.03614415 0.61822087 0.43822035 0.10859698
0002a0 1c 16 96 3d 53 84 84 bd 69 19 b4 3d 59 62 8c 3d
       0.07328436 -0.06470551 0.08793909 0.06854696
0002b0 25 16 17 3f 4d ba 87 3f 04 75 0e bd 07 58 40 3d
       0.59018165 1.060373 -0.034779564 0.04695895
0002c0 77 06 b3 bd bd 77 86 3e ce a7 91 be 84 ef a7 bd
       -0.087414674 0.26263228 -0.28448337 -0.08199981
0002d0 e2 ca a2 3e 00 66 2e 3e 52 55 36 3d 2b 43 c5 3e
       0.31795412 0.17031097 0.04451496 0.38527808
0002e0 25 ab 10 3f af 5b 15 3e 32 be f0 3c bd 3b 3e 3d
       0.56511146 0.14585756 0.029387567 0.04644369
0002f0 ff a7 4f be 37 a2 46 3e 11 96 9c bd 32 29 93 3e
       -0.20278929 0.19397818 -0.076458104 0.28742367
000300 8b 8f eb 3f f9 53 65 3e 0c dc 5c 3e bb a8 3a 3e
       1.8403181 0.22395314 0.21568316 0.18228428
000310 7e ca 30 3c 2e 79 f7 3b 20 fa 2e 3d a4 b6 5e 3f
       0.010790465 0.0075522875 0.042719007 0.8699744
000320 4c 68 91 bd 6d 71 f4 3f 28 74 63 3e a9 28 45 3e
       -0.07099971 1.9097115 0.22212279 0.19253792
000330 b4 d9 04 3e e0 c6 ab 3c 5b 19 a8 3c 39 6d 79 3e
       0.12973672 0.020968854 0.020519903 0.24358071
000340 4a 84 6f be 37 3c ea 3d ac 25 90 3e b5 16 f6 3d
       -0.23390308 0.11437266 0.2815374 0.1201605
000350 3a 95 c8 3f 44 72 29 be 42 4d 04 3d 70 4c bd bd
       1.567054 -0.16547495 0.03230024 -0.09243095
000360 36 f2 ca 3f 47 40 76 3e 2f 2e a6 3e 34 19 38 be
       1.5855167 0.24047957 0.3245711 -0.17978364
000370 c9 9d 12 3e 27 d4 4c be a6 51 15 3f de 71 70 3d
       0.14318003 -0.20002805 0.5832771 0.058702342
000380 01 76 c9 3d 76 39 5c 3f d2 0f 4a bd 8f 7b b3 3f
       0.098369606 0.8602518 -0.049331494 1.4022082
000390 23 a0 2e be 56 db 5c 3f 51 31 c6 bd ff f0 9b 3b
       -0.17053275 0.8627218 -0.09677375 0.0047589536
0003a0 09 1f 10 bd c1 e8 b2 3d aa e8 36 3f 8f 35 87 3e
       -0.035185847 0.087358005 0.7144877 0.2640805
0003b0 71 3e 1c 3e fa ce fb 3e d9 c1 b7 3f f6 59 69 3d
       0.15258195 0.49181348 1.4356033 0.05697056
0003c0 a4 bb 17 3f 96 d2 03 3e eb 3d a1 be c6 83 3c 3f
       0.5927069 0.12873301 -0.31492552 0.7363857
0003d0 68 15 e2 3e 31 ea aa 3d f9 12 0d bc 2f e5 5d 3e
       0.44156957 0.0834545 -0.00861048 0.21669458
0003e0 f3 8b 58 3f c4 80 ea 3e a7 b6 8d 3d 25 8c d7 3d
       0.84588546 0.45801365 0.06919604 0.10524777
0003f0 a4 4c 2a 3d 4d bf 8c 3f a9 72 17 be 8c df 0d 3f
       0.041576996 1.099588 -0.14789833 0.5541923

bias f4 [10]
000000 2b 5a 47 c0 8f 28 35 c0 b4 66 29 c0 5d 45 5e c0
       -3.1148784 -2.8306005 -2.6468935 -3.4729836
000010 47 57 42 c0 71 54 31 c0 d9 89 66 c0 1e e7 38 c0
       -3.036577 -2.770779 -3.6021636 -2.8891063
000020 70 6c 4a c0 d8 d8 4a c0
       -3.1628685 -3.169485

weight f4 [64, 20]
000000 e6 56 1a bf fd d0 ca 3d bf ee 08 3f f5 f9 8f 3f
       -0.60288846 0.099031426 0.534893 1.1248156
000010 6a d9 6a be 6e fa 90 bd c8 b6 7a 3e 4a 68 f5 bd
       -0.229345 -0.07079016 0.24483788 -0.11982782
000020 3e 96 9b bd ae b1 12 bf 5d c4 3e bf 35 be 6f bf
       -0.07597016 -0.5730237 -0.74518377 -0.9364961
000030 69 24 ec 3c 88 96 11 3f 32 02 36 bf e2 a5 65 bf
       0.028825955 0.5687032 -0.710971 -0.8970624
000040 d9 0b 7e bf ae 9b 88 3e 02 40 1b bf b8 fe 4d bf
       -0.9923683 0.26681274 -0.60644543 -0.80466795
000050 b7 c2 84 3e 9a 35 d8 3c 8a d8 d1 bd 24 c6 0c bf
       0.25929806 0.026392747 -0.1024638 -0.5498984
000060 a5 a2 69 be 21 fe a8 be 69 8c 92 bf 4e 4f 0b bf
       -0.2281595 -0.33006385 -1.14491 -0.54417884
000070 b6 34 cc 3e d3 b4 f5 be 0f ad 84 be 57 5e 9c bc
       0.39883965 -0.4798952 -0.25913283 -0.019087953
000080 39 6b 38 3e c6 d0 50 3f c5 a9 47 3e 56 c6 5a bd
       0.18009652 0.81568563 0.19498356 -0.053411804
000090 80 f8 7b be 8c 9e 6c be aa 62 9d be ce 4e 38 3e
       -0.24606514 -0.23107356 -0.30739337 0.17998812
0000a0 0b 80 70 3f a3 30 bf 3e 0b 10 70 c0 9e 5e 12 b8
       0.9394538 0.37341794 -3.7509792 -3.489723e-05
0000b0 3f 60 43 3e 26 0c 48 bf a3 cb bb bf 94 ba 2c bf
       0.19079684 -0.7814354 -1.467152 -0.67472196
0000c0 f8 0f ab bf d9 0b 38 be 4e 60 02 be f9 3f df be
       -1.3364248 -0.1797327 -0.1273205 -0.43603495
0000d0 23 3d 3b bf d7 b3 77 3e a4 c4 74 bf fd f4 5d be
       -0.7314016 0.24189697 -0.9561255 -0.21675487
0000e0 99 c8 f1 be 8e 97 24 3f 0c c6 81 bf 23 f3 ff bd
       -0.47223356 0.64293754 -1.0138564 -0.124975465
0000f0 c6 3c aa 3f 9a b4 da bf 3e 25 1e 3f c3 5f 68 3e
       1.3299797 -1.7086365 0.6177558 0.2269278
000100 d0 da c2 3d 82 87 a4 3c d5 5f 00 c0 73 6e 88 3f
       0.095143914 0.020084146 -2.0058491 1.0658706
000110 76 5b 57 be 5f 9a 47 3e f5 23 a6 3d 1a 0a d4 3d
       -0.21030983 0.19492482 0.08112327 0.10353489
000120 ef 7e a0 be a2 c9 d9 3e e5 44 51 3e d2 fe f6 bc
       -0.31346843 0.42536646 0.20436437 -0.030150805
000130 5c c7 c6 be 7e 13 e1 bc c0 82 2f 3e d6 0d 2c 3f
       -0.38823974 -0.027475115 0.17139721 0.6720861
000140 17 89 91 3e 65 bf a4 3d 82 4b 2e 3e ce 1a 1b 3f
       0.28424904 0.08044318 0.17020991 0.60587776
000150 0c 58 d7 bd ca a1 0c 3f 92 72 6a 3f 4d 6d c5 3f
       -0.105148405 0.5493437 0.9158107 1.5423981
000160 f7 fa 42 40 25 7e 1f bf b3 33 8c 3d 91 7d ac bd
       3.0465677 -0.62301856 0.06845798 -0.084223874
000170 ec 09 ea bd 26 99 a9 be 6e 0a 1c be 3a 26 e5 bd
       -0.11427674 -0.33124655 -0.15238354 -0.11188932
000180 db 30 b0 be 78 63 cf 3e 85 41 22 be ba b8 b8 bd
       -0.34412274 0.40505576 -0.15845306 -0.09019609
000190 7a 27 3e bf a1 f6 d6 3e 1c ea 20 3f e9 8c a1 3f
       -0.74278986 0.41985038 0.6285722 1.2621127
0001a0 8f f6 85 bd 82 6f 16 be 64 3b 99 bf 39 03 a9 bf
       -0.06541168 -0.14690974 -1.197125 -1.3204108
0001b0 57 13 ba 3e 55 9a a1 bc 58 87 57 3e 8f d1 32 3e
       0.3634288 -0.019726912 0.21047723 0.17462753
0001c0 31 07 09 bf ba 35 e8 bf 08 fc 58 be d3 c7 57 be
       -0.535266 -1.8141396 -0.21189892 -0.2107232
0001d0 63 d8 51 be 31 3f 95 be a2 f6 0d bf 25 99 72 bf
       -0.20492701 -0.29149774 -0.55454457 -0.9476493
0001e0 5c f5 7e bf f2 2a 36 3f f6 6c d8 3f 1e 2e 76 3e
       -0.9959314 0.7115928 1.6908252 0.2404103
0001f0 34 4a fa 3e ca 6c 52 3f 9f f0 9a bf 6c c3 b3 be
       0.48884737 0.8219725 -1.2104682 -0.35110033
000200 91 bf 79 bf bd 66 2b 3f 0c 50 32 bf 1d 54 b3 bc
       -0.9755793 0.6695364 -0.6965339 -0.021890694
000210 4d d1 12 bf ed 0c cf bf 2b c4 e4 bd ff f3 72 3e
       -0.5735062 -1.617582 -0.111702286 0.2372589
000220 0d a7 13 3f 76 34 06 bf e0 eb 11 bd 1d 83 a1 be
       0.57676774 -0.524238 -0.03562534 -0.31545344
000230 87 57 b9 3d a1 10 08 3f 36 91 a5 be 10 8e 6b 3e
       0.09049898 0.53150374 -0.3233735 0.23003411
000240 4e 59 d8 bd e7 51 8c 3e 98 b0 e9 be d1 0b de 3e
       -0.105639085 0.27406237 -0.45642543 0.4336839
000250 86 56 cf be 77 94 90 3b 19 9d 31 3e 0c 89 1f 3e
       -0.404957 0.0044122296 0.17345084 0.15579623
000260 a3 7e 86 bd 78 8f 31 3f a3 32 3b 3e c5 62 c9 3e
       -0.06567123 0.6935954 0.18281035 0.39333168
000270 a6 df 72 3e 8b ad 52 3d ec a7 c1 3e 6f 87 38 3f
       0.23718128 0.051435035 0.37823427 0.72081655
000280 15 87 b9 3f 88 96 d7 be 28 9a 0a 3f 0d 9c 59 bf
       1.4494349 -0.42107034 0.54141474 -0.8500374
000290 39 25 f7 3c 8d c3 ff 3b 85 c1 45 bf 4e d9 db be
       0.030169116 0.007805294 -0.7724841 -0.42939228
0002a0 8e 71 36 c0 3a cf 81 3f 5a ac a5 3d a1 53 3c 3e
       -2.8506808 1.0141366 0.08089514 0.18391277
0002b0 af 5f e4 3c d4 91 a0 3d dc fb 9b 3e 91 ee 9b 3d
       0.027877657 0.078403145 0.3046559 0.07613862
0002c0 f2 2a 05 3e ee d3 ee 3d 7c 65 29 be 98 a2 56 be
       0.13004664 0.11661516 -0.1654262 -0.20960462
0002d0 0f 9b 92 bf 2e c2 48 3f 96 a6 9d bf b5 fa c2 3d
       -1.145357 0.78421295 -1.2316463 0.09520475
0002e0 ad cf 0c 3f 5e ea 1d 3f 2f 86 0a c0 2a fe 93 3e
       0.5500439 0.6168574 -2.16444 0.2890485
0002f0 4e b9 71 bf ad 1e 3a 3e 65 50 c1 3f e0 85 47 3f
       -0.9442338 0.18175764 1.510266 0.7793865
000300 4b f4 c2 be 89 0f 70 3f 5e e2 85 3e e5 8d eb 3e
       -0.38077006 0.93773705 0.26149267 0.46006694
000310 a2 a3 8f 3e e6 36 83 3e 26 73 8b 3e a7 0b 05 bf
       0.2805453 0.25627822 0.2723629 -0.51970905
000320 61 b0 1d 3d 75 ef 7f bd 96 44 32 be 95 5b 1b 3e
       0.038498286 -0.062484223 -0.17408976 0.15171655
000330 26 6c 80 3e a6 41 e5 3d ec c8 83 bf f4 29 fd bd
       0.2508251 0.11194162 -1.0295691 -0.123615175
000340 84 c8 9d bf cb cc 93 bf 20 4a b0 3f ab fd e0 3e
       -1.2326818 -1.1546873 1.3772621 0.43943533
000350 58 74 04 3f 78 8b a3 bf 86 45 67 3c 85 51 c5 3e
       0.51740026 -1.2776937 0.014115697 0.38538757
000360 a8 ca ea 3e 74 bc 71 3f 7c c2 5c 3d bb 48 a4 bd
       0.4585774 0.9442818 0.053896412 -0.08021685
000370 44 44 ae bf b4 7a 0f bd b5 8f b5 3f f5 85 18 bf
       -1.3614583 -0.03502913 1.4184481 -0.595794
000380 28 8e c7 bd 6b d2 a3 be 2b 97 0d 3f 7b b1 1e 40
       -0.09743911 -0.31996474 0.5530879 2.4795825
000390 1e 3e 26 3f c7 1a 7d 3e d2 d2 c5 be 4c 1e 32 be
       0.64938533 0.24717246 -0.38637406 -0.1739437
0003a0 3e 79 87 3f 4f 36 ef 3f d0 d1 00 3f 66 0f 08 3f
       1.0583875 1.8688449 0.5032015 0.53148496
0003b0 b1 cb 92 3f de a5 d1 3e 60 63 1c 3f cb d2 ab 3f
       1.1468412 0.4094686 0.61089134 1.3423704
0003c0 68 52 96 be 2e 9d f7 3e fd e3 b6 3e cc 9e 9a bf
       -0.29359746 0.48362106 0.35720816 -1.2079711
0003d0 8b 73 1f 3d 28 28 cd bd 8e 84 34 3f 58 1f ae bf
       0.03892855 -0.10017425 0.7051476 -1.3603315
0003e0 ce 7e 06 c0 70 d0 3c be c5 3a 24 be bd b3 0d be
       -2.1014895 -0.18438888 -0.16038044 -0.13838096
0003f0 13 45 ed be a8 2f 09 bf 40 3e b6 be ed 25 b6 3d
       -0.46341762 -0.5358834 -0.35594368 0.088939525

bias f4 [64]
000000 d6 fa 78 3f 37 6f 0e 40 0b 2f ad bf a0 c2 0a 3f
       0.97257745 2.225538 -1.3529981 0.54203224
000010 b7 fd 47 3f db 1b 3d 3f b9 c5 2a bf 90 48 79 40
       0.78121513 0.7387063 -0.6670795 3.8950539
000020 02 72 24 40 30 5d bd 3f 9e 8e b2 3f e8 4c cf bf
       2.5694585 1.4794064 1.3949773 -1.6195345
000030 e1 4b 4e 3e 25 fb 0a 40 66 e6 70 40 72 ab ee 3e
       0.20146133 2.1715786 3.7640624 0.46615177
000040 65 53 35 40 be b4 e1 bf 2c cf 18 40 de 55 a4 3f
       2.833215 -1.7633283 2.3876448 1.2838705
000050 91 c6 31 3f 5c d3 46 40 c4 d7 7f 3f ba 18 e1 3f
       0.69443613 3.1066504 0.9993861 1.7585671
000060 22 d5 d8 bf 5b 8b 13 40 f9 d2 b7 3f 49 9d 12 bf
       -1.6940043 2.3053806 1.4361259 -0.5727125
000070 c9 66 c6 3e b8 53 22 40 27 7a ac 3f 7e a3 57 40
       0.38750294 2.5363598 1.3474778 3.3693538
000080 3f 3c 21 40 87 7a 12 40 24 91 78 c0 58 a0 57 40
       2.5193021 2.2887285 -3.8838587 3.3691616
000090 6a ff a4 be 73 67 db 3f 45 ac 80 40 21 27 74 40
       -0.32226115 1.7140945 4.021029 3.8148882
0000a0 2e 75 45 3f e4 c5 08 40 8e 5f 3f 3f 05 e1 78 40
       0.77131927 2.1370783 0.7475518 3.888734
0000b0 65 9e 13 3e b0 f3 4d 40 6b 5d 79 3f 61 07 68 c0
       0.14415891 3.2179985 0.9740817 -3.6254504
0000c0 be 27 a5 bf 8f 3f b4 3f 45 8f e4 3f a1 d7 08 40
       -1.2902753 1.4081897 1.7856222 2.138161
0000d0 8b 3a 9b bf a7 5c 47 40 07 8c 6f 40 52 a8 b7 3f
       -1.2127241 3.11503 3.7429216 1.4348242
0000e0 88 89 00 c0 0c e8 4a c0 c6 d7 57 40 1f 10 47 40
       -2.0083942 -3.170413 3.3725448 3.110359
0000f0 58 b5 ef bf 33 38 fa 3f 34 9c 50 c0 aa d9 c5 bf
       -1.8727217 1.9548401 -3.259534 -1.5457051

weight f4 [64, 64]
000000 d0 c5 43 3f df d4 a0 3f af 02 b5 bf f7 62 bc bf
       0.7647371 1.2564963 -1.4141444 -1.4717702
000010 10 3b d6 3f 18 67 f3 3f d3 72 30 bf 86 4b ea 3f
       1.6736774 1.9015837 -0.6892521 1.8304298
000020 aa 99 a5 3f dc b5 a5 bf f8 d3 81 3f 65 9b a8 bf
       1.293752 -1.2946124 1.0142813 -1.3172423
000030 2a c3 04 40 5c 0d 94 3f fd fb 16 40 be a3 a1 bf
       2.0744119 1.1566577 2.3591301 -1.2628095
000040 e5 50 a2 3f 95 af 50 bf 2f 1a 46 3f 02 f8 30 c0
       1.2680937 -0.81517917 0.77383703 -2.7651372
000050 e9 4d 43 40 a8 b7 03 40 d8 4f b3 3f 02 53 bc 3f
       3.0516303 2.0580845 1.4008741 1.4712832
000060 2b 18 0e bf 08 5c 3c 40 03 6d 27 3f 3c 8b 1b 40
       -0.5550563 2.9431171 0.65400714 2.4303732
000070 61 a8 fe bf e4 86 84 3f e5 69 56 3f 16 44 f4 3e
       -1.9895135 1.0353665 0.8375533 0.47708195
000080 c4 73 c2 3f 44 ae 9d 3f 23 40 fb bf d9 47 d3 3f
       1.5191579 1.2318807 -1.9628948 1.6506301
000090 6d a4 f6 bf d6 ce a4 3f c0 b3 30 40 b9 84 0e 40
       -1.9268929 1.2875621 2.760971 2.2268507
0000a0 c2 1c d6 bf c6 78 fe 3f 74 1b 26 3f 50 46 e1 3f
       -1.6727526 1.9880607 0.6488564 1.7599583
0000b0 4d 58 af 3f ba 59 bd 3f f3 55 00 c0 42 7a e2 bf
       1.3698822 1.4793007 -2.005246 -1.769356
0000c0 c0 20 14 bf cb 9e 8e 3f 9b f6 7a 3f e8 73 85 3f
       -0.5786247 1.114221 0.9803254 1.0425997
0000d0 98 12 d2 bf f6 fe b4 3f a7 03 b0 3f 7f ed aa 3f
       -1.6411924 1.4140308 1.3751115 1.3353728
0000e0 62 1b 72 bf 8e 51 48 c0 92 89 15 40 d3 81 0b 40
       -0.9457303 -3.1299777 2.3365216 2.1797988
0000f0 e0 52 a7 bf ad 2f 82 3f b6 dd 18 c0 fa cc 0f 40
       -1.3072166 1.01708 -2.3885322 2.2468858
000100 91 1c 66 3d 9c b0 c2 3d d5 23 83 3d 4d 8f 3c 3d
       0.056179587 0.09506342 0.06403319 0.0460351
000110 6f 1e 06 bd bf e6 da 3c 12 e9 80 bd e5 0b f3 bc
       -0.032743867 0.026721356 -0.06294455 -0.029668758
000120 6d 93 b6 bc e3 60 0e be c3 12 86 3d 0e 30 84 bd
       -0.022287095 -0.13904147 0.06546547 -0.06454478
000130 10 dc 82 3d fd 2b e2 3c 36 1a cc bd 61 08 55 b9
       0.0638963 0.027608866 -0.09965937 -0.00020316384
000140 8a da b1 bd 54 00 7c bd 11 00 3a 3b 2f f7 c6 3c
       -0.08684261 -0.06152375 0.0028381387 0.024287788
000150 3c ab dd bd a6 7a c2 bd 4a 48 80 3d 42 8f a9 bd
       -0.10823676 -0.094960496 0.06263788 -0.082792774
000160 f8 d2 ab bd 3c ea 0c be 23 0c 11 3d b7 f1 59 3d
       -0.083898485 -0.13761228 0.035411965 0.053209033
000170 5c 53 b2 3d 07 d4 05 be 34 6a 89 bc 87 27 f4 bb
       0.08707306 -0.13069163 -0.016774274 -0.007451001
000180 94 80 c8 bc 45 20 3e bc b1 df f6 bd 7e 93 1b be
       -0.024475373 -0.011604373 -0.120543845 -0.15192983
000190 9f 92 b5 bd 8b 0b a6 bc 36 a4 b6 bc a3 4a 4b bd
       -0.088658564 -0.020269176 -0.022295099 -0.049631726
0001a0 01 8d 25 be d7 d1 28 3d 0a 12 f7 bd f9 ac 08 bb
       -0.1616707 0.041215744 -0.120639876 -0.0020855053
0001b0 16 41 03 be 9c 2f 5a 3d 1f 00 8d 3d a6 c7 85 bd
       -0.12817797 0.05326806 0.06884789 -0.065322205
0001c0 42 40 d1 3d 8b 95 98 bd 14 1b 22 be c9 bc 69 bd
       0.10217334 -0.07450398 -0.15830642 -0.057064805
0001d0 3b 24 01 be 11 8b ba bb 68 e1 c5 3c fa 61 bc bd
       -0.12611477 -0.0056928475 0.024155334 -0.09198375
0001e0 3b de 8a bd f0 ea 16 3d 14 36 cd bd 4c 80 52 3d
       -0.06780668 0.036845148 -0.1002008 0.051391885
0001f0 3c 93 bd bd 4e 54 14 3d d4 41 c5 bd 70 14 e0 bd
       -0.09256598 0.03621321 -0.09631696 -0.10941398
000200 8f 75 5b 3f ac e9 86 3f b7 ca c2 bf 07 14 a9 bf
       0.85726255 1.0540061 -1.5218114 -1.3209237
000210 1b 44 d2 3f 18 54 fe 3f 38 dc 49 bf 37 e7 f2 3f
       1.6427034 1.9869413 -0.7885165 1.8976811
000220 9b dd 8a 3f 96 2e ae bf b4 ff 53 3f 5a aa c9 bf
       1.0848879 -1.3607967 0.82812047 -1.5755112
000230 bb 39 f1 3f 22 e9 5f 3f c3 1b 14 40 8f bc 97 bf
       1.8845743 0.8746511 2.3141944 -1.1854419
000240 f2 da a7 3f f8 37 70 bf 64 df 2c 3f 0c 20 31 c0
       1.3113692 -0.938354 0.6752837 -2.767581
000250 d3 a6 4e 40 45 9f ea 3f a0 29 bf 3f ca d7 c1 3f
       3.2289321 1.8329855 1.4934578 1.5143979
000260 a3 ff 2a bf 32 1d 37 40 ec 7e 1f 3f 03 b7 20 40
       -0.6679632 2.861157 0.6230304 2.5111701
000270 cd bd fc bf e9 cf 70 3f 7c 57 4c 3f d9 02 94 3e
       -1.9745423 0.94067246 0.7982099 0.28908423
000280 2b 09 ad 3f d9 2c a6 3f 99 db 11 c0 d8 a3 db 3f
       1.3518423 1.2982436 -2.2790282 1.7159376
000290 0b d1 03 c0 59 6e 8c 3f c8 3a 42 40 36 8c 11 40
       -2.059634 1.0971175 3.0348377 2.2741828
0002a0 5e e5 e5 bf f3 db 00 40 ad bc 51 3f 1a 4a ee 3f
       -1.7960622 2.0134246 0.8192852 1.8616364
0002b0 40 2f b1 3f 83 08 af 3f f3 1e f7 bf 0c 16 10 c0
       1.3842545 1.3674473 -1.930632 -2.2513456
0002c0 d8 53 1c bf 97 0c 81 3f 37 00 9a 3f bc e3 57 3f
       -0.61065435 1.0081967 1.2031316 0.8433187
0002d0 83 ee f5 bf 5b 61 b4 3f 1b 95 9e 3f 18 d1 a7 3f
       -1.9213413 1.409221 1.2389253 1.3110685
0002e0 7d fe 82 bf 32 5d 3c c0 98 cd 12 40 77 2a 11 40
       -1.0233914 -2.9431882 2.2937984 2.2682168
0002f0 f1 6e 82 bf fd 83 89 3f 35 1b 30 c0 02 25 09 40
       -1.0190107 1.0743405 -2.7516606 2.1428838
000300 b2 96 cb 3f 53 06 95 3f 79 1b 2b c0 1e 88 a0 3f
       1.5905364 1.1642555 -2.6735518 1.254154
000310 ae 17 e4 bf 11 22 a3 3f d7 68 b7 3f 27 9a e5 3e
       -1.7819726 1.2744771 1.432887 0.4484417
000320 72 31 1e bf fa 7a 85 bf 6c a3 d1 3e f5 5e 02 bf
       -0.617942 -1.0428154 0.40944993 -0.5092614
000330 84 b1 d2 3f 6b 7b 18 bf cc 0a 0f bf c7 d8 0a bf
       1.6460423 -0.5956332 -0.5587585 -0.54237026
000340 c2 cd a6 3f d5 87 80 3f f3 8e 59 c0 85 2f 7a 3f
       1.3031542 1.0041453 -3.39935 0.9772876
000350 df f9 66 3f ed 51 1a 3f 10 06 22 c0 67 3f cc 3f
       0.90225023 0.6028126 -2.53162 1.5956849
000360 42 5a a0 3f 80 30 4f c0 cb b0 92 be 83 c6 a3 3f
       1.2527544 -3.2373352 -0.28650507 1.2794956
000370 2d 1c b0 be 35 2c 42 3f 7d 48 65 3f cd e7 7f 3e
       -0.34396496 0.75848705 0.89563733 0.24990769
000380 fd 7d 5e c0 18 f3 47 3f f2 e2 e7 be 04 b4 77 bf
       -3.4764397 0.78105307 -0.45290333 -0.9675906
000390 8e da 51 3e 18 70 25 bf 1b 74 e3 3d ed b9 96 bf
       0.20493528 -0.64624166 0.1110613 -1.177549
0003a0 90 01 9e 3f c0 dc 45 c0 92 d1 c4 bf 1d 58 28 c0
       1.2344227 -3.0915985 -1.5376456 -2.630378
0003b0 03 c3 31 c0 75 5a 27 c0 59 fb 8d 3f a1 e5 a9 3f
       -2.7775276 -2.614896 1.109233 1.3273202
0003c0 d4 d1 4f 40 d3 56 67 c0 76 99 40 c0 2b dd df be
       3.247182 -3.6146743 -3.0093665 -0.43723425
0003d0 ba 08 00 3f 79 18 15 c0 8c 99 8e 3f 45 58 04 40
       0.50013316 -2.3296187 1.1140609 2.0678875
0003e0 3e 60 3a 3f aa fd ed 3e f3 cc f2 bf e2 85 f3 be
       0.72803104 0.46482593 -1.8968796 -0.47563082
0003f0 c7 52 d2 3f 49 5b 36 c0 fa e2 48 3f 3a df 9d 3f
       1.6431512 -2.8493216 0.7847134 1.2333748

bias f4 [64]
000000 f7 c0 3d 40 cf 3f 1a be 65 9b 3f 40 02 d3 8b 3d
       2.9649026 -0.15063404 2.9938595 0.06827356
000010 ab 32 8d 3e aa 9d 38 40 92 a5 e3 bd 34 b0 36 40
       0.2757772 2.884623 -0.111155644 2.8545046
000020 9b e8 cc 3e c3 91 be be 61 8b 2a 40 a9 15 3f 40
       0.40021214 -0.37220582 2.664757 2.985697
000030 d0 51 0a 3c 03 06 36 40 b9 22 57 3d f3 4c 85 bf
       0.008442357 2.844117 0.05252335 -1.0414108
000040 ad ba 35 40 81 f3 c8 3d 1e 22 67 3f 3a eb 39 40
       2.8395188 0.0981207 0.90286434 2.904982
000050 f8 bb 3d 40 c4 d1 b1 3e 8f fc d9 bd 5f 42 f1 3d
       2.9645977 0.3473035 -0.10643875 0.117802374
000060 03 6c 3c 40 2c ef 74 be de 3f 65 be 4c e1 21 3e
       2.9440925 -0.23919362 -0.22387645 0.158086
000070 be 82 cf be cb 16 3e 40 b8 f7 88 3f 34 d3 32 40
       -0.40529436 2.9701412 1.0700598 2.7941408
000080 21 65 70 3e 72 02 3f 40 30 dc b9 3e f0 96 31 40
       0.23476078 2.9845243 0.36300802 2.7748375
000090 3c 13 5e 3e 4e 09 3c 40 5f db 53 3e 9b c4 cc 3d
       0.21687025 2.938068 0.20689152 0.09998437
0000a0 a7 78 bb 3e 94 eb f2 bd e1 9f 40 40 52 0f 37 40
       0.36615488 -0.11861339 3.0097582 2.86031
0000b0 c6 4d dc bd a6 46 36 40 d8 85 49 40 e0 cf 66 3f
       -0.107570216 2.848062 3.1487942 0.9016094
0000c0 df 6f 25 bf ad 82 3d 40 87 6e 61 bf da d7 26 40
       -0.64623827 2.9611008 -0.88059276 2.6069245
0000d0 ce 47 9f 3f fb e4 f8 3d 29 42 ed 3e fe c3 34 40
       1.2443788 0.121530496 0.4633954 2.8244624
0000e0 b1 57 02 c0 76 22 79 3e e8 a4 79 bf 5b 29 0a bf
       -2.0366023 0.24329552 -0.9751725 -0.53969353
0000f0 01 0a e0 3d 2d 89 44 be 63 7c 3e 40 45 30 2b 40
       0.10939408 -0.19192953 2.976342 2.6748211

weight f4 [1, 64]
000000 5f e9 36 40 84 22 a9 3d f2 bb 47 40 30 68 62 c0
       2.8579938 0.082585365 3.1208463 -3.537609
000010 ca 86 3d c0 b2 01 28 40 cc 7e 2f bf c2 72 26 40
       -2.9613519 2.6251035 -0.6855285 2.6007543
000020 21 53 a3 c0 0e 6c 57 c0 d0 28 3b 40 84 e3 37 40
       -5.1038976 -3.3659701 2.924366 2.8732615
000030 98 ad 45 c0 d0 0e 29 40 09 d2 e2 3b 17 d1 80 c0
       -3.0887203 2.641529 0.006922011 -4.0255237
000040 e6 f6 2f 40 0c f4 60 c0 c0 f8 46 c0 aa 6a 2c 40
       2.7494445 -3.5148954 -3.1089325 2.6940103
000050 a1 df 3c 40 e4 2d 34 c0 c9 d1 8e c0 64 fa 81 c0
       2.9511492 -2.815301 -4.4631085 -4.0618153
000060 60 57 30 40 af b8 63 bf 4b 42 6b c0 e0 f0 46 c0
       2.755333 -0.8895368 -3.6759212 -3.1084518
000070 64 4b 8d c0 a6 8c 23 40 01 47 19 c0 69 cb 28 40
       -4.415453 2.5554595 -2.3949587 2.6374152
000080 69 e9 6b c0 7a 8f 51 40 02 8e 73 c0 e2 b1 19 40
       -3.6861212 3.274382 -3.8055425 2.401482
000090 15 f1 6e c0 18 a5 32 40 af dc 6c c0 a0 1e 4b bf
       -3.7334645 2.7913265 -3.7009695 -0.79343605
0000a0 e0 1a 77 c0 11 27 eb 3c fd a4 6b 40 88 df 38 40
       -3.8610153 0.028705152 3.681945 2.8886433
0000b0 05 54 83 c0 86 89 2a 40 55 c0 3f 40 60 1f 60 c0
       -4.1040063 2.6646438 2.996114 -3.501915
0000c0 16 91 71 c0 94 fa 34 40 d2 73 ad c0 fd 7b 1e 40
       -3.7744803 2.827794 -5.420388 2.4763176
0000d0 36 d4 fd 3f 02 c4 67 c0 b8 3e 4a c0 4e b2 1e 40
       1.9830387 -3.6213384 -3.160078 2.4796329
0000e0 f1 ee 86 c0 04 c0 7c c0 48 74 94 c0 b5 e9 3d c0
       -4.2166677 -3.9492197 -4.6391945 -2.9673893
0000f0 69 38 57 c0 3d fe 44 3c 83 36 48 40 02 d2 29 40
       -3.362818 0.012023506 3.1283271 2.6534429
