log_7_27/pyt_save/model.pt (torch_old, 70495 bytes, 18 tensors)

weight f4 [64, 7]
-0.1647454 -0.25659713 -5.407096 -2.4506438 0.59159344 -0.76868075 1.0375007 -0.72838897
-0.085566156 3.4953713 1.1112132 -1.7683185 -0.7762562 -0.691339 -0.17082983 0.40175042
1.2722089 0.59720796 -4.5764995 -0.27009282 1.9163896 0.18711473 0.30959606 -5.635941
-0.04067047 0.4345541 -0.2252483 -0.083490774 -0.05000635 -0.29092157 2.1597133 0.13559476
0.17931928 -0.15744248 -0.77566457 -0.2921903 0.0901424 1.4710854 0.49239254 -0.29814374
-0.4669118 0.26178613 0.7027133 -0.552374 -0.797357 -12.721773 0.76527524 0.041702375
-0.48680538 -0.8973236 0.3915735 3.0954409 0.4916713 0.35613796 0.74061793 -0.29693463
0.11677741 -0.5696489 0.5470155 0.6241647 -0.12321374 -0.46069318 -0.6260037 -0.27146778
-0.61563396 3.0619638 0.26231778 -0.24821505 -0.87843895 0.15705253 0.536044 -0.393174
-6.223662 0.027042655 0.1631085 1.1356928 -0.08527367 -0.39352784 1.5062764 -1.7649151
1.0476433 1.5295469 -0.21732803 -1.8208458 -1.7049222 1.3639631 1.4993299 0.57023054
0.6648037 0.030710917 -0.66456246 0.17645167 -0.4036999 2.7684517 0.52886647 -0.2016473
1.0674977 -0.69100374 -0.47425184 0.021769866 1.6117187 0.26373836 0.06463671 1.1924316
0.33924443 -1.3417467 0.47136167 -0.49386644 2.2014654 0.8651877 -0.7434459 1.1850585
-0.19926721 0.4548574 1.6934865 0.08566684 0.004580066 0.106102 -0.91334695 -0.14914148
0.07878444 -6.0866456 0.28559336 -0.2640691 1.0658692 -0.15384504 0.579692 -0.49240324
-2.125505 -1.1808074 0.042309083 -0.10454394 -1.0123215 0.4173532 0.07148522 -0.8242943
-0.1913345 0.18860543 0.32709226 0.391675 0.7034501 0.015271149 5.0937347 1.1353341
-2.1889424 1.0978041 -0.0028893272 -0.91342103 0.68786895 -1.4819486 -10.110139 0.20991243
-0.2634226 -2.6314728 -0.518391 -0.42295402 3.555603 -1.2646768 0.6602485 -0.16972879
-0.9696427 0.32117635 0.47280377 0.74401045 0.35858637 -0.26068312 0.22586018 -0.15235755
0.20037197 0.7766995 -9.653127 -16.80001 0.1259093 -0.113180906 -0.75125957 0.7620571
-0.2619879 -18.608694 0.37288395 -0.4770957 1.077819 -0.35066196 -1.5337744 -0.6036079
3.483923 0.19367963 -0.8088511 -0.44132796 1.0196432 0.24218433 1.2309674 2.3236709
0.06863814 -0.76358265 0.92862993 -0.26109892 -0.3490157 -0.24581316 3.962143 -1.8887224
0.26143953 -0.41866702 -0.5261895 -0.84239334 -0.36285055 -0.027577678 0.26383755 2.2845654
0.8513603 -0.66646826 -0.7248782 0.19350556 0.51326793 0.890605 1.2997568 1.507587
-0.87629944 -0.44733325 0.4327559 -0.5385368 -2.6322646 0.1322426 -0.27911675 -0.10488425
-1.1213168 0.28749782 3.5582383 0.21966197 -1.3232049 0.16634047 -0.61971104 -0.1649058
-0.4046671 0.47632402 0.98583686 -2.8699875 0.13887666 -0.24872321 0.11078342 0.8403848
-13.733287 -13.416456 0.47131273 0.529782 -0.36638144 -0.33795494 -0.2062678 -11.485726
0.41567722 0.5582965 -0.22818595 -0.5041702 0.82036597 0.06477548 2.8598845 -13.944843
00000000: 05b3 28be b360 83be ee06 adc0 59d7 1cc0
00000010: ab72 173f 43c8 44bf d3cc 843f b377 3abf
00000020: 4f3d afbd 2ab4 5f40 3c3c 8e3f 4358 e2bf
00000030: bab8 46bf 98fb 30bf 04ee 2ebe 3bb2 cd3e
00000040: bed7 a23f 9fe2 183f af72 92c0 9b49 8abe
00000050: 414c f53f 019b 3f3e 6083 9e3e a159 b4c0
00000060: 1496 26bd e07d de3e 7ea7 66be 36fd aabd
00000070: 75d3 4cbd acf3 94be be38 0a40 5ad9 0a3e
00000080: 799f 373e 9a38 21be f491 46bf f899 95be
00000090: 949c b83d 874c bc3f e01a fc3e 4ca6 98be
000000a0: 100f efbe d508 863e 05e5 333f 6268 0dbf
000000b0: 971f 4cbf 628c 4bc1 14e9 433f 1cd0 2a3d
000000c0: 8e3e f9be 00b7 65bf 527c c83e b41b 4640
000000d0: 57bc fb3e b757 b63e 2399 3d3f d107 98be
000000e0: ff28 ef3d 83d4 11bf 3509 0c3f 42c9 1f3f
000000f0: 7c57 fcbd fadf ebbe c741 20bf d3fd 8abe
00000100: 309a 1dbf 37f7 4340 844e 863e 162c 7ebe
00000110: 60e1 60bf 61d2 203e 2e3a 093f 1a4e c9be
00000120: 3d28 c7c0 8f88 dd3c ea05 273e 625e 913f
00000130: f6a3 aebd 7b7c c9be aacd c03f bde8 e1bf
00000140: 2d19 863f 31c8 c33f 3d8b 5ebe 7a11 e9bf
00000150: e43a dabf 5896 ae3f 0bea bf3f a1fa 113f
00000160: 9330 2a3f 7695 fb3c c420 2abf bfaf 343e
00000170: c1b1 cebe 502e 3140 cb63 073f a17c 4ebe
00000180: c4a3 883f 9fe5 30bf 23d1 f2be b856 b23c
00000190: cc4c ce3f b708 873e 4060 843d 99a1 983f
000001a0: 72b1 ad3e 5bbe abbf 5156 f13e 10dc fcbe
000001b0: cfe4 0c40 f17c 5d3f 7852 3ebf ffaf 973f
000001c0: b40c 4cbe 12e3 e83e 2ac4 d83f 1972 af3d
000001d0: 6114 963b 014c d93d 1bd1 69bf 8bb8 18be
000001e0: bd59 a13d cdc5 c2c0 4b39 923e 1134 87be
000001f0: 676e 883f 8e89 1dbe b266 143f 471c fcbe
00000200: 4608 08c0 b224 97bf 4a4c 2d3d 221b d6bd
00000210: c093 81bf 52af d53e d866 923d f404 53bf
00000220: 31ed 43be c821 413e a378 a73e a089 c83e
00000230: 4e15 343f d733 7a3c e0ff a240 a152 913f
00000240: a217 0cc0 d884 8c3f de5a 3dbb f6d5 69bf
00000250: 2e18 303f 7eb0 bdbf 21c3 21c1 49f3 563e
00000260: 54df 86be 0d6a 28c0 46b5 04bf 6e8d d8be
00000270: 008f 6340 eee0 a1bf 0c06 293f 62cd 2dbe
00000280: 813a 78bf 3a71 a43e 5613 f23e 7877 3e3f
00000290: a298 b73e 4278 85be e447 673e 9e03 1cbe
000002a0: 4f2e 4d3e c7d5 463f 3573 1ac1 6c66 86c1
000002b0: 5eee 003e 64cb e7bd 8c52 40bf 2d16 433f
000002c0: 4723 86be 9bde 94c1 a5ea be3e e345 f4be
000002d0: f9f5 893f f789 b3be b852 c4bf 0c86 1abf
000002e0: 98f8 5e40 f453 463e de10 4fbf bdf5 e1be
000002f0: ab83 823f 2bff 773e 5790 9d3f 06b7 1440
00000300: 2792 8c3d 277a 43bf b1ba 6d3f c2ae 85be
00000310: 30b2 b2be 72b6 7bbe c093 7d40 a8c1 f1bf
00000320: 67db 853e 865b d6be 5bb4 06bf 17a7 57bf
00000330: 8cc7 b9be 95ea e1bc b715 873e 5236 1240
00000340: c0f2 593f aa9d 2abf 9e91 39bf 5226 463e
00000350: 8765 033f b0fe 633f 6e5e a63f 9cf8 c03f
00000360: 2955 60bf dd08 e5be 2e92 dd3e 8cdd 09bf
00000370: 0677 28c0 9b6a 073e 64e8 8ebe 8ecd d6bd
00000380: 4f87 8fbf ea32 933e 2dba 6340 11ef 603e
00000390: c75e a9bf 2855 2a3e 62a5 1ebf 11dd 28be
000003a0: 8730 cfbe bee0 f33e ce5f 7c3f e0ad 37c0
000003b0: af35 0e3e 4cb1 7ebe 6be2 e23d 7523 573f
000003c0: 8bbb 5bc1 cea9 56c1 e74f f13e cb9f 073f
000003d0: 5996 bbbe 6e08 adbe de37 53be 89c5 37c1
000003e0: a5d3 d43e 85ec 0e3f 94a9 69be 4c11 01bf
000003f0: 8103 523f 02a9 843d 5908 3740 141e 5fc1

bias f4 [64]
1.1524007 -3.6072059 -1.0935847 0.5262339 -0.60170543 -1.2056305 0.46656263 -0.07513553
0.8321778 1.5224758 0.6064954 1.3835132 -0.23856771 -1.795971 0.97526217 -3.3413677
0.30873236 -0.4225508 1.0656804 0.9536616 -2.937434 -0.26068944 -1.3410211 1.1323808
1.377874 1.4411459 1.90081 -1.8736815 1.9741899 -0.6563289 -0.10365579 -1.5633917
-0.85108954 -3.1041946 0.30187917 0.76086104 0.76164 1.0657011 1.6551833 0.4574794
-1.7593657 1.2952263 -0.15023968 -0.62731737 0.31338006 -1.8723767 -0.6344342 -0.07766791
-2.2486777 2.1198318 1.733584 -0.733411 1.23259 0.29342645 0.25995716 0.7654245
1.813636 2.248723 -1.454532 1.5727658 1.6654128 2.1551685 0.95273983 -0.71635115
00000000: de81 933f 76dc 66c0 95fa 8bbf 44b7 063f
00000010: 5e09 1abf 1a52 9abf 4ce1 ee3e a8e0 99bd
00000020: 9b09 553f 7de0 c23f 4843 1b3f f616 b13f
00000030: 184b 74be 61e2 e5bf c8aa 793f f8d8 55c0
00000040: 2b12 9e3e 9458 d8be 3768 883f 2b23 743f
00000050: ebfe 3bc0 1679 85be 94a6 abbf dbf1 903f
00000060: 2d5e b03f 7877 b83f be4d f33f ccd4 efbf
00000070: 41b2 fc3f 2c05 28bf 7d49 d4bd 381d c8bf
00000080: 01e1 59bf 20ab 46c0 e88f 9a3e cac7 423f
00000090: d7fa 423f e568 883f 0cdd d33f bd3a ea3e
000000a0: e532 e1bf fac9 a53f 6ed8 19be df97 20bf
000000b0: 5a73 a03e 0aaa efbf 486a 22bf 5a10 9fbd
000000c0: 56ea 0fc0 53ab 0740 15e6 dd3f d3c0 3bbf
000000d0: 82c5 9d3f fe3b 963e 1b19 853e dcf2 433f
000000e0: 3925 e83f 14eb 0f40 1b2e babf 6450 c93f
000000f0: 3f2c d53f 48ee 0940 c2e6 733f ca62 37bf

weight f4 [64, 64]
0.22167464 -0.41196638 -1.0759238 0.17692734 -0.06006889 0.41458812 -0.09018709 -0.64926165
0.8137572 0.051612876 -0.5768287 -0.36380464 0.016616482 0.1495048 0.3513134 -0.9223368
1.029251 -0.38225892 -1.2794067 -0.05966779 -0.25879917 -1.01085 0.519469 0.11376045
0.14682797 -1.522205 -0.06912153 -0.11604861 -0.4395801 0.27344087 0.6242286 -1.746464
-1.6333587 -0.98155874 -0.25721735 0.1453755 -0.89456445 0.38538113 0.28368494 0.22060116
-0.22068582 -1.4219325 -0.9287839 -0.94336355 0.33215058 0.3509636 -0.16053465 -0.8076909
-1.1293153 0.69497925 -0.9350344 -0.06780509 0.6857524 0.5527968 0.59482604 0.0757457
0.097572625 -0.86090827 0.409779 -2.2756639 -0.35661885 -2.1359448 -1.0124598 -0.31440446
-0.9679642 -0.11931231 -0.80249524 0.22897829 0.10459086 -0.05495153 -0.16701019 -1.1133779
-0.3342575 -0.02930097 -0.3664919 -0.012666022 0.06138433 0.9440219 -0.027249856 -0.3096866
-0.24822687 0.40758768 -0.26974997 -1.5647296 -0.8173885 -1.5860505 0.10247008 0.1966662
-0.6075849 -0.24359679 -0.73552316 -0.16520652 -0.9144083 0.008883483 0.032578353 0.7609955
-1.4095442 -0.23048994 -0.3624588 -0.49831873 0.16985162 -0.33270743 -0.39689603 0.16132984
-0.087004736 -0.098992966 0.33645236 -0.20069474 0.068614215 0.020724187 -0.40269077 -0.55684274
-0.4603191 -0.3273317 -0.5712377 0.1329373 -0.8841632 0.072002135 0.46128255 0.35552412
0.06645585 -0.52286446 0.17702824 -0.61666 -0.18791017 -1.1981076 -0.7909042 0.032148767
-0.113104165 0.01793331 -0.012930948 -0.09585243 -0.12521973 0.048904475 -0.10445075 0.047639582
-0.14606424 -0.087989666 0.03623219 -0.058016893 0.06606367 -0.13101375 -0.13231665 -0.036419954
-0.035478372 0.01847041 -0.092774525 -0.016047498 -0.03133838 -0.061067093 0.06466418 -0.17717946
-0.078478865 0.077553086 -0.06458879 0.12528846 -0.04694234 0.030143077 -0.12091629 -0.09480186
-0.021955803 0.040510625 0.0039467486 0.022228085 -0.06718761 -0.094760254 0.041564517 -0.10624559
0.051539805 -0.11498185 -0.044432525 -0.061681014 -0.031293586 0.053697202 -0.0914001 -0.104447335
0.0490405 0.03739147 -0.041173335 -0.108368516 0.05230241 0.05141546 -0.08986643 -0.21525367
0.017883383 -0.1565005 -0.007995839 -0.045718964 -0.08127786 -0.040924124 -0.11531833 -0.02065712
-0.19309868 -0.16955888 -0.38967946 0.07321684 -0.13342431 0.07098018 -0.16296811 -0.29759547
-0.29840806 -0.044849623 -0.06482552 -0.41193274 -0.22896068 0.018888855 0.008402422 0.089241736
0.05390576 -0.03922476 -0.15587164 -0.054325365 -0.1484321 -0.19749643 0.012685635 -0.12056613
-0.34780425 -0.2758002 -0.23889092 0.07074531 -0.06933167 0.041318562 -0.20995049 -0.05710973
-0.1293012 -0.29262063 0.08604787 -0.25123137 -0.29030758 -0.16539255 -0.049120698 -0.080954045
0.012937212 -0.026175356 0.12899339 -0.29359028 -0.015129527 -0.18510854 -0.13243009 -0.15762293
0.12805514 -0.012874838 -0.37424314 -9.198112e-05 -0.09063513 0.092308335 0.0008825681 -0.04293394
-0.006831592 -0.016287295 -0.11453366 -0.29625857 -0.07691278 -0.36513197 -0.3270053 -0.16581842
00000000: adfe 623e 42ed d2be dfb7 89bf 712c 353e
00000010: cc0a 76bd e544 d43e 02b4 b8bd 0336 26bf
00000020: 6452 503f 0668 533d 0cab 13bf 9a44 babe
00000030: 4a1f 883c c917 193e 5adf b33e 441e 6cbf
00000040: 7fbe 833f 71b7 c3be 99c3 a3bf 3666 74bd
00000050: 5381 84be 8863 81bf ecfb 043f 3dfb e83d
00000060: 125a 163e 9dd7 c2bf 978f 8dbd e5aa edbd
00000070: a510 e1be 7100 8c3e 72cd 1f3f 228c dfbf
00000080: e611 d1bf 6f47 7bbf feb1 83be 51dd 143e
00000090: 2d02 65bf ad50 c53e 273f 913e 45e5 613e
000000a0: 77fb 61be e201 b6bf c8c4 6dbf 4680 71bf
000000b0: a40f aa3e 80b1 b33e 3263 24be d5c4 4ebf
000000c0: 678d 90bf 29ea 313f 6a5e 6fbf 65dd 8abd
000000d0: 788d 2f3f 1784 0d3f 8546 183f 9020 9b3d
000000e0: 28d4 c73d 7c64 5cbf 8ece d13e 7aa4 11c0
000000f0: bf96 b6be 52b3 08c0 4898 81bf 9ff9 a0be
00000100: 80cc 77bf 035a f4bd 5470 4dbf 4979 6a3e
00000110: bc33 d63d db14 61bd b804 2bbe 2b83 8ebf
00000120: cd23 abbe 9608 f0bc d4a4 bbbe 2685 4fbc
00000130: 236e 7b3d 6bab 713f 173b dfbc 3e8f 9ebe
00000140: 2f2f 7ebe 55af d03e ab1c 8abe 0f49 c8bf
00000150: 5f40 51bf b403 cbbf d5db d13d dd62 493e
00000160: af8a 1bbf 7071 79be 3f4b 3cbf e62b 29be
00000170: aa16 6abf 078c 113c e170 053d 9ad0 423f
00000180: f26b b4bf 8e05 6cbe 3394 b9be a223 ffbe
00000190: 95ed 2d3e a158 aabe f535 cbbe a633 253e
000001a0: 8a2f b2bd d3bc cabd 7c43 ac3e ec82 4dbe
000001b0: 9c85 8c3d c5c5 a93c 7c2d cebe 3f8d 0ebf
000001c0: f2ae ebbe 0598 a7be a23c 12bf b720 083e
000001d0: 8558 62bf db75 933d 3a2d ec3e 4207 b63e
000001e0: 011a 883d 72da 05bf e446 353e 6edd 1dbf
000001f0: 866b 40be 975b 99bf b378 4abf 6dae 033d
00000200: 28a3 e7bd e0e8 923c 54dc 53bc 474e c4bd
00000210: 9a39 00be 0f50 483d 46ea d5bd b921 433d
00000220: dd91 15be ed33 b4bd 3468 143d 1fa3 6dbd
00000230: 644c 873d 7828 06be 047e 07be 172d 15bd
00000240: c551 11bd 424f 973c 9200 bebd 0b76 83bc
00000250: ac5c 00bd 7d21 7abd a76e 843d 886e 35be
00000260: 87b9 a0bd 27d4 9e3d 2147 84bd 9e4b 003e
00000270: 9c46 40bd 9dee f63c f6a2 f7bd 7a27 c2bd
00000280: a8dc b3bc 78ee 253d ba53 813b ac17 b63c
00000290: a899 89bd aa11 c2bd 8e3f 2a3d 4a97 d9bd
000002a0: 671b 533d 9b7b ebbd e1fe 35bd 3ba5 7cbd
000002b0: b42d 00bd 99f1 5b3d fa2f bbbd 7ce8 d5bd
000002c0: b1de 483d cc27 193d 5fa5 28bd 50f0 ddbd
000002d0: 0d3b 563d 0499 523d e40b b8bd 756b 5cbe
000002e0: 2c80 923c ab41 20be fb00 03bc cf43 3bbd
000002f0: 0275 a6bd 0ea0 27bd 042c ecbd 1f39 a9bc
00000300: a9bb 45be d8a0 2dbe 1184 c7be b6f2 953d
00000310: 62a0 08be 0e5e 913d 1de1 26be 6f5e 98be
00000320: f1c8 98be 3db4 37bd 3ec3 84bd d9e8 d2be
00000330: ab74 6abe cdbc 9a3c 50aa 093c 5fc4 b63d
00000340: 49cc 5c3d 24aa 20bd d19c 1fbe 4684 5ebd
00000350: 96fe 17be 813c 4abe 69d7 4f3c 60eb f6bd
00000360: 6613 b2be af35 8dbe d29f 74be ebe2 903d
00000370: c3fd 8dbd a73d 293d 43fd 56be e4eb 69bd
00000380: 8967 04be 5fd2 95be de39 b03d 66a1 80be
00000390: 32a3 94be aa5c 29be c932 49bd 3ccb a5bd
000003a0: 9af6 533c b36d d6bc d816 043e 7751 96be
000003b0: d6e1 77bc 188d 3dbe c19b 07be e867 21be
000003c0: e320 033e fcf0 52bc cc9c bfbe fde5 c0b8
000003d0: e99e b9bd 270c bd3d 255c 673a 80db 2fbd
000003e0: 8cdb dfbb ef6c 85bc a090 eabd 34af 97be
000003f0: 7384 9dbd 94f2 babe 3d6d a7be 4ecc 29be

bias f4 [64]
0.70999014 0.31939775 -0.10591195 0.11098129 0.7975152 -0.23221718 -0.10529899 -0.1102196
0.7659988 0.12968424 -0.05682907 0.016092453 -0.09929926 -0.12093101 0.052948773 0.47686243
0.85567576 -0.30928263 -0.41639295 -0.2524139 -0.11572164 0.14509615 0.062772684 0.13493475
0.06973313 0.2902447 -0.15251365 3.3008263 -0.020207668 0.4735245 0.5194623 -0.019532857
0.013013959 -0.7295505 0.25496516 -0.4133162 1.5157858 -0.07688611 -0.35769904 -1.080367
-0.0015524116 0.49754873 0.24568081 -0.1429017 -0.07646383 -0.1401405 -0.04737253 0.18880925
0.089620434 -0.080097705 0.3860427 -0.020325286 0.53705645 0.0892618 0.16683607 -0.1608218
0.26520917 -0.0541325 -0.20654188 -0.118857786 -0.0437545 0.27751228 -0.11367757 0.42597708
00000000: eac1 353f 1a88 a33e 5de8 d8bd 294a e33d
00000010: f529 4c3f 57ca 6dbe ffa6 d7bd d0ba e1bd
00000020: 7f18 443f f2cb 043e 99c5 68bd 52d4 833c
00000030: 695d cbbd adaa f7bd d0e0 583d 5027 f43e
00000040: 910d 5b3f 4b5a 9ebe 7531 d5be 653c 81be
00000050: 78ff ecbd 1694 143e f78e 803d 562c 0a3e
00000060: 3ed0 8e3d f49a 943e 8a2c 1cbe bd40 5340
00000070: 8d8a a5bc ce71 f23e 7bfb 043f 5f03 a0bc
00000080: 8038 553c d2c3 3abf cb8a 823e 2e9e d3be
00000090: 4505 c23f 7776 9dbd 5424 b7be 7749 8abf
000000a0: 4a7a cbba b5be fe3e c093 7b3e d354 12be
000000b0: 1299 9cbd fe80 0fbe b309 42bd 3657 413e
000000c0: eb8a b73d 440a a4bd 64a7 c53e 3781 a6bc
000000d0: 887c 093f e4ce b63d 13d7 2a3e 78ae 24be
000000e0: 7fc9 873e 0aba 5dbd b77f 53be b66b f3bd
000000f0: eb37 33bd 1716 8e3e c9cf e8bd ab19 da3e

weight f4 [7, 64]
-0.6335513 -0.25852752 -0.17869742 0.06469127 -1.836368 -0.034552477 0.045319542 0.06824821
2.6196578 0.6398172 -3.3619099 -0.11709218 -4.665133 -0.03265445 0.2422668 0.50609416
2.3189728 -5.731093 -2.7399733 -6.866638 0.09501961 -0.3579425 -0.051464222 0.0951683
0.6320494 0.67052394 -0.054260805 0.63539624 0.15455705 -0.70650285 -4.3290787 0.04677951
-0.15175983 -4.7657933 -2.8733068 -5.4040265 0.49566573 0.09657083 -1.6764152 0.64019364
0.08775722 0.15971585 -1.0371776 -0.09296153 -0.024246594 -5.7464027 -0.04044665 0.2503179
0.7215682 0.020535083 0.54726213 -2.1629894 2.787493 -0.24876118 1.6737204 0.11491869
0.34484276 -0.0029679197 -8.360707 0.02266642 -0.12461716 -3.371207 0.0061626458 1.3605084
2.6746602 -0.83866894 -0.16702035 -0.43500394 0.51115906 -0.04622478 0.076942295 0.104441054
-1.6038245 -0.708373 -2.6409094 -0.10318239 -6.172158 -0.11142494 0.12510054 2.9749038
1.098061 -4.461634 -5.5463276 -6.22916 0.17490986 -0.5189415 0.016747447 -0.08376861
-0.51749295 1.8867292 0.06527697 0.52678466 -0.006732107 3.651044 -0.49317873 0.089277185
-0.099818684 -3.7970934 -2.718502 -8.152048 0.716563 0.029167777 -1.7880071 1.0934738
0.019886943 -0.2659522 -1.0470355 -0.08874415 0.05722265 -10.9775505 0.06609638 -0.8072199
-0.040290114 0.11264366 -0.8896738 -1.4680592 -0.15086518 -0.026612878 -1.6333249 0.025822302
0.025246471 -0.0076301913 -6.6682982 -0.0634761 -0.10515523 -2.6902895 0.13479394 0.4722363
1.240446 0.12799755 -0.058781464 0.19816615 0.7277337 -0.045401637 0.026209189 -0.057745434
0.35032234 0.5061304 -4.6840587 -0.039989118 -3.9144716 0.012997926 0.021380445 0.056079373
0.1667477 -3.7070675 -2.9243076 -6.680588 -0.35523608 -0.14990962 0.0030365954 -0.454367
0.05296774 0.17352481 0.09043372 0.70673925 -0.058118336 -0.93074036 -0.2087032 -0.03311007
-0.016094433 -5.322672 -3.135186 -4.670941 0.28259706 -0.11562485 -0.86538815 2.0737252
-0.0843584 0.1851727 -1.0401628 0.23393713 -0.03574955 -6.070043 0.01969672 0.056172125
-0.11243201 -0.1235882 1.5656818 -1.8980129 -1.7691919 0.1838714 -1.8297393 0.011707425
-0.43133566 0.06995697 -5.3018346 -0.10298002 -0.043924827 -4.194089 0.021891026 1.9445035
0.7567971 -0.49801275 -0.031475917 -0.0150518725 -1.8381499 0.12299365 -0.0006092822 0.056471292
4.05514 0.4856312 -4.8530574 0.07144852 -7.965622 -0.055417538 0.4677522 0.83470106
0.5892762 -4.0511303 -2.2861364 -6.2369576 0.046255264 0.1355919 0.066941045 1.348329
-0.7573037 1.4681157 -0.13128515 0.6162981 0.018208172 0.42982492 -2.0154386 0.068816885
0.02385757 -3.9930186 -2.1351943 -3.8393753 0.32174638 -0.03326223 -2.304608 0.7077151
-0.10674313 0.20685649 -0.57656556 0.04075241 0.10332107 -5.2251763 -0.055807684 0.18121843
0.00355101 -0.021679819 -0.14954652 -1.7317221 2.130876 0.036611035 2.4019547 0.045678616
-0.047353018 -0.12177488 -4.8867707 0.055343557 0.063878626 -2.2504108 0.003823583 -0.7708084
00000000: 6b30 22bf b85d 84be 75fc 36be db7c 843d
00000010: 1b0e ebbf e686 0dbd fca0 393d b8c5 8b3d
00000020: 79a8 2740 0fcb 233f 8829 57c0 06ce efbd
00000030: c548 95c0 acc0 05bd ca14 783e 638f 013f
00000040: 0d6a 1440 1d65 b7c0 b95b 2fc0 80bb dbc0
00000050: a499 c23d 3d44 b7be 26cc 52bd 99e7 c23d
00000060: fdcd 213f 75a7 2b3f 9440 5ebd 54a9 223f
00000070: 3444 1e3e 5fdd 34bf d087 8ac0 df9b 3f3d
00000080: ee66 1bbe 6181 98c0 42e4 37c0 c9ed acc0
00000090: e6c7 fd3e edc6 c53d c694 d6bf bbe3 233f
000000a0: 0fba b33d 8d8c 233e 3cc2 84bf 9d62 bebd
000000b0: cba0 c6bc 88e2 b7c0 63ab 25bd ab29 803e
000000c0: b2b8 383f 3139 a83c 5f19 0c3f 6b6e 0ac0
000000d0: 4966 3240 40bb 7ebe 783c d63f 7d5a eb3d
000000e0: 3b8f b03e 6e81 42bb 75c5 05c1 eeae b93c
000000f0: 4837 ffbd dbc1 57c0 05f0 c93b 2425 ae3f
00000100: a22d 2b40 02b3 56bf 6207 2bbe d6b8 debe
00000110: 52db 023f 3256 3dbd ec93 9d3d 31e5 d53d
00000120: 1f4a cdbf ef57 35bf a904 29c0 4a51 d3bd
00000130: 5182 c5c0 c232 e4bd 5b1a 003e d364 3e40
00000140: 438d 8c3f b5c5 8ec0 847b b1c0 4755 c7c0
00000150: 921b 333e 5ad9 04bf f131 893c e18e abbd
00000160: 6b7a 04bf 5880 f13f efaf 853d 5cdb 063f
00000170: 0299 dcbb b4aa 6940 ec81 fcbe f5d6 b63d
00000180: bd6d ccbd 9403 73c0 f0fb 2dc0 ca6e 02c1
00000190: ac70 373f 43f1 ee3c 6bdd e4bf f3f6 8b3f
000001a0: f1e9 a23c e32a 88be 4205 86bf 7ebf b5bd
000001b0: 4c62 6a3d 0ca4 2fc1 8a5d 873d f7a5 4ebf
000001c0: 3f07 25bd b8b1 e63d aac1 63bf 5de9 bbbf
000001d0: 677c 1abe 4003 dabc ca10 d1bf 4b89 d33c
000001e0: b0d1 ce3c af06 fabb b362 d5c0 c2ff 81bd
000001f0: a05b d7bd b42d 2cc0 6c07 0a3e f5c8 f13e
00000200: efc6 9e3f ca11 033e d5c4 70bd 11ec 4a3e
00000210: c14c 3a3f 11f7 39bd a7b4 d63c 7a86 6cbd
00000220: 735d b33e c391 013f cfe3 95c0 a1cb 23bd
00000230: b486 7ac0 41f5 543c 0b26 af3c 7cb3 653d
00000240: e9bf 2a3e 9840 6dc0 db27 3bc0 60c7 d5c0
00000250: 81e1 b5be e881 19be 9e01 473b cba2 e8be
00000260: b3f4 583d 7db0 313e 5035 b93d ddec 343f
00000270: 7e0d 6ebd 0045 6ebf 4bb6 55be 6d9e 07bd
00000280: 79d8 83bc 5453 aac0 e3a6 48c0 5978 95c0
00000290: 90b0 903e b9cc ecbd 148a 5dbf eab7 0440
000002a0: 19c4 acbd ea9d 3d3e 0e24 85bf 378d 6f3e
000002b0: 1f6e 12bd cb3d c2c0 045b a13c be14 663d
000002c0: c142 e6bd cf1b fdbd 4368 c83f 16f2 f2bf
000002d0: e174 e2bf c948 3c3e e634 eabf 80d0 3f3c
000002e0: 07d8 dcbe 9a45 8f3d a1a8 a9c0 30e7 d2bd
000002f0: 85ea 33bd fa35 86c0 cf54 b33c 7ee5 f83f
00000300: 74bd 413f 87fb febe e4ec 00bd 219c 76bc
00000310: 7f48 ebbf 18e4 fb3d 3cb8 1fba 714e 673d
00000320: b5c3 8140 a7a4 f83e 3f4c 9bc0 9a53 923d
00000330: 60e6 fec0 80fd 62bd 377d ef3e f8ae 553f
00000340: ceda 163f dca2 81c0 0f50 12c0 2895 c7c0
00000350: 2976 3d3d 9ad8 0a3e 6318 893d 0b96 ac3f
00000360: a8de 41bf 37eb bb3f 9d6f 06be b6c5 1d3f
00000370: 4e29 953c 0312 dc3e f2fc 00c0 deef 8c3d
00000380: f370 c33c 9e8d 7fc0 06a7 08c0 53b8 75c0
00000390: f1bb a43e fa3d 08bd b37e 13c0 d12c 353f
000003a0: 249c dabd 30d2 533e cd99 13bf 00ec 263d
000003b0: ff99 d33d a534 a7c0 9996 64bd 5391 393e
000003c0: 10b8 683b e099 b1bc b922 19be 12a9 ddbf
000003d0: 4660 0840 74f5 153d a0b9 1940 8019 3b3d
000003e0: 3df5 41bd 1c65 f9bd 6d60 9cc0 edaf 623d
000003f0: ccd2 823d bb06 10c0 1495 7a3b b353 45bf

bias f4 [7]
0.04009173 -0.9304137 -0.37805185 0.99056387 -0.7184853 0.53351444 1.5940536
00000000: 3a37 243d 982f 6ebf 0390 c1be 9895 7d3f
00000010: a7ee 37bf 6794 083f f309 cc3f

weight f4 [7, 64]
0.2957123 -0.2927847 0.069980785 -0.18327227 0.8628437 0.19976935 0.006128372 0.098759726
0.3145396 0.0054876693 0.46480507 0.053442087 1.5646379 -0.07956794 -0.43862596 0.3084219
1.2413958 1.732085 0.44218716 2.6987083 -0.015561364 -0.14755523 0.086326405 0.21384029
-0.14372893 -0.017140506 0.20557925 0.07283596 0.027405756 1.163834 1.5692955 -0.056436393
0.031288873 1.6619818 1.160434 2.2358913 0.11344782 -0.13801728 0.5903841 0.59610224
0.082048215 0.6138203 -0.071012065 0.13157368 -0.009712907 0.5744507 0.17102085 -0.38404453
0.11429845 0.13351086 0.27293795 1.531188 0.88485867 -0.016621009 1.4213157 0.039566305
0.037274584 0.12249997 0.76917356 0.10093895 0.036707934 2.4001286 0.13606872 -0.13580722
1.0036325 0.1370606 -0.013119898 0.24033801 0.4785825 0.09953928 0.0458468 -0.014405362
2.2970963 0.36408558 -0.046237934 0.07524029 0.050870836 0.15080464 0.11523712 0.8489316
0.9083768 1.2565229 1.7294409 0.3231376 0.06834322 -0.120168135 0.29415995 0.09840279
0.30295503 0.46511567 0.1946123 0.062504195 -0.0089857755 1.3706275 0.21152091 0.08806898
-0.077053525 0.85671115 0.58190453 1.1766778 0.10275885 -0.0077996557 0.9871994 1.0470957
-0.009670909 0.27667546 0.1275358 0.05391323 0.07025489 0.34453762 0.063877754 0.2520771
0.1276086 0.008627578 0.4491224 0.93839663 0.36419082 0.20827559 0.66684955 -0.026067326
0.22831057 -0.107548766 0.50725394 -0.04353217 -0.0018385559 0.99971706 0.030027866 0.29130524
0.83828676 -0.09310072 0.075222455 0.018366914 1.5115443 0.077590756 -0.007129406 0.06767116
0.7080613 0.38142034 0.3484644 -0.007768496 1.9543744 0.0125624575 -0.04776914 0.23088582
0.766252 1.5995556 2.5450766 1.1196622 0.10175256 -0.10241987 0.0010288968 0.3246331
0.09900707 0.23351523 0.1931633 0.12303426 -0.074596226 -0.09425236 1.5007346 0.08458326
-0.017607626 3.8990777 0.7238734 1.9437912 -0.012469303 0.0014102258 0.18354337 0.6357684
0.059965175 0.19988605 0.16939414 0.04952999 -0.044706374 0.7737958 0.072735585 0.07120303
0.23695436 0.100953035 0.25222227 1.2377784 0.13123663 -0.1280264 0.28222165 0.12646292
0.10105682 -0.086838014 1.0412352 -0.038464624 -0.041004814 1.7725796 0.15031207 0.85362434
0.697727 0.0055846586 0.1405761 0.019955348 1.0004379 -0.02179516 -0.041461498 -0.059370156
0.63583386 0.33976093 0.5713227 -0.09125522 1.482259 -0.024811007 0.3248187 0.47366434
1.101812 2.7009733 0.6558835 1.2825463 0.18218294 -0.2169771 0.013909305 0.8938543
0.7542838 0.5422617 0.064145066 0.056729402 -0.019899499 0.6978605 0.94993955 0.05831723
0.10545318 4.7208343 1.1466893 3.2032444 0.05168756 -0.023273973 0.090373285 0.6664481
0.118975535 0.77859986 0.3284202 0.08765948 -0.05105027 2.6924028 0.120259866 -0.2094668
0.06985058 0.059351373 -0.07811919 6.2648377 1.5122951 -0.090359904 1.5990711 0.13331182
0.81140876 0.15000555 3.003706 -0.045212675 -0.11684902 2.1394546 0.107090496 0.3571504
00000000: 9a67 973e e0e7 95be 1652 8f3d baab 3bbe
00000010: 53e3 5c3f 5690 4c3e 83d0 c83b 8a42 ca3d
00000020: 560b a13e e8d1 b33b eefa ed3e 17e6 5a3d
00000030: 0e46 c83f 84f4 a2bd 9593 e0be 7ae9 9d3e
00000040: 0fe6 9e3f f6b4 dd3f 5b66 e23e a3b7 2c40
00000050: 17f5 7ebc b818 17be e6cb b03d f3f8 5a3e
00000060: ad2d 13be 3f6a 8cbc 5e83 523e 052b 953d
00000070: 0982 e03c 83f8 943f adde c83f d929 67bd
00000080: c328 003d d2bb d43f 1a89 943f d818 0f40
00000090: 5557 e83d 6754 0dbe 6a23 173f 289a 183f
000000a0: e508 a83d 5423 1d3f c66e 91bd 40bb 063e
000000b0: e222 1fbc 330f 133f 1720 2f3e 7ca1 c4be
000000c0: 4e15 ea3d 12b7 083e 86be 8b3e f8fd c33f
000000d0: 1986 623f c828 88bc aced b53f 4710 223d
000000e0: 3cad 183d 44e1 fa3d 8fe8 443f 15b9 ce3d
000000f0: 0f5b 163d b59b 1940 9955 0b3e 0c11 0bbe
00000100: 0877 803f 9d59 0c3e d7f4 56bc 2b1b 763e
00000110: c408 f53e 40db cb3d dbc9 3b3d 7804 6cbc
00000120: a003 1340 6d69 ba3e fd63 3dbd 9517 9a3d
00000130: f05d 503d 886c 1a3e 7001 ec3d 9553 593f
00000140: 628b 683f bed5 a03f 525e dd3f 4b72 a53e
00000150: 88f7 8b3d b61a f6bd 229c 963e 6787 c93d
00000160: ec1c 9b3e a423 ee3e 7248 473e 3302 803d
00000170: 1339 13bc b970 af3f f098 583e 825d b43d
00000180: 3dce 9dbd 6c51 5b3f b2f7 143f 619d 963f
00000190: 3b73 d23d 4194 ffbb 1ab9 7c3f 3b07 863f
000001a0: bb72 1ebc 68a8 8d3e bf98 023e 1ed4 5c3d
000001b0: cce1 8f3d 3c67 b03e 57d2 823d 4010 813e
000001c0: d4ab 023e af5a 0d3c 5ff3 e53e c33a 703f
000001d0: 3877 ba3e 3246 553e a7b6 2a3f 258b d5bc
000001e0: 3fca 693e 8742 dcbd 65db 013f ca4e 32bd
000001f0: b3fb f0ba 75ed 7f3f 00fd f53c f625 953e
00000200: f699 563f 97ab bebd 3b0e 9a3d 3676 963c
00000210: 497a c13f e7e7 9e3d cb9d e9bb 2d97 8a3d
00000220: 8143 353f 8749 c33e ed69 b23e de8e febb
00000230: f128 fa3f c4d2 4d3c 93a9 43bd 556d 6c3e
00000240: 1729 443f 3dbe cc3f 89e2 2240 1751 8f3f
00000250: a563 d03d 82c1 d1bd 0cdc 863a 4f36 a63e
00000260: 38c4 ca3d 9e1e 6f3e 9acc 453e 63f9 fb3d
00000270: e8c5 98bd 6207 c1bd 1218 c03f fd39 ad3d
00000280: de3d 90bc 7d8a 7940 c44f 393f 26ce f83f
00000290: 0c4c 4cbc 53d7 b83a cbf2 3b3e b8c1 223f
000002a0: 0b9e 753d eeae 4c3e a875 2d3e f5df 4a3d
000002b0: 081e 37bd 7b17 463f 65f6 943d e5d2 913d
000002c0: 2aa4 723e 77c0 ce3d 4723 813e 866f 9e3f
000002d0: e562 063e 5a19 03be 5b7f 903e 7f7f 013e
000002e0: e1f6 ce3d 21d8 b1bd 3247 853f 158d 1dbd
000002f0: aaf4 27bd e3e3 e23f 68eb 193e 2087 5a3f
00000300: 3d9e 323f 83ff b63b 2ef3 0f3e 6679 a33c
00000310: 590e 803f c38b b2bc 88d3 29bd 1f2e 73bd
00000320: 02c6 223f 25f5 ad3e 3442 123f 04e4 babd
00000330: aaba bd3f 7440 cbbc a34e a63e 2284 f23e
00000340: 2d08 8d3f bfdc 2c40 fbe7 273f 7a2a a43f
00000350: 2a8e 3a3e 3f2f 5ebe dbe3 633c a3d3 643f
00000360: be18 413f aad1 0a3f 7d5e 833d 175d 683d
00000370: 4604 a3bc fca6 323f 3d2f 733f 0cde 6e3d
00000380: d6f7 d73d 1311 9740 b7c6 923f f501 4d40
00000390: 56b6 533d 0fa9 bebc a115 b93d 589c 2a3f
000003a0: 72a9 f33d 5252 473f b126 a83e d086 b33d
000003b0: 171a 51bd 5450 2c40 ce4a f63d 777e 56be
000003c0: d20d 8f3d 6d1a 733d f4fc 9fbd 8d79 c840
000003d0: e392 c13f 9d0e b9bd 5dae cc3f e582 083e
000003e0: 7cb8 4f3f 0e9b 193e b83c 4040 ed30 39bd
000003f0: 8a4e efbd d3ec 0840 4352 db3d 6bdc b63e

bias f4 [7]
-3.344004 -3.3886557 -3.1963108 -3.0426733 -3.155623 -3.951336 -2.956937
00000000: 2904 56c0 bcdf 58c0 5b90 4cc0 29bb 42c0
00000010: baf5 49c0 b0e2 7cc0 753e 3dc0

weight f4 [64, 14]
-1.1935552 -3.8298533 -1.6292303 1.4531559 -5.99507 -1.623326 4.0727587 -1.3184648
-4.060634 -3.9696622 -2.0732117 -3.0038216 -0.7822539 -2.9835832 13.144867 10.022634
2.7917323 64.192215 -7.6159678 0.05221778 -27.899708 31.919174 29.611086 31.209604
32.25585 29.82595 32.86948 30.675886 -2.466145 -6.732446 0.85125476 1.526082
-6.042967 -1.849301 4.265972 -0.3534585 -2.1648307 -1.1758186 -0.31794792 0.06656673
-0.14685123 -0.67178667 11.309605 7.6206937 2.784482 63.22099 -16.447731 -0.15964048
-31.312918 30.245142 29.208849 31.12885 30.377407 30.410063 29.564247 30.378307
12.1991 7.616783 -4.1945615 61.87322 -4.860372 1.573194 -33.130245 22.55109
23.189014 23.11787 23.8548 22.77245 22.477736 22.158842 6.1073484 5.2897215
-0.22280078 61.66385 0.031362902 -1.3295858 -21.243822 32.39565 31.417107 31.031937
31.163654 32.6548 30.65214 32.628998 11.160914 7.9907665 2.9516811 64.493126
-5.1627803 -0.1900507 -28.496721 29.450401 28.391943 27.759262 29.84429 27.995293
28.406534 29.898172 12.404984 10.193489 0.37885678 64.16915 -7.8494253 0.04337128
-29.95757 24.773823 24.336338 24.08062 24.426281 23.340937 23.370712 24.02368
11.449877 7.2975254 -1.6519923 64.64047 -5.19571 -0.015251568 -28.264482 26.551126
26.461601 26.54782 26.97457 26.555754 27.06193 25.511929 11.237581 7.8921056
2.9653828 63.920578 -5.102011 -0.18013181 -28.970947 29.280426 26.298468 29.057596
28.975609 28.25514 28.35605 29.150606 -13.35322 -7.449265 -0.8435578 1.5990729
-3.51026 -1.3886564 1.2684538 -0.55466694 -1.4133463 -1.6982466 -0.54716057 -0.6080425
-0.76773363 -1.9755427 12.490279 9.805514 2.8790002 63.75911 -7.0860367 -0.175535
-27.844906 32.31623 30.380703 30.602571 31.70063 29.713497 32.3707 28.860828
8.745803 4.5550623 -9.291496 64.299644 -8.937866 -0.035225146 -30.539555 15.957813
14.748848 15.122999 15.719787 14.771959 17.02186 15.438246 11.160641 7.001025
2.4950297 64.88745 -11.1691265 0.046032924 -30.922647 30.211626 29.24564 30.636604
30.153206 30.404686 30.156574 29.830713 -5.533076 -6.3841877 -0.09440472 1.1334538
-3.9991155 -1.5203065 3.0029585 0.60626525 0.5621038 0.29968572 0.036761373 0.2698405
0.2009444 0.6372963 7.8490033 4.6098065 1.243049 63.569046 -4.624154 -0.17344958
-19.244617 35.940716 30.75247 30.828445 32.90363 30.08002 35.99628 29.622946
10.693638 7.020627 -0.58939755 64.20555 -4.809043 -0.18813527 -27.595198 28.18641
27.719204 27.751532 28.82977 27.718506 28.617798 27.41365 11.957413 9.237654
2.649971 64.409004 -5.117877 -0.18187489 -28.008926 28.740835 29.081703 28.474989
28.6465 27.910307 27.640461 28.274185 -6.8612638 -9.531662 1.9594953 1.4387062
00000000: 6bc6 98bf 511c 75c0 9e8a d0bf 0301 ba3f
00000010: 9dd7 bfc0 25c9 cfbf 0a54 8240 74c3 a8bf
00000020: b7f0 81c0 f20e 7ec0 80af 04c0 9d3e 40c0
00000030: cb41 48bf 07f3 3ec0 6051 5241 b55c 2041
00000040: beab 3240 6a62 8042 02b6 f3c0 50e2 553d
00000050: 9a32 dfc1 785a ff41 81e3 ec41 45ad f941
00000060: fe05 0142 8c9b ee41 597a 0342 3768 f541
00000070: 52d5 1dc0 3370 d7c0 d5eb 593f a856 c33f
00000080: fc5f c1c0 e5b5 ecbf d882 8840 83f8 b4be
00000090: 968c 0ac0 3981 96bf 12ca a2be 2354 883d
000000a0: 2b60 16be 36fa 2bbf 24f4 3441 b9dc f340
000000b0: f434 3240 4be2 7c42 f494 83c1 cb78 23be
000000c0: db80 fac1 0df6 f141 b9ab e941 e307 f941
000000d0: ee04 f341 cf47 f341 9483 ec41 c606 f341
000000e0: 832f 4341 b0bc f340 d939 86c0 2d7e 7742
000000f0: 2b88 9bc0 6c5e c93f 5f85 04c2 a268 b441
00000100: 1a83 b941 66f1 b841 a1d6 be41 fa2d b641
00000110: 67d2 b341 4f45 b141 666f c340 6645 a940
00000120: e325 64be c8a7 7642 6376 003d de2f aabf
00000130: 59f3 a9c1 2595 0142 3c56 fb41 6841 f841
00000140: 2a4f f941 849e 0242 9537 f541 1884 0242
00000150: 1b93 3241 5cb4 ff40 58e8 3c40 7bfc 8042
00000160: 7f35 a5c0 a79c 42be 49f9 e3c1 6c9a eb41
00000170: b322 e341 f812 de41 1bc1 ee41 5cf6 df41
00000180: 9540 e341 752f ef41 d17a 4641 8818 2341
00000190: 84f9 c13e 9b56 8042 7e2e fbc0 15a6 313d
000001a0: 1aa9 efc1 ca30 c641 d2b0 c241 1ca5 c041
000001b0: 0669 c341 3dba ba41 38f7 ba41 7f30 c041
000001c0: b232 3741 5485 e940 7c74 d3bf ec47 8142
000001d0: 4243 a6c0 b6e1 79bc a91d e2c1 b568 d441
000001e0: 5cb1 d341 ef61 d441 ebcb d741 2f72 d441
000001f0: d57e d841 6e18 cc41 22cd 3341 218c fc40
00000200: d5c8 3d40 acae 7f42 ad43 a3c0 7974 38be
00000210: 80c4 e7c1 503e ea41 4363 d241 f575 e841
00000220: 0cce e741 870a e241 31d9 e241 7134 e941
00000230: caa6 55c1 6160 eec0 67f3 57bf 6cae cc3f
00000240: 1aa8 60c0 7ebf b1bf b25c a23f a7fe 0dbf
00000250: 88e8 b4bf 2560 d9bf b712 0cbf aca8 1bbf
00000260: 318a 44bf 95de fcbf 2fd8 4741 63e3 1c41
00000270: 8a41 3840 5409 7f42 d0c0 e2c0 72bf 33be
00000280: 5ec2 dec1 d243 0142 ae0b f341 11d2 f441
00000290: e49a fd41 3eb5 ed41 997b 0142 fae2 e641
000002a0: cfee 0b41 12c3 9140 f8a9 14c1 6b99 8042
000002b0: 8001 0fc1 3e48 10bd 0251 f4c1 3453 7f41
000002c0: 48fb 6b41 cef7 7141 3f84 7b41 f259 6c41
000002d0: c52c 8841 0e03 7741 fc91 3241 6608 e040
000002e0: 91ae 1f40 60c6 8142 beb4 32c1 058d 3c3d
000002f0: 9561 f7c1 69b1 f141 12f7 e941 c417 f541
00000300: c439 f141 cc3c f341 aa40 f141 4da5 ee41
00000310: f50e b1c0 444b ccc0 4357 c1bd 0415 913f
00000320: 82f1 7fc0 6799 c2bf 7930 4040 3334 1b3f
00000330: 09e6 0f3f 6870 993e 1893 163d 8928 8a3e
00000340: 5ec4 4d3e da25 233f 092b fb40 8983 9340
00000350: 3b1c 9f3f b446 7e42 12f9 93c0 c49c 31be
00000360: faf4 99c1 4bc3 0f42 0f05 f641 a8a0 f641
00000370: 519d 0342 e2a3 f041 31fc 0f42 cbfb ec41
00000380: 2419 2b41 faa8 e040 c2e2 16bf 3e69 8042
00000390: aee3 99c0 88a6 40be f7c2 dcc1 c57d e141
000003a0: eec0 dd41 2303 de41 5ea3 e641 80bf dd41
000003b0: 40f1 e441 284f db41 9051 3f41 6ecd 1341
000003c0: 2099 2940 69d1 8042 a6c5 a3c0 693d 3abe
000003d0: 4812 e0c1 3bed e541 54a7 e841 c7cc e341
000003e0: 082c e541 4f48 df41 aa1f dd41 8831 e241
000003f0: 798f dbc0 b081 18c1 bed0 fa3f 8627 b83f

bias f4 [64]
-6.990758 51.301468 -11.092714 49.108845 41.342083 53.471447 50.807945 41.6101
42.81813 49.51103 -14.025274 51.97575 20.544636 49.61537 -7.2247844 49.06111
44.97502 49.20039 -12.169226 -7.770687 -9.522047 26.861977 51.766266 -17.42605
-4.0249505 -1.0868247 -3.6886773 -6.5611076 -10.9721985 49.788593 94.34798 -8.863848
-10.285099 48.642883 -14.3197365 50.319077 50.02063 94.42526 -16.26772 50.82533
-8.005837 -7.4481344 -10.512427 50.95677 -5.917976 -10.109854 -4.3267 48.95911
98.26579 -8.872467 51.41814 45.876904 50.911556 -8.422696 48.704647 -12.397185
-12.420069 47.056507 48.481903 44.920486 54.2506 49.633762 -9.752442 44.990025
00000000: 4ab4 dfc0 b434 4d42 c27b 31c1 756f 4442
00000010: 4b5e 2542 c3e2 5542 563b 4b42 be70 2642
00000020: c445 2b42 4b0b 4642 8667 60c1 2be7 4f42
00000030: 6a5b a441 2476 4642 6f31 e7c0 943e 4442
00000040: 6ce6 3342 33cd 4442 26b5 42c1 78a9 f8c0
00000050: 4e5a 18c1 54e5 d641 a810 4f42 8d68 8bc1
00000060: 65cc 80c0 121d 8bbf 4a13 6cc0 98f4 d1c0
00000070: 208e 2fc1 8527 4742 2ab2 bc42 52d2 0dc1
00000080: c48f 24c1 5092 4242 a41d 65c1 bc46 4942
00000090: 2015 4842 bcd9 bc42 4a24 82c1 234d 4b42
000000a0: e917 00c1 1e57 eec0 e732 28c1 bcd3 4b42
000000b0: 0f60 bdc0 f6c1 21c1 5474 8ac0 21d6 4342
000000c0: 1688 c442 a0f5 0dc1 2dac 4d42 f381 3742
000000d0: 6fa5 4b42 5dc3 06c1 8fd1 4242 df5a 46c1
000000e0: 9ab8 46c1 dd39 3c42 78ed 4142 94ae 3342
000000f0: 9d00 5942 f988 4642 010a 1cc1 c9f5 3342

weight f4 [64, 64]
-5.097918 7.057577 -4.5678 6.4096537 7.1529717 22.344091 7.3812723 6.978075
7.169198 7.2903323 -6.0325727 6.9804683 6.6098104 6.7074604 -5.4114833 7.488716
7.3897924 7.2182317 -6.2760315 -5.2404623 -5.3565145 6.1522818 7.481465 -5.3415117
-4.474703 -5.8950167 -5.1847763 -5.338751 -5.054397 7.3859363 21.922249 -4.9166703
-4.4354606 7.295242 -3.21437 7.2696295 7.3188715 22.853844 -5.628961 6.889983
-5.503115 -5.0244226 -4.91501 7.0039234 -4.1679683 -6.478516 -3.634661 7.1546326
26.18617 -5.022691 6.7207603 7.46657 7.371366 -5.3662586 6.5682178 -4.818495
-5.1866436 6.847181 7.464607 7.300133 6.908295 7.377484 -5.37461 7.3591294
-6.0278625 20.809465 -6.9574056 11.546242 10.737454 30.46547 21.053465 13.678678
13.710162 19.985657 -9.359357 22.860914 7.656015 13.411152 -6.5598373 20.824467
16.355324 21.830011 -8.297111 -6.8653073 -4.957302 5.115885 19.758543 -7.5631332
-6.2166185 -7.389908 -5.1694055 -6.3807297 -7.5232725 16.22022 28.960285 -5.743277
-9.8586235 20.148302 -11.480823 20.05747 20.240778 28.575367 -6.999908 19.543076
-9.636225 -9.2077675 -7.877853 23.29614 -5.8500514 -8.096461 -4.391183 19.23405
33.88759 -7.0886006 16.906887 18.222038 17.759598 -6.568916 11.902366 -7.4218645
-9.965198 18.440102 20.635384 14.826844 20.925459 19.014765 -10.184322 13.65147
6.608776 6.1577106 5.5987496 5.2161493 -5.5583405 -9.794377 3.3837225 4.5757957
0.18377303 3.7326958 7.6315684 5.644929 6.537899 5.42707 5.892917 6.313039
3.5933123 2.024979 8.620778 5.400982 6.958622 5.227898 2.6313403 5.7363105
7.208725 5.462473 6.0227942 6.226295 6.323039 2.6929 -23.559824 6.114513
6.023359 3.651707 5.349593 3.1533282 3.7531862 -19.869812 6.7988386 6.2864776
6.7293534 8.538198 6.044008 6.581728 6.405267 7.440756 4.827761 5.4589386
-29.589853 6.618691 7.098284 2.1300437 4.3128037 6.806548 5.5452514 1.4205313
7.7864957 6.9251432 4.073702 2.930071 7.003682 4.3964734 7.5787024 3.3607273
-6.7187266 20.764296 -8.010737 11.444552 10.420295 31.04204 21.421642 13.442016
13.179412 20.82601 -9.304643 22.734753 7.3751197 13.573844 -7.3459835 21.009203
17.178663 22.141073 -9.759314 -7.4472923 -5.318558 5.728907 19.926294 -7.671568
-6.3851905 -7.097945 -5.071855 -6.7601995 -7.638908 17.001804 29.727352 -6.9232497
-8.61752 20.870848 -9.299224 20.539545 20.303015 29.555933 -7.916774 19.495806
-8.721379 -8.190976 -8.729162 22.877039 -6.6345816 -8.777282 -4.1995296 18.815002
34.319786 -8.452627 16.39324 18.496765 19.227816 -7.0690346 12.08543 -7.4635057
-10.161919 17.760757 21.562965 15.363744 20.954361 19.059965 -10.449153 13.728779
00000000: 2522 a3c0 acd7 e140 6b2b 92c0 e21b cd40
00000010: 25e5 e440 b3c0 b241 6233 ec40 644c df40
00000020: 126a e540 674a e940 d60a c1c0 ff5f df40
00000030: 9183 d340 84a3 d640 df2a adc0 90a3 ef40
00000040: 2e79 ec40 c1fb e640 40d5 c8c0 deb1 a7c0
00000050: 9168 abc0 7edf c440 2968 ef40 aaed aac0
00000060: c430 8fc0 faa3 bcc0 b0e9 a5c0 0cd7 aac0
00000070: 9fbd a1c0 9759 ec40 c460 af41 5d55 9dc0
00000080: 4bef 8dc0 9f72 e940 3db8 4dc0 cea0 e840
00000090: 3234 ea40 acd4 b641 7320 b4c0 be7a dc40
000000a0: 8519 b0c0 12c8 a0c0 c347 9dc0 2420 e040
000000b0: ff5f 85c0 0150 cfc0 499e 68c0 c0f2 e440
000000c0: 477d d141 e2b9 a0c0 7810 d740 24ee ee40
000000d0: 3be2 eb40 64b8 abc0 d72e d240 1c31 9ac0
000000e0: fcf8 a5c0 1b1c db40 0fde ee40 b19a e940
000000f0: c110 dd40 5914 ec40 cefc abc0 fd7d eb40
00000100: 40e4 c0c0 c979 a641 11a3 dec0 68bd 3841
00000110: 9dcc 2b41 48b9 f341 7f6d a841 dddb 5a41
00000120: d35c 5b41 a0e2 9f41 edbf 15c1 27e3 b641
00000130: 13fe f440 1494 5641 30ea d1c0 8298 a641
00000140: b4d7 8241 dda3 ae41 f7c0 04c1 99b0 dbc0
00000150: 38a2 9ec0 54b5 a340 7f11 9e41 3005 f2c0
00000160: 8aee c6c0 207a ecc0 c56b a5c0 f02e ccc0
00000170: a6be f0c0 03c3 8141 aaae e741 edc8 b7c0
00000180: ecbc 1dc1 b92f a141 73b1 37c1 b375 a041
00000190: 1ded a141 5a9a e441 3fff dfc0 3858 9c41
000001a0: fa2d 1ac1 0453 13c1 5f17 fcc0 7f5e ba41
000001b0: 9f33 bbc0 1b8b 01c1 9284 8cc0 56df 9941
000001c0: e48c 0742 d1d5 e2c0 4e41 8741 bcc6 9141
000001d0: a813 8e41 8f34 d2c0 1770 3e41 ea7f edc0
000001e0: 7371 1fc1 5485 9341 4415 a541 c13a 6d41
000001f0: 5767 a741 3d1e 9841 fcf2 22c1 6c6c 5a41
00000200: 187b d340 f70b c540 f528 b340 b2ea a640
00000210: eddd b1c0 c5b5 1cc1 e98e 5840 eb6c 9240
00000220: ff2e 3c3e 7de4 6e40 cf35 f440 42a3 b440
00000230: 7836 d140 8faa ad40 c792 bc40 6a04 ca40
00000240: d4f8 6540 4299 0140 b5ee 0941 d8d4 ac40
00000250: 08ad de40 f14a a740 e167 2840 db8f b740
00000260: e0ad e640 94cc ae40 bbba c040 cf3d c740
00000270: 5656 ca40 7958 2c40 857a bcc1 17aa c340
00000280: 5bbf c040 91b5 6940 de2f ab40 21d0 4940
00000290: 3434 7040 60f5 9ec1 1690 d940 d32a c940
000002a0: dd56 d740 769c 0841 8368 c140 849d d240
000002b0: f2f7 cc40 ac1a ee40 057d 9a40 a0af ae40
000002c0: 05b8 ecc1 51cc d340 2425 e340 a352 0840
000002d0: 7d02 8a40 3ecf d940 b372 b140 f8d3 b53f
000002e0: f92a f940 c69a dd40 c45b 8240 4986 3b40
000002f0: 2a1e e040 e9af 8c40 bb84 f240 2816 5740
00000300: cfff d6c0 471d a641 fb2b 00c1 e31c 3741
00000310: 87b9 2641 1956 f841 865f ab41 7f12 5741
00000320: dfde 5241 ab9b a641 d1df 14c1 c6e0 b541
00000330: fb00 ec40 772e 5941 4c12 ebc0 d912 a841
00000340: e76d 8941 eb20 b141 2626 1cc1 3850 eec0
00000350: a131 aac0 3553 b740 0d69 9f41 7c7d f5c0
00000360: 7b53 ccc0 5e22 e3c0 a34c a2c0 8e53 d8c0
00000370: ef71 f4c0 b203 8841 9ed1 ed41 438b ddc0
00000380: 5de1 09c1 7ff7 a641 9fc9 14c1 fd50 a441
00000390: 936c a241 8d72 ec41 3656 fdc0 69f7 9b41
000003a0: c58a 0bc1 3d0e 03c1 a6aa 0bc1 2d04 b741
000003b0: 7e4e d4c0 bf6f 0cc1 8c62 86c0 2085 9641
000003c0: 7647 0942 f63d 07c1 5b25 8341 60f9 9341
000003d0: 91d2 9941 8835 e2c0 ec5d 4141 0ad5 eec0
000003e0: 3897 22c1 0816 8e41 f480 ac41 e5d1 7541
000003f0: 88a2 a741 cf7a 9841 bb2f 27c1 14a9 5b41

bias f4 [64]
29.076168 47.98599 -15.436035 48.582836 -15.951307 48.49232 48.66923 48.548786
48.63668 48.53292 -16.638727 48.27387 11.733202 48.580578 48.582172 48.69999
-0.07395211 -7.0134897 -14.323307 48.62983 48.750942 -16.048382 13.943699 48.50237
45.352863 -16.554863 -17.71024 48.786892 48.36046 48.743214 -21.870588 -0.19882198
-15.350476 16.13405 -15.805008 -0.14789015 48.681892 48.543827 7.375061 48.62557
48.50315 48.669937 43.818295 -10.129445 48.515133 -23.94225 47.964787 48.437294
10.688561 46.422054 10.290061 -16.114132 48.642574 47.229465 -0.18131424 48.617447
47.28838 -57.554096 13.972526 48.613506 48.558002 -5.739655 48.622044 48.623104
00000000: fe9b e841 a7f1 3f42 00fa 76c1 d354 4242
00000010: 8e38 7fc1 23f8 4142 4bad 4242 f531 4242
00000020: f68b 4242 b621 4242 1d1c 85c1 7118 4142
00000030: 32bb 3b41 8352 4242 2554 4242 cacc 4242
00000040: 3474 97bd 826e e0c0 442c 65c1 f284 4242
00000050: f700 4342 1663 80c1 6419 5f41 6d02 4242
00000060: 5569 3542 5c70 84c1 92ae 8dc1 c725 4342
00000070: 1c71 4142 0df9 4242 f7f6 aec1 fd97 4bbe
00000080: 8d9b 75c1 8912 8141 50e1 7cc1 8470 17be
00000090: 42ba 4242 e12c 4242 8000 ec40 9580 4242
000000a0: 3a03 4242 04ae 4242 ef45 2f42 3512 22c1
000000b0: 7f0f 4242 ba89 bfc1 f1db 3f42 cabf 4142
000000c0: 5904 2b41 2fb0 3942 17a4 2441 bee9 80c1
000000d0: ff91 4242 f9ea 3c42 71aa 39be 4478 4242
000000e0: 4d27 3d42 6537 66c2 778f 5f41 3b74 4242
000000f0: 653b 4242 41ab b7c0 f97c 4242 0f7e 4242

weight f4 [1, 64]
7.5286446 21.06214 -9.487404 20.610025 -9.6982 20.22479 20.197252 20.301243
20.195042 20.224747 -9.433819 19.8408 4.778614 20.337309 20.165913 20.167818
-7.080327 -5.105262 -12.136037 20.556898 20.100548 -9.480176 6.133503 20.196432
29.907757 -6.1442943 -9.297598 20.423388 20.00315 20.48534 -12.287892 -0.56255716
-9.524561 4.6487293 -9.386753 0.13583393 20.41679 20.045588 1.5052261 20.111582
20.243874 20.324104 23.0017 -1.0367794 20.292036 -6.461215 20.867111 18.810862
4.3787847 22.53347 1.5924319 -9.588238 20.066929 25.10197 0.008528124 20.045574
20.863398 -28.379942 6.147963 20.17467 20.152592 -3.0598242 20.67813 20.516344
00000000: a8ea f040 437f a841 68cc 17c1 55e1 a441
00000010: d42b 1bc1 5fcc a141 f993 a141 f268 a241
00000020: 728f a141 48cc a141 ecf0 16c1 f5b9 9e41
00000030: 68ea 9840 cfb2 a241 ca53 a141 b157 a141
00000040: 0a92 e2c0 4e5e a3c0 352d 42c1 8774 a441
00000050: eccd a041 cdae 17c1 a845 c440 4b92 a141
00000060: 1643 ef41 0f9e c4c0 f6c2 14c1 1963 a341
00000070: 7406 a041 fae1 a341 359b 44c1 bf03 10bf
00000080: 9a64 18c1 64c2 9440 2430 16c1 0d18 0b3e
00000090: 9655 a341 5d5d a041 40ab c03f 85e4 a041
000000a0: 74f3 a141 c497 a241 7b03 b841 30b5 84bf
000000b0: 1756 a241 46c2 cec0 d8ef a641 a57c 9641
000000c0: 011f 8c40 8c44 b441 cfd4 cb3f 6c69 19c1
000000d0: 1289 a041 d6d0 c841 8bb9 0b3c 565d a041
000000e0: 3de8 a641 1f0a e3c1 1dbc c440 b965 a141
000000f0: 8238 a141 29d4 43c0 cf6c a541 7921 a441

weight f4 [64, 14]
-0.7302711 -5.3431487 24.012564 -35.4988 6.073278 1.7875805 1.4764452 19.794561
19.925222 19.953436 21.001364 20.395962 21.127073 20.194565 13.645868 8.818668
4.1746254 67.921295 -7.9299374 -0.110377334 -32.834335 38.22719 37.47041 38.072304
37.89042 38.691708 37.501095 37.2982 -11.076714 -8.6193 -1.7724677 1.5379618
-3.5452359 -1.5480275 0.83689874 -1.3638811 -3.4309351 -3.0953176 -2.6070602 -3.0225708
-2.6018646 -2.9170904 12.5505905 9.989866 -1.2869465 63.686523 -4.9429264 0.64705807
-32.69526 37.25326 36.024128 36.23095 36.812893 36.240765 35.259346 37.704613
12.004765 8.517604 4.379858 68.15628 -3.8070056 -0.055993002 -30.208744 35.871918
36.692394 35.783382 36.189587 37.186962 33.038246 37.861465 13.407587 13.320357
6.4226446 67.71706 -4.3376875 -0.056821987 -29.999676 38.13107 34.269005 34.83064
39.925068 34.887455 36.245876 37.26928 12.084277 10.147436 4.0801897 67.38386
-5.17523 -0.095898286 -32.98355 38.404305 35.26133 35.479675 39.092068 35.690308
37.1804 37.18659 -2.5298252 -0.47380298 -9.484463 1.5701807 -6.8901844 0.7685272
4.448011 -4.4148593 -4.26327 -4.18047 -1.8796902 -2.665903 -4.047164 -1.858743
-10.080057 -5.126629 -0.7451323 0.82858133 -3.529662 -0.93149686 1.6366997 -1.2612673
-0.5084574 -1.4263178 -0.25603366 -0.5425959 -0.33078134 -1.3276019 12.534358 8.768044
4.352758 67.19985 -5.670878 -0.11957742 -33.08199 39.426533 35.670628 36.45008
37.68922 36.70486 38.583557 35.798878 12.5693035 9.803363 4.6052594 65.78221
-5.539537 -0.10054482 -31.2086 39.12669 35.70607 36.908825 37.642944 36.177887
38.674995 35.777172 0.10413692 -1.2597835 -4.496524 1.2358723 -4.723354 -1.0780928
2.9849885 -3.8304355 -2.5864546 -4.2590184 -2.5344841 -2.456964 -1.9368163 -3.8218825
-4.218931 -8.793137 -1.6280876 1.5774876 -2.8413725 -0.8416764 -0.80943316 -4.494072
-2.9787257 -3.499278 -2.1953945 -2.3714888 -3.630201 -4.1396174 -9.494313 -4.8823457
-3.0414355 -4.7692523 -3.9595923 -1.1276762 2.5172114 -2.8219423 -3.163066 -2.6245208
-4.9673004 -2.6312833 -0.77904075 -4.191551 -5.828591 -1.7644285 -7.4450355 1.8928114
-6.939079 0.89334 3.8420444 -3.0077288 -7.7058115 -6.529838 -4.540814 -4.9211307
-3.6212988 -4.3201427 -6.68086 -2.7479203 -5.3976645 1.1079928 -7.1634617 0.81565577
4.897488 -3.9872193 -7.921673 -6.3438606 -4.407394 -5.7209635 -3.6324868 -4.992304
12.137816 11.008269 5.5069933 65.39049 -4.5127416 -0.0919463 -35.20481 34.41988
39.560905 38.970257 32.572094 39.596767 36.053135 38.609047 12.176394 10.221159
4.443459 62.538284 0.026330257 -1.3068895 -30.380375 44.104702 38.980762 39.748024
41.490784 39.653854 43.348785 39.302425 -13.278069 -6.0785055 -3.3294442 1.3303775
00000000: 0cf3 3abf 13fb aac0 bb19 c041 c5fe 0dc2
00000010: 4b58 c240 70cf e43f 28fc bc3f 435b 9e41
00000020: db66 9f41 a3a0 9f41 cb02 a841 ee2a a341
00000030: 3f04 a941 788e a141 7a55 5a41 4419 0d41
00000040: 8896 8540 b4d7 8742 0cc2 fdc0 830d e2bd
00000050: 5c56 03c2 a4e8 1842 b3e1 1542 0a4a 1842
00000060: ca8f 1742 4fc4 1a42 1f01 1642 5b31 1542
00000070: 383a 31c1 a7e8 09c1 39e0 e2bf efdb c43f
00000080: 25e5 62c0 c425 c6bf ff3e 563f a893 aebf
00000090: 7194 5bc0 af19 46c0 13da 26c0 cd71 41c0
000000a0: f384 26c0 9cb1 3ac0 38cf 4841 7ed6 1f41
000000b0: aaba a4bf 00bf 7e42 742c 9ec0 99a5 253f
000000c0: f2c7 02c2 5703 1542 b518 1042 7eec 1042
000000d0: 6740 1342 8bf6 1042 9209 0d42 86d1 1642
000000e0: 8413 4041 1b48 0841 cc27 8c40 0450 8842
000000f0: fba5 73c0 eb58 65bd 82ab f1c1 d87c 0f42
00000100: 03c5 1242 2f22 0f42 23c2 1042 73bf 1442
00000110: 2a27 0442 2472 1742 7a85 5641 2f20 5541
00000120: 4e86 cd40 226f 8742 56ce 8ac0 2cbe 68bd
00000130: 56ff efc1 3786 1842 7613 0942 9352 0b42
00000140: 45b3 1f42 c18c 0b42 c7fb 1042 be13 1542
00000150: 3359 4141 e65b 2241 ea90 8240 89c4 8642
00000160: 7c9b a5c0 5266 c4bd 28ef 03c2 029e 1942
00000170: 9a0b 0d42 30eb 0d42 475e 1c42 e0c2 0e42
00000180: bbb8 1442 11bf 1442 a8e8 21c0 4e96 f2be
00000190: 5cc0 17c1 aefb c83f 647c dcc0 33be 443f
000001a0: 1b56 8e40 8746 8dc0 b56c 88c0 69c6 85c0
000001b0: b099 f0bf 289e 2ac0 5e82 81c0 4aeb edbf
000001c0: ea47 21c1 580d a4c0 fec0 3ebf e81d 543f
000001d0: fbe5 61c0 9476 6ebf 607f d13f 3571 a1bf
000001e0: 442a 02bf 9591 b6bf d816 83be 91e7 0abf
000001f0: 2c5c a9be dcee a9bf bb8c 4841 e949 0c41
00000200: cb49 8b40 5366 8642 d577 b5c0 02e5 f4bd
00000210: f553 04c2 c5b4 1d42 b9ae 0e42 e2cc 1142
00000220: c3c1 1642 c7d1 1242 9055 1a42 0d32 0f42
00000230: de1b 4941 93da 1c41 495e 9340 7e90 8342
00000240: e343 b1c0 71ea cdbd 36ab f9c1 bb81 1c42
00000250: 04d3 0e42 a3a2 1342 6092 1642 28b6 1042
00000260: 32b3 1a42 d31b 0f42 bd45 d53d 9640 a1bf
00000270: 86e3 8fc0 1031 9e3f b725 97c0 f2fe 89bf
00000280: 0d0a 3f40 db25 75c0 7988 25c0 e149 88c0
00000290: fd34 22c0 e63e 1dc0 99e9 f7bf b999 74c0
000002a0: 7c01 87c0 b0b0 0cc1 2d65 d0bf 1deb c93f
000002b0: 0cd9 35c0 1b78 57bf 0337 4fbf 70cf 8fc0
000002c0: 71a3 3ec0 2cf4 5fc0 5881 0cc0 79c6 17c0
000002d0: 3755 68c0 bf77 84c0 b5e8 17c1 2d3c 9cc0
000002e0: e1a6 42c0 b79d 98c0 f669 7dc0 b257 90bf
000002f0: fe19 2140 b49a 34c0 ac6f 4ac0 26f8 27c0
00000300: 20f4 9ec0 f266 28c0 376f 47bf 3021 86c0
00000310: d183 bac0 cbd8 e1bf bb3d eec0 a547 f23f
00000320: ef0c dec0 eeb1 643f 0ee4 7540 a17e 40c0
00000330: 0296 f6c0 6ff4 d0c0 594e 91c0 e779 9dc0
00000340: 5cc3 67c0 9c3e 8ac0 9bc9 d5c0 eddd 2fc0
00000350: abb9 acc0 b5d2 8d3f 143b e5c0 d1ce 503f
00000360: 39b8 9c40 9a2e 7fc0 587e fdc0 e800 cbc0
00000370: 5f09 8dc0 2212 b7c0 aa7a 68c0 f4c0 9fc0
00000380: 7f34 4241 df21 3041 4a39 b040 eec7 8242
00000390: 6168 90c0 574e bcbd bad1 0cc2 f5ad 0942
000003a0: 5e3e 1e42 8be1 1b42 d349 0242 1763 1e42
000003b0: 6936 1042 aa6f 1a42 83d2 4241 de89 2341
000003c0: d130 8e40 3427 7a42 8db2 d73c 2848 a7bf
000003d0: 020b f3c1 376b 3042 4dec 1b42 fafd 1e42
000003e0: 90f6 2542 8c9d 1e42 2865 2d42 af35 1d42
000003f0: f872 54c1 1e83 c2c0 9d15 55c0 cf49 aa3f
