log_7_28/pyt_save/model.pt (torch_old, 70495 bytes, 18 tensors)

weight f4 [64, 7]
000000 6f ba 91 bf f8 46 be 3f 20 48 15 bf 65 b9 bb bf
       -1.138502 1.4865408 -0.5831318 -1.4665953
000010 ba 22 dd bd 84 5f 2f 3f 85 fa dd be eb 4a 7f bf
       -0.10797639 0.6850512 -0.43355194 -0.9972369
000020 ca 93 d1 bf e9 eb 30 bf a1 93 7a 3f eb fd ec bd
       -1.6373227 -0.6910997 0.97881514 -0.115718685
000030 81 df 5f be 7b a7 ec be e3 e5 45 bf 05 4e 45 3e
       -0.21862604 -0.46221527 -0.77303904 0.19268043
000040 dd 08 ba bd 9e 14 fe be 8c a4 5f be 5f a8 42 3f
       -0.09083722 -0.49625105 -0.21840113 0.76038164
000050 7e 9f a2 3e 1f 7e 91 3f c8 f6 4b be f2 4a 42 bf
       0.31762308 1.1366614 -0.19918358 -0.7589561
000060 86 0b fa 3e 4d a3 f5 3e 89 d8 20 3e f8 de a3 bd
       0.48836917 0.4797615 0.15707602 -0.08001512
000070 91 ad 26 bf a8 76 e1 3d 31 ec 1f bf 99 6b f8 3c
       -0.6510859 0.1100896 -0.62469774 0.030324744
000080 9a 24 39 bf 0f 93 98 be 85 43 4c bf 76 a6 50 3f
       -0.72321475 -0.29799697 -0.79790527 0.81504
000090 6e b7 47 bd f9 1a 92 bd 63 21 81 3a 85 02 8d bb
       -0.048758917 -0.07134051 0.0009851869 -0.004303279
0000a0 dc 05 67 be 14 be eb bd 90 1f bd 3c 7d 87 10 be
       -0.22560829 -0.11510864 0.02308634 -0.14114185
0000b0 18 a6 8f be 78 44 8b bf 7b 9d 25 3f bb 77 0e 3f
       -0.28056407 -1.088027 0.6469342 0.55651444
0000c0 78 87 06 bf 22 ac 89 be 32 76 a3 be 54 61 d3 3e
       -0.5255046 -0.2688914 -0.31926113 0.41285193
0000d0 c2 67 12 bf 68 93 01 be d8 6f ca bd 6d 17 c7 3d
       -0.5718957 -0.12653887 -0.09884614 0.09721265
0000e0 a7 79 c4 3e 8c 80 63 bf b9 d2 3b bf e5 2c 07 bf
       0.38374063 -0.8886802 -0.7336841 -0.5280288
0000f0 08 ec 9c 3e 01 be 4c 3f f6 72 3f be 7c 6a c5 bd
       0.30648828 0.7997742 -0.18696198 -0.09639451
000100 75 b0 15 bd 24 81 c1 bd 34 22 35 3f 9c 60 9c 3d
       -0.036545236 -0.0944846 0.70755315 0.07635614
000110 47 c2 fa 3e ef 4d e8 3e d7 d0 1a bf 05 56 be be
       0.48976347 0.4537196 -0.60474914 -0.37175003
000120 01 b9 ea be c4 e8 45 3f 15 d1 0b 3d 77 8b 34 3e
       -0.45844272 0.773083 0.034134943 0.17631327
000130 23 f5 14 3f 65 d5 97 bf a7 08 42 bf 5f c8 1b bf
       0.5818655 -1.1861998 -0.7579445 -0.6085262
000140 6c 5f 5f 3c ff d1 2f 3d bf 39 e1 3f 5f 6a 21 bf
       0.01363359 0.042924877 1.7595748 -0.63052934
000150 a5 17 fb bd 94 37 f9 be 75 dd 8d 3d 65 f9 1c 3f
       -0.12260369 -0.48675215 0.06927005 0.61318046
000160 e3 7a 2d 3e 80 8f 7a bf 08 75 5b bf 02 d6 7d 3b
       0.16941409 -0.97875214 -0.8572545 0.0038732295
000170 7e 99 ca bf fa 9e d1 bd 92 87 6d bf f4 cc bc bc
       -1.5828092 -0.102354005 -0.9278499 -0.023046948
000180 d6 d3 d2 3f d0 2e 1e be 32 6f 0a 3f bd bf a0 bf
       1.6470897 -0.15447545 0.5407592 -1.2558514
000190 8c 67 2d 3d 99 f7 7e 3f 09 6f 71 be 77 48 41 3d
       0.042335078 0.99596554 -0.23577513 0.04718825
0001a0 d2 5d 03 bf 08 bb 26 be 7f f2 4c be c4 6b 4d be
       -0.51315033 -0.16282284 -0.2001438 -0.2006064
0001b0 22 e9 4f be b4 95 90 3e 3e 3c 2c bf e6 42 91 bf
       -0.20303777 0.28239214 -0.6727942 -1.1348541
0001c0 c5 2d af 3e 62 b8 0c 3e 29 80 a9 bf 94 94 cb bd
       0.34214607 0.13742211 -1.3242236 -0.099404484
0001d0 92 89 1b be a5 eb 43 3f 2b 3a 0a 3c 7b 5a 38 bf
       -0.15189198 0.7653144 0.00843672 -0.7201306
0001e0 d3 5c 8c 3d c8 06 d7 bf b0 a7 a6 bd 13 ca 01 bf
       0.06853642 -1.6798944 -0.081374526 -0.50698966
0001f0 0d 66 26 bd d8 17 22 bf 6d c4 fb 3e 27 e9 0f bf
       -0.040624667 -0.6331763 0.49173298 -0.5621514
000200 72 73 5c bf 8b 78 37 3e b8 32 8e bd 76 e2 f3 3e
       -0.86113656 0.17917077 -0.069432676 0.47633713
000210 20 73 2d 3e a9 09 aa 3f 3f 89 2a 3f db c4 8e 3f
       0.16938448 1.3284198 0.6661567 1.1153826
000220 2f b2 db bc 15 a3 af be ee bb 09 be 52 63 9c 3d
       -0.026818363 -0.3430411 -0.13450596 0.07636131
000230 a8 77 e4 be ba 33 32 3f e2 da ef 3e c1 94 2c 3f
       -0.4462254 0.6961018 0.46846682 0.6741448
000240 3c c0 9a be 3b 03 2e be 22 76 24 3e d1 5c 7c 3f
       -0.30224788 -0.1699342 0.16060689 0.98579127
000250 ba a2 98 bf 99 40 08 3e cf 61 cc 3e c7 8c 1a bf
       -1.192466 0.13305892 0.39918372 -0.6037106
000260 cc 9e bd be ae 46 c1 3e 02 ab 38 3f 67 f3 93 bf
       -0.37035215 0.37749237 0.7213594 -1.1558656
000270 5f 38 d0 3e a3 90 4b 3e 1f 71 9b bd d2 29 45 be
       0.40668008 0.19879393 -0.075899355 -0.19254234
000280 a8 de 13 bd 62 1c 8d be 02 47 0f bf aa 51 bf be
       -0.036101013 -0.27560717 -0.55967724 -0.37366992
000290 b7 9e bc 3e 4f 10 2f be 35 94 8c be e2 a2 bf 3e
       0.3683984 -0.17096065 -0.27456823 0.37428957
0002a0 aa 9a fd be 24 7c 0e 3e 75 5b c5 3f 47 fc 06 bf
       -0.49532062 0.13914543 1.5418535 -0.52728695
0002b0 48 78 c1 be 11 bd 7a 3d 19 27 12 c0 33 f4 04 be
       -0.3778708 0.061215464 -2.2836363 -0.1298378
0002c0 c0 dd 92 be ac 85 c0 be c4 fa 1e bf d5 86 a7 be
       -0.28684807 -0.37601984 -0.6210139 -0.32720056
0002d0 d4 54 c4 3e 33 eb c2 be 25 68 80 3f be 08 34 3e
       0.3834597 -0.38070068 1.0031782 0.1758146
0002e0 87 4f a8 3e 53 99 f7 be d7 2c 8f be 7c bf 88 bd
       0.32873175 -0.48359165 -0.27963898 -0.06677148
0002f0 b0 5a 07 3f c4 48 44 bf 22 fa c5 3d 45 d1 46 be
       0.52872753 -0.7667353 0.0966685 -0.19415767
000300 52 1a 20 3f 93 d0 04 3d 98 82 95 3b 06 b4 b1 bd
       0.6254016 0.032425474 0.004562687 -0.08676915
000310 49 59 46 bf 1d b6 69 bf 6f 12 1e bf 70 d4 87 be
       -0.7747999 -0.9129351 -0.6174688 -0.26529264
000320 cc 30 a8 3e 62 28 d3 3e e3 dd 14 bf 18 20 14 bf
       0.3284973 0.41241747 -0.5815107 -0.5786147
000330 a9 cc 12 bf bb 67 15 3e 8a b4 d7 bf 5d 3e 2d bd
       -0.57343537 0.14590351 -1.6851971 -0.042295802
000340 b6 96 90 3f df 1d cf 3d 85 dc 9a 3f 02 9a 98 be
       1.1295993 0.10113119 1.2098547 -0.29805
000350 eb d5 a1 bf 72 49 34 bf 0f 3f 75 be dd ff 86 bd
       -1.2643408 -0.7042457 -0.23949836 -0.06591771
000360 ef 3d 05 bf 57 a7 b7 3c 83 f6 02 3f 37 c9 fd 3c
       -0.5204763 0.022418661 0.511574 0.030979736
000370 83 05 01 be 70 f6 a7 3e 04 c0 53 3f e5 98 ec be
       -0.12599759 0.32805204 0.8271487 -0.462104
000380 29 80 ac be 06 6a b6 3f ca 14 00 bf 30 46 4b bf
       -0.33691528 1.4251106 -0.5003172 -0.7940397
000390 31 0c c0 bd 6e 2f aa be 7e a7 b9 3d 96 cd 2a 3f
       -0.09377325 -0.3323931 0.0906515 0.6671995
0003a0 d0 db 30 bf 09 59 1f bf 88 01 6f 3e c0 35 0b be
       -0.6908541 -0.6224523 0.23340428 -0.13594723
0003b0 9b f6 9b bd 4c 30 34 be 9d 90 ad 3e 82 da bc bf
       -0.07615396 -0.17596549 0.33899394 -1.4754183
0003c0 4b 09 1b 3f e1 82 fc 3e c9 90 17 be b9 20 68 3d
       0.60561055 0.49318603 -0.14801325 0.05667183
0003d0 5a 2b 9e 3e fb 11 6f be 84 f0 0a 3f c2 0b 5c bf
       0.3089245 -0.23346703 0.5427325 -0.8595544
0003e0 75 8b 89 be fc e0 4e be 37 fd 09 bf 66 f3 88 be
       -0.2686421 -0.20203012 -0.53902 -0.26748198
0003f0 e6 57 26 3f 8e da bd be 23 9c 30 3e 57 c9 73 3f
       0.6497787 -0.37080806 0.17247061 0.95229095

bias f4 [64]
000000 99 56 47 be 11 6a 01 3f f7 bc e3 bc 0c 9e 23 3f
       -0.19466628 0.5055247 -0.027800066 0.63913035
000010 ee dd 2a 3d c1 7c 25 bf 05 ca a0 3e e8 ab 1d 3e
       0.041715555 -0.64643484 0.3140413 0.15397608
000020 2d 66 f0 3b 76 8c 39 3e 7b 03 cd 3e 2f 33 17 bf
       0.007336399 0.18119988 0.40041718 -0.59062475
000030 b2 54 2e bf 24 b1 40 bd 5c cd ce 3e 17 ee 98 c0
       -0.68097985 -0.047043934 0.40391052 -4.7790637
000040 65 fa 21 3e ce d1 fb bd 3d 33 23 3e f2 29 cf be
       0.15818174 -0.122958764 0.15937515 -0.4046169
000050 e7 2f 81 3d 94 99 ef bf f9 e5 55 be c8 8b ed bc
       0.06307965 -1.8718743 -0.20888509 -0.028997317
000060 bb 13 ba 3d cb bf 35 3d e9 2a 13 3f fe 08 25 c0
       0.090857945 0.04437236 0.5748735 -2.5786738
000070 6c 8e 8a 3e 6f 92 d9 3e 40 f1 9b bc 7e e5 9d 3e
       0.27061784 0.42494532 -0.019035935 0.3083915
000080 c1 92 1e c0 fc 92 c1 3e 15 67 12 bf 6d 13 0a 3e
       -2.4777071 0.37807453 -0.5718854 0.13483973
000090 12 65 e6 3e af 97 f1 3e 44 51 3c 3d 54 36 4c bc
       0.44998986 0.47186038 0.04597594 -0.012464125
0000a0 d2 b6 f2 be 52 5c 34 bf 74 b4 42 c0 52 be 7d be
       -0.47405106 -0.7045337 -3.042264 -0.24779633
0000b0 31 48 e5 be b4 d8 9f bf e5 7e f3 be 16 23 8a 3d
       -0.4478164 -1.2488008 -0.4755775 0.06744973
0000c0 eb da c4 bf 74 ed 92 bf ba 11 d7 be c6 0d 43 be
       -1.5379308 -1.1478715 -0.42005712 -0.19048223
0000d0 dd 38 ed 3d 8e 30 89 3c 83 9d 00 3f cc 8f 00 3f
       0.115831114 0.016746785 0.50240344 0.50219417
0000e0 66 04 04 be 5c ae 87 be 74 78 c3 be 33 cb 44 bb
       -0.12892303 -0.26500213 -0.38177836 -0.0030028343
0000f0 4e be da 3d b7 97 fe bd 4b 92 89 bf 1c fc db 3e
       0.10680829 -0.12431281 -1.074777 0.42965782

weight f4 [64, 64]
000000 d2 9b 3b bf 0e ef 1f be f1 75 b8 be df 39 f6 3e
       -0.7328464 -0.15618536 -0.36027482 0.48091027
000010 1a df 47 bf 20 8a 02 be 38 2d 5b 3d 07 2f b4 3e
       -0.780748 -0.12748003 0.05350992 0.3519213
000020 75 e5 00 be da cf 12 bd dc 10 71 3e bb 2e 50 3d
       -0.12587531 -0.035842754 0.23541588 0.050825816
000030 bc 89 df be 7f c2 26 bf ff ce 13 be 74 51 07 bf
       -0.4365977 -0.6514053 -0.14434431 -0.5285866
000040 2d 8c 02 be ed b8 a9 be 7a 1f 7f be c9 14 b1 bf
       -0.12748785 -0.331489 -0.24914351 -1.3834468
000050 2b 43 c2 bd 57 ce f7 3d 36 54 56 be 37 57 81 3e
       -0.094854675 0.12099903 -0.20930561 0.25261852
000060 db c6 f0 bd 60 81 8d be 47 7e 19 3e 52 ef f0 be
       -0.11756679 -0.27637768 0.14989577 -0.47057587
000070 cc a4 a0 be b0 89 51 3f 8e a5 4f bf be 27 fb 3d
       -0.3137573 0.8185072 -0.8111199 0.122634396
000080 c1 b2 af be 78 b1 9f 3c c2 17 1a be 88 2a df be
       -0.34316066 0.019493803 -0.15048125 -0.43587136
000090 93 bc f7 3e 05 32 05 bf 0a 49 23 3f d5 ae 88 bf
       0.48386058 -0.5202945 0.63783324 -1.0678355
0000a0 dc 3f 43 be 29 ab 53 3f 07 2f 59 bf c8 4a ed 3e
       -0.19067329 0.82683045 -0.84837383 0.46346116
0000b0 b1 6e 80 be 47 a4 0d bf c9 cf b5 be ec f7 82 be
       -0.2508445 -0.5532879 -0.3551009 -0.25579774
0000c0 a6 4d 03 bf fc 81 33 3e d1 0f 17 3f 05 76 89 3e
       -0.5129036 0.17530054 0.5900851 0.26847854
0000d0 08 37 51 bf 38 07 c2 3e 03 c5 06 be 06 db 06 be
       -0.81724596 0.37896132 -0.13161092 -0.13169488
0000e0 bf cd 11 bf a4 19 1f be 08 32 c7 3e 59 18 c9 bf
       -0.5695457 -0.15537125 0.38905358 -1.5710555
0000f0 fb 14 60 3f 82 0c f2 3e 45 6f 01 bc d9 38 15 3f
       0.87532014 0.47275168 -0.007900064 0.5828987
000100 98 58 90 3e 57 ef 29 bf 0f 2c 19 3f 4f 2d e8 3e
       0.28192592 -0.6638083 0.59832853 0.45347068
000110 f0 19 a0 3e 20 74 d8 3c 16 ac 7c 3e a2 9a e0 3e
       0.3126979 0.02642256 0.2467502 0.43867975
000120 c8 1a 9e 3f f0 6a a9 be a7 aa f4 3e 47 b1 d2 be
       1.2351923 -0.330894 0.47786447 -0.41150877
000130 b6 4e 85 bf 19 ca d3 3e ab c9 06 bf f1 f0 94 bf
       -1.0414646 0.41365126 -0.5265147 -1.163603
000140 7f 59 e5 3d fa c3 b0 3e 90 82 3e be 8e d9 15 bf
       0.11198711 0.34524518 -0.18604493 -0.5853509
000150 3c bc 7c be aa b4 c4 bd 86 19 c7 3e 21 4f e5 be
       -0.2468118 -0.096047714 0.3888666 -0.44786933
000160 1c be 86 3e 58 3b df 3e 35 51 93 3e 34 76 4b bf
       0.26316917 0.43599963 0.28772894 -0.7947724
000170 66 16 84 3e b1 18 6d be 76 34 07 3c fa 2c 13 3f
       0.2579834 -0.2315395 0.008252254 0.57490504
000180 d4 16 81 3e 62 66 d5 bd 4d 4f e3 be 26 a1 b6 3d
       0.2521273 -0.104199186 -0.4439644 0.089174554
000190 5a 60 15 3e dd 7d 03 be e1 e2 0a bf b8 69 8a 3e
       0.14587536 -0.12840982 -0.5425244 0.27033782
0001a0 8e 07 6c bf a4 72 fa be d7 72 91 be 31 0c 0d 3f
       -0.9219903 -0.4891559 -0.28407928 0.5509673
0001b0 9f 48 fc be b1 fb c7 3e 43 1f 9e 3e 03 7c 34 bf
       -0.49274155 0.39059213 0.30883226 -0.70501727
0001c0 d9 82 5c bf b6 4f 39 3e e9 1f 93 3f a6 64 5c 3d
       -0.8613716 0.18096814 1.1494113 0.053806923
0001d0 4c fb 31 be ab 1d 9e 3e 00 c3 90 3e 24 b3 b6 bd
       -0.17381018 0.3088201 0.28273773 -0.08920887
0001e0 5c eb 86 3d bd 36 c9 3e 0d d6 9f bd 14 b7 51 bf
       0.0658786 0.39299574 -0.07804499 -0.8191998
0001f0 c6 6f 29 be 62 5b 16 3e 35 70 a4 be 48 da d0 3e
       -0.16546544 0.14683297 -0.32116857 0.40791535
000200 8b 8b 3d be 57 f5 8e bd 8a 5e 36 be 96 36 98 bd
       -0.18510263 -0.069803886 -0.17809501 -0.074322864
000210 cc e1 35 be 9c bc 9a 3d 7d c2 02 be ee 4a 69 bd
       -0.17761916 0.07555506 -0.12769504 -0.056956224
000220 51 b2 c7 3e 8b 83 c3 bd 1e 23 f0 be 03 7d 82 be
       0.39003232 -0.09546574 -0.46901792 -0.25486
000230 11 98 a7 3d 43 5c 17 be 72 81 99 be c7 9f 5c be
       0.08183301 -0.14781289 -0.2998157 -0.21545325
000240 75 e3 38 bd 51 70 c0 3d 5f 63 13 be 72 fc 97 3d
       -0.045138795 0.09396423 -0.14393376 0.07421197
000250 24 8b 33 be 46 d6 38 be c7 03 44 3e f6 a8 9a be
       -0.17533547 -0.18050489 0.19142066 -0.30207032
000260 97 f8 08 3d 44 db c0 3e 21 54 a4 bd 88 54 f4 3c
       0.0334402 0.37667286 -0.08023859 0.029825464
000270 17 35 2c bc fe 5f 01 be d4 17 76 be 2b 48 13 3d
       -0.0105107045 -0.12634274 -0.24032527 0.035957497
000280 c5 db 0a be 3d e6 f4 bd a3 71 99 be 60 dc 63 3d
       -0.13560398 -0.11957977 -0.2996951 0.055630088
000290 9e 39 e5 3a c8 df 08 bd 34 0d aa 3d 22 ea a4 bd
       0.0017488485 -0.03341654 0.083032995 -0.0805247
0002a0 d8 4c 22 be 85 6e 1c bf c1 df 01 be 93 ef df 3c
       -0.15849626 -0.6110614 -0.12683012 0.027335918
0002b0 79 4a be 3d 66 16 58 be 78 18 76 3d d2 0b 2b be
       0.09291548 -0.21102294 0.06008193 -0.16703728
0002c0 40 59 f6 bd c9 4b 20 bc 9c 69 6d 3c 72 26 cc bd
       -0.12028742 -0.009783694 0.014490511 -0.0996827
0002d0 36 0e 0a bf aa 1c 60 3e d3 23 fd 3b 02 bc ac be
       -0.53927934 0.21885934 0.007725218 -0.3373719
0002e0 68 43 44 3e 74 2e 86 be c9 d2 95 be 2f e4 11 be
       0.19166338 -0.26207316 -0.2926238 -0.14247201
0002f0 b5 6a 0a be 5f 70 8e 3e e0 2f 46 be 9b 7f a1 3c
       -0.13517268 0.27820107 -0.193542 0.019714167
000300 f9 aa bc bd 29 8b 2c bd 29 e5 c7 bc 6f 5b 68 3d
       -0.09212298 -0.0421249 -0.024401264 0.056727823
000310 16 91 c8 bd af 6a 0e 3d 46 17 08 bd 0f d5 c9 bd
       -0.09793298 0.03476971 -0.03322532 -0.09855091
000320 0d 5b 1f be b7 e8 2b be 18 e7 b6 3d 80 e5 47 bd
       -0.15562077 -0.16787992 0.089307964 -0.048802853
000330 78 c2 76 bd 47 f0 4e bc 8f da c9 3c ed ac 1c 3d
       -0.060244054 -0.012630529 0.02464035 0.038250852
000340 b1 fe 9d 3c 2f 34 24 be 53 3a 40 bd 5b e5 f4 bd
       0.019286485 -0.16035531 -0.046930622 -0.119578086
000350 fb 7d ea bd fe e2 0e bc 7f 96 99 3d c7 38 11 be
       -0.1144981 -0.008721111 0.07499408 -0.14181815
000360 ac 97 10 3d 4a e3 a0 bd 47 79 54 bd 1c 5e 65 3d
       0.035300896 -0.07855852 -0.05187347 0.055997953
000370 30 99 e7 bc c2 d7 2c bd cc f3 b2 bd 01 1b 85 3d
       -0.028271288 -0.04219795 -0.08737907 0.06499291
000380 8d 53 37 bd 68 3c bb bd ea a6 a7 3c 7a f5 20 be
       -0.044757415 -0.09142381 0.020465333 -0.15718642
000390 f9 03 00 be d3 9a 1d bd 47 b1 87 3d 5c bb 71 bd
       -0.12501515 -0.03847773 0.0662561 -0.05901657
0003a0 0a 0d 65 bc c9 0b 96 3d fe 32 c6 3c fb f6 c1 bd
       -0.01398016 0.073264666 0.024194237 -0.09470936
0003b0 e7 80 bc bd 93 0d 9f bd 26 09 23 be 33 20 c0 bd
       -0.09204274 -0.07766261 -0.15921459 -0.093811415
0003c0 56 ee a7 3c 04 88 23 3d e7 59 c7 bc 07 54 8e bc
       0.02049939 0.039924636 -0.024334861 -0.017374052
0003d0 e8 a7 5d bd 93 c8 89 3d 1f ad c6 bd f8 74 04 be
       -0.054115206 0.067277096 -0.09700989 -0.12935245
0003e0 de ce d6 bc b8 d3 4d 3d 51 4b 30 be ce d4 3d 3d
       -0.026221689 0.05025074 -0.17216231 0.046345524
0003f0 e7 0a 83 bd ef 32 0b be a3 8a e4 bd ce 8d 09 3d
       -0.06398564 -0.13593648 -0.11159255 0.0335825

bias f4 [64]
000000 95 1e fa 3e bc 2d 1e 3f 41 b3 ab 3d 43 37 81 3d
       0.48851457 0.61788535 0.08383799 0.063093685
000010 e3 aa 0d 3f 30 79 0a 3f 2b eb 18 be 22 56 63 bd
       0.5533888 0.5409117 -0.1493346 -0.055502065
000020 8b a7 9d bc 1d 24 f9 bd 7f 5f 7d 3d 70 7d 1f 3f
       -0.01924493 -0.12165091 0.06185865 0.6230078
000030 fd 28 39 3f 0a 2d 44 bd 4a a7 e7 bd a5 54 f2 3e
       0.7232817 -0.047894515 -0.11311205 0.47330204
000040 b7 e9 0c bd 56 c3 bd bc b6 3a 27 3e be fb 42 3e
       -0.034402575 -0.023164432 0.1633099 0.19041345
000050 8c fc 2b be f3 bc 32 3d dc 7a 50 3d d6 c5 ec bc
       -0.16795558 0.043637227 0.050898418 -0.02890293
000060 ab c8 11 3f 6d bf bf 3e 92 7c aa bd af 27 65 be
       0.5694682 0.37450734 -0.08324541 -0.2237842
000070 3b 04 f3 ba 0f 22 cf 3a b0 af f4 3c d3 59 76 bd
       -0.001854069 0.0015802997 0.02986893 -0.060144257
000080 f6 e8 28 3d 89 a1 d9 3e e6 03 af 3c c6 26 8e bd
       0.041237794 0.42506054 0.021364164 -0.06940989
000090 b5 9d c2 bc de 0f 01 be 8e f4 3f 3e bc 38 0a be
       -0.023756841 -0.12603709 0.18745634 -0.13498205
0000a0 13 f6 62 3f 8b 2c e7 3e eb d2 b9 bc 29 30 4e bd
       0.8865673 0.4515117 -0.022683581 -0.050338898
0000b0 e8 10 a2 bd 7a be 3b be 8b 87 60 bd 44 11 38 be
       -0.07913381 -0.1833438 -0.054816764 -0.17975336
0000c0 04 b3 26 be ce 22 f1 bd 1e 51 59 bd 0e 99 96 bd
       -0.16279227 -0.117742166 -0.053055875 -0.073534116
0000d0 a8 1e 1d 3f 09 7a dc 3e 3e b0 4e be 5a fa 31 3f
       0.613749 0.43061855 -0.20184419 0.6952263
0000e0 e9 63 ce bd 28 16 ad bd 77 c5 0d 3d 1d 7a a4 bd
       -0.1007765 -0.084514916 0.034612145 -0.08031104
0000f0 87 ca fc bc de a6 45 bd 50 08 a0 bd 22 07 89 bd
       -0.030858291 -0.04825484 -0.078140855 -0.066908136

weight f4 [7, 64]
000000 69 3a 05 3f 95 61 08 3e 18 03 34 3e c3 92 85 3d
       0.5204225 0.13318475 0.17579305 0.06522133
000010 42 5b 41 3e c0 0d 1f be 8b eb 68 bd 4e ac 40 bd
       0.18882468 -0.15532589 -0.056865256 -0.047039323
000020 30 78 37 3e cb f1 8f bc c1 3e 2c 3c d6 b6 d6 3e
       0.17916942 -0.01757135 0.010513009 0.41936368
000030 77 e5 14 bf d2 cb 95 3c 0c 28 13 bd b0 99 cb 3e
       -0.58162636 0.018285666 -0.035926864 0.39765692
000040 46 f3 86 3d 1a 53 03 3e 00 8b 99 3f 4c 24 e0 bd
       0.065893695 0.1282467 1.1995544 -0.10944423
000050 03 b8 aa 3c d2 7c 34 3e c7 1e 38 bd bf 87 9c 3b
       0.020839697 0.1762574 -0.044951227 0.0047769244
000060 d4 ca 0f 3f 57 67 45 3f 27 56 03 3d ba 3c 50 be
       0.56168866 0.7711081 0.032064583 -0.20335665
000070 74 c1 6d bc d7 b3 19 bd 44 59 0e 3e 90 9a 28 3d
       -0.014511455 -0.037525024 0.1390124 0.041163027
000080 3d 47 99 bd ba 41 18 3f 98 91 cc bc e2 b5 1f bd
       -0.07484291 0.5947529 -0.024971768 -0.038991816
000090 8c 83 30 bd 5a 29 88 3b ed 9e f4 be 8d 18 f3 bc
       -0.043094203 0.00415532 -0.477775 -0.029674793
0000a0 c0 07 49 bf 1a ad ad bd 1d f9 41 3d d7 e7 be bc
       -0.7852745 -0.08480282 0.047356714 -0.02330391
0000b0 a0 35 a4 3b 6f ca b3 3d eb 90 f6 bd 0b ef 2c 3e
       0.0050112754 0.087788455 -0.1203936 0.16888063
0000c0 9c 56 f4 3c 33 49 63 bd 3e 4d a1 3c 95 15 b4 bd
       0.029826455 -0.05548973 0.019690152 -0.08793179
0000d0 f5 4e 75 3e 8a f9 86 be bb 2e db 3b c3 26 0a 3f
       0.23955901 -0.26362258 0.0066889203 0.53965396
0000e0 b3 9a 9e 3f c4 12 96 3d 55 a2 9d 3c 05 2a c8 3c
       1.239096 0.07327798 0.019242445 0.024434099
0000f0 52 99 d6 bd 0f 50 b2 bd 53 12 83 bd 32 39 9f 3d
       -0.10478462 -0.08706676 -0.063999794 0.07774581
000100 ce a8 27 3f be db 60 bf b2 c0 62 3d e7 ea 65 bd
       0.6549195 -0.878353 0.05535955 -0.056132223
000110 a0 5c 3a 3e 64 cb 65 3f fd 15 56 3b 50 9f 0a 3d
       0.18199396 0.89763474 0.0032666915 0.03384334
000120 48 8d 84 bc e2 fb 12 3b 1d 5e c1 bc a1 59 28 be
       -0.01618065 0.0022427966 -0.023604447 -0.1644044
000130 0a 07 e3 bd e1 7d 23 3c 23 d5 f5 bd 5d 36 02 3f
       -0.11085327 0.009978742 -0.12003543 0.508642
000140 0b b5 3d 3d 04 9c 82 3d 27 e0 ee bd 88 b9 ae be
       0.046315234 0.06377414 -0.116638474 -0.34125924
000150 62 9a 73 bd 96 21 85 bc 3b 9c d3 3d 25 ba 57 3d
       -0.059473403 -0.016251367 0.10332533 0.052667756
000160 46 c1 77 3f d0 90 d0 3f 29 99 60 3e c3 e6 18 bd
       0.96779287 1.6294193 0.21933426 -0.037329447
000170 89 c9 08 3f a4 bb 0e be e0 08 9d bb 48 63 13 3e
       0.5343252 -0.13938767 -0.0047923177 0.14393342
000180 cd 20 cf bc 0e 3a c9 bd 93 ff a6 bc 58 21 c1 bd
       -0.025284195 -0.09825526 -0.02038554 -0.09430188
000190 de a3 4a 3c ee 59 00 3d 39 9a 83 3f c2 e5 f6 3b
       0.012368171 0.031335764 1.028144 0.0075347135
0001a0 fe a4 1e be 8b cd 2a bf 03 f0 d5 3d 23 ef b6 3c
       -0.15492627 -0.66719884 0.10446169 0.022330826
0001b0 6a 89 01 3e 37 91 d5 bd 47 0a 33 3d be 37 80 3e
       0.12650076 -0.10428088 0.043710973 0.25042528
0001c0 3b b2 c2 bd af 37 88 3d 39 8f 3a 3e 61 9d d1 3d
       -0.09506651 0.06651246 0.18218698 0.10235096
0001d0 62 8b 53 3f 50 87 61 bd 1e ba a1 3c 23 67 28 3e
       0.82634556 -0.055060685 0.019742068 0.16445594
0001e0 ba 89 35 bf f5 82 a2 3d c9 13 50 3d 19 4f 0a bc
       -0.7091328 0.07935134 0.05080012 -0.00844171
0001f0 25 ad 5b bd ae 82 60 3d ab 1d 3f 3d d2 23 e8 bd
       -0.05363192 0.054812126 0.046659153 -0.11334957
000200 e1 0f 89 3e f5 ca 39 3e 90 b7 c3 bb 4a 04 a0 bd
       0.26769927 0.18143828 -0.00597281 -0.07813318
000210 7d 84 d1 be 67 94 13 c0 d2 6a 91 bd 3e f2 4d bd
       -0.40921393 -2.3059328 -0.071004525 -0.05027985
000220 0f f6 9d 3d d2 22 81 bd 2c 0a ad bd 9e 7e 8b be
       0.077129476 -0.063054696 -0.08449206 -0.2724504
000230 b1 2c c2 3f b9 b0 81 bc cc 60 89 3d d5 23 bd be
       1.5169889 -0.015831338 0.06707916 -0.369414
000240 37 11 09 3c 95 f3 4d 3d e1 60 0a bf 47 9a f8 bd
       0.008365921 0.050281126 -0.54054075 -0.12138801
000250 17 93 27 bc e7 7c 14 3f ce 81 00 3d ce 57 e6 3c
       -0.01022794 0.58003086 0.03137379 0.02811804
000260 c9 15 e5 3e f2 6f 21 3f da bd d7 be 1b 4c 2b 3d
       0.44743183 0.6306144 -0.42137033 0.041820627
000270 62 68 1c be a4 0b 52 bc b1 bc d1 bc 1a df bb 3c
       -0.15274194 -0.012820158 -0.02560267 0.022933532
000280 ea cf fd bb 38 c0 d9 3e a4 86 c8 3b fe 5b e4 3d
       -0.0077457326 0.42529464 0.006119566 0.111503586
000290 c2 69 10 be 6b ea 5a bd 05 78 1b 3f f4 d0 6a 3d
       -0.14102843 -0.053446215 0.6073001 0.05732818
0002a0 fe da d5 3d 43 56 80 3e 4c 63 c1 bc d0 ff 87 3d
       0.1044216 0.25065812 -0.023606919 0.06640589
0002b0 9a f7 10 3c 0b de 3c 3d aa 2a 90 3d 6e 19 8c 3e
       0.008848095 0.046110194 0.070393875 0.2736315
0002c0 fe 08 c5 bd 9e b2 b0 3b 3a cb 7b 3d b1 cd 3a 3e
       -0.09620856 0.0053923866 0.06147311 0.18242528
0002d0 f9 48 d4 bd a5 38 11 bd ba 46 20 bd 8d b3 cb 3f
       -0.10365481 -0.03545441 -0.03912995 1.591417
0002e0 b3 83 3c 3f 9f 34 8a 3d b9 3f 80 3b 1a 41 af bd
       0.7363846 0.06748318 0.0039138463 -0.08557339
0002f0 23 90 59 3d 40 06 91 3d f6 5f 66 3d 91 4c 8b bd
       0.053115975 0.0708127 0.05624386 -0.06801713
000300 5b a2 9d 3e 41 52 5f 3f ca 48 80 bd ab cf 29 3c
       0.3078793 0.87234885 -0.062638834 0.010364453
000310 99 bc 99 bf 37 07 95 be 94 61 05 bd a0 2f de 3c
       -1.201068 -0.29107067 -0.03256376 0.027122319
000320 70 90 26 3d c7 1c 19 3e e2 a4 3b 3d 9a d8 11 bc
       0.04066509 0.14952384 0.04581154 -0.0089017395
000330 9d ff 47 bd 10 45 91 bd 75 d2 c3 bd 19 7f c8 3e
       -0.048827756 -0.07093251 -0.09561626 0.39159468
000340 02 38 71 3d 81 24 ba bc 81 aa 79 3d 72 17 b8 be
       0.058891304 -0.022722485 0.06095362 -0.35955387
000350 7e 69 86 3d c0 58 2c 3e d2 7e 8b bd 00 f6 77 3c
       0.0656309 0.1683073 -0.068112984 0.015134335
000360 ab 24 2c be 51 ab dc 3f 8e 58 fb 3e eb 79 d2 bd
       -0.16810863 1.7239782 0.49091 -0.1027716
000370 a9 93 0f be ed 45 b0 3d 02 77 5c 3c 93 25 e0 3d
       -0.14021172 0.08607087 0.013456108 0.10944667
000380 38 f8 76 3d ba 84 ef be 51 89 a6 bc 6b 7c c2 bd
       0.060295314 -0.4678095 -0.02032915 -0.09496387
000390 6e 87 a5 3d a4 b5 54 bd c6 16 27 3f 43 da 34 3d
       0.08082472 -0.05193104 0.65269125 0.044153463
0003a0 86 98 74 bf b7 19 ce 3d cf 76 4c bd 0d da 85 3d
       -0.9554523 0.100634985 -0.049917992 0.065357305
0003b0 2f be da 3d 44 04 d3 3c 05 39 2f bd c4 f7 a8 be
       0.10680806 0.02575887 -0.042778987 -0.3300153
0003c0 21 49 9a bd 75 98 0c be 2d a2 34 bd 01 52 34 3c
       -0.075334795 -0.13730033 -0.044099975 0.011005879
0003d0 fe 3b b3 3e c4 26 28 3f 9b d6 03 3d 47 01 2f bf
       0.35006708 0.6568415 0.032187086 -0.68361324
0003e0 17 0b 3b bf be 4d 04 bd 81 9f 0b 3e 30 47 5d 3d
       -0.73063797 -0.032300703 0.13635065 0.054022968
0003f0 c9 ab 11 3e 7a 9c c8 3c 58 89 84 3c 7c 0b 0b be
       0.14225687 0.024488676 0.016178772 -0.135786

bias f4 [7]
000000 3e 99 1f bf 4a 32 7f bf 98 72 11 bf 5d d0 5a bf
       -0.62343204 -0.9968611 -0.5681548 -0.8547419
000010 a1 b1 1e bf 6f d0 92 bf 9b 35 f4 3d
       -0.6198979 -1.1469859 0.11924287

weight f4 [7, 64]
000000 f6 9f f1 3d ea bb f2 3e a5 1c 87 bd 0c 35 0d bd
       0.11798088 0.47408992 -0.065972604 -0.034474418
000010 1d b8 a8 3e 80 0c 56 be 0f ba 34 bc c3 e8 83 3d
       0.32952967 -0.20903206 -0.011030688 0.0644088
000020 8b 5a 36 3d 77 9a 2e 3d e2 0a fc 3c cc 22 76 3e
       0.044519942 0.042627778 0.030766908 0.24036711
000030 68 38 77 3e 0c 23 9a bd 49 ba d2 3d 02 e8 10 3e
       0.24142611 -0.07526216 0.10289437 0.14151004
000040 4f 0f b3 3a 7c 3a 04 3d 5f 9d b5 3f 55 91 c0 3d
       0.0013661179 0.032282338 1.4188651 0.0940272
000050 54 eb ca bd ad 0f 3d b9 1a 56 8a 3d a7 1c 40 3d
       -0.099081665 -0.00018030284 0.06754704 0.046902325
000060 8d ef 50 3e e3 75 c1 3e cb 88 48 3e 43 4e b3 3d
       0.20403881 0.37785253 0.19583432 0.087551616
000070 8c 6d f0 3c 7b 53 e1 3c b3 a0 d5 bc 93 78 28 bd
       0.029349111 0.027505627 -0.026077604 -0.041130614
000080 59 cd 01 3d ec 7d 87 3e 79 c6 1c bc 53 df 07 3d
       0.031689975 0.26463258 -0.009568804 0.033171963
000090 bc 3f af 3b 04 f7 26 bd 69 ce d0 3d 01 ed 2e 3b
       0.005348174 -0.040762916 0.101956196 0.0026691558
0000a0 54 99 3b bf a7 35 b4 3d 43 7d 07 be eb 61 52 bc
       -0.73280835 0.08799296 -0.13231377 -0.012840728
0000b0 bb cb 7d bc 1c f8 94 bd e7 0e 08 3e ab c0 8f 3d
       -0.015490468 -0.072738856 0.13286935 0.070191704
0000c0 ca 8c 83 bc 7a 38 97 3c 3b c6 27 bd ef b6 7a 3d
       -0.016058344 0.018459547 -0.04096053 0.061209615
0000d0 41 a8 db 3d 6b 3d 87 be 99 62 e1 3d 57 1b e6 3e
       0.10725451 -0.26414046 0.11005134 0.44942734
0000e0 af 40 81 3f 6b 01 c5 3d 5d 99 a1 bc 69 e4 a6 3c
       1.0097865 0.09619411 -0.01972645 0.020372586
0000f0 17 78 5b 3d be ab 51 3d b9 35 18 3e cc 0e e8 bd
       0.053581323 0.051189177 0.14864244 -0.11330947
000100 d4 04 3d 3e 07 be 03 bd 9d a3 1b be 76 df 96 3d
       0.18458873 -0.032163646 -0.15199132 0.073668405
000110 62 4e dd 3e f3 11 06 3f 09 3f 7e 3c d4 10 ea bd
       0.43223864 0.5237114 0.015517958 -0.11428991
000120 3c 47 9a 3d 5a 7e d8 3c 97 75 9e 3d 1c 11 5c 3c
       0.07533118 0.026427437 0.07737272 0.013431814
000130 1a 52 7b 3e 69 96 f9 3d 8a 65 76 bb 9f d8 3b 3e
       0.24543038 0.121868916 -0.0037597143 0.18344353
000140 f2 69 b3 3c 90 48 b7 3a 2f e6 19 3f 4b b3 16 3e
       0.021901105 0.0013983417 0.6011686 0.14716832
000150 2f 94 b2 3b e7 86 92 bc b2 d0 43 3d 75 51 8f 3d
       0.005449794 -0.017886592 0.04780645 0.069979586
000160 7f 3b 50 3e e3 b8 08 3f 4f 9c 53 3e b1 db e2 bb
       0.20335196 0.53407115 0.20665096 -0.006923162
000170 ec 9e 3c 3e 67 da 01 bd e6 0f 5e bc 1c d6 02 3e
       0.18419999 -0.031702425 -0.013553595 0.12776989
000180 27 15 ec bd 10 e0 f7 bd 45 9c 4e bd fd c3 c4 3c
       -0.11527472 -0.121032834 -0.050442 0.024019236
000190 fc 3a cd bd c4 d6 50 3d d2 5b 30 3f 6a 48 2b 3d
       -0.10021016 0.050986066 0.68890107 0.041817106
0001a0 a2 e9 e4 3e 0d 05 6c bc 65 74 2e 3b e8 3d e6 3c
       0.44709498 -0.014405501 0.002661967 0.028105691
0001b0 b0 0c 27 3e 7f c1 7d 3d d6 ab 01 3e 3c 1f ec 3d
       0.16313434 0.06195211 0.12663206 0.11529395
0001c0 e6 9d d9 3c 60 38 38 3d 89 92 54 bd 7a d9 9a 3d
       0.02656455 0.04497564 -0.05189756 0.075610116
0001d0 17 9d b1 3e 55 bc 77 bd 30 d6 2b bc 08 3d 5f 3e
       0.34690163 -0.06048234 -0.010488078 0.21800625
0001e0 71 4a 16 be a2 a7 b4 bd e7 20 35 bc b7 13 bc bd
       -0.14676835 -0.08821036 -0.011055208 -0.09183448
0001f0 6c d1 9c 3c 32 ed a0 bc 5c ab 82 3d 20 50 10 bc
       0.019142829 -0.019644354 0.063803405 -0.008808166
000200 cb 13 46 be 06 b6 1f bc ac c4 2c bd f5 03 16 bd
       -0.19343488 -0.009747988 -0.04217975 -0.036624867
000210 3c 53 ef be f9 27 d4 be 7d 27 14 bd 91 cd ad 3d
       -0.4674319 -0.41436747 -0.03617047 0.08486474
000220 07 e5 7c 3c c3 fb df 3c 74 3a e8 3c 86 db 13 be
       0.015435464 0.027341729 0.028348185 -0.1443921
000230 73 f8 65 3f c2 72 a0 bd f7 26 a6 3d 13 47 d7 bd
       0.8983223 -0.07834388 0.08112901 -0.10511603
000240 2d 1a 9f bd 10 ac 9a bd a2 4b 40 3f da 87 6a bd
       -0.077686645 -0.075523496 0.75115407 -0.057258464
000250 fd 50 2f bd b7 e4 d1 3b 04 0f fa bb 3f e0 5e 3d
       -0.042801846 0.0064054388 -0.0076311845 0.054413076
000260 51 d2 56 3e 4b d8 dd 3e 5a cb 53 bd 7b 1c 8f bd
       0.20978667 0.4332908 -0.051707603 -0.06987854
000270 a0 9d 2d 3e 64 02 1e 3d b0 83 31 3d 3b 78 c2 3d
       0.1695466 0.0385765 0.043338478 0.094955884
000280 8f 13 60 bd 75 43 d6 3d 72 cb 2f 3c f3 a5 f7 3d
       -0.054706153 0.10462085 0.0107296575 0.12092199
000290 7a 78 0a bd 9d a8 99 bb 76 87 00 3d 2d 80 fa 3d
       -0.0338063 -0.0046892897 0.031379186 0.12231479
0002a0 71 a5 1a 3f 53 b8 16 3e 73 c9 0b 3c 2e ca c4 bd
       0.60408694 0.14718752 0.008531916 -0.09608875
0002b0 03 71 5e bb c0 01 02 3d d7 b7 d1 3c 54 ae ea 3d
       -0.0033941872 0.03173995 0.025600357 0.11459032
0002c0 68 cf 95 bc 30 44 60 ba 36 60 cd bc 55 cc ff 3d
       -0.018287376 -0.00085550826 -0.025070291 0.12490145
0002d0 ec 1a 82 3e d2 ae 6a bd 49 4a 11 3d 00 69 0a 3f
       0.25411165 -0.057295628 0.035471234 0.5406647
0002e0 85 6b 4d 3e de 60 1a be 32 ee 28 3d 3b cf 60 bd
       0.20060547 -0.15076014 0.041242786 -0.05488513
0002f0 48 07 be bd 74 c8 61 bd f4 c8 0b 3e 79 f2 0d 3e
       -0.092787325 -0.055122808 0.13650876 0.13862027
000300 18 e5 2c 3e 4d c6 66 3f e4 c8 56 be b8 e9 c8 3d
       0.16884267 0.9014633 -0.20975071 0.09810203
000310 9e c6 09 3e 9a b5 5f bd 21 52 82 bb 5a 12 ad bc
       0.13454673 -0.054616548 -0.0039770757 -0.021126915
000320 bb 2e ec 3c 3a 22 0d 3d fb a2 30 bd d3 bb 96 be
       0.028830877 0.03445647 -0.04312418 -0.29440174
000330 91 23 ac 3e f3 90 dc bd 0a 08 a1 bd 7a 61 05 3e
       0.33620885 -0.10769834 -0.078628615 0.13025466
000340 d5 a9 5f bd 58 10 b3 3d e9 61 a4 3c 0b d2 53 be
       -0.054605324 0.08743352 0.020066218 -0.20685594
000350 ee 1f 78 bd c6 27 31 be 0f 6f 9e bc 94 72 ec 3c
       -0.060577326 -0.17300329 -0.019340066 0.028863229
000360 55 3f 7e bc f4 ed 06 3f d5 e9 f7 3e 97 c4 20 3d
       -0.015518029 0.5270684 0.48420587 0.039249983
000370 c6 ca cb 3d 24 8c 27 bd 91 ab ee 3c 22 60 ed 3d
       0.09950785 -0.040905133 0.029134544 0.115906015
000380 c2 0b d0 3d 3c 97 5a be a1 3b f3 3d 88 af 19 3d
       0.101584926 -0.21346754 0.11876608 0.037520915
000390 07 b6 ec bc 84 18 d4 bc fc 40 ef 3e d7 bb 37 3d
       -0.028895391 -0.025890596 0.46729267 0.044856872
0003a0 33 38 7b be 74 3c 7a 3e e3 82 4e bd cb 5c a9 3d
       -0.24533157 0.24437124 -0.050417792 0.08269652
0003b0 e2 16 d7 bc 15 0a 2c 3d 19 85 e9 3d d3 f7 98 3d
       -0.026256029 0.042001802 0.114023395 0.07469144
0003c0 59 9c 91 bd 90 75 2a bc 16 0f 3a 3d 11 bc e2 3d
       -0.07109899 -0.010404006 0.045424543 0.11071027
0003d0 1c 73 05 bd 7a 35 32 3d e1 ac 4f 3d 98 c0 98 be
       -0.03258048 0.04350803 0.05070198 -0.29834437
0003e0 44 02 74 3e 00 e6 0d 3e 55 7b 26 3e b4 7a 93 bd
       0.2382899 0.1385727 0.16257985 -0.07201138
0003f0 b3 5d a1 bc 66 8c 12 be 63 94 94 3d 67 e8 01 bd
       -0.019698 -0.1431137 0.07254865 -0.031715777

bias f4 [7]
000000 f2 da 12 c0 6e dc 21 c0 ec 3a 18 c0 74 c4 2f c0
       -2.2946134 -2.529079 -2.3785963 -2.7463655
000010 6f c1 00 c0 57 13 31 c0 d1 dc 2e c0
       -2.0118062 -2.7668054 -2.7322276

weight f4 [64, 14]
000000 1c 0a 04 3f f9 6c cf 3f aa 2c 4d c0 76 7f fb 3d
       0.51577926 1.6205131 -3.205851 0.122801706
000010 04 22 e9 3f 0a 10 e9 3e 5d 59 b6 3e c4 af b4 be
       1.8213506 0.4552005 0.35615054 -0.3529035
000020 fa 1c 19 bf 98 55 cc 3d d4 8a e3 bf d4 be 0c bd
       -0.5980984 0.09977263 -1.7776742 -0.034361675
000030 b4 44 b5 bf 56 e3 d5 be 66 72 09 40 25 86 9d 3f
       -1.4161592 -0.41775006 2.1476073 1.2306563
000040 21 fe b2 c0 cf fb 5a bd 9e 4f cf 3f 14 af d2 be
       -5.5935216 -0.0534628 1.6196172 -0.411492
000050 75 a8 63 3c ac 1c 06 3f 6b e9 8d 3d 95 38 29 3f
       0.013895144 0.523875 0.069292866 0.6610196
000060 08 ce d5 3e 4e 9c dc 3e f6 a3 43 3f 01 07 bb 3f
       0.41758752 0.43088 0.7642206 1.4611512
000070 60 3c 55 3f 8c 9a 8c 3c b8 8a dd 3f 53 fa 99 3d
       0.8329525 0.017163537 1.7307959 0.07518449
000080 45 f1 8a 3f 4e a8 51 be 19 8a bc be aa cc 0c 40
       1.085488 -0.2047436 -0.3682411 2.1999917
000090 b2 28 47 3f 09 75 cd 3f 34 bb 69 3e 57 b6 e8 3f
       0.7779647 1.6051341 0.22825319 1.8180646
0000a0 fc 0d 80 3f 17 e1 12 40 e1 50 cc bf 48 6c 73 3f
       1.0004268 2.2949884 -1.5962182 0.950871
0000b0 67 4c cd 3d 6b 11 08 3e 22 d4 36 c0 17 54 89 3c
       0.10024338 0.13287894 -2.8566976 0.01676373
0000c0 96 6b 11 bf 0e 6f 1a 3f 0b d2 82 3e 89 79 33 3e
       -0.5680479 0.60325706 0.25550875 0.1752683
0000d0 45 99 a1 bd 31 d3 64 3e 36 cd 2d 3f 44 0f 8a be
       -0.07890562 0.22346188 0.6789125 -0.26964772
0000e0 88 89 d8 3e cb dd 5e 3f ac ad a8 3f ce 00 93 3d
       0.42292428 0.8705718 1.3178 0.07177888
0000f0 17 68 c2 3f 67 40 a6 3f b3 d5 63 bf 93 68 4f 3f
       1.5188016 1.2988404 -0.88997954 0.8101894
000100 4c 45 36 3f 2d df 18 3f c6 6d bb bc 0b 97 47 3e
       0.7119949 0.5971554 -0.022879492 0.19491212
000110 c8 25 92 3f 6d f2 f1 3f 2a 08 6f 3f c6 fc a9 bc
       1.141778 1.8902107 0.9337183 -0.020750415
000120 f8 0b b8 be 33 68 eb 3d 8b 0f ea 3f 2d 6b f2 3e
       -0.3594663 0.11494484 1.8285993 0.47347394
000130 8d 1b 68 3e 86 d3 84 3e 19 cd 5b bf 94 06 a4 3e
       0.2266676 0.2594263 -0.8585983 0.3203627
000140 34 cc 19 3f c4 6c dd 3e f9 10 46 3f f8 cc 93 3d
       0.60077214 0.43247044 0.7736965 0.07216829
000150 7e f2 85 be 1c f7 ea bd 32 e3 5d be 90 1d 58 3e
       -0.2616157 -0.114729136 -0.216687 0.21105027
000160 c4 e1 30 c0 26 ca ea 3e 2c e1 2a 3f 47 ab 48 3f
       -2.7637796 0.45857352 0.66749835 0.7838635
000170 14 b7 c5 3c 96 a0 21 3e 0e 57 a2 3e 56 52 53 3e
       0.02413515 0.15783915 0.31707042 0.20636877
000180 d9 6e 8a 3f e1 cf c1 3f 4c e9 29 3f ee c1 dd 3f
       1.0815078 1.5141565 0.6637161 1.7324808
000190 48 0f 46 c0 92 33 84 bf 1b ef 8a 3f d5 73 a3 3f
       -3.0946827 -1.0328238 1.0854219 1.2769724
0001a0 92 7e 2c bf 67 12 e5 be 52 3c 8d 3d 15 71 8e be
       -0.6738063 -0.44740602 0.06896271 -0.2782065
0001b0 bd 4f 9f bf c7 ae f5 bf b0 04 de bf e7 b2 57 bf
       -1.2446209 -1.9193963 -1.734518 -0.8425736
0001c0 7c 7f be 3f 8a d9 d6 be 0a 5c 1a 3f 80 96 c7 bc
       1.4882655 -0.41962844 0.6029669 -0.024363756
0001d0 1b 8e e1 be ad 51 8b bd 62 a6 3a 3f 8b 43 84 3e
       -0.4405373 -0.06802688 0.7291013 0.2583278
0001e0 90 ea 31 3f c3 c0 72 3e e1 90 f8 be 0c ef 95 3e
       0.6949854 0.23706345 -0.48548034 0.2928394
0001f0 9a e0 15 3f 86 a7 00 3f 4c f1 13 be b2 57 12 3c
       0.5854584 0.5025562 -0.14447516 0.008932041
000200 24 59 a6 bd c6 08 0e 3e c5 22 0d c0 d5 7d 99 3e
       -0.08122471 0.13870534 -2.2052472 0.29978815
000210 b0 f0 00 bf b0 67 ce 3c e7 4a e2 bd 1d 8e e8 3e
       -0.5036726 0.025195926 -0.11049443 0.45420924
000220 78 e3 d6 3d 2a c6 97 3d ef 3f 1c 3f 51 43 a1 3f
       0.10492605 0.07410844 0.61035055 1.2598668
000230 42 51 20 3e 6a 6e c1 3d f8 2a 37 3e 74 f1 53 3e
       0.15655997 0.09444888 0.17887485 0.20697576
000240 93 24 40 c0 91 fe 32 3f 5a 5e 34 3f 80 71 7c 3e
       -3.0022323 0.6991969 0.7045647 0.24652672
000250 a6 1d 93 3e 6c c0 0a 3c 2a f2 39 3f d0 8a 93 3f
       0.28733557 0.0084687285 0.7263514 1.1526737
000260 c8 6e 97 3f 74 47 82 3f 2d 92 1d be 1d cd 5d 3f
       1.1830683 1.0178056 -0.15387793 0.86641103
000270 1e 2f 0c 40 52 5b 07 3e f6 43 65 bf ab e6 48 be
       2.1903758 0.1321843 -0.89556825 -0.19619243
000280 87 40 dd 3e ea 22 1a 3f ae 58 89 3f 38 23 84 3e
       0.43213293 0.60209525 1.0730188 0.2580812
000290 df 06 58 3f 7c bc 1e 3f 30 0e ba 3f 8a 48 e1 3f
       0.84385484 0.62006354 1.453558 1.7600262
0002a0 aa 6a 37 40 c9 26 a8 bf fb 0b da 3f a9 07 9a 3f
       2.8658853 -1.3136836 1.7034906 1.2033588
0002b0 e2 c3 22 3c bd 12 aa be 18 7e 75 be 1e 6f 1f bf
       0.009934397 -0.3321742 -0.23973882 -0.62278926
0002c0 ea 17 0c 3e 3e 42 d3 be 12 8b 03 3f 79 71 b3 be
       0.13680997 -0.41261476 0.5138408 -0.3504751
0002d0 22 22 c8 be 06 6d 98 bf 8c 8b 97 3d ca 58 ca bb
       -0.3908854 -1.1908271 0.07399663 -0.0061751353
0002e0 d7 ec b4 3e e4 2e 0c be 87 6d e2 bf 32 02 bb 3e
       0.35336944 -0.13689762 -1.7689675 0.36525112
0002f0 dd 22 66 3f 2b 01 31 3f ce 35 da 3e 3e 13 8a 3f
       0.8989695 0.6914241 0.42619175 1.0787122
000300 8c 7f b2 3f 12 c5 d0 3e 6f 94 57 3f e2 e7 9d be
       1.3945174 0.40775353 0.84210867 -0.30840975
000310 b7 f0 6d bf 37 82 22 40 4d dd e0 40 b1 3e 28 be
       -0.92945427 2.5391977 7.0270143 -0.16430165
000320 1a 14 58 bf 5a 7d 00 bf e0 03 49 3d b1 17 e1 3d
       -0.8440567 -0.5019127 0.04907596 0.10990847
000330 60 16 73 3e d8 7d 9f 3e 92 1d 1d 3d 48 d5 09 3e
       0.23739004 0.311507 0.03835828 0.13460267
000340 e0 c3 7b be b2 4d 9c be 0c cc 83 3d b2 da 11 3e
       -0.24586439 -0.30528027 0.06435403 0.14243582
000350 ea b3 67 c0 7c a5 03 c0 d9 11 db 3f 1f 46 ba 3f
       -3.620356 -2.0569754 1.7114822 1.4552649
000360 7a ae 1d be 2e 60 a3 3e 5d 21 ab be 7c 09 6e bf
       -0.15398589 0.31909317 -0.33423892 -0.9298322
000370 53 0a 91 bf 02 4d f0 3e af 14 30 be c8 c0 87 3f
       -1.1331276 0.46933752 -0.1719539 1.0605707
000380 d1 75 b9 bf c6 25 3d 3f 5b ad 82 be df 93 5b 3e
       -1.448908 0.7388576 -0.25522885 0.21443127
000390 42 8b 80 bf 9c 12 46 bc 8e 80 9f bf 41 50 1b 3f
       -1.0042498 -0.012089398 -1.2461107 0.6066933
0003a0 0b dd 23 bd b3 a4 eb bd e5 f4 07 be 7d c5 fa 3d
       -0.040005725 -0.11506023 -0.13277014 0.12244699
0003b0 a4 69 19 3f 44 7b 1b 3f 30 77 30 be f3 fa 28 3e
       0.5992682 0.60734963 -0.17232966 0.1650198
0003c0 87 ae b3 be 33 ee 65 3e d8 7c 43 c0 21 f0 7c 40
       -0.3509409 0.22454147 -3.0544949 3.9521563
0003d0 1a 15 7d 3f 78 80 02 be 97 84 a0 be c2 1a 5b 3e
       0.98860323 -0.1274432 -0.31351158 0.21396926
0003e0 b0 65 41 be 06 f1 4d be f0 5e 29 3f ca 4d 85 3f
       -0.18886447 -0.20111474 0.6616049 1.0414364
0003f0 cc e1 32 40 bd 2d da 3f b4 29 63 c0 02 67 6a bf
       2.7950315 1.7045208 -3.5494204 -0.9156343

bias f4 [64]
000000 c8 73 d5 c0 92 97 ce 3f ea 67 1d c0 f2 be 80 40
       -6.6703835 1.6140006 -2.4594674 4.0233088
000010 78 3f 63 40 43 7b 64 c0 42 af 5f 40 8b 4e a5 c0
       3.5507488 -3.5700233 3.495072 -5.165838
000020 c3 1e a7 3f 19 8e 69 40 32 04 ab 40 69 b1 42 40
       1.3056263 3.649298 5.344262 3.0420783
000030 8c a4 51 3f f3 7e a4 40 13 17 f3 3c 26 a6 a8 be
       0.81891704 5.1404967 0.029674089 -0.3293926
000040 54 8a 7a 40 21 3c fe 3f 9d 92 df bf c3 79 9c 3c
       3.9146929 1.98621 -1.7466618 0.01910103
000050 2b bc af c0 f1 30 9f 3e 3e 56 72 40 4e 09 18 c0
       -5.4917197 0.31092027 3.7865138 -2.375568
000060 72 90 35 40 26 08 ca c0 cf 12 93 40 55 ed b0 3f
       2.8369412 -6.3134947 4.596046 1.3822428
000070 c4 35 2b 40 9d 77 9a 40 26 f5 b3 3e 33 fd f3 3f
       2.6751566 4.827101 0.3514797 1.9061645
000080 19 c2 43 3f fb d0 69 40 68 79 1c 40 58 ce 91 40
       0.76468045 3.6533802 2.44491 4.5564384
000090 c6 56 8e 40 6f ca 0c c0 f6 e5 9f c0 fe 6d e7 3f
       4.4480925 -2.1998556 -4.9968214 1.8080442
0000a0 5b fa 9e c0 d7 f7 1b 3f 20 51 bd c0 a7 95 4e 40
       -4.968061 0.6092505 -5.916153 3.227884
0000b0 29 ba 13 40 b5 74 27 40 29 da 41 3f 7c 70 b2 3e
       2.3082373 2.6164982 0.7572351 0.34851444
0000c0 ca 27 8c 40 91 e0 0e c0 0b 20 a1 3f 61 25 ac c0
       4.379857 -2.2324564 1.2587904 -5.379563
0000d0 80 3a 42 40 72 4e a1 c0 48 ad 9e 40 95 4b b8 c0
       3.0348206 -5.040826 4.9586525 -5.7592263
0000e0 96 3b 72 c0 b9 ad 5a 3f ac f4 53 40 44 04 7c 40
       -3.7848868 0.8542133 3.3118086 3.9377604
0000f0 51 75 3b 3f 3b ff fb 3f 26 2f 99 bf 17 f2 60 40
       0.73225886 1.9687265 -1.1967514 3.514776

weight f4 [64, 64]
000000 59 82 97 bd a4 e3 61 bc 80 64 79 bd 3f 19 05 be
       -0.07397909 -0.013787184 -0.06088686 -0.12997912
000010 51 21 a6 bd d8 83 2c 3d fc 61 2b bc 51 e8 db 3d
       -0.08111823 0.042117923 -0.010460373 0.1073767
000020 18 0f 58 bd a7 0f b3 bd b1 a1 19 be c4 ce ca bd
       -0.05274877 -0.0874322 -0.15003087 -0.09902719
000030 df 53 a0 3d 0c 4f 03 be 64 a6 99 bd f8 5b ad 3c
       0.07828497 -0.12823123 -0.075024396 0.021162018
000040 57 8f ad 3d e7 62 17 be 2b 71 aa bd 1e 7f bb 3c
       0.084746055 -0.14783822 -0.08322366 0.022887763
000050 e2 f0 db 3b ae 8a 91 bd ad ea 27 be bf d9 c2 bd
       0.006712065 -0.07106529 -0.16398115 -0.09514188
000060 21 e8 de 3c 6e 40 8e bd d9 10 1c be 89 bc 9f 3d
       0.027210297 -0.06945883 -0.15240802 0.07799632
000070 e0 c9 34 3c b1 8e 94 bd 95 76 43 3c 7d d4 a6 bd
       0.011034459 -0.07253779 0.011930128 -0.08145998
000080 f3 e2 bd bd 55 c5 04 be 9c 22 24 3c 68 94 04 be
       -0.09271803 -0.12965901 0.010018017 -0.12947237
000090 68 3d e0 bd 8e e5 07 3d d4 39 a1 bd 03 c5 63 bd
       -0.10949212 0.033177905 -0.07872358 -0.055607807
0000a0 00 53 17 3a 0e ce fc bd b4 92 00 be 3a e3 ea bd
       0.0005772561 -0.12343989 -0.12555963 -0.11469121
0000b0 b9 7d 6e bd 7e b8 e9 bd 00 20 be 3d 59 a2 86 3d
       -0.058225367 -0.11412142 0.09283447 0.06573934
0000c0 e9 98 4a 3d e3 69 fa bd 64 f8 c1 bd 76 01 8e 3d
       0.049462233 -0.122272275 -0.09471205 0.069338724
0000d0 39 d7 03 3d 2d e4 c0 bd 35 f9 3b 3d ea bf 82 bd
       0.032187674 -0.09418521 0.04589196 -0.06384261
0000e0 81 8c d8 3d 17 2b 2d be 7f c4 4a 3d fe c9 ae bc
       0.10573674 -0.16910969 0.0495038 -0.021336552
0000f0 4c b8 fa bd b3 e8 4e 3d 89 58 dd bd 96 01 38 bc
       -0.12242183 0.050514888 -0.10807902 -0.011230847
000100 0b 7c 0b bf 59 48 d5 bf d8 0b 84 c0 fb d1 8c 3c
       -0.5448615 -1.6662704 -4.126446 0.01718997
000110 ad 0f 11 3f 45 92 b9 bf 17 7a 7f 3f bf 25 81 be
       0.56664544 -1.4497763 0.9979567 -0.2522411
000120 52 32 3c 3f b5 e8 83 3f cb 75 8b 3f 47 a1 0d 3f
       0.7351428 1.0305392 1.0895323 0.55324215
000130 e1 64 bf 3e 7b ca 6f 3f 50 95 02 3d 3a c5 b8 c0
       0.37381652 0.93668336 0.031880677 -5.7740755
000140 9c 7b 3e 3e 17 0d 08 bf 00 8d 3f c0 a2 25 89 3f
       0.1860184 -0.53144974 -2.992981 1.071461
000150 e2 cf 33 c0 f8 64 eb bd 03 0e 35 3f 88 8a 45 c0
       -2.8095632 -0.11493868 0.70724505 -3.0865803
000160 1f 5a 64 3f 62 c0 8a bf 01 1c a5 3f fa 37 65 bf
       0.89200014 -1.083996 1.2899171 -0.8953854
000170 20 b8 5f 3f 28 cb 86 3f 3a 8c e0 bf 8c 73 1e 3e
       0.8739033 1.0530748 -1.7542794 0.15473765
000180 bb a9 7a 3f cb 06 82 3f 48 3a 29 be 38 04 59 3f
       0.9791524 1.0158323 -0.16526139 0.8477206
000190 15 4f 6c 3f e4 a4 13 c0 6d 68 0b c0 29 d7 a8 bd
       0.9230817 -2.3069391 -2.1782486 -0.082441635
0001a0 c4 fd 70 bf 63 05 16 bf 1e f4 0f c1 a5 14 0d 40
       -0.94137216 -0.5860197 -8.997099 2.204385
0001b0 59 7b 88 3e d3 eb 06 3f d2 ce 0c bf 6b c7 9e 3e
       0.26656607 0.5270359 -0.5500308 0.3101152
0001c0 16 55 38 3f b2 4e 1a be f4 10 51 3f 67 78 d8 be
       0.7200483 -0.15069082 0.81666493 -0.4227936
0001d0 31 df 5f 3f c8 35 80 be 04 0f 85 3f e9 29 2b 3f
       0.8744994 -0.25041032 1.0395207 0.66860825
0001e0 3b 18 d4 bf 83 02 e9 bf ed 17 1d 3f 4b 07 77 3f
       -1.6569895 -1.8203892 0.6136463 0.96495503
0001f0 e1 37 1b 3d 43 49 19 40 bf 33 a0 bd 93 e9 d2 3d
       0.037895087 2.3950965 -0.0782237 0.10298457
000200 9c 8d 85 bd 08 c2 82 bc 4b 7d 1f be d5 65 cc 3a
       -0.065211505 -0.015961662 -0.15575139 0.0015594313
000210 73 64 09 be 20 c9 0e bb eb 78 93 3d 73 c0 8d 3d
       -0.13417225 -0.002178736 0.07200798 0.069214724
000220 b4 0d 7b bd 43 9a bf 3d ae c1 cf bc 74 f0 bb bd
       -0.061292365 0.09355595 -0.025360908 -0.09176722
000230 07 c9 51 3c 2f c4 fe bc 6e 13 05 be 5e ce 2b 3d
       0.012804276 -0.031099407 -0.12995693 0.041944854
000240 71 fa cc 3d 73 6a 71 3b 83 7d 25 bd 62 44 fe bd
       0.100087054 0.003683713 -0.0404029 -0.12415387
000250 67 62 66 3d cc 1f 64 be 1f 52 df bc 3b 1a 1f be
       0.056246188 -0.22277755 -0.027260838 -0.1553735
000260 52 02 09 3d 59 cb fa 3b be 2a 93 3d b7 d6 6c 3c
       0.03344948 0.0076536355 0.07185887 0.014455489
000270 fc 54 29 be ad ce 11 3d 53 ca ee bd cf 13 d8 bd
       -0.16536325 0.035597492 -0.11659684 -0.10550653
000280 fa 5c 31 3d de 40 b5 bd 11 50 66 3b 2e f0 f5 bb
       0.04330156 -0.08850263 0.0035142938 -0.0075054383
000290 aa cb 44 bc c8 43 eb bd 49 4f 29 3d 7a 9d 11 bd
       -0.012011448 -0.114875376 0.041335378 -0.035550572
0002a0 00 17 3e 3d e0 76 6e 3c b9 68 df bd c7 00 c0 bd
       0.046408653 0.014554709 -0.10908646 -0.09375148
0002b0 ee d1 39 3d 0f 9a 1d be 56 7f 4a bd 6a 41 1c be
       0.04536622 -0.153908 -0.049437843 -0.15259328
0002c0 f3 ac c4 bd e3 ab e7 bc 83 a9 4f bd 35 51 c9 3c
       -0.096033 -0.028280204 -0.05069877 0.024574855
0002d0 97 0a 28 3d 57 4d 9c bc 19 08 c9 3d 4a 03 89 bc
       0.041025724 -0.019079847 0.09815998 -0.016725201
0002e0 5c f1 8f 3d 91 c9 de bc 54 74 bf bc ba 56 43 bd
       0.070284575 -0.027195724 -0.0233709 -0.04769013
0002f0 13 c0 f1 bd 65 2a 69 3d d8 93 8c 3d 1b b4 04 be
       -0.118042134 0.056925196 0.068641365 -0.1295933
000300 e5 7e 61 bf 84 7e 85 bf d2 fb 19 bf e7 fc 0d 3f
       -0.8808425 -1.0429235 -0.6014987 0.55464023
000310 0c 28 36 bf 2d 09 3f bf 49 3d ff 3e 99 15 2f bf
       -0.71154857 -0.74623376 0.49851444 -0.6839233
000320 c5 0b d4 3e ee d3 c9 3f 09 c6 87 3f ce 7f a3 3f
       0.4141523 1.5767801 1.060731 1.2773378
000330 0e 39 61 3e 59 00 ad 3f 5d d3 ae 3f d7 97 eb bf
       0.21994421 1.3515731 1.3658253 -1.8405713
000340 25 af ab 3e 36 6f 90 3f 77 0e 11 be bc d6 8f bf
       0.33532062 1.1283939 -0.14165674 -1.1237407
000350 f0 4f 0f bf 0d 8a 4f 3f 6e 39 ea 3e 5e a0 7d bd
       -0.5598135 0.81070024 0.4574694 -0.061920516
000360 fa 30 1b c0 78 a3 8c bf 8a 7a 69 3f f7 9c b9 bf
       -2.4248643 -1.0987387 0.91202605 -1.4501027
000370 38 a3 08 3f b4 a3 a6 3f fe fc 10 3f be 51 b2 bf
       0.5337405 1.3018708 0.56636035 -1.3931196
000380 40 93 4d bf 1e 2b 0e 3f 59 88 be bf 96 8c 6a 3f
       -0.8030281 0.5553454 -1.488536 0.9162077
000390 41 f5 10 3f 44 3f f3 bf b0 7f bb bf f7 68 99 3f
       0.5662423 -1.9003682 -1.4648342 1.1985158
0003a0 f7 4b ad bf ea b6 2a 3f cf 86 f0 bf b9 25 cf bf
       -1.3538808 0.66685355 -1.879114 -1.6183387
0003b0 15 58 e8 bf 46 5f cb bf 77 6e 1f 3f 5e 60 fa 3e
       -1.815188 -1.588845 0.6227793 0.48901647
0003c0 45 64 89 3e 05 95 2c bf ed a9 94 bf 9d c0 40 bf
       0.26834312 -0.67414886 -1.1614357 -0.75293905
0003d0 60 4a 4a 3e 13 83 89 bf 48 32 a2 3e f0 bd d0 bf
       0.19754934 -1.0743126 0.31678987 -1.6307964
0003e0 d3 da 56 bf 08 9c 0a 3f 3a cc 90 3f 71 2b 9a 3f
       -0.8392765 0.54144335 1.1312325 1.2044507
0003f0 3d 5b eb 3f 81 54 d8 be 60 c1 5d bf fb 09 0e 40
       1.8387219 -0.4225197 -0.8662319 2.2193592

bias f4 [64]
000000 2a 29 53 bd 38 18 05 40 df 12 62 3a 25 3e 36 40
       -0.05155293 2.0796032 0.0008624028 2.847543
000010 70 9a 8e 3d 6d 60 26 40 b2 0c 21 40 29 55 36 40
       0.0696305 2.5996354 2.5163999 2.8489478
000020 e3 c4 38 40 66 f0 39 40 6b c8 c7 3f 4c 08 42 40
       2.887017 2.9052978 1.5608038 3.0317564
000030 04 2e 7f c0 01 87 28 40 71 ba 30 40 8b 46 44 40
       -3.9871836 2.63324 2.7613795 3.0668056
000040 89 2c 99 bd 92 ff 51 bc cf c4 10 be 44 de 34 40
       -0.074791975 -0.01281728 -0.14137577 2.826066
000050 6c 45 22 40 c6 ad ff 3f 6f 9d d1 3f cd 19 34 40
       2.5354872 1.9974906 1.637617 2.8140748
000060 87 b9 28 be 32 1a c0 3f ee be f7 bf c1 28 2d 40
       -0.16477023 1.5007994 -1.9355142 2.7056124
000070 4a 14 3a 40 12 5a 45 40 d2 9e 95 bd 91 84 7a c0
       2.9074883 3.0836225 -0.07305683 -3.9143412
000080 da 43 c7 bd 16 e1 f6 3e eb dc eb 3f ea 34 36 40
       -0.097297385 0.48218602 1.8426794 2.8469796
000090 d2 94 4a 40 f0 d2 15 40 e4 83 eb 3f b4 08 24 40
       3.1653333 2.3409996 1.8399625 2.5630312
0000a0 9f 9a 2d 40 b9 fb 4d 40 e2 9f 33 40 0c ef 3b 40
       2.7125623 3.218489 2.8066335 2.9364653
0000b0 b5 8c 38 40 26 b6 d1 3f 23 3d 9c 3f 79 ac 37 40
       2.883588 1.6383712 1.2206157 2.869902
0000c0 20 99 08 3f 9a 8a 2b 40 92 83 6b c0 f5 96 ca 3f
       0.5335865 2.6803346 -3.6799054 1.5827318
0000d0 bb fb 39 40 be a7 fd 3f 0c 57 75 c0 77 4c 45 40
       2.9059894 1.9816816 -3.833438 3.082792
0000e0 d0 8f 2e 40 88 ce f8 3f 07 cc 25 be e3 f7 26 40
       2.7275276 1.9438028 -0.16191112 2.6088798
0000f0 b6 f0 35 40 d5 37 10 c0 88 3f 31 40 1c be 30 40
       2.8428168 -2.2534077 2.7695026 2.7616034
