log_7_23/pyt_save/model.pt (torch_old, 70579 bytes, 18 tensors)

weight f4 [64, 7]
0	0x3e8540ef	0.26026103
1	0x3fbac890	1.4592457
2	0xbf07e90d	-0.5308998
3	0x3c072431	0.008248375
4	0xbe151186	-0.14557466
5	0x3f30a493	0.6900112
6	0xbdcf6455	-0.10126559
7	0x3fafd189	1.373582
8	0x3f115b09	0.56779534
9	0x3d15a1f2	0.036531396
10	0x3d701a48	0.058618814
11	0xbd9827d8	-0.074294746
12	0xbda25102	-0.07925607
13	0xbcccb95a	-0.024990726
14	0xbf6b407a	-0.9189526
15	0xbf43a3b0	-0.7642164
16	0x3ded92a8	0.11600238
17	0xbf67419a	-0.90334475
18	0xbe833194	-0.25623763
19	0x3e2246e1	0.1584735
20	0xbe63f5f1	-0.22261788
21	0xbeeddabf	-0.46455953
22	0xbec10fc7	-0.3770735
23	0x3df5bf69	0.11999399
24	0x3e95a98d	0.2923092
25	0x3d23d0b8	0.03999397
26	0x3f462726	0.77403486
27	0xbefa186e	-0.48846763
28	0xbfdc3d95	-1.7206293
29	0xbeb2ef1c	-0.3494805
30	0xbdbba7f9	-0.091628976
31	0x3e5b80a2	0.21435788
32	0xbe7ade5d	-0.24498887
33	0x3e30eae9	0.17277111
34	0xbe327c55	-0.17430241
35	0xbf814b0f	-1.0101031
36	0xbef872f0	-0.4852519
37	0x3eb5e0f6	0.35523194
38	0x3dfde983	0.123980545
39	0x3e3b95e6	0.183189
40	0x3f3d015f	0.7383022
41	0xbea4020e	-0.32032818
42	0xbeb8d7a0	-0.3610201
43	0xbf47358b	-0.77816075
44	0x3c24a39d	0.010048774
45	0xbe2efff5	-0.17089827
46	0x3e74320a	0.23847213
47	0x3e3b3c12	0.18284634
48	0x3ce32107	0.02772571
49	0x3f88f51a	1.0699799
50	0x3f1978b4	0.59949803
51	0xbd9b104f	-0.0757147
52	0x3df3e6a2	0.11909224
53	0x3d512498	0.05106029
54	0x3f0da38d	0.55327684
55	0xbee0fbdf	-0.43942162
56	0x3f2b6c37	0.66962
57	0x3f97685e	1.1828725
58	0xbed10ef7	-0.4083173
59	0xbdea4e46	-0.11440711
60	0x3e2f1f8a	0.17101875
61	0x3d8a0ab2	0.06740321
62	0x3d1d3849	0.038383756
63	0x3ec06cca	0.37583
64	0x3f8c9984	1.0984349
65	0xbd58009c	-0.052734956
66	0x3bff754c	0.0077959653
67	0x3db35b20	0.08757615
68	0xbd0886c1	-0.033331636
69	0x3d10eb92	0.035380907
70	0xbf6e4db4	-0.93087316
71	0x3cb97ca6	0.022642445
72	0xbe73d8f2	-0.23813227
73	0xbfca6040	-1.5810623
74	0x3ea8668f	0.32890746
75	0x3f18506d	0.5949772
76	0x3da50ef1	0.080594905
77	0xbfb49d52	-1.411051
78	0x3ef0b9d5	0.4701678
79	0x3e65b4b7	0.22432218
80	0xbfbdee51	-1.4838353
81	0x3eabf069	0.33581856
82	0x3e6466d7	0.22304855
83	0x3c63a210	0.013893619
84	0x3eb61646	0.35563868
85	0xbf225c9f	-0.6342258
86	0xbea7c106	-0.32764453
87	0xbf7a71df	-0.97830003
88	0x3e14d642	0.14534858
89	0xbdb40389	-0.08789737
90	0x3e844e03	0.25840768
91	0x3e9a98bb	0.3019465
92	0x3fc9b22d	1.57575
93	0x3ea1c3aa	0.31594592
94	0xbdef9e28	-0.11700088
95	0xbe7b119d	-0.24518438
96	0x3dc5962b	0.09647783
97	0x3aba1ce6	0.0014199286
98	0xbf0b8247	-0.5449566
99	0xbf8004af	-1.0001429
100	0xbec6559a	-0.38737184
101	0x3eeb1679	0.45915583
102	0xbe28c1dc	-0.16480201
103	0x3e7b9171	0.245672
104	0xbf9b23e6	-1.212033
105	0xbf0402b7	-0.5156664
106	0xbfb6fbfb	-1.4295648
107	0xbefd5027	-0.49475214
108	0x3e7c34cd	0.24629517
109	0x3d687228	0.056749493
110	0x3debbf23	0.11511066
111	0xbe852720	-0.26006413
112	0xbe820632	-0.25395352
113	0x3f86b401	1.0523683
114	0x3eb223f5	0.34793058
115	0xbe93b638	-0.2884996
116	0xbdc0a778	-0.09406942
117	0xbe25506b	-0.16143958
118	0xbf27bef9	-0.65525776
119	0xbf2a052b	-0.66414136
120	0x3f325f68	0.6967683
121	0x3dbf759d	0.09348605
122	0xbf3a47fd	-0.72766095
123	0x3e37241a	0.17884865
124	0xbdf0129d	-0.117223
125	0xbf1d22a8	-0.61381006
126	0xbe6eb16b	-0.23309867
127	0xbe83a147	-0.25708982
128	0xbed22552	-0.41044098
129	0xbf34c5d9	-0.7061439
130	0xbda4a81c	-0.08039877
131	0x3cfff897	0.031246467
132	0xbd318602	-0.04334069
133	0xbef657cb	-0.48113856
134	0xbed73bd3	-0.4203783
135	0x3efa779d	0.48919383
136	0xbe2f96b3	-0.17147331
137	0xbd058e78	-0.032606572
138	0x3efaf714	0.4901663
139	0x3ed18456	0.40921277
140	0x3f7707d3	0.96496314
141	0x3e83b84d	0.25726548
142	0x3efb4f3f	0.49083897
143	0xbeed1cc3	-0.46311006
144	0xbeadd75a	-0.33953363
145	0xbe98c07c	-0.29834354
146	0x3e1bbbdb	0.1520838
147	0x3f215ba3	0.6303045
148	0xbe045ff5	-0.1292723
149	0xbcd3d149	-0.02585663
150	0x3ce03cc5	0.027372727
151	0xbea354a3	-0.3190051
152	0xbcd0820d	-0.025452638
153	0xbc48d296	-0.012257239
154	0x3f2f6941	0.6851998
155	0xbf3cef76	-0.7380289
156	0xbda5c8f0	-0.080949664
157	0xbf280386	-0.65630376
158	0xbda3a588	-0.07990557
159	0x3dd5e98f	0.104449384
160	0xbf4a5620	-0.79037666
161	0xbdfd40f4	-0.123659045
162	0xbe8e3ed9	-0.27782324
163	0xbe9b1e3a	-0.302965
164	0xbddc8aa6	-0.107686326
165	0x3ba02ac0	0.0048879087
166	0xbea32c3f	-0.31869695
167	0xbf67c565	-0.90535575
168	0x3d10a13c	0.035310015
169	0x3e27d06b	0.16388099
170	0x3e84ddbe	0.25950426
171	0x3eb9042d	0.36135998
172	0x3eaebf47	0.34130308
173	0x3f275737	0.65367454
174	0xbecafef7	-0.39647648
175	0x3f9109e2	1.1331141
176	0xbeccbe34	-0.39988863
177	0x3e5d9166	0.21637496
178	0x3e632944	0.2218371
179	0xbe9c617d	-0.30543128
180	0xbdca204c	-0.098694414
181	0xbddc3966	-0.107531354
182	0x3ef0df95	0.4704558
183	0x3dd08334	0.10181275
184	0xbeaac4b1	-0.3335319
185	0xbdf65682	-0.12028219
186	0xbdba2500	-0.090890884
187	0x3d71df22	0.059050687
188	0xbf3426d8	-0.7037177
189	0x3cb88d1a	0.02252822
190	0xbf0d2ec8	-0.5514951
191	0x3c520e35	0.01282077
192	0xbe033ca6	-0.12816104
193	0x3c8a1810	0.016857177
194	0xbecb5c32	-0.39718777
195	0x3d026348	0.031832963
196	0xbf427a5f	-0.75967973
197	0xbed9f5a0	-0.4257021
198	0xbf0aa5a8	-0.5415902
199	0xbf0ece5f	-0.5578365
200	0x3c824140	0.015900254
201	0x3ea5a592	0.32352883
202	0xbf0e2342	-0.5552255
203	0x3e4fb1ae	0.20282623
204	0x3f90e4c4	1.1319814
205	0x3e55b14f	0.20868419
206	0xbf1b9b4d	-0.60783845
207	0x3ea33ae7	0.31880876
208	0x3dc0288a	0.09382732
209	0xbe3e0e71	-0.18560196
210	0xbf1c44f7	-0.6104273
211	0xbf288d39	-0.6584049
212	0x3e7b9ed0	0.24572301
213	0xbe7eac2a	-0.24870363
214	0xbb2e0c00	-0.0026557446
215	0xbeac28b1	-0.33624795
216	0xbef3bcf8	-0.4760511
217	0xbf4cebee	-0.800475
218	0xbee97906	-0.45600146
219	0xbf382aad	-0.7194012
220	0xbeb9787b	-0.36224732
221	0x3ebf6f71	0.3738971
222	0x3ee3bbf4	0.44479334
223	0xbdb188c0	-0.08668661
224	0x3ee38157	0.44434616
225	0x3f9ae80e	1.2102067
226	0xbef4ed8b	-0.4783748
227	0xbed6db6a	-0.41964275
228	0xbe01db56	-0.12681326
229	0x3dca56f1	0.09879864
230	0x3ea72a62	0.32649523
231	0xbefab90b	-0.48969302
232	0x3ffdd8ac	1.9831748
233	0x3e0d4f4c	0.1379978
234	0x3e45d05a	0.19317761
235	0xbe74b077	-0.23895441
236	0x3e3f2c93	0.18669347
237	0x3e755370	0.2395761
238	0xbf5d192f	-0.8636655
239	0x3f793f17	0.9736189
240	0xbeadb50e	-0.33927196
241	0x3ec7b39f	0.39004228
242	0xbdf92f90	-0.12167275
243	0x3f46f956	0.77724206
244	0x3e15e681	0.14638712
245	0xbdd4af14	-0.10384956
246	0x3f148c50	0.580266
247	0xbd5a0231	-0.053224746
248	0xbda725db	-0.08161517
249	0xbd839ae8	-0.064260304
250	0xbc771dcd	-0.015082789
251	0x3e36f605	0.17867287
252	0x3f5f6cd7	0.8727545
253	0xbc2f743c	-0.010708865
254	0x3dc97997	0.098376445
255	0xbe7bc2c5	-0.24586017

bias f4 [64]
0	0xbe079aed	-0.13242693
1	0xbe16571e	-0.1468167
2	0x3eccf2e4	0.4002906
3	0x3e361d17	0.17784534
4	0x3ee06655	0.43828073
5	0xbdadab15	-0.08479897
6	0xbf6620cb	-0.8989379
7	0xbe39a5eb	-0.18129699
8	0x3e1385ce	0.14406511
9	0xbf555af2	-0.83341897
10	0x3e672964	0.22574383
11	0x3f0951ce	0.5364045
12	0xbf1b9962	-0.6078092
13	0xbeda2dfe	-0.42613214
14	0xbe4382bf	-0.19092844
15	0xbe8f1dfb	-0.2795256
16	0xbd3b2e23	-0.045698296
17	0xbe8a1e0a	-0.26976043
18	0xbcd6e17a	-0.026230562
19	0xbf4e3adb	-0.80558556
20	0xbf9eb848	-1.2399988
21	0xbf1b06bd	-0.60557157
22	0xbe36024d	-0.17774315
23	0xbec74940	-0.38923073
24	0xbc396e3c	-0.011317786
25	0xbe604317	-0.21900593
26	0x3ec0b681	0.3763924
27	0xbf0994ea	-0.5374285
28	0xbf851879	-1.0398093
29	0x3eaab16b	0.33338484
30	0xbf53f492	-0.8279506
31	0x3d5f9889	0.05458883
32	0x3e3ec5e5	0.18630178
33	0x3ee8aec9	0.4544585
34	0xbef3af48	-0.47594666
35	0xbeec7dc2	-0.46189696
36	0x3e106816	0.14102206
37	0x3cdcc7f9	0.026950823
38	0xbe09c092	-0.13452366
39	0x3d5b451d	0.05353271
40	0xbe64494d	-0.22293587
41	0xbf3f0b41	-0.7462655
42	0xbf2bd129	-0.6711603
43	0x3e86841e	0.26272672
44	0x3ef8defa	0.48607618
45	0xbeb5977d	-0.3546714
46	0xbed8dc76	-0.42355698
47	0xbf440247	-0.76565975
48	0x3dbc669c	0.09199259
49	0xbddaa16c	-0.1067532
50	0x3e7040fb	0.23462288
51	0x3ed1d0b9	0.40979555
52	0xbf03b12c	-0.5144222
53	0x3e0eb206	0.13935098
54	0xbe2076b0	-0.15670276
55	0x3e14ebf5	0.14543135
56	0x3dffdd5e	0.12493394
57	0xbf08a2d5	-0.5337346
58	0x3c1ec052	0.009689407
59	0xbe025ab7	-0.12729917
60	0xbf578d4f	-0.84199995
61	0x3ec403ed	0.38284245
62	0xbca697cf	-0.02033606
63	0xbe017d07	-0.1264535

weight f4 [64, 64]
0	0x3d8294ee	0.06376062
1	0xbca64ce8	-0.020300344
2	0x3da69537	0.08133929
3	0xbd768e42	-0.06019426
4	0xbe71a038	-0.23596275
5	0xbe38ec84	-0.18058974
6	0xbcbfdb93	-0.02342013
7	0xbe1f6d64	-0.15569073
8	0xbe6e0021	-0.23242237
9	0xbe988e76	-0.2979619
10	0xbe725279	-0.23664273
11	0x3e1fb018	0.15594518
12	0xbd29855e	-0.041386954
13	0xbf560e06	-0.8361515
14	0xbb8a8a69	-0.0042279256
15	0x3dfa9cd1	0.122369416
16	0x3ea8c23c	0.3296069
17	0xbcb36f65	-0.021903703
18	0xbe80e64b	-0.251757
19	0xbea8410e	-0.32862133
20	0x3de1dc87	0.110283904
21	0xbd8dd80d	-0.06925974
22	0xbe9e8af2	-0.30965382
23	0x3e765263	0.24054866
24	0xbe63dd84	-0.2225247
25	0xbe1c86b6	-0.15285763
26	0xbef5968a	-0.47966415
27	0x3e05caf6	0.13065705
28	0xbf030022	-0.5117208
29	0x3d3bc53e	0.0458424
30	0xbdd7ecdb	-0.105432235
31	0xbd4d1fce	-0.05007916
32	0x3e1ebe8a	0.15502372
33	0x3ecc5c68	0.3991425
34	0xbe88c9e9	-0.26716545
35	0xbe45efad	-0.1932971
36	0xbe9e8473	-0.30960426
37	0x3e1663bd	0.14686485
38	0xbeb8f555	-0.36124673
39	0xbe8e27f3	-0.27764854
40	0x3e1d5b2b	0.15366809
41	0xbeca6718	-0.3953178
42	0xbe564d0f	-0.20927833
43	0xbed130e4	-0.40857613
44	0x3c4738c5	0.012159531
45	0xbe955053	-0.29162845
46	0x3e962870	0.29327726
47	0xbeda1f48	-0.4260199
48	0xbf3dec46	-0.7418865
49	0xbeafcb9d	-0.34335032
50	0xbe0a6158	-0.13513696
51	0x3d0e53ce	0.03474789
52	0x3c664164	0.014053676
53	0x3e3babc0	0.18327236
54	0x3c91a5f2	0.017779324
55	0xbf6ae46c	-0.91754794
56	0x3e0d064b	0.13771932
57	0xbd999d69	-0.07500727
58	0xbe2d6df9	-0.16936482
59	0xbb1fec54	-0.0024402337
60	0xbe9b9d37	-0.30393383
61	0xbe898f8b	-0.26867327
62	0x3f1ebda7	0.62008137
63	0xbc989f53	-0.01863066
64	0xbebbe5cd	-0.36698762
65	0xbf1c288a	-0.6099936
66	0x3ec29df9	0.3801115
67	0x3e9382a4	0.28810608
68	0x3e8bee2e	0.27330154
69	0x3cb093ea	0.021554906
70	0xbeb86e90	-0.36021852
71	0xbf2a1231	-0.6643401
72	0xbf626630	-0.88437176
73	0xbe11f1dc	-0.14252418
74	0x3f186fb8	0.5954547
75	0x3ee6aac6	0.45052165
76	0x3e3c7dd1	0.1840737
77	0xbef16f37	-0.47155163
78	0x3ddd0b3a	0.10793157
79	0x3df4a4b4	0.11945477
80	0x3d1bf456	0.038074814
81	0x3eb209fe	0.34773248
82	0x3ebd840d	0.3701481
83	0xbe86f592	-0.2635923
84	0xbf52e0c0	-0.8237419
85	0x3eb3f085	0.3514444
86	0x3ecdf108	0.40222955
87	0x3e909b74	0.282436
88	0xbdf2a92d	-0.11848674
89	0xbe686042	-0.2269297
90	0xbf77d7f9	-0.96813923
91	0x3def9c45	0.11699728
92	0xbf8aa924	-1.0832868
93	0xbefe0409	-0.49612454
94	0xbe65de93	-0.22448187
95	0xbdb8c271	-0.09021462
96	0xbfbf208a	-1.4931805
97	0xbf5a6271	-0.8530646
98	0xbf0dd078	-0.55396223
99	0xbf1dc552	-0.6162921
100	0xbc87f79e	-0.016597565
101	0xbeb53746	-0.35393733
102	0x3da38152	0.0798365
103	0xbe935a3a	-0.28779775
104	0xbf2ea2c9	-0.6821714
105	0xbd5e2f74	-0.054244474
106	0xbe06a8e7	-0.13150369
107	0x3e035f84	0.12829405
108	0xbe7decfb	-0.24797432
109	0xbece839a	-0.4033478
110	0x3e179cb2	0.14805868
111	0xbedcef75	-0.4315144
112	0x3e1dd838	0.15414512
113	0xbf5c8b10	-0.8614969
114	0xbea513a4	-0.32241547
115	0x3e189e4a	0.14904132
116	0x3f1cbf59	0.61229473
117	0x3b6f4f9f	0.0036515964
118	0x3e42b2a7	0.19013463
119	0x3e45992f	0.19296716
120	0xbf0eb770	-0.55748653
121	0x3cd237c3	0.025661355
122	0xbed9f2a9	-0.42567948
123	0xbe538dc8	-0.20659554
124	0xbf15af5b	-0.58470696
125	0x3dfd5f06	0.1237164
126	0x3e143c75	0.14476188
127	0xbd2427b4	-0.040076926
128	0xbf3140aa	-0.69239295
129	0x3dd8200b	0.10552987
130	0xbe483151	-0.19550063
131	0x3e72c974	0.23709661
132	0xbe990584	-0.2988702
133	0xbf6cae11	-0.92453104
134	0xbec549c4	-0.3853284
135	0xbf0ec262	-0.55765355
136	0xbee98e79	-0.4561651
137	0xbd4b18ea	-0.049584307
138	0xbecfa638	-0.40556502
139	0xbd16f7ba	-0.036857344
140	0x3e99d30e	0.30043834
141	0xbd51ca6f	-0.051218446
142	0x3ef624b2	0.4807487
143	0x3f04529a	0.5168854
144	0xbee4bb9e	-0.4467439
145	0xbec05f7c	-0.3757285
146	0xbe471d18	-0.19444692
147	0xbf8e892d	-1.1135613
148	0x3e2d9ddc	0.1695475
149	0xbd7d9578	-0.061910123
150	0xbdb61c36	-0.088920996
151	0x3de5841b	0.11206838
152	0x3f1d9c49	0.615666
153	0x3e5a2225	0.21302088
154	0xbd02c232	-0.03192348
155	0x3ed6c9f8	0.41950965
156	0xbeb5be6e	-0.3549685
157	0xbf36bac8	-0.71378756
158	0xbe1ebd88	-0.15501988
159	0xbfa29aa8	-1.2703447
160	0xbd347a58	-0.04406199
161	0xbf2d469c	-0.67685866
162	0xbd785c93	-0.06063516
163	0xbe6559c7	-0.22397529
164	0x3d341ad9	0.043970916
165	0xbe1d8bb6	-0.15385327
166	0xbe730320	-0.23731661
167	0xbdfc2e23	-0.123134874
168	0xbf57943f	-0.8421058
169	0xbe3ea34a	-0.18616977
170	0xbd87726e	-0.066136226
171	0xbba66d5f	-0.005078956
172	0xbf045f28	-0.51707697
173	0xbf147510	-0.57991123
174	0x3eba6cbf	0.36411092
175	0xbe8d0f22	-0.27550608
176	0xbf91cf3d	-1.1391369
177	0xbf33b5f2	-0.701995
178	0x3e3fb86a	0.18722692
179	0xbef58c66	-0.47958678
180	0xbdb29eeb	-0.087217174
181	0xbd5ff8de	-0.054680698
182	0x3e927c08	0.28610253
183	0xbdb9066a	-0.090344265
184	0xbe5eed44	-0.21770197
185	0xbf3c59b3	-0.7357437
186	0xbf0b2c25	-0.54364234
187	0xbbb5f75b	-0.0055531687
188	0x3f211e1e	0.6293658
189	0xbf38dc73	-0.7221138
190	0xbd8c06f5	-0.068372644
191	0xbe5fb883	-0.2184773
192	0xbdf4d9fa	-0.11955638
193	0xbdf2d839	-0.118576474
194	0xbdebbfac	-0.11511168
195	0x3dda1908	0.106493056
196	0xbe1c30a1	-0.15252925
197	0x3d99a38b	0.075018965
198	0xbc821528	-0.015879229
199	0xbd8b4ffe	-0.06802367
200	0xbda32d63	-0.07967641
201	0xbe3e688a	-0.18594566
202	0x3d8f10c6	0.06985621
203	0xbd113413	-0.035450052
204	0xbd522158	-0.05130133
205	0x3d0acf3c	0.03388904
206	0xbca28862	-0.019840423
207	0x3d7167a4	0.05893673
208	0x3cc1c13d	0.023651714
209	0xbec561c7	-0.3855116
210	0xbcd34163	-0.025788015
211	0xbc457cf2	-0.012053715
212	0xbe2bb97f	-0.1676998
213	0xbddefa65	-0.10887603
214	0x3c38f3da	0.0112886075
215	0xbe4b8a0f	-0.19876884
216	0x3d9aeeae	0.07565056
217	0xbe8c6420	-0.2742014
218	0xbcfb3577	-0.030665142
219	0x3d88e972	0.06685151
220	0xbce79930	-0.028271288
221	0xbe0aba8b	-0.13547723
222	0xbdd33d3f	-0.10314416
223	0x3d85864a	0.06519754
224	0x3bdd1215	0.0067465403
225	0xbde13369	-0.10996134
226	0xbd52aba6	-0.051433228
227	0xbe0de98f	-0.13858627
228	0xbe1e14b6	-0.15437588
229	0xba868d8d	-0.0010265574
230	0xbdccaef7	-0.099943094
231	0xbd6c5299	-0.05769596
232	0xbbe81b70	-0.007083349
233	0x3d73c0b1	0.059509937
234	0x3d12a756	0.035804115
235	0xbd9a784c	-0.07542476
236	0xbe25f81b	-0.16207926
237	0xbd211e60	-0.03933561
238	0xbdde2036	-0.108459875
239	0xbdec384f	-0.115341775
240	0xbcd5dd8a	-0.026106615
241	0x3d6fd8fa	0.058556534
242	0xb97650b4	-0.00023490452
243	0xbe0c305e	-0.13690326
244	0xbda5cfed	-0.08096299
245	0x3bb49c72	0.005511814
246	0xbe05a548	-0.13051331
247	0xbe8f7cc8	-0.28024888
248	0x3ca2498e	0.019810464
249	0x3d69af8b	0.057052176
250	0xbe619331	-0.22028805
251	0xbd4c2a63	-0.04984511
252	0xbd98cb4d	-0.074606515
253	0xbdc515a2	-0.09623267
254	0xbcd25501	-0.025675299
255	0xbccb3864	-0.024807163

bias f4 [64]
0	0x3d1832d1	0.037157837
1	0x3e4e6e63	0.20159297
2	0xbe90707b	-0.28210816
3	0xbd2babc8	-0.04191187
4	0xbcbab66b	-0.022792062
5	0xbeaa2e3a	-0.33238393
6	0xbe19a934	-0.15005952
7	0xbd9867f7	-0.07441705
8	0xbe10d7f8	-0.14144886
9	0x3ea99662	0.33122545
10	0x3c98af65	0.018638322
11	0x3e9aec49	0.30258396
12	0x3e82a773	0.2551838
13	0xbdce6090	-0.100770116
14	0x3e6ff628	0.23433745
15	0xbc9d94b7	-0.019235952
16	0xbd40e46b	-0.047092836
17	0x3d51314d	0.051072408
18	0x3b935ab2	0.0044968957
19	0x3b057d76	0.002036897
20	0xbe0db4eb	-0.13838546
21	0xbb86bdf4	-0.0041119996
22	0x3ba48451	0.005020656
23	0x3e077029	0.1322638
24	0x3c86132d	0.016366566
25	0x3b92fa9e	0.0044854423
26	0xbd3e3174	-0.04643388
27	0xbdbecd65	-0.0931652
28	0xbbaefba7	-0.005340058
29	0x3cc13023	0.023582524
30	0xbdfd6ecb	-0.12374648
31	0xbda87925	-0.082262315
32	0x3a590aa1	0.0008279477
33	0x3eb39698	0.3507583
34	0x3dbdaed5	0.09261862
35	0x3e6f4d96	0.2336944
36	0xbce7057f	-0.028200863
37	0x3e22304c	0.15838736
38	0xbe1317b8	-0.14364517
39	0xbe230a5c	-0.1592192
40	0x3d5f5e1a	0.0545331
41	0x3d4d147a	0.050068356
42	0xbd90398c	-0.07042226
43	0xbd8edac5	-0.06975321
44	0xbdc0cc13	-0.09413924
45	0x3dab343a	0.08359571
46	0xbd30c3ed	-0.0431556
47	0xbe903d93	-0.28171977
48	0xbe0f1e60	-0.13976431
49	0x3e59d65e	0.21273181
50	0xbe01378b	-0.12618844
51	0xbd842cf6	-0.06453888
52	0xbeb62c0c	-0.3558048
53	0x3d0e51c4	0.034745947
54	0xbe5cf5e5	-0.21578176
55	0xbe06019a	-0.13086548
56	0x3d8d1223	0.06888225
57	0xbd02b058	-0.031906456
58	0xbcd6c6fa	-0.026217926
59	0xbe058b53	-0.13041429
60	0xbd97ba56	-0.07408588
61	0xbe005262	-0.12531427
62	0xbda6a558	-0.081370056
63	0x3f0dc624	0.55380464

weight f4 [7, 64]
0	0xbe4ac507	-0.19801722
1	0x3e231f4a	0.15929905
2	0x3d9ad51c	0.07560179
3	0x3e20ce4e	0.15703699
4	0x3e5fba93	0.21848516
5	0x3d8efcea	0.06981833
6	0x3d977fed	0.07397447
7	0xbb8bc3ea	-0.004265298
8	0x3db9d0fe	0.09073065
9	0x3db79624	0.08964184
10	0x3e21d46b	0.15803687
11	0xbe2d2fb6	-0.16912732
12	0x3d8f503c	0.06997725
13	0x3d881132	0.06643905
14	0x3d1b02b0	0.03784436
15	0x3d5780cc	0.052613065
16	0xbdded1b4	-0.108798414
17	0x3f3db326	0.74101484
18	0xbf12e904	-0.57386804
19	0x3e3a6655	0.18203099
20	0x3d4a0bcb	0.049327653
21	0x3cbf8b2c	0.023381792
22	0xbe8e50bb	-0.27795967
23	0xbe609b5a	-0.21934262
24	0xbb7db85f	-0.003871463
25	0xbec2258c	-0.3791927
26	0x3e0ce7d6	0.13760313
27	0xbf2bb18f	-0.6706781
28	0x3e4b0b8d	0.19828625
29	0xbdbc4ba7	-0.09194117
30	0x3d1e8d71	0.038709108
31	0x3cdbaee0	0.026816785
32	0xbe093004	-0.13397223
33	0xbe0a8ce3	-0.13530307
34	0x3e3d40db	0.18481772
35	0x3e7b2e6a	0.24529424
36	0x3c08339b	0.008313085
37	0x3c50b12b	0.012737553
38	0xbe0de884	-0.13858229
39	0xbb4346a1	-0.0029796737
40	0xbebbf84c	-0.36712873
41	0xbe65ee50	-0.2245419
42	0xbcb2be36	-0.021819215
43	0x3e3d72b3	0.18500786
44	0xbd77362b	-0.060354393
45	0x3d459cc1	0.048245195
46	0xbdfbe6eb	-0.122999035
47	0xbe3893e5	-0.18025167
48	0xbd8fa74a	-0.0701433
49	0xbf2e2c1a	-0.68036044
50	0x3e7744bd	0.24147315
51	0xbddc5950	-0.107592225
52	0xbcda8b21	-0.02667767
53	0x3e1898fc	0.14902109
54	0xbe84b5ad	-0.25919858
55	0xbe0913f0	-0.13386512
56	0x3dad02dc	0.08447811
57	0xbd471145	-0.048600454
58	0x3f1bff7e	0.60936725
59	0x3d8932d3	0.06699147
60	0xbe41c384	-0.1892224
61	0xbcdc5f4f	-0.026900915
62	0x3eb8e22a	0.3611005
63	0xbe13d4e5	-0.14436682
64	0xbdcb93e1	-0.09940315
65	0xbe6dcaca	-0.23221889
66	0xbe2c55c3	-0.1682959
67	0xbe81f594	-0.25382674
68	0xbe63a03e	-0.22229096
69	0xbedd6ad7	-0.43245575
70	0x3c67dc27	0.0141516095
71	0x3e169edb	0.14709036
72	0xbe021cd6	-0.12706313
73	0x3d2e1f24	0.042510167
74	0xbd43f340	-0.047839403
75	0x3f7acb4b	0.9796645
76	0x3f2ab16f	0.6667699
77	0x3d5aa61b	0.053381067
78	0x3c0c1b9f	0.008551507
79	0x3d76ff41	0.060302023
80	0xbdcba8fe	-0.09944342
81	0xbde84240	-0.11340761
82	0x3ee4aed4	0.44664633
83	0xbd83e98c	-0.0644103
84	0xbd13d741	-0.036093954
85	0xbd528bc5	-0.051402826
86	0x3e217393	0.15766744
87	0xbeb490a0	-0.3526659
88	0x3ea3b128	0.31971097
89	0xbdf56ea4	-0.11983994
90	0xbf2cdcf4	-0.6752465
91	0x3dbd055d	0.092295386
92	0xbe00b0f9	-0.1256751
93	0xbe318950	-0.17337537
94	0x3db2c3c4	0.087287456
95	0x3d18e847	0.037330892
96	0xbdf002f5	-0.11719314
97	0xbe38eddf	-0.1805949
98	0xbd531eb4	-0.051542953
99	0xbe96b346	-0.2943365
100	0xbc3e8dc8	-0.011630483
101	0x3d9502eb	0.07275947
102	0x3c3d5c6a	0.011557678
103	0x3be14b11	0.0068754037
104	0x3c0a6ecf	0.00844927
105	0x3ebaa192	0.36451393
106	0x3e3aac14	0.18229705
107	0x3dbdfcaf	0.09276711
108	0x3dbcab88	0.092124045
109	0x3e41ed87	0.18938266
110	0x3d268351	0.040652577
111	0x3ecc48b7	0.39899227
112	0xbd335c84	-0.0437894
113	0x3e34eb0f	0.17667793
114	0xbee42669	-0.44560555
115	0x3cd692d3	0.026193058
116	0xbd5355fe	-0.05159568
117	0xbe254305	-0.16138847
118	0xbc18fe0b	-0.009337912
119	0x3db33818	0.087509334
120	0x3edf7e58	0.4365108
121	0xbe53abf7	-0.20671068
122	0xbcfe5e5a	-0.03105085
123	0x3c46252b	0.0120938225
124	0x3c3e768a	0.011624942
125	0x3dd03bfe	0.101676926
126	0x3e97e7ce	0.2966904
127	0xbef0b062	-0.4700957
128	0xbd90fab7	-0.0707907
129	0xbda7d944	-0.08195737
130	0xbf48c351	-0.7842303
131	0xbe10961f	-0.14119767
132	0x3ebb3130	0.36560965
133	0xbedf76e9	-0.4364541
134	0xbdb6792d	-0.08909831
135	0xbd50878b	-0.050910514
136	0xbc9de12d	-0.019272411
137	0x3d4b87e6	0.04969015
138	0xbcdbce4c	-0.026831768
139	0xbe65b4eb	-0.22432296
140	0xbeb58021	-0.35449317
141	0xbbbfb922	-0.005850927
142	0xbe598028	-0.21240294
143	0x3da98e9c	0.08279154
144	0xbe91fda8	-0.28513837
145	0xbf19594a	-0.5990187
146	0x3cf8c129	0.030365543
147	0x3ce4af0a	0.027915496
148	0xbb078e39	-0.0020684137
149	0xbd30d0b1	-0.043167774
150	0x3d967ce9	0.073480435
151	0x3d7d3d11	0.061825816
152	0x3e96a885	0.29425445
153	0xbd9d49e9	-0.07680113
154	0xbe9a7660	-0.30168438
155	0xbece34df	-0.40274712
156	0xbdc81eb1	-0.09771479
157	0xbe270ed3	-0.16314249
158	0x3d3705bb	0.0446832
159	0x3cd179c0	0.02557075
160	0xbe21f14c	-0.15814704
161	0x3b419141	0.002953604
162	0x3eb85ae0	0.36006832
163	0xbe8b9634	-0.27263033
164	0xbe1cb99f	-0.15305184
165	0xbe1eabc6	-0.15495214
166	0x3cd8454a	0.026400227
167	0x3e00d968	0.12582934
168	0xbdbc0de0	-0.09182334
169	0x3e8c718c	0.2743038
170	0x3bc84b1e	0.0061124703
171	0x3e37ebeb	0.1796109
172	0xbcc98e53	-0.024603998
173	0x3f4feedb	0.8122384
174	0x3e0261c0	0.12732601
175	0xbe512f2f	-0.20428155
176	0xbd5bfd0b	-0.053708117
177	0xbd53b9ff	-0.05169105
178	0xbedca855	-0.43097177
179	0x3df4adbc	0.119472
180	0xbe617f48	-0.2202121
181	0xbe08743a	-0.13325587
182	0xbd645fb5	-0.055755336
183	0x3c920aca	0.01782741
184	0x3c1ac2a0	0.009445816
185	0x3e2f7350	0.17133832
186	0x3d8803df	0.06641363
187	0x3be4f41d	0.0069871084
188	0x3d26192c	0.04055135
189	0x3cfbbae6	0.030728769
190	0xbd5061be	-0.050874464
191	0xbe919ee7	-0.28441545
192	0xbce891d6	-0.028389852
193	0xbdcff8b7	-0.101548605
194	0xbc9ee5dc	-0.019396715
195	0xbd547d62	-0.051877387
196	0xbd751a36	-0.05983945
197	0xbf1d5e4e	-0.6147202
198	0x3d95d44c	0.07315883
199	0x3dc611ed	0.09671388
200	0x3d216c51	0.03940994
201	0xbd1c3fdf	-0.03814685
202	0x3df9e960	0.12202716
203	0x3fd8a891	1.6926442
204	0x3de0a89e	0.10969661
205	0xbdbe05ef	-0.092784755
206	0x3fbebb18	1.4900846
207	0x3c3a0c68	0.011355497
208	0x3cbb8cad	0.022894228
209	0xbedd3908	-0.43207574
210	0xbf2ef7eb	-0.6834704
211	0x3d0a30b6	0.03373786
212	0x3e1043d1	0.1408837
213	0xbda95e9b	-0.08269998
214	0x3e35f4c7	0.17769156
215	0x3e53821a	0.20655099
216	0xbd9123b9	-0.07086892
217	0x3dd056e8	0.10172826
218	0x3e204883	0.15652661
219	0x3df172ca	0.117894724
220	0xbe26e780	-0.16299248
221	0x3e23b671	0.15987565
222	0x3c2aac42	0.010417046
223	0x3d358151	0.04431278
224	0x3d049a63	0.032373797
225	0xbdcff0f1	-0.10153378
226	0xbe3046db	-0.17214529
227	0xbe2e68ad	-0.17032118
228	0xbd95886a	-0.073014095
229	0x3e691999	0.22763671
230	0xbd8e3982	-0.069445625
231	0x3d2b7b4c	0.041865632
232	0xbed85227	-0.42250177
233	0x3e31f894	0.17379981
234	0xbdce083e	-0.10060166
235	0x3e870e79	0.2637823
236	0x3d3f4e55	0.046705563
237	0x3ed8f970	0.42377806
238	0xbd17a5e8	-0.037023455
239	0x3eacf26d	0.33778706
240	0xbd84581b	-0.06462117
241	0xbf099dd8	-0.53756475
242	0xbefcf780	-0.49407578
243	0xbd73d035	-0.059524734
244	0x3d9ed22a	0.07754929
245	0xbe13bf7d	-0.14428516
246	0x3edb9878	0.42889762
247	0x3db6d858	0.08927983
248	0x3c814387	0.01577927
249	0xbe0ef01b	-0.1395878
250	0xbf0008d4	-0.5001347
251	0x3dc86515	0.09784905
252	0x3e4ea34f	0.20179485
253	0xbdd47a88	-0.103749335
254	0x3e54e201	0.20789339
255	0xbf026b1b	-0.5094468

bias f4 [7]
0	0x3c513632	0.012769269
1	0xbc30c226	-0.010788476
2	0x39f13b75	0.000460114
3	0x3bf862e9	0.0075801504
4	0xbd4e280a	-0.050331153
5	0xbd06cba5	-0.032909054
6	0xbca13888	-0.019680277

weight f4 [7, 64]
0	0x3d47382e	0.04863756
1	0xbd332071	-0.04373211
2	0xbdb0243d	-0.08600662
3	0x3d25ba8c	0.040461108
4	0xbd0dd810	-0.03462988
5	0xbd108468	-0.035282522
6	0x3b4b8f4c	0.0031060753
7	0x3dcf457f	0.10120677
8	0x3c4462c6	0.01198644
9	0x3d59941f	0.053119775
10	0xbd8e0cc9	-0.06936032
11	0x3e8dc0db	0.276862
12	0xbd86ad32	-0.06576003
13	0xbce71bee	-0.02821156
14	0x3de0dbb3	0.10979404
15	0x3d853c5e	0.06505655
16	0x3d9fa09b	0.07794305
17	0xbe3a9da8	-0.18224204
18	0xbe02f56e	-0.12788936
19	0xbd5bf6bc	-0.0537021
20	0xbd9d227d	-0.07672594
21	0x3d45c4da	0.048283435
22	0xbbb662b9	-0.005565968
23	0xbe56f027	-0.20990048
24	0x3df3a94d	0.11897526
25	0xbdb7e867	-0.08979874
26	0xbd7715b4	-0.060323432
27	0x3ded0781	0.11573697
28	0x3d6d5125	0.057938714
29	0xbc7cf8f3	-0.0154402135
30	0x3cc918cd	0.024547959
31	0x3c0fd3ce	0.0087785255
32	0x3d03d723	0.032187592
33	0x3d5c96bf	0.0538547
34	0x3d1c8bc9	0.038219247
35	0xbcde106a	-0.027107436
36	0x3dd0580d	0.10173044
37	0xbdfe6285	-0.12421135
38	0xbd7ebfbe	-0.06219458
39	0xbd170f2c	-0.036879703
40	0xbceecaa8	-0.029149368
41	0x3cc9c515	0.024630109
42	0xbe0ebc16	-0.13938937
43	0xba9dd66e	-0.0012042054
44	0x3d10c1b9	0.035341
45	0x3d398f8d	0.045302916
46	0x3da2a15a	0.079409316
47	0xbd67f3d9	-0.056629036
48	0xbd99ba6c	-0.0750626
49	0xbe0a8b3b	-0.13529675
50	0x3d81c0ae	0.06335579
51	0xbc955069	-0.01822682
52	0x394d13d3	0.00019557709
53	0x3e122367	0.14271317
54	0xbd03d94c	-0.032189652
55	0x3d326111	0.0435496
56	0xbca67da5	-0.020323584
57	0x3c8541b5	0.016266683
58	0x3b7293d1	0.0037014375
59	0x3d8a3fd2	0.06750454
60	0x3cb85176	0.022499781
61	0x3d4d4d25	0.0501224
62	0x3d6affa8	0.05737272
63	0x3bd4dc4c	0.006495988
64	0x3c5916cf	0.013250067
65	0xbd0f1572	-0.03493256
66	0xbd5888e9	-0.052864943
67	0xbc0b2f62	-0.008495184
68	0xbd4ee972	-0.0505156
69	0x3d55e8a8	0.05222383
70	0x3cb3e5bc	0.021960132
71	0xbdd6a66f	-0.104809634
72	0xbcad2e7e	-0.021140333
73	0x3d17d31a	0.037066557
74	0x3d734724	0.059394017
75	0x3dad6788	0.08467013
76	0xbe00dc16	-0.12583956
77	0x3e0088bb	0.12552159
78	0x3e0918a4	0.13388306
79	0x3d98cd37	0.074610166
80	0xbd0d2a05	-0.0344639
81	0x3cb1879f	0.021671114
82	0xbd08b1df	-0.033372756
83	0xbbeddaed	-0.007258764
84	0xbd7c3d70	-0.06158203
85	0xbd6c6198	-0.05771026
86	0xbc881d83	-0.016615635
87	0x3d109f8c	0.035308406
88	0xbe407941	-0.18796255
89	0xbdb124ef	-0.08649623
90	0xbd58dc97	-0.052944746
91	0x3d5183dc	0.05115114
92	0xbc27c26c	-0.010239225
93	0xbcbd2a3a	-0.023091424
94	0x3d479b33	0.048731994
95	0x3c5baaa4	0.013407383
96	0xbc8fcad0	-0.017552763
97	0xbc88f0f5	-0.01671646
98	0x3db4083d	0.08790634
99	0x3d483128	0.048875004
100	0xbda450ca	-0.08023222
101	0x3cc90e45	0.024542937
102	0xbca62387	-0.020280613
103	0x3b2b4b09	0.0026137254
104	0x3d82741e	0.06369804
105	0x3d91e60b	0.07123955
106	0xbc8e19e0	-0.017346323
107	0xbd544966	-0.05182781
108	0x3e150a4b	0.14554708
109	0x3df2b566	0.11851005
110	0x3d9b6a5f	0.07588648
111	0xbd67fb5c	-0.0566362
112	0xbb824ccd	-0.0039764405
113	0xbb03e259	-0.0020123927
114	0x3d40be10	0.047056258
115	0x3d8d760f	0.069072835
116	0xbd29e178	-0.04147479
117	0x3e0350ed	0.1282384
118	0xbe0859b9	-0.13315476
119	0xbd0dcffe	-0.034622185
120	0xbc18b88a	-0.009321341
121	0x3c955a9a	0.018231679
122	0xbd07417a	-0.033021428
123	0xbc91472b	-0.01773413
124	0xbcd103d1	-0.025514515
125	0xbc4e6505	-0.012597327
126	0x3caf4ae1	0.02139801
127	0xbe076953	-0.13223772
128	0xbe3916c1	-0.18075086
129	0xbe058600	-0.13039398
130	0xbd83efa7	-0.064421944
131	0x3db5e869	0.08882219
132	0xbd273626	-0.040823124
133	0x3dcc6804	0.09980777
134	0xbdd0c22f	-0.101932876
135	0x3d48d13c	0.049027666
136	0x3d001b8e	0.03127628
137	0x3c8969bb	0.016774049
138	0x3b385ee7	0.0028132738
139	0xbe41c884	-0.18924147
140	0xbd168adf	-0.03675353
141	0xbdba0994	-0.09083858
142	0x3d95210d	0.072816946
143	0x3dbb935f	0.09158968
144	0xbd7eac70	-0.062176168
145	0xbd7aada9	-0.06120077
146	0xbd6fe209	-0.058565173
147	0x3da2a3b3	0.079413794
148	0xbd0ece35	-0.034864623
149	0x3d894136	0.06701891
150	0x3a40e9e6	0.00073590723
151	0xbe195cae	-0.1497676
152	0xbe3d380d	-0.18478413
153	0xbd92f9a3	-0.07176521
154	0x3ce7e286	0.028306257
155	0x3cd1fa46	0.025632035
156	0x3dbcfdd3	0.09228101
157	0x3e5a8441	0.21339513
158	0xbd63e46d	-0.055637766
159	0x3dc3d921	0.095628984
160	0xbc5dc6d9	-0.0135361785
161	0xbde64e95	-0.11245457
162	0x3bbfc3a7	0.005852181
163	0xbdba57e3	-0.09098794
164	0x3d0528f2	0.03250975
165	0x3d0c628e	0.034273677
166	0x3dc66aab	0.09688314
167	0x3dc8a9aa	0.09797986
168	0xbdcb57d0	-0.09928858
169	0x3e2bcb0d	0.16776676
170	0xbe022b3f	-0.1271181
171	0xbd4c1aec	-0.049830362
172	0x3c6539e9	0.013990858
173	0x3e26afa3	0.16277938
174	0x3d13cc47	0.036083486
175	0xbe585fac	-0.21130246
176	0x3da841a3	0.08215644
177	0xbe497d3c	-0.1967668
178	0xbdbf5010	-0.093414426
179	0x3df61c17	0.120170765
180	0xbc446a8b	-0.011988292
181	0xbcaccdc5	-0.021094212
182	0xbe6a0b63	-0.22855906
183	0x3c03c631	0.008042858
184	0xbe84ba82	-0.25923544
185	0xbd710970	-0.05884689
186	0x3e41649c	0.18886036
187	0xbbe53974	-0.0069953743
188	0xbd7893b6	-0.060687743
189	0x3c553811	0.013013856
190	0xbd3d3dd3	-0.04620154
191	0xbdf5190f	-0.1196767
192	0xbe13c153	-0.14429216
193	0xbd998721	-0.07496477
194	0xbcf9dadc	-0.030499868
195	0x3c8bcbc4	0.017064936
196	0xbd79027c	-0.060793385
197	0x3dac272a	0.084059075
198	0x3c1dd7cf	0.009633972
199	0xbd3a2ca9	-0.045452747
200	0xbd4cf8df	-0.05004203
201	0xbc1a03f0	-0.009400353
202	0xbddb2749	-0.107008524
203	0xbe1b67ef	-0.15176366
204	0x3d50e68f	0.051001128
205	0xbdf985fc	-0.121837586
206	0x3ed7bbc4	0.4213544
207	0x3d2c934e	0.04213267
208	0x3d10f358	0.03538832
209	0xbc7af174	-0.015316356
210	0xbd3e0455	-0.04639085
211	0x3cf0fbc1	0.02941692
212	0xbca5a021	-0.020217957
213	0xbde680df	-0.11255049
214	0xbd258bee	-0.04041665
215	0xbe982652	-0.29716736
216	0xbea937a1	-0.33050254
217	0x3d7836f4	0.060599282
218	0xbc0011b9	-0.007816725
219	0xbdbb1e95	-0.091366924
220	0xbe65148e	-0.22371122
221	0xbca33dc5	-0.019926915
222	0xbb5fe384	-0.003416271
223	0xbd0c5338	-0.03425905
224	0x3d71c55d	0.05902611
225	0xbdb86d3b	-0.09005209
226	0xbe14d433	-0.14534073
227	0xbdda7152	-0.106661454
228	0xbd88e781	-0.06684781
229	0xbe082fe2	-0.13299516
230	0x3dc4aa9d	0.096028544
231	0xbd822642	-0.06354953
232	0x3b35b20f	0.002772454
233	0x3cb16bd8	0.02165787
234	0xbda4632b	-0.08026727
235	0x3c033977	0.008009306
236	0xba91c8a2	-0.0011122415
237	0xbcdae0b4	-0.026718475
238	0x3dfa321f	0.12216591
239	0xbdac3f00	-0.08410454
240	0x3cd02ebb	0.025412908
241	0xbe2c8c0f	-0.16850303
242	0xbdef5a00	-0.11687088
243	0xbcebe441	-0.028795363
244	0xbcea4c2d	-0.028600777
245	0xbe1dbfde	-0.15405223
246	0xbded907d	-0.115998246
247	0x3e03e892	0.12881687
248	0xbe5347f2	-0.20632914
249	0x3d36ce89	0.04463056
250	0x3da2dd53	0.079523705
251	0xbb170625	-0.0023044434
252	0xbc91d146	-0.017799985
253	0xbcdd4773	-0.027011609
254	0x3d4c095a	0.049813606
255	0xbd36a7a2	-0.04459346

bias f4 [7]
0	0xbe20ed00	-0.15715408
1	0xbe201ad5	-0.15635236
2	0xbe1054c4	-0.14094836
3	0xbe070a0b	-0.13187425
4	0xbdf9c171	-0.12195099
5	0xbe249f82	-0.16076472
6	0xbe2617ec	-0.16220063

weight f4 [64, 14]
0	0x3ebf6d1f	0.3738794
1	0xbf2145f7	-0.6299738
2	0x3dd73b03	0.105093025
3	0xbd9e7bc7	-0.077384524
4	0x3da181b4	0.07886067
5	0xbe6fddc7	-0.23424445
6	0xbeea534e	-0.4576668
7	0xbd77185d	-0.06032597
8	0x3f188939	0.59584385
9	0xbf4cad4c	-0.7995193
10	0x3c1a7a5c	0.009428587
11	0xbc634958	-0.013872467
12	0x3efadca7	0.4899647
13	0xbe1c1abc	-0.15244573
14	0x3f659d33	0.8969299
15	0xbe65321e	-0.223824
16	0x3dd6c98a	0.10487659
17	0x3e91a470	0.28445768
18	0xbe2a864d	-0.16652794
19	0xbee08c3e	-0.43856996
20	0xbf4903e1	-0.78521544
21	0xbd8dce00	-0.06924057
22	0xbd2026d7	-0.03909954
23	0xbb76c53a	-0.0037654177
24	0x3e16ca07	0.14725505
25	0x3e09a765	0.13442762
26	0xbd6447ee	-0.05573266
27	0x3d2a0686	0.041510127
28	0xbf01c150	-0.50685596
29	0xbf14f5e6	-0.5818771
30	0xbf0bd4d6	-0.54621637
31	0xbf40f2de	-0.75370586
32	0x3df08368	0.11743814
33	0xbe497763	-0.19674449
34	0xbe4c9159	-0.1997732
35	0x3d5b0e9a	0.053480722
36	0xbe3699c1	-0.1783209
37	0xbe066056	-0.13122687
38	0xbe8e7ec2	-0.27831084
39	0x3e9e891d	0.30963984
40	0xbdd21cc8	-0.10259396
41	0xbc4c6785	-0.012475853
42	0xbdaf6437	-0.08564036
43	0x3eec26aa	0.46123248
44	0x3e76d9b7	0.24106489
45	0x3e0b8d1f	0.13628052
46	0xbe66e113	-0.22546797
47	0x3e289f2d	0.1646697
48	0xbd203c49	-0.039119992
49	0x3d12cd17	0.03584012
50	0x3e2d9b50	0.16953778
51	0x3dc76e29	0.09737808
52	0x3d3f588c	0.046715304
53	0x3e199779	0.14999188
54	0xbd9a46d8	-0.075330436
55	0xbac7a6c9	-0.0015232201
56	0x3eb96706	0.36211413
57	0xbd5495f7	-0.05190083
58	0x3f669968	0.9007783
59	0x3d275263	0.040850054
60	0xbdbf9e8c	-0.09356412
61	0xbe5cc45d	-0.21559282
62	0xbf5207d2	-0.8204318
63	0xbe8462b9	-0.2585657
64	0x3ec9cfda	0.3941639
65	0x3e06cbb3	0.13163643
66	0xbe0200af	-0.12695573
67	0xbf487084	-0.78296685
68	0x3ea5eea4	0.3240863
69	0xbe01e6b7	-0.12685667
70	0x3f8a08bc	1.0783916
71	0x40229a27	2.5406587
72	0xbd125019	-0.03572092
73	0xbd7faa9c	-0.062418565
74	0x3e229e1e	0.1588063
75	0x3d6160e2	0.055024035
76	0xbd082ac3	-0.033243906
77	0xbbbd398d	-0.005774683
78	0x3a3a341e	0.0007103103
79	0xbbf28fa1	-0.007402376
80	0x3b3423fb	0.0027487266
81	0xbbfb8293	-0.007675478
82	0x3c715240	0.014729083
83	0x3c156fbd	0.009120879
84	0x3e189aed	0.1490285
85	0x3e60c041	0.21948339
86	0xbd86c867	-0.065811925
87	0x3e3a816e	0.18213436
88	0x3c984160	0.01858586
89	0x3cc1afb9	0.023643361
90	0x3ea542f2	0.32277638
91	0x3e4d031d	0.20020719
92	0xbe355e5f	-0.17711781
93	0xbe819b32	-0.25313717
94	0xbe3ee355	-0.18641408
95	0xbe10c08e	-0.14135954
96	0xbe0f357a	-0.13985243
97	0x3e1f3d7f	0.15550803
98	0x3f14d0a8	0.58130884
99	0x3f6a2fbd	0.9147909
100	0x3f012398	0.50444937
101	0xbebdabd1	-0.37045148
102	0x3d3b3f98	0.045714945
103	0x3d6473bb	0.05577443
104	0xbdfc9fa4	-0.123351365
105	0xbe25d87f	-0.16195868
106	0x3ddc9fa5	0.10772637
107	0x3e151528	0.14558852
108	0x3dd6f5b6	0.104960844
109	0xbec58205	-0.3857576
110	0xbecaa688	-0.39580178
111	0xbe6dabfa	-0.23210135
112	0x3e46c56a	0.19411245
113	0x3ee15f11	0.44017842
114	0x3d393caf	0.045223888
115	0x3eb09000	0.34484863
116	0x3d158820	0.036506772
117	0x3e45edcb	0.19328992
118	0xbf27abeb	-0.654967
119	0xbe1c2dde	-0.15251872
120	0x3cfb57b4	0.030681469
121	0x3e936c58	0.28793597
122	0x3e1e9fbf	0.15490626
123	0x3e9a2f60	0.3011427
124	0xbd871235	-0.065952696
125	0xbd820077	-0.06347745
126	0x3fc3ca27	1.5296067
127	0xbf145493	-0.5794155
128	0x3e49485a	0.19656506
129	0xbdc9e554	-0.09858194
130	0x3d106fd0	0.035262883
131	0x3a7fd143	0.00097586605
132	0xbe7ea928	-0.24869215
133	0x3b84dfc0	0.0040549934
134	0xbc87db1f	-0.016583977
135	0xbd9d0388	-0.07666689
136	0xbd944515	-0.07239739
137	0xbbe1475f	-0.006874963
138	0xbe1fa338	-0.15589607
139	0xbd08a4af	-0.03336018
140	0xbec45a23	-0.3835002
141	0x3ea99129	0.3311856
142	0xbdbb632c	-0.09149775
143	0xbb6818e3	-0.0035415224
144	0x3e2c083a	0.16800013
145	0x3df0567f	0.11735248
146	0x3d85cbfd	0.06533048
147	0x3d03071e	0.03198921
148	0xbb5c183c	-0.003358378
149	0xbe14eef3	-0.14544277
150	0xbda24990	-0.07924187
151	0xbd8ff977	-0.070300035
152	0xbb8d06eb	-0.004303803
153	0x3e536ea8	0.20647681
154	0xbe56117c	-0.20905107
155	0xbf3d1560	-0.7386074
156	0x3d733f15	0.05938633
157	0xbf4f33ec	-0.809386
158	0x3dd49a78	0.10381025
159	0xbe88cb34	-0.26717532
160	0xbe18fe89	-0.14940847
161	0xbe0d6f60	-0.13812017
162	0xbd99800f	-0.07495128
163	0x3f006480	0.5015335
164	0x3e8d539e	0.27602857
165	0xbee18fff	-0.44055173
166	0x3ed2b228	0.41151547
167	0x3cf77b74	0.030210234
168	0x3f2df622	0.67953694
169	0x3f619db7	0.8813128
170	0x3ed5cde5	0.41758648
171	0xbd7c1ca5	-0.061550755
172	0x3e552ce2	0.20817903
173	0xbda7f1ee	-0.08200441
174	0xbe9b6e11	-0.30357412
175	0xbd04838b	-0.03235201
176	0xbee2e877	-0.44317982
177	0xbe93d92b	-0.28876624
178	0xbee94789	-0.4556239
179	0x3e9a8e3d	0.30186644
180	0xbe77188e	-0.2413046
181	0xbe00c3e9	-0.12574734
182	0xbab29f04	-0.0013627713
183	0x3eda7282	0.42665488
184	0x3dbab779	0.09117026
185	0x3dc62c9f	0.096764795
186	0xbdabd57e	-0.0839033
187	0x3d1dcbd9	0.038524482
188	0x3e4f1d84	0.20226103
189	0x3e1d87bd	0.15383811
190	0xbe08e6f9	-0.13369359
191	0x3e24081a	0.16018716
192	0xbe1bd13d	-0.15216537
193	0xbe012280	-0.12610817
194	0xbdc5e096	-0.09661977
195	0xbe5c5a59	-0.2151884
196	0x3e9c0402	0.30471808
197	0x3f6bde5d	0.92136174
198	0x3c69d4da	0.014271939
199	0xbe5dab14	-0.21647292
200	0x3e104556	0.1408895
201	0xbdbd0cab	-0.09230932
202	0x3ed3c882	0.41363913
203	0xbc2487d7	-0.010042152
204	0xbc9c0720	-0.019046366
205	0xbb2ff99d	-0.0026851662
206	0xbbd480b1	-0.006485068
207	0xbb9812db	-0.0046409196
208	0x3c096f82	0.008388402
209	0x3cc08c58	0.023504421
210	0xbe1db1aa	-0.15399805
211	0x3f20d8be	0.6283072
212	0xbd6d7862	-0.057976134
213	0x3ccbc6e1	0.024875106
214	0x3d0da3b8	0.034579962
215	0xbd19d71b	-0.037558656
216	0x3e7ae623	0.24501853
217	0x3e86985d	0.2628812
218	0x3dc0b3be	0.09409283
219	0xbe116ae9	-0.14200939
220	0x3d7f30a0	0.06230223
221	0xbdf5c28c	-0.119999975
222	0xbcde5668	-0.027140811
223	0x3ddff78d	0.109358884
224	0xbdb295a7	-0.0871995
225	0x3f347db9	0.7050434
226	0x3d06a702	0.032874115
227	0x3e085dd4	0.13317043
228	0xbe2af316	-0.16694292
229	0xbc2af6dd	-0.010434833
230	0xbd0153f6	-0.031574212
231	0x3e25d78f	0.1619551
232	0x3d10befb	0.035338383
233	0xbe8c9d3b	-0.27463707
234	0xbe03db7f	-0.128767
235	0x3db50d97	0.08840483
236	0x3e1dfc9a	0.15428391
237	0x3db27e86	0.08715539
238	0x3eaecaaf	0.3413901
239	0x3e751f02	0.2393761
240	0xbec87ab1	-0.39156106
241	0xbcf08261	-0.029359045
242	0xbe82f2ad	-0.25575772
243	0x3d8ec802	0.06971742
244	0x3deca642	0.11555149
245	0xbe232f5c	-0.15936035
246	0xbea298e4	-0.3175727
247	0xbd862fa1	-0.06552053
248	0xbeba8d4f	-0.36435935
249	0x3e823007	0.25427267
250	0xbf167e4f	-0.5878648
251	0x3cbc3084	0.022972353
252	0xbee8b083	-0.45447168
253	0xbe82e260	-0.25563335
254	0x3d819920	0.063280344
255	0xbe4c9c0c	-0.19981402

bias f4 [64]
0	0x3d99b726	0.07505636
1	0xbf2f4fb2	-0.6848098
2	0xbe3e37d1	-0.1857598
3	0x3f36a0d4	0.71339154
4	0x3e58f971	0.21188904
5	0x3d10cad5	0.035349686
6	0x3f84fc1c	1.0389438
7	0x3f0023b7	0.50054497
8	0xbe951008	-0.29113793
9	0x3efd1d87	0.4943659
10	0x3f46303c	0.7741735
11	0xbfd5efbb	-1.6713785
12	0x3dd0b264	0.10190275
13	0x3f957582	1.1676486
14	0xbee70eab	-0.45128378
15	0x3f86c343	1.0528339
16	0x3f828f82	1.0200045
17	0x3e836daa	0.25669605
18	0xbf3e5858	-0.7435355
19	0xbda885be	-0.08228634
20	0xbf1e4543	-0.61824435
21	0x3f3ec25d	0.74515325
22	0x3f54bd3f	0.83101267
23	0x3d854c48	0.0650869
24	0x3daeab7e	0.08528803
25	0xbf1b15a9	-0.60579926
26	0x3f8630c6	1.0483634
27	0x3f360871	0.7110663
28	0x3f52a3b5	0.8228105
29	0x3f8abe12	1.0839255
30	0xbe8f70b1	-0.28015664
31	0x3f1a556e	0.60286605
32	0xbe10188b	-0.14071862
33	0x3f777429	0.9666162
34	0x3f24bde4	0.6435225
35	0x3f7cf191	0.988061
36	0x3f8535ce	1.0407045
37	0xbdf5f6dd	-0.12009976
38	0xbdbb896e	-0.09157072
39	0x3f4c0a43	0.7970316
40	0xbec121f2	-0.3772121
41	0xbcdbee4c	-0.026847027
42	0xbee074c7	-0.43839094
43	0x3f8de75d	1.1086231
44	0xbe44930f	-0.19196723
45	0x3ee61420	0.4493723
46	0x3d0a3b3d	0.0337479
47	0x3f844250	1.0332737
48	0x3f6f759e	0.93538845
49	0xbf69c806	-0.91320837
50	0x3f3901a2	0.72268116
51	0xbddd3e8b	-0.10802945
52	0x3ea05e8a	0.31322128
53	0xbfd7976f	-1.6843089
54	0x3f9993d8	1.1998243
55	0x3d99c8f0	0.07509029
56	0xbfd9af1c	-1.7006564
57	0x3f80281a	1.0012238
58	0x3f2bac83	0.67060107
59	0x3d53eba6	0.051738404
60	0xbd344c02	-0.0440178
61	0x3f885a6d	1.0652596
62	0x3f2f6769	0.68517166
63	0x3e824526	0.2544338

weight f4 [64, 64]
0	0xbf13d978	-0.57753706
1	0x3c068625	0.0082106935
2	0x3e85b41f	0.26113984
3	0xbe3e77e7	-0.18600427
4	0xbd9bad83	-0.07601454
5	0x3eadc917	0.33942482
6	0xbd147459	-0.03624377
7	0x3f009d41	0.5023995
8	0x3ec46897	0.38361046
9	0x3e9d6565	0.3074142
10	0xbe7116db	-0.23543875
11	0xbecd729f	-0.4012651
12	0x3e81fd08	0.2538836
13	0xbe905e61	-0.28197005
14	0xbd4373f9	-0.047718022
15	0x3e1adb26	0.15122661
16	0x3ea42946	0.3206274
17	0xbf4360fc	-0.7631986
18	0xbf0a9fd0	-0.54150105
19	0xbfabfeca	-1.343713
20	0x3eb22bcc	0.3479904
21	0xbd84df7e	-0.0648794
22	0xbe248cf4	-0.16069394
23	0xbf200dcf	-0.6252107
24	0x3f020183	0.50783557
25	0x3f8bde4f	1.0927218
26	0xbc2f87f2	-0.010713564
27	0x3e1ac1dc	0.15113014
28	0xbd329b0b	-0.04360489
29	0xbdec35c6	-0.11533694
30	0xbea8ca84	-0.32967007
31	0xbd824b35	-0.06362001
32	0xbf856961	-1.0422784
33	0x3d5292f3	0.051409673
34	0xbf0d5578	-0.5520854
35	0x3d0fb2b6	0.03508254
36	0xbdb5be58	-0.08874196
37	0x3eb81c7d	0.35959235
38	0xbb97dbf2	-0.004634374
39	0x3e5c68b3	0.21524315
40	0xbf05e4b7	-0.52302116
41	0xbf8838b7	-1.0642308
42	0x3f48015e	0.78127086
43	0xbd92cd47	-0.0716806
44	0xbef89523	-0.48551282
45	0x3de16fec	0.110076755
46	0x3f65d942	0.89784634
47	0xbdf07d04	-0.11742595
48	0xbee9814c	-0.45606458
49	0xbe71cdce	-0.23613665
50	0xbce4f37d	-0.027948136
51	0x3f2be805	0.6715091
52	0x3d3c220e	0.045930915
53	0x3f9f024c	1.2422576
54	0xbda7dcdd	-0.08196423
55	0xbd622e6e	-0.05522006
56	0xbf20ba6b	-0.6278445
57	0xbddce3b6	-0.1078562
58	0x3f13b1a4	0.57692933
59	0xbef77272	-0.48329502
60	0xbe8a2687	-0.2698252
61	0xbd771b61	-0.060328845
62	0x3d287b2b	0.041133087
63	0x3fbe71d4	1.4878488
64	0xbd934459	-0.07190771
65	0xbfc890d8	-1.5669203
66	0xbeafbb0c	-0.34322393
67	0x3c229c44	0.009924952
68	0xbd273b5b	-0.04082809
69	0xbef4adfb	-0.47788987
70	0x3f33be65	0.70212394
71	0xbf0bc8e5	-0.54603416
72	0xbfbf6d23	-1.4955181
73	0x3e311cab	0.17296092
74	0xbf7e7088	-0.9939046
75	0xbe63e06c	-0.22253579
76	0x3f259083	0.6467363
77	0x3e6e8a7e	0.23295018
78	0xbf5f6d7b	-0.8727643
79	0xbe100ea5	-0.14068086
80	0xbfcbae7e	-1.5912626
81	0x3f13a2fe	0.5767058
82	0x3d722729	0.059119377
83	0x3e18aeea	0.14910474
84	0xbee680cb	-0.45020136
85	0xbfcf0a9b	-1.6175112
86	0xbedc3a7d	-0.43013373
87	0xbf8a6c0c	-1.0814223
88	0xbf34a47f	-0.705635
89	0x3f6fd181	0.9367905
90	0xbe3478f6	-0.17624268
91	0xbf95bed4	-1.1698861
92	0xbe65b58e	-0.22432539
93	0xbd0c8bd8	-0.034313053
94	0x3ef4991e	0.4777307
95	0xbf2cb95e	-0.6747035
96	0x3dfb5924	0.122728616
97	0xbf41af2b	-0.7565791
98	0xc0287848	-2.6323414
99	0xbee3ca61	-0.4449034
100	0x3dc5d73a	0.09660192
101	0xbfab9ca8	-1.3407183
102	0xbedea7d7	-0.43487427
103	0xbe9d3b9b	-0.30709538
104	0x3db85e7a	0.09002395
105	0xbcfdda85	-0.030987987
106	0xbef3d694	-0.47624648
107	0xbf5e7ce3	-0.8690931
108	0xbf4c2e2a	-0.7975794
109	0xbf85bfb8	-1.0449133
110	0xbf560999	-0.83608395
111	0x3fd39c54	1.6532083
112	0x3edb0b6e	0.42782158
113	0xbd27ed18	-0.040997595
114	0xbf2f5971	-0.6849585
115	0xbf322309	-0.6958471
116	0x3e622394	0.22083884
117	0xbda5d25a	-0.08096762
118	0x3f612c82	0.8795854
119	0x3df2354f	0.11826574
120	0xbca7be90	-0.02047661
121	0xbf11c7a3	-0.56945246
122	0xbf3d8d7e	-0.74044025
123	0x3f41d103	0.7570955
124	0xbf8ea2ef	-1.1143473
125	0x3f2708a2	0.6524755
126	0xbfbf93b3	-1.4966949
127	0x3e9e4758	0.30913806
128	0x3d49b861	0.049248103
129	0xbfa0f927	-1.2576035
130	0xbecd6bfb	-0.40121445
131	0x3e122875	0.14273246
132	0xbdca3965	-0.098742284
133	0xbee95a76	-0.4557683
134	0x3e9cf972	0.30659062
135	0x3ea837c3	0.32855043
136	0xbd8e532e	-0.06949459
137	0x3ee0c75c	0.439021
138	0xbe69c554	-0.22829181
139	0xbedb3110	-0.4281087
140	0x3ec8fe6a	0.39256603
141	0x3e47a075	0.19494803
142	0xbf9695aa	-1.1764424
143	0x3df7588c	0.12077436
144	0xbe718caa	-0.23588815
145	0xbcb660ef	-0.022263018
146	0xbef5b9ed	-0.47993413
147	0xbe0b6ff9	-0.13616933
148	0x3d427ae9	0.047480498
149	0xbf6c42b7	-0.922893
150	0xbdb3f17b	-0.08786293
151	0xbf325d06	-0.6967319
152	0xc00df450	-2.2180367
153	0x3f361788	0.71129656
154	0x3f0a7021	0.54077345
155	0xbf5cb32a	-0.8621088
156	0xbc82ce02	-0.015967373
157	0xbdfab647	-0.12241798
158	0xbd9faed0	-0.07797015
159	0xbde0bff5	-0.10974113
160	0x3e2998c2	0.16562179
161	0xbe73beaa	-0.23803201
162	0xbf0094af	-0.50226873
163	0xbe7b4a5f	-0.24540089
164	0x3da932c9	0.082616396
165	0xc001bd8f	-2.0271947
166	0xbcfb7b01	-0.030698301
167	0xbe0c6c45	-0.13713177
168	0x3da73812	0.081649914
169	0xbe94dbe3	-0.2907401
170	0xbf378ddb	-0.7170083
171	0xbee809b6	-0.4531991
172	0xbf095983	-0.5365221
173	0xbf3ea69c	-0.74472976
174	0xbf773908	-0.965714
175	0x3f33be29	0.70212036
176	0xbd723439	-0.059131835
177	0xbed63b5d	-0.41842166
178	0xbe5be342	-0.2147341
179	0xbfde1bcc	-1.7352233
180	0xbe66c453	-0.22535829
181	0xbe209f9f	-0.1568589
182	0x3f56992b	0.83827466
183	0x3e86ec28	0.26352048
184	0xbf0cae1a	-0.5495316
185	0xbf336d8a	-0.7008902
186	0x3e08c74e	0.13357279
187	0x3cacd55b	0.02109783
188	0xc0219e57	-2.5252893
189	0x3d8fdf37	0.07024997
190	0xbf4bc9bb	-0.7960469
191	0x3f1c1f33	0.60985106
192	0x3e3b1931	0.18271329
193	0xbdf6dedb	-0.12054225
194	0x3ec0c44a	0.37649757
195	0x3cda62c9	0.026658433
196	0x3cd94799	0.026523398
197	0xbf7be5cb	-0.9839751
198	0x3e70ca52	0.23514679
199	0x3e590b12	0.21195629
200	0xbcbbaadf	-0.022908626
201	0x3cfbf519	0.03075652
202	0x3e9727cc	0.2952255
203	0xc02dcab6	-2.7154975
204	0x3e38a727	0.18032514
205	0x3ebe0868	0.37115788
206	0xbeafa9d2	-0.3430925
207	0x3e93d6cb	0.28874812
208	0x3e6b5057	0.22979866
209	0x3d16a834	0.036781505
210	0xbe942e2c	-0.28941476
211	0xbee87542	-0.4540196
212	0xbecd6c21	-0.40121558
213	0x3e44ab0a	0.19205871
214	0x3e1f0dfe	0.15532681
215	0xbf1556f6	-0.58335817
216	0xbe597cb1	-0.21238972
217	0x3d4b2765	0.049598116
218	0x3e9954d4	0.2994753
219	0x3e2b7a2e	0.16745827
220	0x3e545178	0.20734203
221	0x3efb3658	0.49064898
222	0xbeac13a1	-0.33608726
223	0xbaee1ea2	-0.0018167088
224	0xbe85bd38	-0.26120925
225	0x3e79a16a	0.24377981
226	0x3e75aa0e	0.23990652
227	0x3e80673d	0.25078765
228	0x3e1fcd59	0.15605678
229	0x3d3a4ec4	0.045485273
230	0xbec478c8	-0.383734
231	0x3e9049e2	0.28181368
232	0xbd965514	-0.07340446
233	0xbcefc95d	-0.029270822
234	0x3e8dbce3	0.27683172
235	0x3e9262a3	0.2859088
236	0xbced5f69	-0.02897616
237	0x3e76d984	0.24106413
238	0xbe736eac	-0.23772687
239	0x3e204f8d	0.15655346
240	0x3e09f3d3	0.13471918
241	0xbf1a9de2	-0.6039716
242	0x3e2b84b6	0.16749844
243	0xbf442380	-0.7661667
244	0x3e8cd2bb	0.27504525
245	0xbfa71158	-1.3052168
246	0x3e2973fa	0.16548148
247	0xbe1f830c	-0.15577334
248	0xbfe6a69d	-1.8019596
249	0x3e378813	0.17923002
250	0x3e082ec6	0.13299093
251	0xbe646734	-0.22304994
252	0xbdf5bbf0	-0.11998737
253	0x3e3f2971	0.18668152
254	0x3dec267a	0.11530776
255	0x3ed8010e	0.42188305

bias f4 [64]
0	0x3db4dbf3	0.088310145
1	0x3f496ad8	0.78678656
2	0x3f2cc615	0.6748975
3	0x3f5beba9	0.85906464
4	0x3f8f9930	1.1218624
5	0x3f5cbd1d	0.86226064
6	0x3f54baa8	0.83097315
7	0x3f58abd5	0.84637195
8	0x3f5be619	0.85897976
9	0x3f536c45	0.8258708
10	0xbdbc9379	-0.09207816
11	0xbdeaccd1	-0.11464847
12	0x3f93bab9	1.1541358
13	0x3f60c3d3	0.87798804
14	0x3f62e3d8	0.8862891
15	0x3f7aa1fb	0.9790341
16	0x3f70e80c	0.94104075
17	0x3fa723f2	1.3057845
18	0xbdeadd48	-0.11467987
19	0x3f6ebec7	0.93259853
20	0x3f70e661	0.9410153
21	0x3f5cdb48	0.86272097
22	0xbf278e88	-0.6545186
23	0xbd852908	-0.06501967
24	0xbe080b27	-0.13285504
25	0xbc1f17ae	-0.0097102355
26	0x3da01c61	0.07817913
27	0x3f64da51	0.89395624
28	0x3f700ba8	0.93767786
29	0x3f823bc7	1.0174493
30	0x3e378fbb	0.17925923
31	0x3e551d4d	0.20811959
32	0x3e9d9f36	0.3078553
33	0x3f42ae6f	0.76047415
34	0xbdab8e15	-0.08376709
35	0x3f4e58ce	0.80604255
36	0x3f7b38ea	0.9813372
37	0x3eaba6ad	0.335256
38	0x3d65be8f	0.056089934
39	0x3f61a296	0.8813871
40	0x3f6c5473	0.9231636
41	0x3f8554da	1.041652
42	0xbe0d146b	-0.1377732
43	0xbdea3710	-0.114362836
44	0x3f68dd52	0.9096271
45	0xbd9be685	-0.076123275
46	0x3ec35cd9	0.38156775
47	0x3f7b0563	0.98055094
48	0xbda4d3e2	-0.08048226
49	0x3f878fed	1.0590798
50	0xbdb128a8	-0.08650333
51	0x3c2571d8	0.010097943
52	0x3e876834	0.26446688
53	0xbe3eae8c	-0.18621272
54	0xbdc3b3d2	-0.095557824
55	0x3f6ecfe0	0.9328594
56	0xbebb3124	-0.3656093
57	0xbeb2323e	-0.34803957
58	0xbe003b59	-0.1252264
59	0x3f64fd49	0.8944898
60	0x3f62143f	0.88312143
61	0xbdb3c594	-0.087779194
62	0x3f88d6f6	1.0690601
63	0x3f5407f5	0.8282464

weight f4 [1, 64]
0	0x3fba4a73	1.455397
1	0xbf4ab636	-0.7918428
2	0xbfa3c19b	-1.2793459
3	0x3ec2396b	0.3793443
4	0xbf793866	-0.9735168
5	0x3eedbc64	0.46432793
6	0x3eeb6a71	0.45979646
7	0x3eb52d6e	0.35386223
8	0x3f009c4d	0.50238496
9	0x3ed3bd98	0.41355586
10	0xbd253a3c	-0.04033874
11	0xbc8046ca	-0.015658755
12	0xbeddb185	-0.432995
13	0x3ef05cbb	0.46945748
14	0x3ed44632	0.41459805
15	0x3ebbd5e8	0.36686635
16	0xbf4f3c92	-0.809518
17	0xbf703e64	-0.938452
18	0xbdc02354	-0.09381738
19	0x3ef8dffe	0.48608392
20	0x3eb71d2a	0.35764438
21	0xbec89ed0	-0.39183664
22	0xbf9f237c	-1.2432704
23	0x3d359648	0.044332772
24	0x3cb447fd	0.022006983
25	0x3f553936	0.8329042
26	0xba89c832	-0.0010511933
27	0x3edf78e5	0.43646923
28	0x3eb9b29c	0.3626908
29	0x3f042315	0.5161603
30	0xbecb3e16	-0.39695805
31	0x3f14e0e0	0.5815563
32	0xbf0e4387	-0.5557179
33	0xbf91fa91	-1.1404592
34	0xbed6a0a6	-0.4191944
35	0x3ef63d61	0.48093703
36	0x3ed8d9df	0.42353722
37	0xbf2fb05b	-0.6862847
38	0xbd1beac6	-0.038065694
39	0x3edcb8d2	0.43109757
40	0x3f145668	0.57944345
41	0x3f181271	0.5940314
42	0x3d02b26e	0.031908445
43	0xbb17ed5e	-0.0023182253
44	0x3eecde1b	0.46263203
45	0xbc1458dc	-0.009054389
46	0x3eba3c11	0.36373952
47	0x3eac43e3	0.33645543
48	0x3cbd0a0f	0.023076085
49	0x3f0667f0	0.52502346
50	0x3b10e47b	0.0022108841
51	0xbce4536d	-0.027871812
52	0x3f38fac2	0.72257626
53	0x3beb71f8	0.007185217
54	0xbd396c2f	-0.045269188
55	0x3ecc3b1e	0.39888853
56	0xbf08bda3	-0.5341436
57	0xbf41ab7e	-0.756523
58	0x3babef72	0.00524705
59	0x3f0f0661	0.5586911
60	0x3ee77a61	0.45210555
61	0x3a0c3327	0.00053481985
62	0x3f173e25	0.590792
63	0x3ee9fdce	0.4570145
