log_7_25/pyt_save/model.pt (torch_old, 75895 bytes, 18 tensors)

weight f4 [64, 10]
0	0xbec78950	-0.3897195
1	0x3daacb0c	0.08339509
2	0x3ff2b31e	1.8960912
3	0x3fbf65d4	1.495295
4	0xbf980967	-1.1877869
5	0xbe9c657e	-0.30546182
6	0xbf4f42f9	-0.8096157
7	0x3f10ce8b	0.5656516
8	0xbf4afc31	-0.79291064
9	0x3eac449b	0.33646092
10	0xbef2e355	-0.47439066
11	0x3f172bc9	0.59051186
12	0xbe8aff38	-0.2714784
13	0xc0276b74	-2.6159334
14	0xbf37455e	-0.7159022
15	0x3f8bb049	1.0913173
16	0x3e5fac0b	0.21842973
17	0x3f2da983	0.6783678
18	0xbe15147e	-0.14558598
19	0xbe9d72cd	-0.3075165
20	0xbc92db65	-0.017926881
21	0xbe522d70	-0.20525146
22	0xbf1c2704	-0.60997033
23	0x3f9f69e8	1.2454195
24	0x3fd2c9d3	1.6467842
25	0x3f742ec1	0.9538384
26	0x3f89200b	1.0712904
27	0xbf0549ca	-0.5206572
28	0xbe5f54d7	-0.21809708
29	0xbef7beff	-0.48387906
30	0xbe41ff46	-0.18945035
31	0xbebab749	-0.3646796
32	0xbf5a97d8	-0.85387945
33	0xbf395bff	-0.72406
34	0xbf313dc6	-0.69234884
35	0x3e686b7c	0.22697252
36	0x3e8258c7	0.25458357
37	0x3f69d20e	0.91336143
38	0xbe40de59	-0.18834819
39	0x3e03c2ce	0.12867281
40	0xbf33cea5	-0.7023719
41	0xbea147da	-0.3150013
42	0xbf8f3c99	-1.1190368
43	0xc00b051d	-2.172187
44	0x3ff47ab0	1.9099941
45	0xbf7448a8	-0.95423365
46	0x3f822132	1.016638
47	0xbf6fe5b0	-0.9370985
48	0xc002f6c8	-2.0463123
49	0xbe8317f6	-0.25604218
50	0x3ec933e1	0.39297393
51	0xbeaca4b1	-0.337194
52	0xbf9a75ff	-1.206726
53	0xbfb22e89	-1.3920451
54	0x3f379e9d	0.717264
55	0xbe34940b	-0.17634599
56	0xbf9bfe51	-1.2186986
57	0x3e860a3e	0.2617969
58	0x3ef97870	0.487247
59	0xbeb662ec	-0.35622346
60	0xbd7bee9c	-0.061506853
61	0xbea5d243	-0.3238698
62	0xbf14ba38	-0.5809665
63	0x40064712	2.0980878
64	0x3e53c2bc	0.20679754
65	0xbf4e46d4	-0.80576825
66	0xbed74a1b	-0.42048725
67	0xbdc90fae	-0.09817444
68	0x3fba6727	1.456273
69	0x3e35c244	0.17749888
70	0xbee72e05	-0.45152298
71	0x3e5f0a3e	0.21781251
72	0x3f5ab811	0.85437113
73	0xbf3595da	-0.7093178
74	0x4034f6d8	2.8275661
75	0x3ea187a7	0.31548807
76	0x3eefaf11	0.46813253
77	0xbf2ce815	-0.6754163
78	0xbf26c654	-0.65146375
79	0x3c9cc3d1	0.019136341
80	0xbf0faabf	-0.5611991
81	0xbe7cb161	-0.2467704
82	0x3e216749	0.15762056
83	0x4040c958	3.012289
84	0xbff3b2de	-1.9038961
85	0x3bc93bda	0.006141168
86	0xc005c793	-2.090306
87	0xbde941a2	-0.113894716
88	0xbf446bde	-0.7672709
89	0xbf0524d6	-0.5200933
90	0xbf22fbee	-0.63665664
91	0xbd8971f8	-0.06711191
92	0x3ecdb83b	0.4017962
93	0xbefcdaf8	-0.4938581
94	0xbfac1aad	-1.3445641
95	0xbdcfc315	-0.10144631
96	0x3f9c41c9	1.2207576
97	0xbf56f6aa	-0.8397013
98	0x3ebd118b	0.36927447
99	0x3f0c48b0	0.5479841
100	0xbebd9a4e	-0.37031788
101	0xbeb2816e	-0.34864372
102	0xbf04baaf	-0.51847357
103	0xc088bd39	-4.2730985
104	0x3dbbf620	0.09177804
105	0x3eafa368	0.34304357
106	0xbf02d788	-0.51110125
107	0xbf487a80	-0.7831192
108	0xbe9c1214	-0.30482543
109	0xbf06c472	-0.526435
110	0xbef3f485	-0.4764749
111	0x3ef497c8	0.4777205
112	0xbf023391	-0.50859934
113	0x40195fde	2.3964763
114	0x3f8a7e79	1.0819846
115	0x3dafda97	0.085866146
116	0x3faed7c1	1.3659593
117	0x3f0a2976	0.53969514
118	0xbef837bb	-0.4848002
119	0x3e859984	0.26093686
120	0xbf99f6f0	-1.2028484
121	0x3f4efd07	0.8085484
122	0xc01090da	-2.258841
123	0xbe89a736	-0.26885384
124	0xbe96dbbb	-0.29464516
125	0x3e8e0ea7	0.27745554
126	0xbd374f81	-0.044753555
127	0x3d29ddbd	0.04147123
128	0x3e8d5e08	0.27610803
129	0xbd80935f	-0.06278109
130	0x3e4b5808	0.198578
131	0xbeb75084	-0.35803616
132	0xbf3f5c05	-0.74749786
133	0x3e95f445	0.29287925
134	0x3f3dd89d	0.7415865
135	0x3d2d3a5c	0.042291984
136	0xbfa5c312	-1.2950156
137	0xbf30e350	-0.6909685
138	0xbec4cacd	-0.38435975
139	0xbe4504a5	-0.19240053
140	0xbe95d454	-0.29263556
141	0x3efeb763	0.49749288
142	0xbfa3f345	-1.2808615
143	0xc05a6190	-3.4122047
144	0x3fa47e35	1.2851015
145	0x3c21dc21	0.009879143
146	0x3f05a08e	0.5219811
147	0xbf15a194	-0.58449674
148	0xbf8ef9b2	-1.1169951
149	0x3d95a6fb	0.073072396
150	0xbea7b724	-0.32756913
151	0x3e1782a4	0.14795929
152	0xbfb0fbae	-1.3826807
153	0xbf41efa0	-0.75756264
154	0xbf152e79	-0.58274037
155	0xbe0a8c7c	-0.13530153
156	0xbe1e74f5	-0.15474303
157	0xbe3c5609	-0.18392195
158	0xbf82cb95	-1.0218378
159	0x3e041262	0.12897637
160	0x3ee1d443	0.44107255
161	0xbe92878e	-0.28619045
162	0x3fc4e958	1.5383711
163	0xbf96ea1b	-1.1790193
164	0xbf5c279a	-0.8599793
165	0xbe874b77	-0.26424763
166	0x3e90f97a	0.28315336
167	0xbf46a036	-0.7758821
168	0x3f24569f	0.64194673
169	0x3eea3a2f	0.45747516
170	0x3e6ffcb1	0.23436238
171	0xbcdf6958	-0.027271912
172	0xbf0291ab	-0.5100352
173	0xbe44fdb1	-0.192374
174	0xbf454a79	-0.7706676
175	0x3d88b0ec	0.0667437
176	0x3ec17df2	0.377914
177	0xbf218b71	-0.63103396
178	0x3f8d6bd1	1.1048528
179	0xbe4f1f2f	-0.2022674
180	0x3ee24d14	0.4419943
181	0x3f508408	0.81451464
182	0x3cb1e124	0.0217138
183	0x3f087d57	0.53316253
184	0x3f18ad14	0.59639096
185	0x3f33711b	0.7009446
186	0xbe0869f5	-0.1332167
187	0xbf5c51a4	-0.86062074
188	0x3ee8ac97	0.45444176
189	0x3f36b87f	0.7137527
190	0xbf0601aa	-0.5234629
191	0x3f068d4f	0.5255937
192	0x3ffd6ca8	1.9798784
193	0x3f9a82bd	1.2071148
194	0xbec15602	-0.3776093
195	0x3e2aede1	0.16692306
196	0xbf042b0e	-0.51628196
197	0xbe31f9d1	-0.17380454
198	0xbf106528	-0.5640435
199	0xbcf1e1f6	-0.029526692
200	0x3e051a0f	0.12998222
201	0xbf09b4d7	-0.53791565
202	0x3e0a9605	0.1353379
203	0xbf487bbf	-0.7831382
204	0x3e499554	0.1968587
205	0x3e45a974	0.19302922
206	0x3eb10f64	0.34582055
207	0x3f5d4fc0	0.86449814
208	0xbed563f3	-0.41677818
209	0x3f177f8a	0.59178984
210	0xbea67206	-0.32508868
211	0x3f466e69	0.7751222
212	0x3ff4b870	1.9118786
213	0xc011a5d4	-2.2757463
214	0xbeb02fea	-0.34411556
215	0x3f42fab1	0.76163775
216	0x3f3ff17f	0.7497787
217	0xbf068844	-0.52551675
218	0x3fb47d53	1.4100746
219	0xbe9aa8b1	-0.30206826
220	0xbe7aa637	-0.24477468
221	0x3f2bc734	0.67100835
222	0x3f2ffa75	0.6874154
223	0xbf9d61f0	-1.2295513
224	0x3fb33cc5	1.400292
225	0xbf6006ee	-0.87510574
226	0x3f9701b2	1.1797392
227	0xbf010167	-0.50392765
228	0xbd3b3c7e	-0.045711987
229	0x3edef137	0.43543407
230	0xbf174c47	-0.59100765
231	0xbf689650	-0.9085436
232	0xbf7475a6	-0.9549202
233	0x3e8343a0	0.2563753
234	0xbfbc5356	-1.4712932
235	0x3cd3851b	0.025820306
236	0xbfcaf1a6	-1.5854995
237	0x3e26d698	0.16292799
238	0xbfcbbbb4	-1.5916657
239	0xbd604c73	-0.054760408
240	0x3e3bd33e	0.18342301
241	0x3eead152	0.45862824
242	0xbf9c6fc0	-1.2221603
243	0x4021eec9	2.5301993
244	0xbdd0ff88	-0.10204989
245	0xbf050366	-0.5195831
246	0xbfa56847	-1.2922448
247	0x3f707a93	0.93937033
248	0xbf79968c	-0.9749534
249	0xbdf70221	-0.12060953
250	0x3d193035	0.03739949
251	0xbe7bfd12	-0.24608257
252	0x3f2d182f	0.67615026
253	0xbff20b33	-1.8909668
254	0x3f9323ff	1.149536
255	0xbe92c157	-0.28663132

bias f4 [64]
0	0xbeb3bdf6	-0.35105866
1	0x3eb047b6	0.3442971
2	0x3e281a4d	0.16416283
3	0xbff27f13	-1.894503
4	0xbff4f763	-1.9137996
5	0x3d8806a8	0.066418946
6	0x3d632c76	0.055462323
7	0x3e82f933	0.2558075
8	0xbf26049a	-0.6485077
9	0xbf570459	-0.8399101
10	0x3f191144	0.5979197
11	0x3f09f351	0.53886896
12	0x3dc35771	0.095381625
13	0xc04b9419	-3.1809142
14	0xbfb7c2cd	-1.4356323
15	0x3bca6bb5	0.0061773905
16	0xbf974c43	-1.1820148
17	0xbf51c9a4	-0.81948304
18	0xbff48ca1	-1.9105417
19	0x3ec30415	0.38089052
20	0xbf4b6006	-0.79443395
21	0x3d825f2d	0.063658096
22	0xbf42ef46	-0.7614635
23	0xbfe4d1f8	-1.7876577
24	0x3e331be3	0.17491107
25	0xc0510b10	-3.2663002
26	0x3f3d132f	0.73857397
27	0x3d97aa24	0.074054986
28	0xc018255b	-2.37728
29	0x3f9389c9	1.1526424
30	0x3d5b22be	0.05349993
31	0xbf38450b	-0.7198035
32	0x3e510298	0.20411146
33	0xbdb5685f	-0.08857798
34	0xbe24c4aa	-0.16090646
35	0xc0033bc0	-2.0505219
36	0x3f83a89f	1.0285834
37	0x3fb9e48e	1.4522874
38	0x3f2b338a	0.6687552
39	0xbfd60c63	-1.672253
40	0x3f8f08bd	1.1174542
41	0xbfa08239	-1.2539741
42	0xbfb7ff01	-1.4374696
43	0xc0057e33	-2.0858276
44	0xbec796b0	-0.38982153
45	0x3e508fb6	0.20367321
46	0xbea9e6d6	-0.33183926
47	0xbe63150a	-0.22175995
48	0xbfa3a968	-1.2786074
49	0xbe938d70	-0.28818846
50	0x3f3f3e09	0.74704033
51	0x3f21c446	0.63190114
52	0xbf292ecd	-0.6608704
53	0x3f4b7a88	0.7948384
54	0xbf0a79c9	-0.5409208
55	0xbead1a5b	-0.3380917
56	0x3f8cfda4	1.1014905
57	0xbf119024	-0.56860566
58	0x3e53185e	0.20614764
59	0xbf99bee5	-1.2011381
60	0xbf545964	-0.829489
61	0x3ca2163d	0.019785995
62	0x3fc41d6d	1.532148
63	0x3f5325c9	0.8247953

weight f4 [64, 64]
0	0xbf6e8002	-0.93164074
1	0xbfa9c0c5	-1.3261954
2	0x3f78a828	0.97131586
3	0x3eeaef38	0.45885634
4	0xbd831086	-0.06399636
5	0x3dfb20d7	0.12262123
6	0x3dd52cc7	0.10408931
7	0xc00cad3f	-2.198074
8	0x3f57f2b9	0.8435474
9	0x3f25f080	0.648201
10	0x3f305519	0.6887985
11	0xbf844cb3	-1.0335907
12	0xbeebf388	-0.46084237
13	0xbe7c6e64	-0.24651486
14	0x3ec5e247	0.38649198
15	0xbf92db93	-1.1473259
16	0x3f04d1a6	0.518824
17	0x3d7be056	0.06149324
18	0xbfa78901	-1.3088685
19	0xc00574f3	-2.085263
20	0xbd8ddce7	-0.069268994
21	0xbececf12	-0.40392357
22	0xbeb4d1cf	-0.3531632
23	0xbe0f76c3	-0.14010148
24	0x3d1d5332	0.03840942
25	0xc04e20b0	-3.220745
26	0xbf118ba3	-0.56853694
27	0xbdba9b19	-0.09111614
28	0x3f1ddde7	0.6166672
29	0x3f305d1e	0.68892086
30	0x3ebbc551	0.36673978
31	0x3f3a9ad4	0.728925
32	0xbf837028	-1.0268602
33	0xbf7f6d6b	-0.99776334
34	0xbf849e9f	-1.0360907
35	0x3e280519	0.16408195
36	0xc08951bc	-4.2912273
37	0xbf052f3d	-0.52025205
38	0xbf5281ab	-0.8222911
39	0xbfd2b503	-1.646149
40	0x3f43d8ab	0.76502484
41	0xbebe4ec8	-0.3716948
42	0xbf1c711b	-0.61110085
43	0x3f0c4e5e	0.5480708
44	0x3ea2e532	0.31815487
45	0xbfa0e598	-1.2570066
46	0xbfad7179	-1.3550254
47	0xbed933bc	-0.42422283
48	0xbe2df77a	-0.16988936
49	0xbdeadda8	-0.11468059
50	0xc0079ae0	-2.1188278
51	0xbd90f600	-0.07078171
52	0xbeab1bd4	-0.3341967
53	0x3e8a2f88	0.26989388
54	0x3f45ce4f	0.77267927
55	0xc0222199	-2.5333006
56	0xc00fd3ed	-2.24731
57	0xbf4e68bf	-0.8062858
58	0x3f07e208	0.5307927
59	0xbf052bdc	-0.5202005
60	0xc006f4ee	-2.1086993
61	0xbe400f89	-0.18755926
62	0xbe7f8519	-0.24953116
63	0x3edd5787	0.4323084
64	0xbfca5140	-1.5806046
65	0x3f1d3eed	0.6142414
66	0x3e3cd91f	0.184422
67	0xbf9700ea	-1.1797154
68	0xbe8d6ace	-0.27620548
69	0xbf0fef90	-0.5622492
70	0xbf98bafc	-1.1932063
71	0xbe623141	-0.22089101
72	0xbeb2b369	-0.34902504
73	0xbf036df7	-0.5133967
74	0x3f642337	0.89116234
75	0xbf1c2cf8	-0.61006117
76	0xbf0f78e2	-0.5604383
77	0xbe9a8242	-0.30177504
78	0x3f69c464	0.91315293
79	0x3f597767	0.8494782
80	0x3f350a99	0.70719296
81	0xbfa090c1	-1.2544175
82	0xbfa1f9d2	-1.2654364
83	0xbe58c54f	-0.21169017
84	0xbff05a2d	-1.877752
85	0xc01dedf0	-2.4676476
86	0xbebbf7e6	-0.3671257
87	0xbfc23786	-1.5173194
88	0x3e9693c2	0.29409605
89	0xbfbdd0f2	-1.482939
90	0xbf441956	-0.7660116
91	0x3e7a4598	0.2444061
92	0xbfabab26	-1.3411605
93	0xbe8e48bf	-0.27789876
94	0x3f5cfcf5	0.8632348
95	0xbec0abcb	-0.37631068
96	0xbf027e9e	-0.5097445
97	0xbf2c7134	-0.67360234
98	0x3e9ab74c	0.3021797
99	0xbefae004	-0.48999035
100	0xbf3ae96b	-0.7301242
101	0xbe385ab1	-0.18003346
102	0x3e4201ee	0.18946049
103	0xbede1471	-0.4337497
104	0x3f19d796	0.60094583
105	0xbfd9fff1	-1.7031232
106	0xbf78617f	-0.9702377
107	0xbf77c0d3	-0.967786
108	0xbfa6a385	-1.3018652
109	0x3e879db1	0.26487496
110	0xbfdfedf1	-1.7494489
111	0xc0561c07	-3.3454607
112	0xbde3d307	-0.11124235
113	0xbf63f45c	-0.8904474
114	0xbf7de2b9	-0.99174076
115	0xbf8eea02	-1.1165164
116	0xbe2b8bbd	-0.16752525
117	0xbe8fce86	-0.28087252
118	0x3f36f16d	0.71462137
119	0xbcf316bb	-0.029673925
120	0xbe365316	-0.17805132
121	0xbeded5af	-0.43522403
122	0xc016860d	-2.3519318
123	0xbe378054	-0.17920047
124	0xbf03a7f0	-0.5142813
125	0xbf8f5b66	-1.1199768
126	0xbf9959f8	-1.1980581
127	0x3f408d4a	0.7521559
128	0x3f489d2b	0.7836482
129	0x3f4d952c	0.80305743
130	0x3dfba8be	0.122880444
131	0x3e88cf39	0.26720598
132	0xbf5e8df7	-0.8693537
133	0x3fc7fd8c	1.5624251
134	0x3e4c8dab	0.19975917
135	0x3fa93fd9	1.322261
136	0xbf619b3c	-0.88127494
137	0x3c3cd23c	0.011524733
138	0x3e601093	0.21881323
139	0xbf022297	-0.5083403
140	0x3e9a2e65	0.3011352
141	0xbff8c173	-1.9434036
142	0x3ef08880	0.4697914
143	0xbf95afa0	-1.1694221
144	0x3e0c5479	0.13704099
145	0x3f9fb072	1.2475722
146	0xbf127481	-0.5720902
147	0xbeb9d5f2	-0.3629604
148	0x3f6dc550	0.928792
149	0x3faafe7e	1.3358915
150	0x3e223545	0.15840633
151	0x3e956c19	0.29184034
152	0xbfc7c5dc	-1.5607257
153	0xc006d583	-2.1067817
154	0x3ef5da2e	0.4801802
155	0xbf2d0636	-0.675876
156	0xbf44b82f	-0.7684354
157	0xbd175267	-0.03694382
158	0x3efc793c	0.49311244
159	0x3ef6c389	0.48196056
160	0x3ecb8c02	0.39755255
161	0xbf434145	-0.7627147
162	0xbe1d4356	-0.15357718
163	0xbe225e9b	-0.15856402
164	0xbf1bd176	-0.6086649
165	0x3f968d3a	1.1761849
166	0xbf3b1dad	-0.73092157
167	0xbfc45adf	-1.5340232
168	0x3f936182	1.1514132
169	0xbe0d5dfd	-0.13805385
170	0xbf4b778a	-0.7947928
171	0x3f486c9b	0.7829072
172	0x3fc4c7d9	1.5373489
173	0x3edd86de	0.43266958
174	0xbf4e7d09	-0.8065954
175	0xbfb5e5b5	-1.4210726
176	0xbe9a7603	-0.3016816
177	0x3f8c812c	1.097692
178	0xbf9b1862	-1.2116816
179	0xbeec703b	-0.46179375
180	0x3f5ce552	0.86287415
181	0x3faa232d	1.3291985
182	0xbf253289	-0.64530236
183	0xbed3cb55	-0.41366068
184	0xbb9f83e8	-0.0048680194
185	0xbd7a1cdf	-0.06106269
186	0x3ebf48a2	0.37360102
187	0x3f55721f	0.8337726
188	0xbe465ea8	-0.19372046
189	0x3e00b2b4	0.1256817
190	0xbfc2214e	-1.5166414
191	0xbebe8f8b	-0.3721889
192	0x3d760efc	0.060072884
193	0xbe21cc21	-0.15800525
194	0x3f0df159	0.5544639
195	0xbf07fc4c	-0.5311935
196	0x3db9d709	0.09074218
197	0x3f89bc7a	1.0760643
198	0x3e8d2f7a	0.27575284
199	0x3c517370	0.01278387
200	0x3d820323	0.063482545
201	0x3edef217	0.43544075
202	0x3eaf1a05	0.3419954
203	0x3eab248d	0.33426324
204	0xbda90e4d	-0.08254681
205	0xc0036268	-2.0528812
206	0xbd12af31	-0.035811607
207	0x3ed6d1c9	0.41956928
208	0xc0172e5a	-2.362204
209	0x3f1a98f8	0.6038966
210	0xbf88e559	-1.0694991
211	0x3fa94041	1.3222734
212	0x3d125a1e	0.035730474
213	0xbd2a12e2	-0.041521914
214	0xbf902557	-1.1261395
215	0xbd587839	-0.05284903
216	0x3ef92ff4	0.48669398
217	0x3ed1d6fa	0.40984327
218	0xbebba861	-0.366519
219	0x400cf3b7	2.2023752
220	0xbf44a829	-0.7681909
221	0x3eacf770	0.3378253
222	0xbf5ba96d	-0.858054
223	0xbf60b5c6	-0.87777364
224	0xbeda41cc	-0.42628324
225	0xbb982c42	-0.004643948
226	0x3f94b888	1.1618814
227	0xbf878137	-1.0586308
228	0xbf328ca6	-0.6974586
229	0x3f549a26	0.8304771
230	0xbee868ab	-0.45392355
231	0x3edd384f	0.43207023
232	0xbdda47ed	-0.1065825
233	0xbea3c213	-0.31984004
234	0xbf31edf9	-0.6950374
235	0xbd02ba7b	-0.031916123
236	0x3eaf1d6f	0.34202144
237	0xbedc117e	-0.42982095
238	0xbe625be7	-0.2210537
239	0xbf8f96b2	-1.1217864
240	0xbfb3694a	-1.4016507
241	0xbd6c7402	-0.05772782
242	0x3ed78ae9	0.42098168
243	0xbec8acc6	-0.39194316
244	0xbfa152fb	-1.2603449
245	0x3f6f0e01	0.93380743
246	0xbfa4b87c	-1.28688
247	0x3e4b6756	0.19863638
248	0x3fbf3f69	1.4941226
249	0xbf5c5bd7	-0.86077636
250	0x3d8a159a	0.067424014
251	0xbedf21f7	-0.435806
252	0xbf1431e6	-0.5788864
253	0xbea4e923	-0.3220912
254	0xbf9c04f0	-1.2189007
255	0x3d9ea33c	0.07745978

bias f4 [64]
0	0x3e6be79f	0.23037575
1	0x3e040dd7	0.12895904
2	0x3e241674	0.1602419
3	0x3e089986	0.13339815
4	0xbe391012	-0.18072537
5	0xbe002120	-0.12512636
6	0x3dd9eabb	0.106404744
7	0x3ca8a8af	0.020588247
8	0x3f2d43af	0.676814
9	0xbe51ef3d	-0.20501418
10	0xbf10b75c	-0.56529784
11	0x3e8b2bdb	0.27181897
12	0x3f4056a4	0.75132203
13	0xbdeb4e40	-0.114895344
14	0x3c303325	0.010754381
15	0x3e6c90ef	0.23102163
16	0x3d509430	0.050922573
17	0xbef3e7b7	-0.47637722
18	0x3db57d0b	0.08861741
19	0xbe0cbd9e	-0.13744208
20	0x3e45f01b	0.19329874
21	0x3fb3e911	1.4055501
22	0xbeba9980	-0.36445236
23	0x3ec6c3b9	0.388212
24	0x3e35ff5e	0.17773196
25	0xbe151f7b	-0.1456279
26	0x3e3ebd79	0.18626966
27	0xbe001420	-0.12507677
28	0xbe23177f	-0.15926932
29	0x3ec94823	0.39312848
30	0xbed80b28	-0.42196012
31	0x3e912834	0.28350985
32	0xbe15dee9	-0.14635815
33	0xbeb07913	-0.34467372
34	0xbe63bc24	-0.22239739
35	0xbdbd7f39	-0.092527814
36	0x3e07001e	0.13183638
37	0xbeddd9b8	-0.4333017
38	0xbcdba039	-0.026809799
39	0xbb000aae	-0.0019537616
40	0x3e7fd37f	0.24983023
41	0x3ea4ec7a	0.32211667
42	0x3e1aefe7	0.15130578
43	0x3dbe6c45	0.092979945
44	0x3d73c189	0.05951074
45	0x3eaece42	0.34141737
46	0x3d7345b2	0.05939264
47	0xbdc9d7d9	-0.09855623
48	0xbd7f5cbd	-0.0623443
49	0xbe4728da	-0.19449177
50	0x3f105f09	0.5639501
51	0x3f02ce2e	0.51095855
52	0xbd6553b2	-0.05598802
53	0x3d604472	0.054752775
54	0xbd4533f9	-0.048145268
55	0x3df32102	0.1187153
56	0xbef4a9a6	-0.4778568
57	0x3e27743f	0.16352938
58	0xbde07a5a	-0.10960837
59	0x3fd1d4ee	1.6393106
60	0xbfa19227	-1.2622727
61	0xbef2e02b	-0.47436652
62	0x3e0d37c1	0.137908
63	0xbee13f0a	-0.43993407

weight f4 [10, 64]
0	0xbf0dc52e	-0.55379
1	0x3e6730e3	0.22577243
2	0xbe4f55a6	-0.20247516
3	0xbd020edc	-0.031752452
4	0x3cb55cb6	0.022138935
5	0x3da341e0	0.07971549
6	0xbd0018f6	-0.031273805
7	0xbe3fd5e8	-0.18733943
8	0xbe627fd0	-0.22119069
9	0x3f0a0aef	0.53922933
10	0x3fbc840c	1.4727798
11	0xbf88f7f5	-1.070067
12	0xbeb4d4b9	-0.35318545
13	0xbd065e6c	-0.03280489
14	0x3c7f3d2d	0.01557855
15	0xbea20dbf	-0.31651112
16	0xbe905d9c	-0.28196418
17	0xbe30c6d0	-0.17263341
18	0xbc80e08d	-0.015732074
19	0x3c78100b	0.015140544
20	0xbfaad399	-1.3345824
21	0x3f189d35	0.5961488
22	0xbf89f0e6	-1.0776641
23	0x3de6828a	0.11255367
24	0x3ee747bb	0.45171914
25	0x3ec4ac93	0.38412914
26	0xbfa69e2c	-1.301702
27	0x3f13354a	0.5750319
28	0xbf163270	-0.5867071
29	0x3e498e08	0.19683087
30	0xbfa5a77c	-1.2941737
31	0x3cd52e47	0.026023043
32	0x3d40dba6	0.047084473
33	0x3f0ed428	0.55792475
34	0xbe907a86	-0.28218478
35	0x3e95d626	0.29264945
36	0x3ef54925	0.47907367
37	0xbe1663a6	-0.1468645
38	0x3d09dc5b	0.033657413
39	0xbd416575	-0.047215898
40	0x3e80d217	0.25160286
41	0x3f7e3bda	0.99310076
42	0xbea8e541	-0.32987407
43	0xbeb4cf23	-0.35314283
44	0x3fa0e20b	1.2568983
45	0x3ff1be64	1.8886228
46	0x3e9a087c	0.30084598
47	0x3d8d3a33	0.06895866
48	0x3f4d7f85	0.80272704
49	0x3bb48058	0.005508464
50	0xbf1d9109	-0.6154943
51	0x3efd8e31	0.49522546
52	0xbff0bbe3	-1.8807338
53	0x3df6ec96	0.12056844
54	0x3eee8c0b	0.4659122
55	0xbeb75866	-0.3580963
56	0xc0027995	-2.0386708
57	0xbfcafc9e	-1.5858343
58	0x3e7e359e	0.24825141
59	0x3e9e011f	0.3086023
60	0xbf02e6d6	-0.5113348
61	0xbfb7c6e0	-1.4357567
62	0x3e09aa1c	0.13443798
63	0xbe9d4b24	-0.3072139
64	0xbf756956	-0.95863855
65	0x3c1c65a6	0.009545719
66	0x3e4a9cec	0.19786423
67	0xbf45d046	-0.77270925
68	0xbae294df	-0.0017286799
69	0x3b2d215a	0.0026417584
70	0xbeb2cac0	-0.3492031
71	0x3f0be612	0.54647934
72	0x3e342fd8	0.17596376
73	0xbfd13368	-1.6343813
74	0x3f81c02c	1.0136771
75	0x3f432722	0.76231587
76	0xbf19d019	-0.60083157
77	0xbd4ce49a	-0.0500227
78	0x3e243f48	0.16039765
79	0x3f3b279f	0.7310733
80	0x3e2d013c	0.16895002
81	0xbf33f30a	-0.70292723
82	0xbd5b330b	-0.053515475
83	0x3cc17bf2	0.023618672
84	0x3f86676a	1.050031
85	0x3cc15027	0.02359779
86	0xbfcc3b05	-1.5955511
87	0x3f37a216	0.717317
88	0x402b28b0	2.6743584
89	0xbe939be1	-0.28829864
90	0xbf8bf5fc	-1.0934443
91	0xbf20eb8f	-0.62859434
92	0x3e0480e2	0.1293979
93	0x3df679b8	0.12034935
94	0xbc1866b8	-0.009301834
95	0x3f0e79c8	0.55654573
96	0x3b981d1e	0.004642143
97	0xbc96ac11	-0.018392595
98	0xbd6cd691	-0.057821814
99	0xbff3ded9	-1.9052383
100	0xbf48f20b	-0.7849433
101	0xbfaacf22	-1.3344462
102	0x3f967cd9	1.175685
103	0xbd8e7610	-0.069561124
104	0x3cb127d6	0.02162544
105	0xbed2c74f	-0.41167685
106	0xc04a77b0	-3.1635551
107	0xbe88029a	-0.26564485
108	0x3d244744	0.040107027
109	0xc072c2db	-3.793143
110	0xc083692a	-4.1065874
111	0x3dcd08c0	0.100114346
112	0xc06e2f5c	-3.7216406
113	0x3dfdc54e	0.123911485
114	0xbe3863e7	-0.1800686
115	0xbeb5cab3	-0.3550621
116	0xbfbc45b8	-1.4708776
117	0x3ee5be2c	0.44871652
118	0x3dda0067	0.10644608
119	0x3eb9308d	0.36169854
120	0xbdf86ad1	-0.121297486
121	0xbc6a89ba	-0.014315063
122	0xbdb692bb	-0.08914705
123	0x3e5293ac	0.20564145
124	0xbeda50c8	-0.42639756
125	0xbfb08f05	-1.3793646
126	0x3ba25e4e	0.0049550897
127	0x3ecbda99	0.39815214
128	0x3f426b18	0.7594466
129	0x3dabcb0a	0.08388336
130	0x3e51301b	0.20428507
131	0xbea69a3f	-0.32539555
132	0xbe2ad767	-0.16683732
133	0xbd0add5a	-0.033902504
134	0xbdaaf0ba	-0.08346696
135	0xbfd3707e	-1.6518705
136	0x3ef0994f	0.46991965
137	0xbe390b8d	-0.18070813
138	0xbe683e0b	-0.22679918
139	0xbe2a39c6	-0.16623601
140	0x3f1c300c	0.61010814
141	0xbbe239f7	-0.0069038826
142	0x3d96cd24	0.07363346
143	0xbf153ba2	-0.5829412
144	0xbd6bc818	-0.05756387
145	0x3fabe0ff	1.3428038
146	0x3d903ef1	0.07043255
147	0x3d7cdccd	0.06173401
148	0xbe6fd86e	-0.23422405
149	0x3eeeb690	0.4662366
150	0x3f69c984	0.91323113
151	0x3eea74f3	0.4579235
152	0xc00c310b	-2.1904933
153	0x3f8689cd	1.0510803
154	0x3df9eed2	0.122037545
155	0xbe65bc50	-0.22435117
156	0xbe71cdff	-0.23613738
157	0x3f1e9af1	0.6195517
158	0xbf2e02a5	-0.67972785
159	0x3eb35a5d	0.3502988
160	0x3d13f6c0	0.03612399
161	0x3f1e4676	0.61826265
162	0xbe8185df	-0.25297448
163	0xbe43bb40	-0.19114399
164	0x3f1bbcba	0.6083485
165	0x3e0dbbe1	0.13841201
166	0xbf51c142	-0.81935513
167	0x3c7a5fb1	0.015281604
168	0xbe90f6bc	-0.28313243
169	0x3ff6a79a	1.9269898
170	0xbf6cb1db	-0.92458886
171	0xbf172807	-0.5904545
172	0x3eea5513	0.4576803
173	0xbfd82b6e	-1.6888254
174	0xc03ff27f	-2.9991758
175	0x3e211fa4	0.15734726
176	0x3fb10f17	1.383273
177	0xbebe72d4	-0.37196982
178	0x3dd0253b	0.10163351
179	0xbf610bb3	-0.87908477
180	0xbf83bed1	-1.0292608
181	0xbe385841	-0.18002416
182	0xbeac6fcb	-0.3367904
183	0xbf09ac4a	-0.5377852
184	0x3fe9b6be	1.8258893
185	0xbf37bedf	-0.7177562
186	0xbe339502	-0.1753731
187	0x3ee9d2fe	0.45668787
188	0x3dca91fe	0.09891127
189	0x3c3e0d26	0.0115998145
190	0x3d6e2bef	0.058147367
191	0xbf06f484	-0.5271685
192	0x3fd2c57a	1.6466515
193	0xbf0e1bd3	-0.55511206
194	0x3d6e2134	0.058137134
195	0x3ea50643	0.3223134
196	0x3d93ac80	0.07210636
197	0x3da7e479	0.081978746
198	0x3ebf364d	0.37346116
199	0x3f2724ab	0.65290326
200	0xbcfd0c4f	-0.030889658
201	0x3fae7db8	1.3632116
202	0xbf928524	-1.1446881
203	0x3ed6b040	0.41931343
204	0xbe32e4a8	-0.17470038
205	0xbd241ef8	-0.040068597
206	0xbd606c4b	-0.054790776
207	0xbe6486ce	-0.22317049
208	0x3eb85c6a	0.36008006
209	0xbd4d57c8	-0.050132543
210	0x3ea9cd20	0.3316431
211	0x3bcf11b9	0.0063192514
212	0x3f855f01	1.0419618
213	0xbea01285	-0.3126413
214	0x3f4c8469	0.7988954
215	0x3d9f7e9c	0.07787821
216	0xbfea1dbe	-1.8290327
217	0x3ed0ace3	0.40756902
218	0x3e8e7685	0.27824798
219	0xbe1c91db	-0.15290014
220	0x3f05254b	0.5201003
221	0x3d992421	0.07477594
222	0xbf8f73aa	-1.1207173
223	0xbe90b7c9	-0.28265217
224	0xbc0d5ff6	-0.008628836
225	0x3e428d93	0.18999319
226	0x3d1879bf	0.03722548
227	0x3f5b1f06	0.85594213
228	0x3e2fb089	0.17157187
229	0x3f9718ee	1.1804483
230	0x3ff76b89	1.9329692
231	0xbb5a8ec9	-0.0033349267
232	0xbcfcdb1f	-0.030866204
233	0x3972433f	0.0002310397
234	0x3e1fbc12	0.15599087
235	0xbd0c82de	-0.034304492
236	0xbebced1f	-0.3689966
237	0x3ec30bb6	0.38094872
238	0x3fe8dd4f	1.8192538
239	0x38f853b0	0.000118411495
240	0xbfc1750d	-1.5113846
241	0x3c0fbcb4	0.008773018
242	0xbdb66182	-0.08905317
243	0x3ecef4af	0.40421054
244	0x3f7fef89	0.99974877
245	0xbe8e6078	-0.27807975
246	0xbeffa80c	-0.49932897
247	0xbee9a978	-0.45637107
248	0x3ffee659	1.9914047
249	0x3f1fcec8	0.624249
250	0xbd84074b	-0.064467035
251	0xbdf541fd	-0.11975477
252	0xbddaadbf	-0.10677671
253	0x3fc9211e	1.5713232
254	0x3e037ec0	0.1284132
255	0x3e6fbd93	0.2341216

bias f4 [10]
0	0x3facd881	1.3503572
1	0x3f4979cb	0.78701466
2	0xbf2b03aa	-0.66802466
3	0x3fa16e3c	1.2611766
4	0x3fb9a906	1.4504707
5	0xbf6e43d0	-0.93072224
6	0x3f268cca	0.6505858
7	0xbfaca571	-1.3487989
8	0xc01b666d	-2.4281266
9	0x3f0d8df1	0.5529471

weight f4 [10, 64]
0	0x3f299166	0.66237485
1	0x3f3c5ed9	0.73582226
2	0xbe133c8d	-0.14378567
3	0x3d22a5fe	0.039709084
4	0xbe1bb3a8	-0.15205252
5	0xbdea6a55	-0.114460625
6	0xbf052b9b	-0.5201966
7	0x3eaf3ec3	0.3422757
8	0x3e38738d	0.18012829
9	0x3fa510ff	1.2895812
10	0x3f1ddaeb	0.6166217
11	0x3f0b2592	0.543542
12	0xbd91f8a4	-0.071275026
13	0xbd77e0a7	-0.06051698
14	0x3ce2c3f7	0.027681334
15	0x3f01f24c	0.5076034
16	0xbecf6806	-0.4050905
17	0xbf150c02	-0.5822145
18	0x3e0b2068	0.13586581
19	0x3cfd19c3	0.030896073
20	0x3f629278	0.88504744
21	0x3f1ba29e	0.6079501
22	0xbe4ac13e	-0.19800279
23	0xbc11727c	-0.008877393
24	0x3f063672	0.52426827
25	0x3f596503	0.84919757
26	0x3f0da2ed	0.5532673
27	0x3e3f03f2	0.18653849
28	0xbdbaaa63	-0.0911453
29	0xbc61e02b	-0.013786356
30	0x3ece6b74	0.40316355
31	0x3e5fccac	0.2185542
32	0x3dfc292c	0.123125404
33	0x3e8e04f4	0.27738154
34	0x3d58141c	0.052753553
35	0x3f1b88f6	0.6075586
36	0x3e50d522	0.20393804
37	0x3f478afd	0.77946454
38	0x3f90b04b	1.13038
39	0x3b6f0a99	0.0036474823
40	0xbdc738ac	-0.09727606
41	0x3f40ac8c	0.75263286
42	0x3e936b28	0.2879269
43	0xbe46da05	-0.19419105
44	0x3f2bef43	0.6716196
45	0x3fb80bdc	1.4378619
46	0x3fa37bc9	1.2772151
47	0x39846027	0.0002524864
48	0x3fb2e068	1.3974733
49	0x3d942338	0.0723328
50	0xbde654f6	-0.11246674
51	0x3e94c5ab	0.2905706
52	0x3f46a8e1	0.7760144
53	0x3e25d570	0.16194701
54	0x3ebc9608	0.36833215
55	0x3d3a6c62	0.04551352
56	0xbeb9d5a8	-0.3629582
57	0x3ef834c4	0.48477757
58	0xbcd850c5	-0.026405701
59	0x3d903542	0.07041408
60	0x3dcfbf9b	0.10143968
61	0x3f694d81	0.91133887
62	0xbe0226e6	-0.12710151
63	0x3f054648	0.52060366
64	0x3f8b0dd2	1.0863593
65	0x3ecbb934	0.39789736
66	0xbc43f6af	-0.011960669
67	0xbd0e950c	-0.03481011
68	0x3dd8145e	0.1055076
69	0x3d70c054	0.05877717
70	0x3d036eab	0.032087963
71	0x3ed01a28	0.40644956
72	0x3ce82e9a	0.028342534
73	0x3f259d0b	0.64692754
74	0x3f93bb32	1.1541502
75	0x3f678978	0.90444136
76	0xbd1801c1	-0.037111048
77	0xbdadc912	-0.08485617
78	0xbd9c0280	-0.07617664
79	0x3ef3e313	0.4763418
80	0x3e327300	0.17426682
81	0x3dad6440	0.08466387
82	0x3d7ca017	0.06167611
83	0x3c3d11f9	0.01153993
84	0x3f8935b7	1.0719517
85	0x3f09ce02	0.5382997
86	0x3db5c46f	0.08875357
87	0x3ec7ad6e	0.38999504
88	0x3f67e5d3	0.9058506
89	0x3f4296b7	0.7601122
90	0x3f13319f	0.5749759
91	0xbe5182ea	-0.20460096
92	0x3e8a5f2c	0.27025735
93	0xbcca3d76	-0.02468751
94	0x3e3c8739	0.18410958
95	0x3e3d58ef	0.18490957
96	0xbde49168	-0.111605465
97	0xbde70eba	-0.11282106
98	0x3e32ed38	0.17473304
99	0x3f8e4e33	1.1117615
100	0xbe309691	-0.17244937
101	0x3eb4a511	0.35282186
102	0x3e852c39	0.26010302
103	0x3df1e9b1	0.11812151
104	0xbe030952	-0.12796524
105	0xbe819327	-0.2530758
106	0x3f3d5031	0.7395049
107	0xbf3c0366	-0.73442686
108	0x3f1ce667	0.61289066
109	0x3c094eb4	0.008380581
110	0x3fc5a445	1.5440756
111	0xbd0dad42	-0.03458906
112	0x402a7616	2.6634574
113	0xbc382664	-0.011239622
114	0xbcb78d9f	-0.022406397
115	0x3e2d65d6	0.16933379
116	0x3f01a3b3	0.5064041
117	0x3f5052ba	0.8137623
118	0x3df43fb2	0.119262114
119	0x3e4a3c7e	0.19749638
120	0xbdb92992	-0.09041132
121	0x3d1ba29f	0.037996884
122	0xbd16a6a0	-0.03678
123	0x3e14f925	0.14548166
124	0x3da182b2	0.07886256
125	0x3f70ffc1	0.9414025
126	0x3d25f7d1	0.04051954
127	0x3ef2396e	0.4730944
128	0x3f445e35	0.7670625
129	0x3f794037	0.9736361
130	0x3b8b0f70	0.0042437837
131	0xbe4df87d	-0.20114322
132	0x3e0575be	0.13033196
133	0x3d4deb04	0.050272956
134	0xbe9f52fe	-0.31118006
135	0x3ecbdfe5	0.39819255
136	0x3db2fc20	0.08739495
137	0x3ee69b25	0.4504024
138	0x3f6ba27d	0.9204481
139	0x3f04d1ba	0.5188252
140	0x3ee031b6	0.43787926
141	0x3d1ea954	0.038735703
142	0x3d49be70	0.04925388
143	0xbec58958	-0.38581347
144	0x3ef9d5e0	0.48795986
145	0x3f24de3b	0.64401597
146	0x3e0fc679	0.14040555
147	0x3db98849	0.090591975
148	0xbeaf6bbc	-0.34261882
149	0x3f416397	0.7554259
150	0x3ea028ec	0.3128122
151	0x3f5aecc9	0.85517555
152	0x3f6445a6	0.89168775
153	0x3f8bc92e	1.092077
154	0x3f0dc450	0.55377674
155	0xbd190817	-0.03736123
156	0x3e7062e5	0.23475225
157	0x3e57455a	0.2102255
158	0x3f127a61	0.57217985
159	0xbd35b016	-0.04435738
160	0xbd37f1ba	-0.044908263
161	0x3f06bf6c	0.52635837
162	0x3d40b740	0.04704976
163	0x3f06cb5b	0.52654046
164	0x3dd15cd8	0.10222787
165	0x3f440462	0.7656919
166	0x3f8ec954	1.115519
167	0x3dde6818	0.10859698
168	0xbe896437	-0.2683427
169	0x3d141850	0.036156
170	0x3d88f164	0.066866666
171	0xbdd6ee0f	-0.10494625
172	0x3f171625	0.59018165
173	0x3f95d88e	1.1706712
174	0x3fad50fc	1.354034
175	0x3d405807	0.04695895
176	0xbe0c6e2c	-0.13713902
177	0x3e8677bd	0.26263228
178	0x3da137d0	0.078719735
179	0x3d31641c	0.043308362
180	0x3e073ea9	0.13207497
181	0x3e2e6600	0.17031097
182	0xbc8ed214	-0.017434157
183	0x3ed57d8a	0.4169734
184	0x3f89ba11	1.0759908
185	0x3ec34f42	0.38146406
186	0x3d6caa35	0.05777951
187	0x3da13f6f	0.07873427
188	0x3d8be505	0.068307914
189	0x3e792804	0.24331671
190	0xbd9c9611	-0.076458104
191	0x3fa0f6dd	1.2575337
192	0x4005c9b7	2.0904367
193	0x3e379170	0.17926574
194	0xbd1ab67a	-0.03777168
195	0x3eeca90f	0.4622273
196	0x3c30ca7e	0.010790465
197	0x3bf7792e	0.0075522875
198	0x3d2efa20	0.042719007
199	0x3f66d860	0.9017391
200	0xbcd6e31f	-0.026231347
201	0x3fcfd4b5	1.6236788
202	0x3f0d66dc	0.55235076
203	0x3f9408d2	1.1565192
204	0xbd87307a	-0.06601043
205	0x3cabc6e0	0.020968854
206	0xbc949e44	-0.018141873
207	0x3df57e71	0.119870074
208	0x3df6048c	0.12012586
209	0x3eaf180c	0.34198034
210	0x3e5574c4	0.20845324
211	0x3df616b5	0.1201605
212	0x3f8814b1	1.0631315
213	0x3e93670b	0.28789553
214	0x3ec003df	0.37502953
215	0x3e9a492f	0.3013396
216	0x3fe2f94f	1.7732333
217	0x3f5b3cae	0.85639465
218	0x3f3fb65d	0.7488764
219	0x3d432d2f	0.047650512
220	0x3e3d092a	0.18460527
221	0x3d845023	0.06460597
222	0x3f068d33	0.525592
223	0xbc810840	-0.015751004
224	0x3dc97601	0.098369606
225	0x3ecae2ed	0.39626256
226	0xbd4a0fd2	-0.049331494
227	0x3fb18269	1.3867923
228	0x3cd74674	0.026278712
229	0x3f70a484	0.9400103
230	0x4004f6a8	2.0775547
231	0x3b9bf0ff	0.0047589536
232	0xbdffbaf8	-0.12486833
233	0x3f790c91	0.972848
234	0x3f3a7fbe	0.7285117
235	0xbca7003b	-0.020385852
236	0x3e1c3e71	0.15258195
237	0x3eac851b	0.336953
238	0x3fd22690	1.6418018
239	0x3d6959f6	0.05697056
240	0x3f8b71bf	1.0894088
241	0x3e03d296	0.12873301
242	0x3c3177f4	0.010831822
243	0x3eef0439	0.4668291
244	0x3f3e8958	0.7442832
245	0x3daaea31	0.0834545
246	0x3d67c5ec	0.056585237
247	0x3e7e1df0	0.24816108
248	0x3f91d0f6	1.1391895
249	0x3f4a2f30	0.7897825
250	0x3dc5ec19	0.09664173
251	0xbd76cfb7	-0.060256686
252	0x3e42fb77	0.19041239
253	0x3f9fb016	1.2475612
254	0xbe1772a9	-0.14789833
255	0x3f84b71f	1.0368384

bias f4 [10]
0	0xc077b45d	-3.8703835
1	0xc08c951c	-4.393202
2	0xc090daef	-4.5267253
3	0xc0981db5	-4.7536263
4	0xc082d17f	-4.0880733
5	0xc084f950	-4.1554337
6	0xc09a0525	-4.813128
7	0xc08d5414	-4.4165134
8	0xc0a647df	-5.1962733
9	0xc08a20aa	-4.3164873

weight f4 [64, 20]
0	0xbf9899ec	-1.1921973
1	0x3f2b22b3	0.6684982
2	0x40b21723	5.5653243
3	0xc01220ae	-2.2832446
4	0xbfca759c	-1.5817142
5	0xbe9f2f81	-0.3109093
6	0x3f843c47	1.0330895
7	0x4028532e	2.630077
8	0x401dec6d	2.4675553
9	0xc0187e2d	-2.3827012
10	0xbed5741b	-0.41690144
11	0x3e86cda2	0.2632876
12	0xbf017f05	-0.5058444
13	0xbf62f1c2	-0.88650143
14	0xbf7b20df	-0.9809703
15	0xbe6c5780	-0.23080254
16	0x3e19b895	0.15011819
17	0xbf6d3bef	-0.92669576
18	0xbecb7577	-0.39738056
19	0xbd578163	-0.052613627
20	0x3f93bf57	1.1542767
21	0x3f522d0f	0.82100004
22	0xbeb4b86a	-0.35296947
23	0xc0a47986	-5.1398344
24	0x3f1af815	0.60534793
25	0x3e998094	0.2998091
26	0xc0b95b96	-5.79243
27	0xbfb5673d	-1.4172131
28	0xbf5dc925	-0.8663505
29	0xbf28d5ad	-0.65951043
30	0x3f03be46	0.5146221
31	0x3ed24a2a	0.41072208
32	0x3f2b8197	0.66994613
33	0x3ef8e13f	0.4860935
34	0xbec4e624	-0.38456833
35	0x3d8b4a64	0.06801298
36	0xbf091ed5	-0.5356267
37	0x3f4ffd64	0.8124602
38	0x3faabca8	1.3338823
39	0xbdb978e8	-0.09056264
40	0x3f653cfd	0.89546186
41	0x3e2a1a0e	0.16611502
42	0xc0b11148	-5.5333595
43	0xc039d3af	-2.9035451
44	0xbf103ad7	-0.5633978
45	0xbfa7901f	-1.3090857
46	0xbff9f74b	-1.9528593
47	0x3f8e2414	1.110476
48	0xc00b9623	-2.1810386
49	0x3e33f6e7	0.17574655
50	0xc000535d	-2.005088
51	0x3e63e82f	0.2225654
52	0x3d36d4f5	0.044636685
53	0xbed49305	-0.41518417
54	0xbf66c449	-0.9014326
55	0xbe695990	-0.22788072
56	0xbe2260cb	-0.15857236
57	0x3e2288bd	0.15872474
58	0xbfaefd4e	-1.3671052
59	0xbf78939e	-0.97100246
60	0x3f989feb	1.1923803
61	0xc03a3a9a	-2.9098268
62	0xbfbf26fc	-1.4933772
63	0x40cddac5	6.4329553
64	0x4003a7c0	2.0571136
65	0x3f12eb4f	0.573903
66	0x3f40a5d4	0.75253034
67	0x3fc1e4f3	1.5147995
68	0xbf6e26e9	-0.9302812
69	0x3f239073	0.63892287
70	0x3f7b2177	0.9809794
71	0x3ef07457	0.4696376
72	0xbe28e81e	-0.16494796
73	0x3f67c948	0.90541506
74	0x3e46bf59	0.19408931
75	0x3f32da3c	0.6986425
76	0x3e65bc14	0.22435027
77	0xbf2cba3e	-0.67471683
78	0x3eed7b31	0.4638305
79	0xbecba8a0	-0.39777088
80	0xbf5a2e04	-0.85226464
81	0x3f1ec2de	0.62016094
82	0x3f9aed02	1.2103579
83	0xbfa180a0	-1.2617378
84	0xbf9816ec	-1.1881995
85	0x40799614	3.899785
86	0x3fb68204	1.4258428
87	0x4084af49	4.146397
88	0x407f1465	3.9856198
89	0xc05c4a5a	-3.442038
90	0xbf4d3efc	-0.8017423
91	0x3de4b52a	0.11167367
92	0xbf484ba2	-0.78240407
93	0xbecb3d74	-0.39695323
94	0xbe650d86	-0.2236844
95	0xbe32bb0a	-0.17454162
96	0x3c0196fe	0.0079095345
97	0xbd2c5aa8	-0.042078644
98	0x3e957221	0.29188636
99	0xbf6ea16f	-0.9321508
100	0x3f4fe3cf	0.81206983
101	0xbe75173a	-0.23934641
102	0x3feb719e	1.8394048
103	0xc10e7397	-8.90322
104	0x3e0de499	0.13856734
105	0x3f19c544	0.6006663
106	0xc0950c87	-4.657779
107	0xbfee30f5	-1.860869
108	0x40133033	2.2998168
109	0xc0114d25	-2.2703335
110	0xbd908766	-0.07057075
111	0x3efd2e55	0.4944941
112	0x3de2bfeb	0.11071762
113	0xbe3935af	-0.18086885
114	0xbeb930d4	-0.36170065
115	0x3c416f05	0.011806254
116	0xbd0779d9	-0.033075187
117	0x3f5104d4	0.8164799
118	0xbd20de8a	-0.03927473
119	0xbc8147ee	-0.015781369
120	0xbfb147cd	-1.3850037
121	0xbf5c0aed	-0.8595417
122	0xbfc46b44	-1.5345235
123	0x40f508ed	7.6573396
124	0xc0d77ee0	-6.7342377
125	0xbf23bf4b	-0.63963765
126	0xbff83d92	-1.939379
127	0xbf81ab9f	-1.01305
128	0xbf849155	-1.0356852
129	0xbdb06990	-0.086138844
130	0xbf90470b	-1.127168
131	0x3f81f08a	1.0151532
132	0xbef85099	-0.4849899
133	0x3f566ac4	0.8375666
134	0x3fab6288	1.3389444
135	0x3f7fea0b	0.99966496
136	0x3f9ec5d7	1.2404126
137	0x4022815e	2.539146
138	0x3f94ece0	1.1634789
139	0x3fa5a115	1.2939783
140	0xbfc89161	-1.5669366
141	0x3ee848dc	0.45368087
142	0x3f223fb8	0.6337848
143	0xc0b47bb4	-5.6401005
144	0xbfa70ba7	-1.3050431
145	0xbf5286da	-0.8223702
146	0x3f4fb50d	0.81135637
147	0x4027dfb5	2.623029
148	0xbfdc1292	-1.7193167
149	0x3ed07171	0.4071155
150	0xbe5cf8b1	-0.21579243
151	0xbed9ca74	-0.42537272
152	0xbdef4cfc	-0.116846055
153	0xbe8046ee	-0.25054115
154	0xbd66d00c	-0.056350753
155	0xbed0ffc6	-0.4082014
156	0x3ee68862	0.45025927
157	0xbf502e47	-0.81320614
158	0xbf8454b3	-1.0338348
159	0xbf0838da	-0.5321175
160	0x3fe50ee7	1.7895173
161	0xbf8d4356	-1.1036174
162	0x3fc3fc66	1.5311401
163	0xc0c71ab9	-6.222012
164	0x3fc63f3c	1.5488048
165	0xbfa95f0f	-1.3232135
166	0x3fa97f87	1.3242043
167	0xbe5c7824	-0.21530205
168	0xc004369f	-2.0658338
169	0x3fdfcc04	1.7484136
170	0xbdc4a96d	-0.09602628
171	0x3f8e6aa7	1.1126298
172	0xbf5b4738	-0.85655546
173	0x3f855b5f	1.0418509
174	0x3cc2c208	0.023774162
175	0x3f74721d	0.95486623
176	0x3f405d85	0.751427
177	0x3e4ada01	0.19809724
178	0x3f279e6e	0.6547612
179	0xbee33654	-0.44377387
180	0x3eafa6da	0.34306985
181	0xbf99a6e3	-1.2004055
182	0xc028f558	-2.6399746
183	0x4056a6fd	3.3539422
184	0xbfb6c5d0	-1.4279118
185	0x40233494	2.550084
186	0xc0a0f0ed	-5.02941
187	0xbfc8590e	-1.5652177
188	0xbf36b36f	-0.71367544
189	0xbf654f22	-0.8957387
190	0xbea666e7	-0.32500383
191	0x3e95c74c	0.29253614
192	0xbf7bf6f6	-0.9842371
193	0x3e9ccd65	0.30625454
194	0x3da1d74a	0.07902391
195	0xbf22fa4f	-0.6366319
196	0x3ec6895d	0.38776675
197	0xbf56770a	-0.8377539
198	0xbe55deac	-0.20885724
199	0xbf6720c4	-0.9028437
200	0xbfa1c9d0	-1.2639713
201	0x3f27daab	0.65568036
202	0x3df593c6	0.11991076
203	0xbf1bd90e	-0.60878074
204	0x3fc05ae2	1.5027735
205	0x3f3e19f9	0.7425838
206	0xc0b61ba0	-5.690872
207	0xbeacfa87	-0.33784887
208	0x3db3b42c	0.087745994
209	0xc0642240	-3.5645905
210	0x3fda5f6c	1.706037
211	0x3e5f9041	0.21832372
212	0x3fc20c8f	1.5160083
213	0x3dc15b92	0.09441294
214	0x3f7403f1	0.95318514
215	0x3f4fb987	0.8114247
216	0x3fbc4f46	1.4711692
217	0x3fb215aa	1.3912861
218	0x3ff98fc0	1.9496994
219	0x3e13507c	0.14386171
220	0xbfcec6b1	-1.6154386
221	0x3f8f9413	1.1217064
222	0xbf0e4a84	-0.5558245
223	0x40933617	4.600353
224	0x3fb49b21	1.4109842
225	0xbf976678	-1.1828146
226	0x3fc988c8	1.5744867
227	0x3fb92a43	1.4466022
228	0x3db0da9e	0.08635448
229	0x3cf2df4f	0.029647497
230	0x3fac6279	1.3467551
231	0x3ff06bf1	1.8782941
232	0x3f062899	0.524057
233	0x4038b212	2.8858685
234	0x3f356b33	0.708667
235	0x3facd63c	1.3502879
236	0x4021a555	2.525716
237	0x3f4b0ec4	0.79319406
238	0x3fbd90e0	1.4809837
239	0x3fa1dae7	1.2644929
240	0x3f28be1f	0.659151
241	0x3f283cf7	0.65718025
242	0x4004d81c	2.0756903
243	0xc1477f30	-12.468552
244	0x3f1fce59	0.62424237
245	0x3daaf2da	0.083471015
246	0x40978e39	4.736111
247	0xbfc4c43e	-1.5372388
248	0xc02a1db9	-2.6580641
249	0xbf4acf6b	-0.79222745
250	0xbe9ab9a4	-0.30219758
251	0xbe7b1c74	-0.24522573
252	0x3e49fafa	0.19724646
253	0x3f369fdb	0.7133767
254	0xbf2216c1	-0.6331597
255	0x3e01d3bb	0.12678425

bias f4 [64]
0	0x40379afa	2.868834
1	0x40d27517	6.576793
2	0xc0711082	-3.7666326
3	0x3edf650e	0.43631786
4	0x408f3ef5	4.476435
5	0x405e01a5	3.4688504
6	0xc02b39ed	-2.6754105
7	0x40d7c38d	6.742621
8	0x40c4c029	6.148457
9	0xbfeaf84f	-1.8357028
10	0x40ba0717	5.8133655
11	0xc0839846	-4.112338
12	0x4087397e	4.225768
13	0x40b79c70	5.7378464
14	0x40f7f112	7.7481775
15	0xc0549cc7	-3.322069
16	0x40e7f62a	7.2487993
17	0xc0cab6f0	-6.334831
18	0x40bc70a7	5.8887515
19	0xbfc477fb	-1.5349115
20	0x403a2094	2.9082384
21	0x40a8ed9a	5.279004
22	0x40b79f57	5.7382007
23	0x40ab1c78	5.347225
24	0xc0b0aee8	-5.521351
25	0x40995bba	4.792447
26	0x40a97164	5.2950916
27	0x3ea813dd	0.32827654
28	0xc05cc6c1	-3.449631
29	0x40e37905	7.108523
30	0x40b481eb	5.640859
31	0x40b0351e	5.506484
32	0x40b8e605	5.7780786
33	0x40b0ad82	5.52118
34	0xc0e736a9	-7.2254224
35	0x40de0801	6.938477
36	0xbea4bc97	-0.32175133
37	0x40d2d3da	6.588361
38	0x40bd7fd3	5.9218535
39	0x4106b7dd	8.4198885
40	0xbfd8353b	-1.6891245
41	0x40d33214	6.599863
42	0x40ffd393	7.994577
43	0x4102a17d	8.164426
44	0x406aca23	3.6685874
45	0x4101f4d7	8.122275
46	0xbf45d677	-0.7728037
47	0xc0b56265	-5.668261
48	0xbff7f3bb	-1.9371256
49	0x40a4d1ad	5.150595
50	0x4073858a	3.8050256
51	0x4098dc58	4.7768974
52	0xc0482d16	-3.1277518
53	0x4103705d	8.214932
54	0x410234dc	8.137905
55	0x405f9c1f	3.4939039
56	0xc049d7be	-3.1537929
57	0xc0d04b3c	-6.509184
58	0x4103c32b	8.235148
59	0x40a59e4d	5.175574
60	0xc066d62c	-3.606822
61	0x40b0eb36	5.5287123
62	0xc0e2238e	-7.06684
63	0xbf602019	-0.8754898

weight f4 [64, 64]
0	0x3f23b651	0.6395007
1	0x3ff09c9e	1.8797796
2	0xc09131d1	-4.537331
3	0xc0350e2f	-2.8289907
4	0x401dfe76	2.468656
5	0x3fa371f8	1.2769156
6	0xc001fea3	-2.0311668
7	0x40148f44	2.3212442
8	0xbe7cca7f	-0.24686621
9	0xc0112e09	-2.2684348
10	0x3ef87840	0.48529243
11	0xc0417249	-3.0226004
12	0x400a800e	2.1640658
13	0x40259fe1	2.5878832
14	0x403c9fec	2.9472609
15	0xc0261939	-2.5952895
16	0x4038c6a3	2.8871238
17	0xbfc2e09b	-1.5224794
18	0x3f2bf00b	0.6716315
19	0xc0037e01	-2.0545657
20	0x3ffb6901	1.964142
21	0x4020c44b	2.5119808
22	0x408d9a3d	4.425078
23	0x3fa4ad2d	1.2865349
24	0xc04ff369	-3.2492316
25	0x3fe900a0	1.8203316
26	0x3f90e689	1.1320354
27	0x3f89b8eb	1.0759557
28	0xbfe1debc	-1.7646098
29	0x3fe23b58	1.767436
30	0x3e82ebb1	0.25570443
31	0xbe85245b	-0.260043
32	0x3fb43cf0	1.4081097
33	0x402d7db9	2.7107985
34	0xc0a3ac92	-5.1148157
35	0x40515980	3.2710876
36	0xc08c1adc	-4.3782787
37	0x4050642a	3.2561135
38	0x400b5acd	2.177417
39	0x4029fd7f	2.6560972
40	0xbff74df9	-1.932067
41	0x403436b3	2.8158386
42	0x40155a34	2.3336306
43	0x3ff857ad	1.9401757
44	0x3f382ac5	0.7194026
45	0x401e1c85	2.4704907
46	0xc00869bb	-2.1314533
47	0xc03eb230	-2.9796257
48	0xbea0d123	-0.3140956
49	0x401d0814	2.453618
50	0x3f871ffd	1.0556637
51	0x3facbdab	1.3495382
52	0xc06a62d4	-3.662282
53	0x400730c1	2.1123507
54	0x3fe6049c	1.7970157
55	0x3f8d71ff	1.1050414
56	0xc02316fd	-2.548278
57	0xc0add954	-5.4327793
58	0x40b3d4b3	5.6197143
59	0x3fd55343	1.6666034
60	0xc0760d36	-3.8445563
61	0x3fc278f0	1.5193157
62	0xc0ac3d36	-5.382472
63	0x3ccb396c	0.024807654
64	0x3d661c91	0.056179587
65	0x3d81a230	0.06329763
66	0x3d8323d5	0.06403319
67	0x3d3c8f4d	0.0460351
68	0xbd061e6f	-0.032743867
69	0xbba54c0c	-0.005044466
70	0xbdc1f77c	-0.09471032
71	0xbcf30be5	-0.029668758
72	0xbd5d6694	-0.054052904
73	0xbe2ee81d	-0.17080732
74	0x3d0a08aa	0.03369967
75	0xbd84300e	-0.06454478
76	0x3d039b42	0.032130487
77	0x3ce22bfd	0.027608866
78	0xbdcc1a36	-0.09965937
79	0xb9550861	-0.00020316384
80	0xbdf2e8f6	-0.1186084
81	0xbd7c0054	-0.06152375
82	0x3b3a0011	0.0028381387
83	0xbbf50a45	-0.007478031
84	0xbdddab3c	-0.10823676
85	0xbe01c48a	-0.1267263
86	0x3d80484a	0.06263788
87	0xbda98f42	-0.082792774
88	0xbdece164	-0.11566427
89	0xbe0cea3c	-0.13761228
90	0x3b6ef41f	0.0036461425
91	0x3cafa9ad	0.021443212
92	0x3db2535c	0.08707306
93	0xbe05d407	-0.13069163
94	0xbd46d1f7	-0.04854008
95	0xbbf42787	-0.007451001
96	0xbd665d26	-0.056241177
97	0xbc3e2045	-0.011604373
98	0xbdf6dfb1	-0.120543845
99	0xbe1b937e	-0.15192983
100	0xbdb5929f	-0.088658564
101	0xbca60b8b	-0.020269176
102	0xbd5d6ef7	-0.054060902
103	0xbda6b3bc	-0.0813975
104	0xbe46143b	-0.19343655
105	0x3d28d1d7	0.041215744
106	0xbdf7120a	-0.120639876
107	0xbb08acf9	-0.0020855053
108	0xbe034116	-0.12817797
109	0x3d5a2f9c	0.05326806
110	0x3d17e362	0.037082084
111	0xbd85c7a6	-0.065322205
112	0x3d9031d4	0.07040754
113	0xbd98958b	-0.07450398
114	0xbe42a24d	-0.19007225
115	0xbd69bcc9	-0.057064805
116	0xbe01243b	-0.12611477
117	0xbbba8b11	-0.0056928475
118	0xbbf9615c	-0.007610483
119	0xbdfd7066	-0.12374954
120	0xbd8ade3b	-0.06780668
121	0x3ba67077	0.005079325
122	0xbdcd3614	-0.1002008
123	0x3d52804c	0.051391885
124	0xbdfea1a6	-0.12433176
125	0x3d14544e	0.03621321
126	0xbdc541d4	-0.09631696
127	0xbde01470	-0.10941398
128	0x3f3cd89b	0.73768014
129	0x3fe56ab0	1.7923183
130	0xc0925829	-4.5732617
131	0xc023e2bb	-2.5607135
132	0x401b6609	2.4281027
133	0x3fb04ef0	1.377409
134	0xc0081757	-2.1264246
135	0x40189350	2.3839912
136	0xbeaee99c	-0.34162605
137	0xc016bc6a	-2.35525
138	0x3ebe7d92	0.37205178
139	0xc04aaeb5	-3.1669133
140	0x3ffed5ba	1.9908974
141	0x40133bae	2.3005176
142	0x40391a78	2.8922405
143	0xc01f13d5	-2.4855855
144	0x403a9d8f	2.9158666
145	0xbfc60ae9	-1.547208
146	0x3f18b49f	0.59650606
147	0xc0026c54	-2.0378618
148	0x400e51de	2.2237468
149	0x40143439	2.3156874
150	0x4090768f	4.5144725
151	0x3faab8a8	1.3337603
152	0xc0584e71	-3.3797877
153	0x3fe9b934	1.8259645
154	0x3f944a26	1.1585128
155	0x3f958568	1.1681337
156	0xbfe0f647	-1.7575158
157	0x3fd9831b	1.6993135
158	0x3e77a9b1	0.24185826
159	0xbea589bb	-0.32331643
160	0x3fa607cd	1.2971131
161	0x4031d5e1	2.7786791
162	0xc0ac6d82	-5.3883677
163	0x40554350	3.3322334
164	0xc08aa3b8	-4.332485
165	0x404627ce	3.0961795
166	0x40234147	2.5508592
167	0x402e4050	2.7226753
168	0xc003d6fa	-2.0599961
169	0x4035d0c1	2.8408663
170	0x4020ed23	2.5144737
171	0x40038df3	2.055539
172	0x3f416b19	0.75554043
173	0x4018046b	2.3752697
174	0xc0042cd0	-2.0652351
175	0xc05c23b1	-3.4396784
176	0xbe70330b	-0.23456971
177	0x40165977	2.3492105
178	0x3fa8eb4d	1.3196808
179	0x3f9b9cea	1.2157261
180	0xc0771f00	-3.861267
181	0x400b8181	2.1797793
182	0x3fd64ce7	1.6742219
183	0x3f8977a4	1.0739636
184	0xc029d8fe	-2.6538692
185	0xc0a6cdf1	-5.2126393
186	0x40b2af28	5.5838814
187	0x3fe0f39b	1.7574342
188	0xc05e7a7f	-3.4762266
189	0x3fc92087	1.5713052
190	0xc0b7cfdf	-5.744125
191	0xbc9c0506	-0.019045364
192	0xbf65021e	-0.89456356
193	0xbe1c3e4e	-0.15258142
194	0xbfa5ee99	-1.2963439
195	0x3f5d5d44	0.8647044
196	0xc03de690	-2.9671974
197	0x40093ca2	2.1443257
198	0x3e7bea4e	0.24601099
199	0x3f1cfcbe	0.61323154
200	0xbfad16f7	-1.3522633
201	0xbef150cc	-0.47131956
202	0xbbf4d8e8	-0.0074721463
203	0xbf3ec83b	-0.7452428
204	0x3fdf45cd	1.7443177
205	0xbeea4a3f	-0.4575977
206	0xc0113059	-2.268576
207	0xbfb3465a	-1.4005845
208	0x40273d21	2.613106
209	0x3dc147d7	0.094375305
210	0xc0bdd74b	-5.932531
211	0xbf5df9d2	-0.8670932
212	0x3ee2fac9	0.4433196
213	0xbf733e91	-0.95017344
214	0xc050bca8	-3.2615147
215	0x3fc16389	1.5108501
216	0xbeb09ef5	-0.34496275
217	0xc0b2761c	-5.5769176
218	0xbf76529b	-0.96219796
219	0x3cf9cbb2	0.030492637
220	0x3f2d087b	0.67591065
221	0xbfc1cf2b	-1.5141348
222	0x3fb75753	1.4323524
223	0xbeda7a62	-0.42671496
224	0xc0de8abc	-6.9544353
225	0x3fcd7d21	1.6053811
226	0xbf496e91	-0.78684336
227	0xbfe2f29f	-1.7730292
228	0x3d5d2a50	0.05399543
229	0xbf78f430	-0.972476
230	0xbfb5b842	-1.4196856
231	0xc0087bac	-2.1325483
232	0xbffe7463	-1.9879268
233	0xc069bab7	-3.6520212
234	0xc03513b1	-2.8293269
235	0xc098d242	-4.775666
236	0xc03052d2	-2.755055
237	0xc0891167	-4.2833743
238	0xbf42fd77	-0.76168007
239	0x3f4354ba	0.7630116
240	0x4023d30a	2.5597558
241	0xc0971117	-4.720836
242	0xc07f116b	-3.985438
243	0xbf49df20	-0.78856087
244	0x3f6aa622	0.9165975
245	0xc0cf4170	-6.476738
246	0x3f870a6a	1.0550053
247	0x3fd36502	1.65152
248	0x3fe96e07	1.8236703
249	0x3ece682c	0.40313852
250	0xc0e0de50	-7.0271378
251	0xc00878dc	-2.1323767
252	0x3f83e4df	1.0304221
253	0xc08b23a7	-4.348102
254	0x3f8dd60b	1.1080946
255	0x4005963a	2.087294

bias f4 [64]
0	0x40e2c52f	7.0865703
1	0xbe3ac709	-0.18239988
2	0x40e482fa	7.1409883
3	0xc03e2404	-2.9709482
4	0xc0493176	-3.1436439
5	0x40e511f8	7.1584435
6	0xbe125a03	-0.14292149
7	0x40e1a976	7.051936
8	0xbdf6de81	-0.12054158
9	0xc047981d	-3.1186593
10	0x40da743e	6.8266897
11	0x40e700e1	7.2188573
12	0xc007bae0	-2.120781
13	0x40e08965	7.016772
14	0x3d5722b9	0.05252335
15	0xc02f3b49	-2.7379935
16	0x40e36177	7.1056476
17	0xc016ee1f	-2.3582838
18	0xc01b0354	-2.4220781
19	0x40de8ac3	6.9544387
20	0x40e238cb	7.0694327
21	0x3ee9168f	0.45525023
22	0xbf04afd7	-0.5183081
23	0x3eaae0ae	0.33374542
24	0x40e74c30	7.22805
25	0xbe74ef2c	-0.23919362
26	0x3f2a0eb3	0.6642868
27	0xc012a532	-2.2913327
28	0xc02fd1ba	-2.7471757
29	0x40e4d036	7.1504164
30	0xbecc9e0a	-0.39964324
31	0x40ded5a8	6.963581
32	0xbff22fbd	-1.8920819
33	0x40e37922	7.1085367
34	0xc0112e2b	-2.2684429
35	0x40e17bfe	7.046386
36	0xbfc0601d	-1.5029331
37	0x40e6696b	7.2003684
38	0xc02095c1	-2.5091403
39	0x3d8bb631	0.0682186
40	0xbff99859	-1.9499618
41	0x4087536b	4.228933
42	0x40e8ab4c	7.2709103
43	0x40df7e48	6.984165
44	0x3f6f2648	0.9341779
45	0x40e156a2	7.0418253
46	0x40e899f1	7.2687917
47	0xbf37649e	-0.71637905
48	0xc09d07a1	-4.9071813
49	0x40e41c5d	7.1284623
50	0xc00b05b6	-2.1722236
51	0x40d8cb25	6.774798
52	0x40c035cc	6.006567
53	0xc0033c96	-2.0505729
54	0xc00141cd	-2.0196412
55	0x40e3279e	7.098586
56	0xc0be8736	-5.9540052
57	0xbfe134b6	-1.7594211
58	0xc022b7c8	-2.542467
59	0xc0147236	-2.319471
60	0xc01c8eec	-2.4462233
61	0xbe44892d	-0.19192953
62	0x40e36039	7.105496
63	0x40de2b19	6.942761

weight f4 [1, 64]
0	0x4068b90c	3.6362944
1	0x3d50282c	0.05081956
2	0x40813e25	4.038836
3	0xc0c6487f	-6.1963496
4	0xc0d1abe6	-6.5522337
5	0x404b9621	3.1810381
6	0xbf275d03	-0.653763
7	0x404cad64	3.198083
8	0xc1038e52	-8.222246
9	0xc0962bfb	-4.6928687
10	0x407777e8	3.8666935
11	0x405d586d	3.458522
12	0xc0b59abd	-5.675139
13	0x4053dd24	3.3103724
14	0x3be2d209	0.006922011
15	0xc0cf1b17	-6.472057
16	0x40546c4e	3.3191104
17	0xc0c59d67	-6.175464
18	0xc0aa01d3	-5.3127227
19	0x405af09c	3.4209356
20	0x40692f1e	3.6435008
21	0xc0d89428	-6.7680855
22	0xc0b92e42	-5.7868967
23	0xc113769e	-9.216459
24	0x4052d6a1	3.29435
25	0xbf63b8af	-0.8895368
26	0xc0f7fe01	-7.7497563
27	0xc05162cd	-3.2716553
28	0xc0d4a323	-6.644914
29	0x404c7d00	3.1951294
30	0xc03b5ead	-2.9276536
31	0x4054319d	3.3155282
32	0xc0a68bf6	-5.204585
33	0x40814b2a	4.0404253
34	0xc0cb3749	-6.3504987
35	0x403c830b	2.9454982
36	0xc09b3fbf	-4.8515315
37	0x405621fe	3.3458247
38	0xc100d077	-8.050895
39	0xbf42fcd7	-0.76167053
40	0xc0ac1496	-5.377513
41	0x407ca009	3.9472678
42	0x408a24c6	4.316989
43	0x4065542b	3.5832622
44	0xc103120a	-8.191904
45	0x40540e8f	3.3133886
46	0x405eed8e	3.4832492
47	0xc09e80cf	-4.9532237
48	0xc0d392f5	-6.611689
49	0x405d5d9c	3.4588385
50	0xc12df007	-10.8711
51	0x40481e08	3.126833
52	0x405580db	3.3359897
53	0xc0e06a9f	-7.0130153
54	0xc0afc67c	-5.492979
55	0x4041dee3	3.029229
56	0xc10d48ea	-8.830301
57	0xc0ad41a2	-5.414262
58	0xc0b33725	-5.6004815
59	0xc07213c9	-3.7824576
60	0xc06b7cf4	-3.6795015
61	0x3c44fe3d	0.012023506
62	0x407eda90	3.98209
63	0x40511793	3.2670639
