log_7_28/model_5_epoch.pt (torch_old, 70495 bytes, 18 tensors)

weight f4 [64, 7]
000000 b0 bc 8e bf 85 b7 ae 3f 08 c6 7d bf 48 29 ed bf
       -1.1151333 1.3649756 -0.99130297 -1.8528223
000010 8b dc 8c be 1f 3a b4 3e 85 fa dd be 50 b5 84 bf
       -0.2751201 0.35200593 -0.43355194 -1.0367832
000020 ce 06 d3 bf 44 32 1e bf 3f 68 7a 3f eb fd ec bd
       -1.6486452 -0.6179545 0.97815317 -0.115718685
000030 e1 c6 51 be ac ef cd be f9 32 3e bf 5f 86 2d 3e
       -0.20486023 -0.40221918 -0.7429653 0.1694579
000040 16 c2 97 3c 45 32 3c bf 7e 2a 99 be aa 4d 76 3f
       0.018525165 -0.73514205 -0.2991523 0.96212256
000050 7e 9f a2 3e b1 8f a2 3f 34 7c 57 be 6b d9 41 bf
       0.31762308 1.2700101 -0.21043473 -0.7572238
000060 9d 16 05 3f 65 a3 44 3f b5 16 36 3d 82 88 0c be
       0.5198763 0.7681182 0.04445525 -0.13723949
000070 01 57 13 bf f2 73 1a 3e 0c 3d ed be d1 1d 02 3d
       -0.5755463 0.15083292 -0.46335638 0.031766716
000080 b8 4f 36 bf 91 87 5d be 85 43 4c bf 29 a4 7a 3f
       -0.7121539 -0.21633746 -0.79790527 0.9790674
000090 ba 7c 20 3d 6d ab d7 be 92 6e 7f be 82 67 6b bd
       0.03918145 -0.42122975 -0.24944523 -0.05747176
0000a0 e4 d2 0d be 38 4a 78 3e 0b 01 1f 3e 47 dc b9 bd
       -0.1384998 0.24247062 0.15527742 -0.09075218
0000b0 85 bb cb be 01 7c 0a bf b9 f6 f5 3e ae 81 cf 3e
       -0.39791504 -0.54095465 0.48039797 0.40528625
0000c0 cb 64 10 bf a2 43 70 be ca f4 9d be 7e d3 f1 3e
       -0.564038 -0.234633 -0.30850822 0.47231668
0000d0 99 83 95 be 68 93 01 be 8c dc e0 bd e8 c6 72 bd
       -0.29201964 -0.12653887 -0.10979566 -0.059271723
0000e0 dc 5d c3 3e 4b 34 5b bf 40 58 1f bf fb 7b 8f be
       0.38157547 -0.8562667 -0.62244034 -0.28024277
0000f0 08 ec 9c 3e 26 39 e4 3e 05 02 0f bf f7 dc d4 bd
       0.30648828 0.4457485 -0.55862457 -0.10393708
000100 b2 fc 7c bd 67 a4 34 bd 30 ec 38 3f 11 93 ab 3d
       -0.061764427 -0.0441021 0.72235394 0.0837766
000110 c5 9e 11 3e 94 e6 54 3f c2 87 31 bf e0 c5 d5 be
       0.14220722 0.83164334 -0.69347775 -0.4175253
000120 9b aa ec be e5 27 58 3f 15 d1 0b 3d 61 c8 e0 3d
       -0.46223912 0.84435874 0.034134943 0.10975719
000130 04 20 e4 3e ce 7b a7 bf 12 41 4f bf d6 8d 18 bf
       0.44555676 -1.3084657 -0.80958664 -0.59591424
000140 92 80 09 be ff d1 2f 3d 44 80 cc 3f a6 af 0b bf
       -0.13427952 0.042924877 1.5976644 -0.54564893
000150 f8 58 b8 bd e9 55 db be ac d1 6d 3d f3 89 0d 3f
       -0.090013444 -0.42838982 0.058061287 0.5528862
000160 e3 7a 2d 3e 85 dc 86 bf e0 9c 3d bf 51 05 c8 3c
       0.16941409 -1.0536047 -0.740675 0.024416598
000170 de b6 cb bf 93 68 9e 3d 11 ce 30 bf f4 cc bc bc
       -1.5915182 0.0773479 -0.6906443 -0.023046948
000180 f8 7a d2 3f e7 37 12 be d7 fa 0e 3f 01 d4 9f bf
       1.6443777 -0.14279138 0.558515 -1.2486573
000190 d1 14 38 3e f7 d5 82 3f 09 6f 71 be d0 46 85 bc
       0.17976691 1.0221547 -0.23577513 -0.016269118
0001a0 87 38 3f bf 21 c5 4a be c8 df 58 be 29 0d 33 be
       -0.7469563 -0.19801761 -0.21179116 -0.17485489
0001b0 66 7e 95 be b4 95 90 3e 08 c2 1d bf 71 31 75 bf
       -0.29197997 0.28239214 -0.61624193 -0.95778567
0001c0 4a 31 c1 3e 2f c4 cc 3d 1f d7 9a bf 2b 41 f2 bd
       0.37732917 0.099983566 -1.20969 -0.11828836
0001d0 39 d6 a3 3b 7c 2e 7a 3f 2b 3a 0a 3c ef 79 53 bf
       0.0049999026 0.9772718 0.00843672 -0.8260793
0001e0 a8 50 c9 3d be ee d2 bf 59 b5 d5 bd 1c 3d e0 be
       0.09829837 -1.6479108 -0.1043498 -0.43796623
0001f0 80 9f d0 bc d8 17 22 bf ef 07 23 3f 4e d3 e1 be
       -0.02546668 -0.6331763 0.6368398 -0.44106525
000200 dc 1f 40 bf a0 cd b6 3e b8 32 8e bd 16 6e 22 3e
       -0.75048614 0.35703754 -0.069432676 0.15862307
000210 a4 56 c7 3e 83 ee a1 3f fa 49 38 3f 3d ec 7a 3f
       0.3893329 1.2650913 0.7198788 0.9801672
000220 60 19 c5 bd 06 76 9f bd f9 0d 1f be 52 63 9c 3d
       -0.096239805 -0.07786183 -0.15532674 0.07636131
000230 99 db cf be 83 78 11 3f a0 44 0d 3f fa 03 0d 3f
       -0.40597227 0.5682451 0.5518284 0.5508419
000240 9c 8a 29 bf ac b5 61 be 22 76 24 3e 87 fc 7e 3f
       -0.66227126 -0.22041959 0.16060689 0.99604076
000250 f0 25 90 bf 05 07 4d 3d 73 64 c0 3e c7 8c 1a bf
       -1.1261578 0.050055522 0.37576637 -0.6037106
000260 2d 16 bd be 50 0f 8c 3e 45 9f 39 3f e5 0e 92 bf
       -0.3693098 0.27355433 0.7250865 -1.1410795
000270 48 34 de 3e 60 f3 43 3e 1f 71 9b bd eb e0 0c be
       0.43399262 0.19135809 -0.075899355 -0.13757674
000280 a0 8f bb 3e 38 a0 a1 be 29 9d 16 bf ab 40 92 be
       0.36633015 -0.3156755 -0.5883356 -0.28564963
000290 52 4f d1 3e 4f 10 2f be 25 ce 9f be 4e d5 7e 3e
       0.4088083 -0.17096065 -0.31211963 0.24886057
0002a0 c1 d8 0e bf 3b 55 0a 3e 2d 6a ae 3f 4a 43 0f bf
       -0.5579949 0.13509075 1.3626152 -0.5596205
0002b0 9e d7 0d be 23 30 0f 3f 34 81 0a c0 20 8e ed bd
       -0.13851783 0.55932826 -2.164136 -0.11599374
0002c0 71 d8 25 be b4 f9 c0 be 61 8e e1 be d5 86 a7 be
       -0.16195847 -0.37690508 -0.4405394 -0.32720056
0002d0 99 15 2d 3e 87 32 48 be 49 1d 82 3f 3b 72 48 3e
       0.1690277 -0.19550525 1.0165187 0.19574825
0002e0 e3 e7 e6 3e 60 7d 0c bf 4d 08 fc 3d e7 d3 d3 bd
       0.4509879 -0.5487881 0.12306271 -0.103431515
0002f0 7a 03 3e 3e 4d 72 4d bf e5 8a 15 3e 8e a8 62 be
       0.18556014 -0.80252534 0.14603765 -0.22134611
000300 f7 51 08 3f 93 d0 04 3d 1c 7d 05 3e 06 b4 b1 bd
       0.5325007 0.032425474 0.13036007 -0.08676915
000310 1f 1e 38 bf 9d be 75 bf 29 34 37 bf ca c5 85 be
       -0.7192096 -0.9599398 -0.71563965 -0.26127464
000320 cc 30 a8 3e b2 1f 16 3f 3d 91 fe be 4f ec 35 bf
       0.3284973 0.58642113 -0.49720183 -0.71063703
000330 00 9b 11 bf a7 bc 07 3c 63 dc c8 bf 5d 3e 2d bd
       -0.56877136 0.008284724 -1.5692257 -0.042295802
000340 71 dc 87 3f de 2e c5 3c c0 da 99 3f 7c 32 81 be
       1.0614148 0.0240702 1.2019882 -0.2523383
000350 6a 09 88 bf 5a 1d c1 be 0f 3f 75 be ea d0 0e bd
       -1.0627873 -0.37717706 -0.23949836 -0.034867205
000360 ee 2a ee be 0f b1 c5 3c fc f4 c5 3e b7 a7 4a 3e
       -0.46517128 0.02413228 0.3866347 0.1979054
000370 43 a0 9f be 62 eb 6d 3d e5 5c a8 3e e5 98 ec be
       -0.31176957 0.058085807 0.32883373 -0.462104
000380 c5 1a 8c be ff de a5 3f 96 34 44 bf c2 37 3c bf
       -0.27364174 1.2958678 -0.7664274 -0.7352258
000390 40 81 b9 be 81 64 9e be 7e a7 b9 3d 9c 89 2d 3f
       -0.36231422 -0.30936053 0.0906515 0.677881
0003a0 d0 a4 35 bf 1e 95 4a bf 79 be b4 3e c0 35 0b be
       -0.7095461 -0.79133785 0.3530157 -0.13594723
0003b0 23 1e 06 3e 24 03 2e 3d a1 8d 9b 3e 40 da b1 bf
       0.13097434 0.042483464 0.30381492 -1.389473
0003c0 c4 bf 25 3f 85 f7 05 3f c9 90 17 be 6c 61 98 3e
       0.64745736 0.5233081 -0.14801325 0.29761827
0003d0 c6 c3 6f 3e 6b 80 ae be cf 57 b3 3e 0c 4f 2d bf
       0.23414525 -0.3408235 0.3502793 -0.6769874
0003e0 ba 4e c7 be 15 fa 05 3e 5c c8 da be 66 f3 88 be
       -0.3892725 0.1308368 -0.42730987 -0.26748198
0003f0 47 d6 4e 3f 38 f8 9f be a1 3c 7b 3e 00 bf 80 3f
       0.8079571 -0.31244063 0.24534847 1.0058289

bias f4 [64]
000000 0f 7a 29 bd 6e 2f 03 3f 58 c9 83 3d 44 c1 e3 3e
       -0.04137617 0.51244247 0.06434888 0.44483387
000010 8f a1 4f 3e 03 1c 0a bf 06 c8 56 3e 4b f3 3c 3e
       0.20276473 -0.5394899 0.2097474 0.18452184
000020 09 08 76 3d 16 bb 46 3e d9 b3 c5 3e eb ed e7 be
       0.060066257 0.19407305 0.38613775 -0.45298705
000030 38 dc 2b bf 2a 39 46 ba 2a 0b 47 3e 01 56 9a c0
       -0.671329 -0.00075616187 0.19437853 -4.8229985
000040 88 1d 75 3e 72 cc 98 bd 37 15 d3 3d 46 ab 98 be
       0.23937047 -0.0746087 0.10306781 -0.2981817
000050 3e bd 49 3d 2a d3 0c c0 77 e4 f5 bd 62 15 32 bc
       0.04925274 -2.2003884 -0.12006467 -0.010869356
000060 a1 01 d2 bb 1d f9 39 3e 71 e3 08 3f cd 19 0f c0
       -0.0064088856 0.18161435 0.5347205 -2.2359498
000070 5a 2f 94 3e 5e e5 ed 3e 6e 7b 6b be 2f a1 b0 3e
       0.28942376 0.46464056 -0.22996303 0.34497973
000080 78 5a 28 c0 6c 89 e4 3e b6 a8 32 bf 67 83 eb 3d
       -2.6305218 0.44636095 -0.6978868 0.114996724
000090 54 9b b1 3e f8 65 af 3e 26 b0 0d 3d 46 d3 8c 3d
       0.34688818 0.34257483 0.034591816 0.06876235
0000a0 f4 a6 1f bf 2d 09 38 bf 1d e7 51 c0 0a c7 8e be
       -0.62364125 -0.71889 -3.279731 -0.2788623
0000b0 0e 7e 80 be fb 1f 76 bf 09 f3 af be 3d 69 a7 3e
       -0.25096172 -0.9614255 -0.3436511 0.32697478
0000c0 59 7d ce bf 20 b2 ab bf cb 96 84 be c0 0f 3f be
       -1.6132003 -1.3413734 -0.25896296 -0.18658352
0000d0 22 20 cd 3d 1a 51 1f be c7 02 c4 3e 42 24 0b 3f
       0.100158945 -0.15558282 0.3828337 0.543522
0000e0 b4 53 8d bd a1 26 70 bd 0c 96 0a bf 93 98 ba bc
       -0.06900731 -0.05863059 -0.54135203 -0.022777831
0000f0 08 67 34 3e b9 96 82 be 20 f8 89 bf e0 ec a1 3e
       0.17617428 -0.25505617 -1.0778847 0.31626034

weight f4 [64, 64]
000000 b6 ea 36 bf d6 56 34 be 4f f6 eb bd 2e d4 fa 3e
       -0.7145189 -0.1761125 -0.11521589 0.48990005
000010 97 82 12 bf db cf 84 3c 44 6e c3 bd be 28 ef 3e
       -0.57230514 0.016212394 -0.09542516 0.4671077
000020 ec f5 7e be f4 64 80 bd ec 7f 38 3e 10 04 12 3e
       -0.24898499 -0.06269255 0.18017548 0.14259362
000030 39 19 90 be cc 37 86 bf ae 7d 17 be 74 51 07 bf
       -0.28144243 -1.0485778 -0.14794037 -0.5285866
000040 d7 8c 2c be 02 8a 76 bd 89 ea 6f be 35 75 7c bf
       -0.16850601 -0.06019021 -0.23429312 -0.98616344
000050 fc d0 c5 bd 6e a6 4c 3e 03 41 a4 be 78 49 b1 3e
       -0.09659001 0.19985363 -0.3208085 0.34626365
000060 83 70 24 be 9a 15 bc be 28 ab 00 3e 66 90 bf be
       -0.16058545 -0.3673523 0.12565291 -0.37414855
000070 0d bb b9 be 3d 7c 35 3f 48 f0 21 bf 24 c8 63 bd
       -0.3627552 0.708927 -0.63257265 -0.05561079
000080 2f c2 a6 be 04 79 d4 bc 94 86 bb bd 91 05 8c be
       -0.32570025 -0.025936611 -0.09156528 -0.27347997
000090 38 82 02 3f 9d ab 17 bf c5 cc 37 3f fb 30 38 bf
       0.5097995 -0.59246236 0.7179683 -0.7194974
0000a0 cf 86 c5 bd 4d 1e 5a 3f 64 61 5f bf f9 b4 f3 3e
       -0.09644853 0.85202485 -0.8725798 0.4759901
0000b0 1a 58 83 bd ff 63 cc be 4f 9e ee be 50 62 7d bd
       -0.064132884 -0.3992004 -0.46605155 -0.061861336
0000c0 19 0a e3 be 16 41 8b 3e 84 8e 17 3f ab 0e fe 3e
       -0.4434364 0.27198094 0.59201837 0.49620566
0000d0 15 09 80 bf f7 e8 3e 3f 3b 7d 95 be 0e bb d1 bd
       -1.0002772 0.74574226 -0.29197106 -0.10240756
0000e0 5c 11 db bd a1 07 1d bf cc 49 ee 3e cb 34 f9 bf
       -0.106966704 -0.61339766 0.46540678 -1.9469236
0000f0 08 7f 84 3f f8 f3 73 3e 1c d0 11 bd e2 91 f6 3e
       1.0351267 0.23823535 -0.03559886 0.48158175
000100 11 c1 9d 3e ce 80 2e bf a2 d0 21 3f 4f 76 0e 3f
       0.3081136 -0.6816529 0.63208973 0.55649275
000110 75 f1 a7 3e b0 20 65 be d8 b4 16 3e 69 47 90 3e
       0.32801405 -0.2237575 0.14717424 0.28179482
000120 db 72 94 3f 55 04 96 be 24 96 de 3e 5f 40 d0 be
       1.1597551 -0.2930018 0.43473923 -0.4067411
000130 a9 07 ff be 35 86 a3 3e 0f f8 ac be f1 f0 94 bf
       -0.49810532 0.3193833 -0.33783004 -1.163603
000140 17 3e 99 3c c7 14 ca 3e 69 64 12 be 50 5e 44 bf
       0.018706365 0.39468977 -0.14296116 -0.7670641
000150 ea 4a 6f be 77 a7 ec be fb b5 cd 3e 25 9b 99 be
       -0.23368421 -0.46221516 0.40177903 -0.30001178
000160 bf d7 67 3e d5 f3 b1 3e a7 93 3b 3e 42 01 10 bf
       0.22640894 0.34756342 0.18318044 -0.5625192
000170 54 b8 90 3e 62 50 af be ea 75 ad 3d 6d 13 0a 3f
       0.2826563 -0.34241015 0.08469756 0.5393589
000180 f5 fc c2 3e 7f d3 eb 3c 60 3e 0f bf df 7a 9f 3d
       0.38083616 0.028787373 -0.5595455 0.07787108
000190 45 e4 bb 3e c2 13 6b be c4 97 ea be be bc 5f 3e
       0.36697593 -0.22956756 -0.45818913 0.21849343
0001a0 6e 41 53 bf 7f ca 00 bf b6 a2 70 be 8a a1 13 3f
       -0.8252171 -0.50308985 -0.2349957 0.57668364
0001b0 ce 2f 03 bf ba 41 e1 3e 92 35 ce 3e fa 89 55 bf
       -0.5124482 0.43995458 0.40275246 -0.8341366
0001c0 34 aa 92 bf f0 dd a8 bd b5 1a 9f 3f ba 0e af bd
       -1.1458192 -0.08245456 1.2430025 -0.08547731
0001d0 54 e6 3d be 00 88 cb 3e 9b 10 3e 3e 3a f4 08 be
       -0.18544894 0.39752197 0.18561022 -0.13374415
0001e0 17 b7 af 3d 5e db 0b 3e 70 ad 91 be 62 7d 62 bf
       0.085798435 0.136579 -0.28452635 -0.8847257
0001f0 d0 fd 1c be aa a2 62 3e d2 af de bc 3b b2 cc 3e
       -0.15331197 0.22132364 -0.027183447 0.3997973
000200 8b 8b 3d be 57 f5 8e bd 8a 5e 36 be 96 36 98 bd
       -0.18510263 -0.069803886 -0.17809501 -0.074322864
000210 cc e1 35 be 9c bc 9a 3d 7d c2 02 be ee 4a 69 bd
       -0.17761916 0.07555506 -0.12769504 -0.056956224
000220 51 b2 c7 3e 8b 83 c3 bd 1e 23 f0 be 03 7d 82 be
       0.39003232 -0.09546574 -0.46901792 -0.25486
000230 11 98 a7 3d 43 5c 17 be 72 81 99 be c7 9f 5c be
       0.08183301 -0.14781289 -0.2998157 -0.21545325
000240 75 e3 38 bd 51 70 c0 3d 5f 63 13 be 72 fc 97 3d
       -0.045138795 0.09396423 -0.14393376 0.07421197
000250 24 8b 33 be 46 d6 38 be c7 03 44 3e f6 a8 9a be
       -0.17533547 -0.18050489 0.19142066 -0.30207032
000260 97 f8 08 3d 44 db c0 3e 21 54 a4 bd 88 54 f4 3c
       0.0334402 0.37667286 -0.08023859 0.029825464
000270 17 35 2c bc fe 5f 01 be d4 17 76 be 2b 48 13 3d
       -0.0105107045 -0.12634274 -0.24032527 0.035957497
000280 c5 db 0a be 3d e6 f4 bd a3 71 99 be 60 dc 63 3d
       -0.13560398 -0.11957977 -0.2996951 0.055630088
000290 9e 39 e5 3a c8 df 08 bd 34 0d aa 3d 22 ea a4 bd
       0.0017488485 -0.03341654 0.083032995 -0.0805247
0002a0 d8 4c 22 be 85 6e 1c bf c1 df 01 be 93 ef df 3c
       -0.15849626 -0.6110614 -0.12683012 0.027335918
0002b0 79 4a be 3d 66 16 58 be 78 18 76 3d d2 0b 2b be
       0.09291548 -0.21102294 0.06008193 -0.16703728
0002c0 40 59 f6 bd c9 4b 20 bc 9c 69 6d 3c 72 26 cc bd
       -0.12028742 -0.009783694 0.014490511 -0.0996827
0002d0 36 0e 0a bf aa 1c 60 3e d3 23 fd 3b 02 bc ac be
       -0.53927934 0.21885934 0.007725218 -0.3373719
0002e0 68 43 44 3e 74 2e 86 be c9 d2 95 be 2f e4 11 be
       0.19166338 -0.26207316 -0.2926238 -0.14247201
0002f0 b5 6a 0a be 5f 70 8e 3e e0 2f 46 be 9b 7f a1 3c
       -0.13517268 0.27820107 -0.193542 0.019714167
000300 f9 aa bc bd 29 8b 2c bd 29 e5 c7 bc 6f 5b 68 3d
       -0.09212298 -0.0421249 -0.024401264 0.056727823
000310 16 91 c8 bd af 6a 0e 3d 46 17 08 bd 0f d5 c9 bd
       -0.09793298 0.03476971 -0.03322532 -0.09855091
000320 0d 5b 1f be b7 e8 2b be 18 e7 b6 3d 80 e5 47 bd
       -0.15562077 -0.16787992 0.089307964 -0.048802853
000330 78 c2 76 bd 47 f0 4e bc 8f da c9 3c ed ac 1c 3d
       -0.060244054 -0.012630529 0.02464035 0.038250852
000340 b1 fe 9d 3c 2f 34 24 be 53 3a 40 bd 5b e5 f4 bd
       0.019286485 -0.16035531 -0.046930622 -0.119578086
000350 fb 7d ea bd fe e2 0e bc 7f 96 99 3d c7 38 11 be
       -0.1144981 -0.008721111 0.07499408 -0.14181815
000360 ac 97 10 3d 4a e3 a0 bd 47 79 54 bd 1c 5e 65 3d
       0.035300896 -0.07855852 -0.05187347 0.055997953
000370 30 99 e7 bc c2 d7 2c bd cc f3 b2 bd 01 1b 85 3d
       -0.028271288 -0.04219795 -0.08737907 0.06499291
000380 8d 53 37 bd 68 3c bb bd ea a6 a7 3c 7a f5 20 be
       -0.044757415 -0.09142381 0.020465333 -0.15718642
000390 f9 03 00 be d3 9a 1d bd 47 b1 87 3d 5c bb 71 bd
       -0.12501515 -0.03847773 0.0662561 -0.05901657
0003a0 0a 0d 65 bc c9 0b 96 3d fe 32 c6 3c fb f6 c1 bd
       -0.01398016 0.073264666 0.024194237 -0.09470936
0003b0 e7 80 bc bd 93 0d 9f bd 26 09 23 be 33 20 c0 bd
       -0.09204274 -0.07766261 -0.15921459 -0.093811415
0003c0 56 ee a7 3c 04 88 23 3d e7 59 c7 bc 07 54 8e bc
       0.02049939 0.039924636 -0.024334861 -0.017374052
0003d0 e8 a7 5d bd 93 c8 89 3d 1f ad c6 bd f8 74 04 be
       -0.054115206 0.067277096 -0.09700989 -0.12935245
0003e0 de ce d6 bc b8 d3 4d 3d 51 4b 30 be ce d4 3d 3d
       -0.026221689 0.05025074 -0.17216231 0.046345524
0003f0 e7 0a 83 bd ef 32 0b be a3 8a e4 bd ce 8d 09 3d
       -0.06398564 -0.13593648 -0.11159255 0.0335825

bias f4 [64]
000000 97 d5 a6 3e 4e bf 07 3f 41 b3 ab 3d 43 37 81 3d
       0.3258483 0.5302628 0.08383799 0.063093685
000010 e3 aa 0d 3f 3b b2 fe 3e 2b eb 18 be 22 56 63 bd
       0.5533888 0.49745354 -0.1493346 -0.055502065
000020 d9 74 02 3d 1d 24 f9 bd 7f 5f 7d 3d 33 24 28 3f
       0.031849716 -0.12165091 0.06185865 0.65680236
000030 2b 54 35 3f 0a 2d 44 bd 4a a7 e7 bd eb bc d6 3e
       0.70831555 -0.047894515 -0.11311205 0.41941008
000040 b7 e9 0c bd 56 c3 bd bc f5 09 63 3e 86 f3 9b 3e
       -0.034402575 -0.023164432 0.22171767 0.3045923
000050 8c fc 2b be f3 bc 32 3d dc 7a 50 3d d6 c5 ec bc
       -0.16795558 0.043637227 0.050898418 -0.02890293
000060 3b 7e 8f 3e 04 81 8f 3e 92 7c aa bd af 27 65 be
       0.28025994 0.2802812 -0.08324541 -0.2237842
000070 3b 04 f3 ba 0f 22 cf 3a b0 af f4 3c d3 59 76 bd
       -0.001854069 0.0015802997 0.02986893 -0.060144257
000080 f6 e8 28 3d 71 9e b3 3e e6 03 af 3c c6 26 8e bd
       0.041237794 0.3508182 0.021364164 -0.06940989
000090 b5 9d c2 bc de 0f 01 be 2c e2 93 3e bc 38 0a be
       -0.023756841 -0.12603709 0.28883493 -0.13498205
0000a0 63 a4 87 3f 83 ad ce 3e eb d2 b9 bc 29 30 4e bd
       1.0597042 0.40366754 -0.022683581 -0.050338898
0000b0 e8 10 a2 bd 7a be 3b be 8b 87 60 bd 44 11 38 be
       -0.07913381 -0.1833438 -0.054816764 -0.17975336
0000c0 04 b3 26 be ce 22 f1 bd 1e 51 59 bd 0e 99 96 bd
       -0.16279227 -0.117742166 -0.053055875 -0.073534116
0000d0 88 94 2f 3f 6a 2c d7 3e 3e b0 4e be 63 ff 34 3f
       0.68586016 0.42026073 -0.20184419 0.7070219
0000e0 32 0d d0 bd 28 16 ad bd 77 c5 0d 3d 1d 7a a4 bd
       -0.10158767 -0.084514916 0.034612145 -0.08031104
0000f0 87 ca fc bc de a6 45 bd 50 08 a0 bd 22 07 89 bd
       -0.030858291 -0.04825484 -0.078140855 -0.066908136

weight f4 [7, 64]
000000 9f 6a 44 3f 66 41 db 3e 18 03 34 3e c3 92 85 3d
       0.7672519 0.42823333 0.17579305 0.06522133
000010 42 5b 41 3e ba 0a ef be 8b eb 68 bd 4e ac 40 bd
       0.18882468 -0.4668787 -0.056865256 -0.047039323
000020 38 bb 13 3e cb f1 8f bc c1 3e 2c 3c 6e 18 16 3f
       0.14426887 -0.01757135 0.010513009 0.58631027
000030 98 92 17 3e d2 cb 95 3c 0c 28 13 bd f6 00 86 3e
       0.14802015 0.018285666 -0.035926864 0.26172608
000040 46 f3 86 3d 1a 53 03 3e ba f2 84 3f fc 2a 43 3c
       0.065893695 0.1282467 1.0386574 0.011912104
000050 03 b8 aa 3c d2 7c 34 3e c7 1e 38 bd bf 87 9c 3b
       0.020839697 0.1762574 -0.044951227 0.0047769244
000060 84 64 d8 3e 2d a0 10 3f 27 56 03 3d ba 3c 50 be
       0.42264187 0.5649441 0.032064583 -0.20335665
000070 74 c1 6d bc d7 b3 19 bd 44 59 0e 3e 90 9a 28 3d
       -0.014511455 -0.037525024 0.1390124 0.041163027
000080 3d 47 99 bd 54 7f 0a 3f 98 91 cc bc e2 b5 1f bd
       -0.07484291 0.5410054 -0.024971768 -0.038991816
000090 8c 83 30 bd 5a 29 88 3b 84 3d 36 be 8d 18 f3 bc
       -0.043094203 0.00415532 -0.17796904 -0.029674793
0000a0 cd ee 2e bf 5b 0e da be 1d f9 41 3d d7 e7 be bc
       -0.6833313 -0.42589077 0.047356714 -0.02330391
0000b0 a0 35 a4 3b 6f ca b3 3d eb 90 f6 bd 0b ef 2c 3e
       0.0050112754 0.087788455 -0.1203936 0.16888063
0000c0 9c 56 f4 3c 33 49 63 bd 3e 4d a1 3c 95 15 b4 bd
       0.029826455 -0.05548973 0.019690152 -0.08793179
0000d0 73 d2 a7 3d 61 97 92 be bb 2e db 3b f6 40 94 3f
       0.08194437 -0.28631118 0.0066889203 1.1582325
0000e0 10 d2 81 3f c4 12 96 3d 55 a2 9d 3c 05 2a c8 3c
       1.0142231 0.07327798 0.019242445 0.024434099
0000f0 52 99 d6 bd 0f 50 b2 bd 53 12 83 bd 32 39 9f 3d
       -0.10478462 -0.08706676 -0.063999794 0.07774581
000100 96 dc b2 3e f4 87 21 bf b2 c0 62 3d e7 ea 65 bd
       0.3493392 -0.63098073 0.05535955 -0.056132223
000110 a0 5c 3a 3e cb 95 95 3f fd 15 56 3b 50 9f 0a 3d
       0.18199396 1.1686338 0.0032666915 0.03384334
000120 44 44 11 3d e2 fb 12 3b 1d 5e c1 bc 9c 00 b4 3d
       0.035465494 0.0022427966 -0.023604447 0.08789179
000130 f9 59 cf be e1 7d 23 3c 23 d5 f5 bd f2 c6 83 3e
       -0.4049833 0.009978742 -0.12003543 0.2573772
000140 0b b5 3d 3d 04 9c 82 3d 44 3b ab 3e 85 2f 8e be
       0.046315234 0.06377414 0.33443654 -0.2777063
000150 62 9a 73 bd 96 21 85 bc 3b 9c d3 3d 25 ba 57 3d
       -0.059473403 -0.016251367 0.10332533 0.052667756
000160 85 79 b9 3e db 5d 87 3f 29 99 60 3e c3 e6 18 bd
       0.36225525 1.0575517 0.21933426 -0.037329447
000170 89 c9 08 3f a4 bb 0e be e0 08 9d bb 48 63 13 3e
       0.5343252 -0.13938767 -0.0047923177 0.14393342
000180 cd 20 cf bc 35 ec 76 3d 93 ff a6 bc 58 21 c1 bd
       -0.025284195 0.06028386 -0.02038554 -0.09430188
000190 de a3 4a 3c ee 59 00 3d 9a d3 7c 3f c2 e5 f6 3b
       0.012368171 0.031335764 0.9876038 0.0075347135
0001a0 1d e4 68 3e 9b b1 68 be 03 f0 d5 3d 23 ef b6 3c
       0.22743268 -0.22724001 0.10446169 0.022330826
0001b0 6a 89 01 3e 37 91 d5 bd 47 0a 33 3d be 37 80 3e
       0.12650076 -0.10428088 0.043710973 0.25042528
0001c0 3b b2 c2 bd af 37 88 3d 39 8f 3a 3e 61 9d d1 3d
       -0.09506651 0.06651246 0.18218698 0.10235096
0001d0 86 9d 3b 3f 7e 13 a6 3c 1e ba a1 3c c7 12 f8 bb
       0.73287237 0.020272966 0.019742068 -0.007570598
0001e0 e3 fb f4 be f5 82 a2 3d c9 13 50 3d 19 4f 0a bc
       -0.47848424 0.07935134 0.05080012 -0.00844171
0001f0 25 ad 5b bd ae 82 60 3d ab 1d 3f 3d d2 23 e8 bd
       -0.05363192 0.054812126 0.046659153 -0.11334957
000200 77 05 2b 3d 6a b6 cf 3e 90 b7 c3 bb 4a 04 a0 bd
       0.04175326 0.40568858 -0.00597281 -0.07813318
000210 7d 84 d1 be 0f 47 ea bf d2 6a 91 bd 3e f2 4d bd
       -0.40921393 -1.8302935 -0.071004525 -0.05027985
000220 1d 0e b7 3d d2 22 81 bd 2c 0a ad bd 93 23 45 be
       0.08938239 -0.063054696 -0.08449206 -0.19251852
000230 92 98 2b 3f b9 b0 81 bc cc 60 89 3d a2 7d 2d bf
       0.6702968 -0.015831338 0.06707916 -0.67769825
000240 37 11 09 3c 95 f3 4d 3d 46 0a aa be 01 d1 b3 bd
       0.008365921 0.050281126 -0.33210963 -0.08780099
000250 17 93 27 bc e7 7c 14 3f ce 81 00 3d ce 57 e6 3c
       -0.01022794 0.58003086 0.03137379 0.02811804
000260 8e 3c 2c 3f 18 9b cd 3e da bd d7 be 1b 4c 2b 3d
       0.672799 0.4015739 -0.42137033 0.041820627
000270 62 68 1c be a4 0b 52 bc b1 bc d1 bc 1a df bb 3c
       -0.15274194 -0.012820158 -0.02560267 0.022933532
000280 ea cf fd bb 3b 1a 9b 3e a4 86 c8 3b fe 5b e4 3d
       -0.0077457326 0.3029345 0.006119566 0.111503586
000290 c2 69 10 be 6b ea 5a bd 21 8b 06 3f f4 d0 6a 3d
       -0.14102843 -0.053446215 0.52556044 0.05732818
0002a0 90 c8 d1 3e 2e 3a 96 3e 4c 63 c1 bc d0 ff 87 3d
       0.4097333 0.29341263 -0.023606919 0.06640589
0002b0 9a f7 10 3c 0b de 3c 3d aa 2a 90 3d 6e 19 8c 3e
       0.008848095 0.046110194 0.070393875 0.2736315
0002c0 fe 08 c5 bd 9e b2 b0 3b 3a cb 7b 3d b1 cd 3a 3e
       -0.09620856 0.0053923866 0.06147311 0.18242528
0002d0 68 e3 b6 bd 5f 78 11 be ba 46 20 bd 71 f6 86 3f
       -0.08930093 -0.14206074 -0.03912995 1.0543958
0002e0 5a 71 91 3d 9f 34 8a 3d b9 3f 80 3b 1a 41 af bd
       0.07101698 0.06748318 0.0039138463 -0.08557339
0002f0 23 90 59 3d 40 06 91 3d f6 5f 66 3d 91 4c 8b bd
       0.053115975 0.0708127 0.05624386 -0.06801713
000300 56 d0 bb 3e 58 76 2c 3f ca 48 80 bd ab cf 29 3c
       0.36682385 0.6736808 -0.062638834 0.010364453
000310 99 bc 99 bf df b5 ce be 94 61 05 bd a0 2f de 3c
       -1.201068 -0.40373132 -0.03256376 0.027122319
000320 15 43 4e bd c7 1c 19 3e e2 a4 3b 3d de fe a4 bc
       -0.050356943 0.14952384 0.04581154 -0.020141061
000330 14 c8 47 be 10 45 91 bd 75 d2 c3 bd 60 b6 de 3e
       -0.19509917 -0.07093251 -0.09561626 0.43498516
000340 02 38 71 3d 81 24 ba bc 86 f9 70 3e b0 d2 67 be
       0.058891304 -0.022722485 0.23532686 -0.22638965
000350 7e 69 86 3d c0 58 2c 3e d2 7e 8b bd 00 f6 77 3c
       0.0656309 0.1683073 -0.068112984 0.015134335
000360 c3 fc 12 be 1a 06 d6 3e 8e 58 fb 3e eb 79 d2 bd
       -0.14354233 0.4180153 0.49091 -0.1027716
000370 a9 93 0f be ed 45 b0 3d 02 77 5c 3c 93 25 e0 3d
       -0.14021172 0.08607087 0.013456108 0.10944667
000380 38 f8 76 3d 4c e8 01 bf 51 89 a6 bc 6b 7c c2 bd
       0.060295314 -0.5074508 -0.02032915 -0.09496387
000390 6e 87 a5 3d a4 b5 54 bd 47 1a 89 3e 43 da 34 3d
       0.08082472 -0.05193104 0.2677786 0.044153463
0003a0 9b 9e 78 bf 9f a6 e3 3d cf 76 4c bd 0d da 85 3d
       -0.9711701 0.11115765 -0.049917992 0.065357305
0003b0 2f be da 3d 44 04 d3 3c 05 39 2f bd c4 f7 a8 be
       0.10680806 0.02575887 -0.042778987 -0.3300153
0003c0 21 49 9a bd 75 98 0c be 2d a2 34 bd 01 52 34 3c
       -0.075334795 -0.13730033 -0.044099975 0.011005879
0003d0 f9 bc 0d 3e 8a ed 37 3f 9b d6 03 3d df 9e 4a bf
       0.13841619 0.7184683 0.032187086 -0.7914867
0003e0 a4 d6 09 bf be 4d 04 bd 81 9f 0b 3e 30 47 5d 3d
       -0.5384314 -0.032300703 0.13635065 0.054022968
0003f0 c9 ab 11 3e 7a 9c c8 3c 58 89 84 3c 7c 0b 0b be
       0.14225687 0.024488676 0.016178772 -0.135786

bias f4 [7]
000000 2a d0 06 bf 04 22 86 bf 53 da ac be a8 f0 60 bf
       -0.52661383 -1.0479131 -0.33760318 -0.8786721
000010 7b b9 99 be 81 37 8d bf 49 d5 3d 3b
       -0.30024323 -1.1032563 0.002896624

weight f4 [7, 64]
000000 db 0d 53 3e 2e a0 94 3e a5 1c 87 bd 0c 35 0d bd
       0.20610754 0.29028457 -0.065972604 -0.034474418
000010 1d b8 a8 3e bd 13 08 bf 0f ba 34 bc c3 e8 83 3d
       0.32952967 -0.5315512 -0.011030688 0.0644088
000020 c1 05 83 3d 77 9a 2e 3d e2 0a fc 3c e9 2c 35 3e
       0.06397582 0.042627778 0.030766908 0.17692913
000030 4f db 43 3e 0c 23 9a bd 49 ba d2 3d 7c 80 fd 3c
       0.19126628 -0.07526216 0.10289437 0.030945055
000040 4f 0f b3 3a 7c 3a 04 3d 5c 18 87 3f 4c 5f f5 3d
       0.0013661179 0.032282338 1.0554309 0.11981067
000050 54 eb ca bd ad 0f 3d b9 1a 56 8a 3d a7 1c 40 3d
       -0.099081665 -0.00018030284 0.06754704 0.046902325
000060 00 d3 08 3e 26 55 0b 3f cb 88 48 3e 43 4e b3 3d
       0.1336174 0.544268 0.19583432 0.087551616
000070 8c 6d f0 3c 7b 53 e1 3c b3 a0 d5 bc 93 78 28 bd
       0.029349111 0.027505627 -0.026077604 -0.041130614
000080 59 cd 01 3d 61 5f 79 3e 79 c6 1c bc 53 df 07 3d
       0.031689975 0.2435279 -0.009568804 0.033171963
000090 bc 3f af 3b 04 f7 26 bd 44 b0 2f 3d 01 ed 2e 3b
       0.005348174 -0.040762916 0.04289271 0.0026691558
0000a0 dd 5a 22 bf fc d9 4b be 43 7d 07 be eb 61 52 bc
       -0.63419896 -0.19907373 -0.13231377 -0.012840728
0000b0 bb cb 7d bc 1c f8 94 bd e7 0e 08 3e ab c0 8f 3d
       -0.015490468 -0.072738856 0.13286935 0.070191704
0000c0 ca 8c 83 bc 7a 38 97 3c 3b c6 27 bd ef b6 7a 3d
       -0.016058344 0.018459547 -0.04096053 0.061209615
0000d0 59 a1 91 bd 44 1d 52 be 99 62 e1 3d 81 20 34 3f
       -0.07110853 -0.20518976 0.11005134 0.703621
0000e0 4b 64 64 3f 6b 01 c5 3d 5d 99 a1 bc 69 e4 a6 3c
       0.89215535 0.09619411 -0.01972645 0.020372586
0000f0 17 78 5b 3d be ab 51 3d b9 35 18 3e cc 0e e8 bd
       0.053581323 0.051189177 0.14864244 -0.11330947
000100 dd 30 98 3c cf 75 47 be 9d a3 1b be 76 df 96 3d
       0.018577987 -0.19478534 -0.15199132 0.073668405
000110 62 4e dd 3e 08 2a 16 3f 09 3f 7e 3c d4 10 ea bd
       0.43223864 0.58657885 0.015517958 -0.11428991
000120 b3 f9 c6 3c 5a 7e d8 3c 97 75 9e 3d 5c f3 c7 bd
       0.024288988 0.026427437 0.07737272 -0.09763214
000130 33 a7 7c bc 69 96 f9 3d 8a 65 76 bb 86 58 6d 3d
       -0.015420723 0.121868916 -0.0037597143 0.05794575
000140 f2 69 b3 3c 90 48 b7 3a 0a 75 62 3e 3c 01 52 3e
       0.021901105 0.0013983417 0.2211496 0.20508283
000150 2f 94 b2 3b e7 86 92 bc b2 d0 43 3d 75 51 8f 3d
       0.005449794 -0.017886592 0.04780645 0.069979586
000160 c7 d0 19 3e dd 3d 06 3f 4f 9c 53 3e b1 db e2 bb
       0.15021048 0.52438146 0.20665096 -0.006923162
000170 ec 9e 3c 3e 67 da 01 bd e6 0f 5e bc 1c d6 02 3e
       0.18419999 -0.031702425 -0.013553595 0.12776989
000180 27 15 ec bd 6a 11 81 be 45 9c 4e bd fd c3 c4 3c
       -0.11527472 -0.25208598 -0.050442 0.024019236
000190 fc 3a cd bd c4 d6 50 3d b7 fe 49 3f 6a 48 2b 3d
       -0.10021016 0.050986066 0.7890429 0.041817106
0001a0 a5 1e 41 3e 69 4f 45 bd 65 74 2e 3b e8 3d e6 3c
       0.18859346 -0.048171435 0.002661967 0.028105691
0001b0 b0 0c 27 3e 7f c1 7d 3d d6 ab 01 3e 3c 1f ec 3d
       0.16313434 0.06195211 0.12663206 0.11529395
0001c0 e6 9d d9 3c 60 38 38 3d 89 92 54 bd 7a d9 9a 3d
       0.02656455 0.04497564 -0.05189756 0.075610116
0001d0 2c 89 dc 3e 42 00 80 bd 30 d6 2b bc 58 08 85 3d
       0.43073404 -0.06250049 -0.010488078 0.06495732
0001e0 66 6f 88 3d a2 a7 b4 bd e7 20 35 bc b7 13 bc bd
       0.066618726 -0.08821036 -0.011055208 -0.09183448
0001f0 6c d1 9c 3c 32 ed a0 bc 5c ab 82 3d 20 50 10 bc
       0.019142829 -0.019644354 0.063803405 -0.008808166
000200 e7 61 e9 be a8 7b d7 bb ac c4 2c bd f5 03 16 bd
       -0.45582506 -0.0065760203 -0.04217975 -0.036624867
000210 3c 53 ef be f6 f3 cf be 7d 27 14 bd 91 cd ad 3d
       -0.4674319 -0.40615815 -0.03617047 0.08486474
000220 31 66 1a 3c c3 fb df 3c 74 3a e8 3c cf bc fc bc
       0.009423778 0.027341729 0.028348185 -0.03085175
000230 ae 32 b6 3c c2 72 a0 bd f7 26 a6 3d 8b 53 8f bd
       0.022240963 -0.07834388 0.08112901 -0.069983564
000240 2d 1a 9f bd 10 ac 9a bd 9b 06 f1 3e ee 4a 40 3d
       -0.077686645 -0.075523496 0.47075352 0.04694646
000250 fd 50 2f bd b7 e4 d1 3b 04 0f fa bb 3f e0 5e 3d
       -0.042801846 0.0064054388 -0.0076311845 0.054413076
000260 3d ab 36 3e 81 3f 06 3f 5a cb 53 bd 7b 1c 8f bd
       0.1783876 0.5244065 -0.051707603 -0.06987854
000270 a0 9d 2d 3e 64 02 1e 3d b0 83 31 3d 3b 78 c2 3d
       0.1695466 0.0385765 0.043338478 0.094955884
000280 8f 13 60 bd 16 41 c4 bd 72 cb 2f 3c f3 a5 f7 3d
       -0.054706153 -0.09582727 0.0107296575 0.12092199
000290 7a 78 0a bd 9d a8 99 bb 67 8b 47 3d 2d 80 fa 3d
       -0.0338063 -0.0046892897 0.04871693 0.12231479
0002a0 4a 47 03 bd 74 28 94 3d 73 c9 0b 3c 2e ca c4 bd
       -0.03205041 0.07234278 0.008531916 -0.09608875
0002b0 03 71 5e bb c0 01 02 3d d7 b7 d1 3c 54 ae ea 3d
       -0.0033941872 0.03173995 0.025600357 0.11459032
0002c0 68 cf 95 bc 30 44 60 ba 36 60 cd bc 55 cc ff 3d
       -0.018287376 -0.00085550826 -0.025070291 0.12490145
0002d0 b7 4e 75 3e 69 44 2c bd 49 4a 11 3d 25 a5 6c 3e
       0.23955809 -0.04205743 0.035471234 0.23109873
0002e0 bd f8 83 3e de 60 1a be 32 ee 28 3d 3b cf 60 bd
       0.2577571 -0.15076014 0.041242786 -0.05488513
0002f0 48 07 be bd 74 c8 61 bd f4 c8 0b 3e 79 f2 0d 3e
       -0.092787325 -0.055122808 0.13650876 0.13862027
000300 0d aa 2e 3e d3 52 42 3f e4 c8 56 be b8 e9 c8 3d
       0.17057057 0.7590763 -0.20975071 0.09810203
000310 9e c6 09 3e 44 db 21 bf 21 52 82 bb 5a 12 ad bc
       0.13454673 -0.632252 -0.0039770757 -0.021126915
000320 f9 13 d9 3c 3a 22 0d 3d fb a2 30 bd 62 ef 05 be
       0.026498782 0.03445647 -0.04312418 -0.13079599
000330 b6 2d d7 3c f3 90 dc bd 0a 08 a1 bd 6c df 26 3e
       0.026266914 -0.10769834 -0.078628615 0.16296166
000340 d5 a9 5f bd 58 10 b3 3d b5 4e 46 3e af 7c 44 bd
       -0.054605324 0.08743352 0.19365962 -0.04797047
000350 ee 1f 78 bd c6 27 31 be 0f 6f 9e bc 94 72 ec 3c
       -0.060577326 -0.17300329 -0.019340066 0.028863229
000360 1b 75 d8 3c 55 42 78 3e d5 e9 f7 3e 97 c4 20 3d
       0.026423028 0.24244054 0.48420587 0.039249983
000370 c6 ca cb 3d 24 8c 27 bd 91 ab ee 3c 22 60 ed 3d
       0.09950785 -0.040905133 0.029134544 0.115906015
000380 c2 0b d0 3d 79 14 cf be a1 3b f3 3d 88 af 19 3d
       0.101584926 -0.40445307 0.11876608 0.037520915
000390 07 b6 ec bc 84 18 d4 bc d9 e8 d4 3c d7 bb 37 3d
       -0.028895391 -0.025890596 0.025989937 0.044856872
0003a0 8c 5b c1 3d 7a 5f 53 3e e3 82 4e bd cb 5c a9 3d
       0.09441289 0.2064189 -0.050417792 0.08269652
0003b0 e2 16 d7 bc 15 0a 2c 3d 19 85 e9 3d d3 f7 98 3d
       -0.026256029 0.042001802 0.114023395 0.07469144
0003c0 59 9c 91 bd 90 75 2a bc 16 0f 3a 3d 11 bc e2 3d
       -0.07109899 -0.010404006 0.045424543 0.11071027
0003d0 cc 57 08 be e1 26 94 3d e1 ac 4f 3d 72 11 ea 3e
       -0.13314742 0.07233978 0.05070198 0.45716435
0003e0 21 2a 06 3f 00 e6 0d 3e 55 7b 26 3e b4 7a 93 bd
       0.52408034 0.1385727 0.16257985 -0.07201138
0003f0 b3 5d a1 bc 66 8c 12 be 63 94 94 3d 67 e8 01 bd
       -0.019698 -0.1431137 0.07254865 -0.031715777

bias f4 [7]
000000 da 63 0e c0 4c 08 2e c0 47 bd 1c c0 51 4f 33 c0
       -2.2248445 -2.7192564 -2.4490526 -2.801716
000010 e9 7e 02 c0 6d b8 29 c0 aa 90 23 c0
       -2.038996 -2.6518815 -2.5557046

weight f4 [64, 14]
000000 e6 ee ec 3e 49 8c d0 3f 55 18 20 c0 54 46 38 3d
       0.46276015 1.6292812 -2.501485 0.044988945
000010 a6 57 e0 3f 0a 10 e9 3e 5d 59 b6 3e 43 ac 54 be
       1.7526748 0.4552005 0.35615054 -0.20768838
000020 07 16 46 bf 5e 4d 45 3e d1 27 d7 bf 0c 96 80 bd
       -0.7737736 0.19267794 -1.6809026 -0.06278619
000030 df 2a c5 bf de 3b 69 bf 60 71 14 40 7e d5 99 3f
       -1.5403708 -0.91106975 2.3194199 1.2018278
000040 7f 78 a9 c0 42 e0 b7 bd b4 69 c2 3f 4c 7c d9 be
       -5.295959 -0.08978321 1.5188508 -0.42477643
000050 75 a8 63 3c 31 bb 07 3f 59 b9 2f 3e ac c2 32 3f
       0.013895144 0.53020006 0.17160548 0.69828296
000060 4d d8 d7 3e e3 45 f8 3e f7 2c 3a 3f 62 ab 9a 3f
       0.42157212 0.4849082 0.7272486 1.2083552
000070 85 88 76 3f 51 5f e6 3d 1a d0 cb 3f 4c 0f 6e 3d
       0.9630206 0.11248649 1.5922883 0.058120057
000080 bc 1d 82 3f 39 25 48 be 67 96 2b bf 08 9f 00 40
       1.0165324 -0.1954545 -0.6702637 2.0097065
000090 92 94 5e 3f cc 89 f7 3f e4 c3 21 3f b3 b3 06 40
       0.8694545 1.9338927 0.6318953 2.104718
0000a0 b7 f4 b6 3f 11 73 31 40 25 e2 ce bf 21 f5 75 3f
       1.4293431 2.772648 -1.6162764 0.9607716
0000b0 3a 67 52 3e 8e ab 2f 3e 78 f5 2f c0 f1 58 42 3a
       0.2054719 0.17155287 -2.7493572 0.0007413766
0000c0 96 6b 11 bf ab 9a e4 3e 66 88 a0 3e be 7c 50 3e
       -0.5680479 0.44649252 0.31354064 0.20360085
0000d0 c1 39 4f 3d 75 4b a4 3e e5 aa 59 3f 44 41 51 bd
       0.050592188 0.3208882 0.8502639 -0.051087633
0000e0 cb 14 3c 3f 66 08 43 3f 3c b1 cb 3f ac cb 13 3d
       0.7346923 0.7618469 1.5913463 0.03608291
0000f0 48 d4 b4 3f 3b 4d bf 3f 1c c0 5b bf e4 0f 5b 3f
       1.4127283 1.4945444 -0.8584001 0.8557112
000100 b6 04 3d 3f bf f9 2f 3f ad f4 0b be 02 cd e0 3d
       0.73835313 0.6874046 -0.13667555 0.10976602
000110 50 21 88 3f bd 95 de 3f e3 4b 6e 3f f0 0c 6b bc
       1.0635166 1.7389446 0.93084544 -0.014346346
000120 b7 bc 9b be a4 e7 ba 3d b8 cb df 3f 2d 6b f2 3e
       -0.30417415 0.09126213 1.7484045 0.47347394
000130 3f 36 cd 3d 4f 17 85 3e 3c 7c 88 bf b0 7d 8f 3e
       0.10020112 0.25994346 -1.0662913 0.2802558
000140 14 07 39 3f c6 8c db 3e 54 1a 61 3f 5d f7 a5 3e
       0.72276425 0.4288084 0.879308 0.32415286
000150 03 2c 74 be f5 a4 ef bd 1c 43 0b be a4 2e 79 3e
       -0.23844914 -0.11701385 -0.13599819 0.24334198
000160 e4 44 21 c0 0b dc de 3e 7b 4e 2f 3f 41 ee 46 3f
       -2.5198298 0.43527254 0.68479127 0.77707297
000170 46 0f d1 3d 0e 49 3d 3e f7 4f 8c 3e b5 4a 5e 3e
       0.10207991 0.184849 0.27404758 0.21708186
000180 ce 2b 96 3f 5e 45 d7 3f 4b 2c 18 3f 1d fb df 3f
       1.1732118 1.6818044 0.59442586 1.7498509
000190 ba 33 13 c0 92 33 84 bf ff b6 82 3f d5 73 a3 3f
       -2.3000321 -1.0328238 1.0212096 1.2769724
0001a0 92 7e 2c bf 3d c1 b3 be 0e 28 19 be 49 9f fb bd
       -0.6738063 -0.35108367 -0.14956686 -0.122862406
0001b0 89 dc 8b bf c3 13 ff bf 62 d6 e8 bf c4 18 aa bf
       -1.0926677 -1.9927906 -1.8190424 -1.3288808
0001c0 81 2c b4 3f a6 39 b8 be 03 9c ae 3e 7d 79 d7 3b
       1.4076082 -0.35981482 0.34103402 0.006575762
0001d0 1b 8e e1 be e6 57 85 bd 35 06 3d 3f 10 bf ce 3e
       -0.4405373 -0.06510906 0.73837596 0.40380144
0001e0 ea b4 1b 3f bf b6 a2 3e a8 a5 11 bf 4e 37 6d 3e
       0.6082293 0.3178005 -0.56893396 0.23165628
0001f0 83 5e 0d 3f dd 98 00 3f 95 31 0c be 77 15 0f 3d
       0.5522234 0.5023325 -0.13690789 0.03493258
000200 0b ff 77 bb 71 e4 30 3e 0a e0 00 c0 be fe 5d 3e
       -0.0037841226 0.17274643 -2.0136743 0.21679208
000210 b5 f4 fd be 9d 4f 64 3b 95 cf 94 bd 3e a5 ed 3e
       -0.4960076 0.0034837492 -0.07266156 0.46415132
000220 e0 64 b4 3d 38 1c c3 3d 8c a8 32 3f 1a 92 b3 3f
       0.08808303 0.09526867 0.6978843 1.4028962
000230 a0 26 3f 3e 53 48 fe 3d 37 7f 50 3e 91 7f 77 3e
       0.18667078 0.124161385 0.20361029 0.24169756
000240 94 4d 27 c0 ad fa 1c 3f b2 f3 37 3f b1 1e 63 3e
       -2.61411 0.6132 0.71856225 0.22179677
000250 85 6a af 3e 9e 02 12 3d a1 a1 2c 3f 9c 40 94 3f
       0.34260955 0.035647027 0.67434126 1.1582217
000260 3f 9e a1 3f d2 f9 92 3f 3f f7 31 be e2 1e 5c 3f
       1.2626418 1.1482489 -0.17379473 0.85984623
000270 7a 10 13 40 e7 5c 2a 3e 20 a9 4a bf 2d 21 39 be
       2.2978806 0.16637002 -0.79164314 -0.18079062
000280 8a 48 0d 3f 88 9b 15 3f 88 e9 7d 3f 32 13 e7 3d
       0.5518881 0.58440447 0.99184465 0.11282958
000290 50 a5 47 3f 1a 9a 17 3f 17 e9 ad 3f 32 0b e2 3f
       0.7798662 0.59219515 1.3586758 1.7659667
0002a0 36 4b 2d 40 a4 24 a4 bf ba cc c6 3f e0 b4 a1 3f
       2.7077155 -1.2823682 1.5531228 1.2633324
0002b0 e2 c3 22 3c d6 9b a5 be f4 e7 79 be d0 ed 24 bf
       0.009934397 -0.32345456 -0.2440489 -0.64425373
0002c0 92 5d ea bc 79 2f 36 bf d1 3e bb 3e 2f c6 f8 be
       -0.02860907 -0.7116619 0.36571363 -0.48588702
0002d0 5f f6 01 bf 08 37 af bf 91 fe 8c 3d aa 44 bf 3b
       -0.5076656 -1.3688669 0.06884492 0.005837043
0002e0 e9 59 dd 3e a6 03 d1 bd ad 77 c3 bf 37 6f 53 3e
       0.43232659 -0.10205774 -1.5270897 0.20647894
0002f0 05 e7 68 3f 8e 70 2c 3f 09 17 f0 3e 26 41 8b 3f
       0.9097751 0.67359245 0.46892574 1.0879257
000300 e1 51 af 3f fe 35 dd 3e f5 e1 6d 3f 63 f7 2e be
       1.3696862 0.43205255 0.9292291 -0.17086558
000310 bc c3 7e bf 68 88 26 40 6c 67 e0 40 06 70 1e be
       -0.99517417 2.6020756 7.0126247 -0.15472421
000320 da 32 4f bf 29 07 01 bf e0 03 49 3d 47 98 64 3e
       -0.8093697 -0.5040155 0.04907596 0.22323714
000330 14 23 9f 3e d0 22 88 3e 81 37 db 3c e3 f1 9c 3d
       0.3108145 0.2658906 0.026759865 0.07663324
000340 f6 4c 44 be e2 86 41 be 98 96 f8 3d 85 5a e1 3c
       -0.19169983 -0.1889911 0.121380985 0.027508983
000350 ed eb 4c c0 08 53 d3 bf 05 ac cc 3f bd 31 c0 3f
       -3.2018998 -1.6509714 1.5989996 1.5015179
000360 7a ae 1d be 71 23 d6 3e ee 13 f8 be e4 29 8b bf
       -0.15398589 0.41823915 -0.48452705 -1.0872159
000370 b8 8b 8a bf 2c 01 42 3f b1 c3 a3 be c7 5e 28 3f
       -1.0823889 0.7578304 -0.31985238 0.6576962
000380 ac 42 bc bf 4a 68 3c 3f b9 84 e9 bd be 8a 81 3e
       -1.4707847 0.7359663 -0.11402268 0.25301164
000390 02 f2 77 bf 7d 8a 89 bc 8e 80 9f bf 06 19 c2 3e
       -0.9685365 -0.01678967 -1.2461107 0.37909716
0003a0 32 39 04 3e f7 ab 48 3d 42 42 aa 3d 55 68 96 3e
       0.12912443 0.048992123 0.08313419 0.29376474
0003b0 d6 1a 60 3f 2b 7e 66 3f bf 63 2a be ab 46 23 3e
       0.8754095 0.9003627 -0.16639613 0.15944926
0003c0 0b 72 b5 be 74 ec 85 3e 44 f0 35 c0 54 8e 6c 40
       -0.3543857 0.26156962 -2.8427896 3.696187
0003d0 86 4b 6f 3f 82 4b 4f be 5f 93 a7 be 71 79 26 3e
       0.93474615 -0.20243648 -0.32729623 0.16257264
0003e0 17 77 2f be 87 ab 1a be a6 b8 29 3f 61 37 95 3f
       -0.17135273 -0.15104495 0.66297376 1.1657525
0003f0 d2 fa 3e 40 a4 dd d1 3f 18 ce 33 c0 c1 5d a3 bf
       2.9840589 1.6395764 -2.809454 -1.2762986

bias f4 [64]
000000 38 7a d0 c0 34 8c bd 3f 37 43 26 c0 ff 55 78 40
       -6.5149193 1.4808412 -2.5978525 3.8802488
000010 a1 82 60 40 9a 42 65 c0 91 f7 5a 40 3e 4e 9e c0
       3.507973 -3.58219 3.4213603 -4.947051
000020 e9 57 be 3f cf c4 64 40 d8 01 a7 40 09 82 41 40
       1.4870578 3.5745122 5.218975 3.0235617
000030 fe 3b 63 3f b0 d3 a1 40 aa 18 bc 3d cd 2a e9 bd
       0.88763416 5.0570908 0.09184392 -0.11385117
000040 1c e5 6b 40 0b b9 f3 3f 5e 5a e9 bf 10 1c 09 3e
       3.6858587 1.9040846 -1.8230703 0.13389611
000050 fd bf a8 c0 15 3d e4 3e 7f f1 68 40 4b 6f 20 c0
       -5.273436 0.44577852 3.6397398 -2.5067928
000060 7f d7 35 40 07 d3 bd c0 ed 55 90 40 3e ef a5 3f
       2.8412778 -5.93201 4.510489 1.2963636
000070 82 4f 28 40 00 be 97 40 65 d6 58 3e c3 42 dd 3f
       2.6298528 4.7419434 0.21175535 1.7285999
000080 a8 6e 53 3f 15 b8 5f 40 c7 bb 10 40 e2 f7 8e 40
       0.82590723 3.4956105 2.261461 4.467759
000090 2e 16 89 40 ef 14 10 c0 87 db 9d c0 ed 5f ec 3f
       4.2839575 -2.2512777 -4.933048 1.8466774
0000a0 88 76 9b c0 fb 33 19 3f c1 4e ba c0 b8 fd 4a 40
       -4.858219 0.5984494 -5.8221135 3.1717358
0000b0 da 51 0b 40 6d db 20 40 4e 3a 38 3f cd f0 c3 3e
       2.1768708 2.5133927 0.71963966 0.38269654
0000c0 c6 be 88 40 70 77 0a c0 5a 2d a6 3f 20 d3 a5 c0
       4.273288 -2.16354 1.298259 -5.182022
0000d0 a8 f0 34 40 f7 7a a2 c0 fa da 96 40 35 7c b2 c0
       2.8271885 -5.0775104 4.7142305 -5.577662
0000e0 1d 7a 62 c0 c5 38 42 3f 12 bc 4f 40 76 3b 77 40
       -3.5387032 0.75867873 3.245854 3.8630042
0000f0 4f 45 50 3f 6f 2f fc 3f c8 49 8a bf 79 f2 5b 40
       0.81355757 1.9701976 -1.0803766 3.4366744

weight f4 [64, 64]
000000 59 82 97 bd a4 e3 61 bc 80 64 79 bd 3f 19 05 be
       -0.07397909 -0.013787184 -0.06088686 -0.12997912
000010 51 21 a6 bd d8 83 2c 3d fc 61 2b bc 51 e8 db 3d
       -0.08111823 0.042117923 -0.010460373 0.1073767
000020 18 0f 58 bd a7 0f b3 bd b1 a1 19 be c4 ce ca bd
       -0.05274877 -0.0874322 -0.15003087 -0.09902719
000030 df 53 a0 3d 0c 4f 03 be 64 a6 99 bd f8 5b ad 3c
       0.07828497 -0.12823123 -0.075024396 0.021162018
000040 57 8f ad 3d e7 62 17 be 2b 71 aa bd 1e 7f bb 3c
       0.084746055 -0.14783822 -0.08322366 0.022887763
000050 e2 f0 db 3b ae 8a 91 bd ad ea 27 be bf d9 c2 bd
       0.006712065 -0.07106529 -0.16398115 -0.09514188
000060 21 e8 de 3c 6e 40 8e bd d9 10 1c be 89 bc 9f 3d
       0.027210297 -0.06945883 -0.15240802 0.07799632
000070 e0 c9 34 3c b1 8e 94 bd 95 76 43 3c 7d d4 a6 bd
       0.011034459 -0.07253779 0.011930128 -0.08145998
000080 f3 e2 bd bd 55 c5 04 be 9c 22 24 3c 68 94 04 be
       -0.09271803 -0.12965901 0.010018017 -0.12947237
000090 68 3d e0 bd 8e e5 07 3d d4 39 a1 bd 03 c5 63 bd
       -0.10949212 0.033177905 -0.07872358 -0.055607807
0000a0 00 53 17 3a 0e ce fc bd b4 92 00 be 3a e3 ea bd
       0.0005772561 -0.12343989 -0.12555963 -0.11469121
0000b0 b9 7d 6e bd 7e b8 e9 bd 00 20 be 3d 59 a2 86 3d
       -0.058225367 -0.11412142 0.09283447 0.06573934
0000c0 e9 98 4a 3d e3 69 fa bd 64 f8 c1 bd 76 01 8e 3d
       0.049462233 -0.122272275 -0.09471205 0.069338724
0000d0 39 d7 03 3d 2d e4 c0 bd 35 f9 3b 3d ea bf 82 bd
       0.032187674 -0.09418521 0.04589196 -0.06384261
0000e0 81 8c d8 3d 17 2b 2d be 7f c4 4a 3d fe c9 ae bc
       0.10573674 -0.16910969 0.0495038 -0.021336552
0000f0 4c b8 fa bd b3 e8 4e 3d 89 58 dd bd 96 01 38 bc
       -0.12242183 0.050514888 -0.10807902 -0.011230847
000100 d4 8b 7b bf 51 e1 d6 bf 1a 03 89 c0 a7 42 37 bc
       -0.98260236 -1.6787511 -4.2816286 -0.011185325
000110 eb 40 19 3f 53 2a cf bf 2e 1a 75 3f 96 03 cf be
       0.5986468 -1.6184791 0.9574307 -0.40432423
000120 91 c5 20 3f 4c f5 7a 3f 60 b2 85 3f fc 4b 0f 3f
       0.6280146 0.98030543 1.0445061 0.5597532
000130 95 01 a8 3e 79 f4 5e 3f ec 78 aa 3d ef be 8b c0
       0.32813707 0.87091786 0.08323845 -4.3670573
000140 6d df 1c 3e cf 60 01 bf 8f be 42 c0 24 a2 7b 3f
       0.15319605 -0.50538343 -3.0428808 0.9829428
000150 9f 4f 39 c0 be 86 42 3d a7 c9 26 3f 05 23 5b c0
       -2.8954847 0.04749178 0.6515145 -3.4240124
000160 b7 50 5f 3f 39 a9 71 bf 8c 10 9e 3f f3 83 71 bf
       0.87232536 -0.9439884 1.23488 -0.94341964
000170 66 01 4c 3f b5 ad 7e 3f 0b 96 05 c0 95 b9 69 3d
       0.79689634 0.99483806 -2.087283 0.05706175
000180 80 2a 6f 3f a6 bc 77 3f fe 44 32 be ee 38 4c 3f
       0.93424225 0.9677223 -0.17409131 0.7977437
000190 6c e1 5e 3f b7 1a 01 c0 c6 e8 f2 bf 92 94 e3 bd
       0.87062716 -2.0172555 -1.8977287 -0.11112322
0001a0 9e e6 8d bf 9f 81 1e bf 77 44 17 c1 ae 61 07 40
       -1.1086004 -0.61916536 -9.454215 2.115337
0001b0 d5 2b 8b 3e d8 da eb 3e 1f 4c 21 bf 32 db 71 3e
       0.2718188 0.46065402 -0.63006777 0.23618773
0001c0 e1 9c 2a 3f 0e 1a 76 bc b7 43 3f 3f 5c 35 0d bf
       0.6664563 -0.01502086 0.747127 -0.55159545
0001d0 2f c0 5d 3f c9 b9 a4 be a1 37 79 3f cf a3 2f 3f
       0.86621374 -0.32172993 0.9735051 0.6860933
0001e0 76 11 c4 bf 07 25 f7 bf b0 e8 10 3f 28 69 6a 3f
       -1.5317829 -1.9308175 0.5660505 0.91566706
0001f0 d1 a3 a0 bd e4 9c 15 40 e7 56 0e be e3 12 c3 3d
       -0.078437455 2.3377008 -0.13900338 0.09525087
000200 9c 8d 85 bd 08 c2 82 bc 4b 7d 1f be d5 65 cc 3a
       -0.065211505 -0.015961662 -0.15575139 0.0015594313
000210 73 64 09 be 20 c9 0e bb eb 78 93 3d 73 c0 8d 3d
       -0.13417225 -0.002178736 0.07200798 0.069214724
000220 b4 0d 7b bd 43 9a bf 3d ae c1 cf bc 74 f0 bb bd
       -0.061292365 0.09355595 -0.025360908 -0.09176722
000230 07 c9 51 3c 2f c4 fe bc 6e 13 05 be 5e ce 2b 3d
       0.012804276 -0.031099407 -0.12995693 0.041944854
000240 71 fa cc 3d 73 6a 71 3b 83 7d 25 bd 62 44 fe bd
       0.100087054 0.003683713 -0.0404029 -0.12415387
000250 67 62 66 3d cc 1f 64 be 1f 52 df bc 3b 1a 1f be
       0.056246188 -0.22277755 -0.027260838 -0.1553735
000260 52 02 09 3d 59 cb fa 3b be 2a 93 3d b7 d6 6c 3c
       0.03344948 0.0076536355 0.07185887 0.014455489
000270 fc 54 29 be ad ce 11 3d 53 ca ee bd cf 13 d8 bd
       -0.16536325 0.035597492 -0.11659684 -0.10550653
000280 fa 5c 31 3d de 40 b5 bd 11 50 66 3b 2e f0 f5 bb
       0.04330156 -0.08850263 0.0035142938 -0.0075054383
000290 aa cb 44 bc c8 43 eb bd 49 4f 29 3d 7a 9d 11 bd
       -0.012011448 -0.114875376 0.041335378 -0.035550572
0002a0 00 17 3e 3d e0 76 6e 3c b9 68 df bd c7 00 c0 bd
       0.046408653 0.014554709 -0.10908646 -0.09375148
0002b0 ee d1 39 3d 0f 9a 1d be 56 7f 4a bd 6a 41 1c be
       0.04536622 -0.153908 -0.049437843 -0.15259328
0002c0 f3 ac c4 bd e3 ab e7 bc 83 a9 4f bd 35 51 c9 3c
       -0.096033 -0.028280204 -0.05069877 0.024574855
0002d0 97 0a 28 3d 57 4d 9c bc 19 08 c9 3d 4a 03 89 bc
       0.041025724 -0.019079847 0.09815998 -0.016725201
0002e0 5c f1 8f 3d 91 c9 de bc 54 74 bf bc ba 56 43 bd
       0.070284575 -0.027195724 -0.0233709 -0.04769013
0002f0 13 c0 f1 bd 65 2a 69 3d d8 93 8c 3d 1b b4 04 be
       -0.118042134 0.056925196 0.068641365 -0.1295933
000300 7a 8c 65 bf f6 c3 96 bf da fe 1d bf 8d 34 0f 3f
       -0.89667475 -1.1778553 -0.61717 0.5593956
000310 bf db 34 bf 28 95 57 bf 68 ea 06 3f b8 f9 39 bf
       -0.70647806 -0.8421197 0.52701426 -0.72646666
000320 a8 94 c8 3e 69 0e cd 3f d7 f2 88 3f d7 45 a9 3f
       0.39175916 1.6020023 1.0699109 1.3224438
000330 66 56 09 3e bb 1c ac 3f d7 9f bc 3f 73 46 d1 bf
       0.13411865 1.3446268 1.4736279 -1.6349624
000340 66 94 b2 3e 5e 34 8d 3f fc 48 91 be 74 67 89 bf
       0.34878844 1.1031606 -0.28375995 -1.0734696
000350 80 f2 f0 be bd f7 62 3f f0 e6 f9 3e 84 a9 1a bd
       -0.47060013 0.8865927 0.48809004 -0.03775932
000360 24 08 1e c0 da ff 88 bf 2b f1 70 3f 7d 57 ad bf
       -2.4692469 -1.070308 0.94117993 -1.3542324
000370 3f 7f ee 3e d5 43 a5 3f 25 f5 03 3f a6 0d 9b bf
       0.46581456 1.2911326 0.51545936 -1.211354
000380 9b b5 44 bf ac 3b 18 3f 19 b8 c1 bf 84 03 6e 3f
       -0.7683961 0.5946605 -1.5134307 0.92974114
000390 57 a2 1a 3f fd 36 ce bf 38 f8 bf bf 5f d6 9d 3f
       0.6040396 -1.6110531 -1.4997625 1.2331046
0003a0 2c 9c af bf 87 fd 19 3f e9 c1 e9 bf 56 24 ca bf
       -1.3719535 0.6015248 -1.8262302 -1.5792339
0003b0 b6 a2 f9 bf f1 4b d8 bf 47 ec 1d 3f b9 d3 d2 3e
       -1.950278 -1.6898175 0.61688656 0.41177157
0003c0 e2 16 90 3e c9 9a 37 bf 56 14 95 bf 8c ff 48 bf
       0.28142458 -0.7172056 -1.1646831 -0.78514934
0003d0 93 a1 42 3e af 57 8b bf cf 84 8d 3e 28 06 ca bf
       0.19006948 -1.0886134 0.27640387 -1.5783129
0003e0 17 69 39 bf 13 21 11 3f e8 c6 95 3f b8 8c 9f 3f
       -0.7242598 0.5669109 1.1701326 1.2464819
0003f0 da e3 e5 3f 4d da 03 bf 41 98 7b bf ad b5 0d 40
       1.796016 -0.51504976 -0.98279196 2.2142136

bias f4 [64]
000000 2a 29 53 bd 38 7c 00 40 df 12 62 3a 06 53 34 40
       -0.05155293 2.0075817 0.0008624028 2.8175673
000010 70 9a 8e 3d f2 dd 20 40 de a1 1d 40 67 90 32 40
       0.0696305 2.5135465 2.4630046 2.7900636
000020 bd 2d 36 40 5b 53 37 40 f2 59 a1 3f b9 ea 3f 40
       2.8465416 2.8644626 1.2605574 2.9987013
000030 75 95 76 c0 f2 ba 25 40 6a 0f 2e 40 47 ea 41 40
       -3.8528721 2.5895352 2.7196908 3.0299242
000040 89 2c 99 bd 92 ff 51 bc cf c4 10 be 69 08 32 40
       -0.074791975 -0.01281728 -0.14137577 2.7817633
000050 a4 b2 1e 40 db 99 00 40 ae aa d0 3f 8e ac 30 40
       2.4796534 2.0093906 1.6302087 2.760532
000060 87 b9 28 be 78 3d 9b 3f 10 7f 0e c0 a9 f8 29 40
       -0.16477023 1.2128134 -2.2265053 2.655802
000070 62 70 37 40 5b aa 43 40 d2 9e 95 bd 5c a6 67 c0
       2.8662343 3.0572727 -0.07305683 -3.6195288
000080 da 43 c7 bd 16 e1 f6 3e 68 95 e7 3f a0 7f 33 40
       -0.097297385 0.48218602 1.809247 2.8046646
000090 a6 a2 48 40 04 ad 12 40 e4 83 eb 3f b6 ba 1f 40
       3.1349273 2.29181 1.8399625 2.495771
0000a0 c0 f8 2a 40 76 4a 4b 40 cb 09 31 40 13 ff 25 40
       2.6714325 3.1764197 2.7662227 2.5936935
0000b0 0c 2c 35 40 ce d9 c9 3f 17 7e 71 3f c0 c6 34 40
       2.8308134 1.5769594 0.9433302 2.8246307
0000c0 33 f7 01 3f 94 1d 29 40 37 a5 7a c0 a6 6a c6 3f
       0.5076782 2.6424303 -3.916334 1.5501297
0000d0 26 8d 37 40 fd 5b fc 3f 51 30 82 c0 f7 15 42 40
       2.86799 1.9715573 -4.068398 3.0325906
0000e0 19 46 2c 40 a7 ea ef 3f 07 cc 25 be ea f5 25 40
       2.6917784 1.8743485 -0.16191112 2.5931344
0000f0 b2 f8 33 40 28 6d 15 c0 72 81 2e 40 a8 00 2e 40
       2.8120542 -2.3347874 2.7266507 2.71879
