log/pyt_save/model.pt (torch_old, 70579 bytes, 18 tensors)

weight f4 [64, 7]
000000 f2 78 2e bf d7 73 3a 3f c4 8f 37 bf 2c e0 71 bf
       -0.681533 0.7283301 -0.71703744 -0.94482684
000010 b8 bd 8a 38 82 53 d2 3d e0 fb 9f 3e f0 01 cf 3e
       6.615691e-05 0.10269834 0.31246853 0.40431166
000020 bd 04 df be d3 da 19 bf 2f 5a 1c 3e 0c b7 85 3e
       -0.43558303 -0.60099524 0.15268777 0.26116216
000030 20 5c f8 be 00 1c 55 3e be 82 86 be 70 17 aa bf
       -0.48507786 0.20811462 -0.26271623 -1.3288403
000040 de 74 d0 3e 57 c9 85 3c dd 46 1a be 29 b7 f6 3e
       0.40714163 0.016331358 -0.15066095 0.48186615
000050 2c 73 3e be c8 d3 3e 3f da 55 6f be cb 68 7e 3e
       -0.18598622 0.745419 -0.23372594 0.24844663
000060 ea 1b 3e 3e 58 90 b1 bc 82 36 08 3f c0 64 9f be
       0.18565336 -0.021675274 0.5320817 -0.31131554
000070 17 97 b3 be 49 68 28 3f 94 f9 23 be 81 a0 0d be
       -0.3507621 0.65784127 -0.16013175 -0.13830759
000080 9c 94 0e be 3d cd 8f 3d 75 19 73 bd c4 e2 37 3d
       -0.13923877 0.07021568 -0.05935045 0.044893995
000090 51 d9 ba bd 6a 0f 31 3e 8b 70 d8 3e 18 8b 5d 3c
       -0.09123481 0.17291036 0.42273363 0.013521932
0000a0 ac cc 24 bd 9e 6e c7 be a3 d7 77 3c a7 3a 66 bf
       -0.040234253 -0.38951582 0.015127095 -0.89933246
0000b0 51 d1 06 3f 42 64 54 bf 7f 06 cd 3d ed 91 10 3e
       0.5266314 -0.8296548 0.10011005 0.14118166
0000c0 10 3b b1 3e 7f c8 7f bf 4e 0f ab 3f a0 be 9d 3e
       0.34615374 -0.9991531 1.3364046 0.30809498
0000d0 40 33 1d 3e 89 ca c4 be 6d 6d 4a 3c d4 6e 02 bf
       0.15351582 -0.38435772 0.012355191 -0.5095036
0000e0 40 2f 12 be 2b 83 55 bf 18 94 a9 bd f7 4b 92 be
       -0.14275837 -0.8340327 -0.082802 -0.28573582
0000f0 96 0a 3b 3d 67 98 88 be c7 95 96 3e 88 8a 22 3f
       0.045664392 -0.26678774 0.29411146 0.6349263
000100 ac 0a fa be 6c 99 51 3e 68 21 09 bf ae e3 b3 be
       -0.48836267 0.20468682 -0.535666 -0.35134643
000110 3d e2 86 3f 0d 1e 2e 3f 26 fa 7e be 4b cc 94 bf
       1.0537792 0.68014604 -0.24900112 -1.1624845
000120 c6 f9 16 3f c9 46 19 3f 63 f2 66 3e 15 10 0e 3f
       0.58974874 0.59873635 0.225534 0.5549329
000130 2c e1 54 3e e3 10 a9 be 28 5d 0e bf 31 57 32 3f
       0.20789021 -0.33020696 -0.55610895 0.69664294
000140 b0 b5 8a 3d 47 ed 83 bd e4 a5 86 3d 98 60 35 3e
       0.067729354 -0.064417414 0.0657461 0.17712629
000150 ed 29 c3 be 28 9e fb be 31 a5 7a 3e d4 8d 76 bf
       -0.38117924 -0.491441 0.24477078 -0.9631016
000160 6e 94 da bc bf a7 bb 3d d3 e4 0e 3f ee 70 a0 3e
       -0.026682105 0.091628544 0.5581791 0.3133616
000170 1c bd 2b be 4a c0 4d 3e d4 c8 9b bf b5 06 a4 be
       -0.16771358 0.20092884 -1.2170663 -0.32036367
000180 b9 20 05 3e bb 04 db 3e e6 8a 27 bf 1a d2 ab be
       0.13000764 0.42777047 -0.6544632 -0.33558732
000190 da 79 34 bd 40 cc f8 bd 7d b6 f0 bd 3e d1 27 3f
       -0.04406152 -0.121483326 -0.11753557 0.65553653
0001a0 71 13 b1 be 61 5b 70 3e 28 64 3d be 2c 5c df be
       -0.34585145 0.23472358 -0.18495238 -0.4362501
0001b0 80 dd a0 bf 59 5c 5a 3e 85 e1 83 3d 11 97 0e 3f
       -1.2567596 0.2132429 0.06439499 0.5569926
0001c0 e3 04 d3 be a1 37 aa 3e 56 dc 95 3e 8b 0f 58 bf
       -0.41214666 0.33245566 0.29269665 -0.84398717
0001d0 64 bd 5b be bd 1b 5a 3f 43 a8 a0 3e f1 d9 c8 be
       -0.21458966 0.85198575 0.31378374 -0.39228776
0001e0 43 3f 88 3e 4d 98 2f 3d 52 b1 67 3e 69 d4 dd bd
       0.26610765 0.042869855 0.22626236 -0.1083153
0001f0 19 c9 42 bf 1b 4d 04 bf d1 ab 3c bf 50 23 4c 3e
       -0.760881 -0.51680154 -0.7369967 0.19935346
000200 df 73 6a 3d 7e 14 62 bf a7 5d f0 be 38 43 6c be
       0.05723941 -0.8831252 -0.4694645 -0.23072517
000210 f1 cb d1 3d f6 48 9c 3e d0 87 3f 3f 73 32 1e bd
       0.10243977 0.30524415 0.7481661 -0.03862233
000220 ab 54 74 3c eb 34 c1 bd b6 25 0d bd 4d 2f 03 3f
       0.014912765 -0.094339214 -0.034459792 0.5124405
000230 68 9a 3d 3e fa 3f 9a bf 1b 4d 77 3e d5 84 2d bf
       0.18515933 -1.2050774 0.24150507 -0.6778081
000240 83 f9 29 3e 8b 7c c1 bd 76 1c c5 3e 02 b5 1f bf
       0.16599087 -0.09447583 0.38498276 -0.6238557
000250 4e c3 31 be 07 60 8a be 75 e3 1d bf 46 ad 1d bf
       -0.17359659 -0.27026388 -0.61675197 -0.6159252
000260 b8 e5 c0 be dc ba e4 3e 4c f3 b5 bb 6e fe d8 be
       -0.37675261 0.44673812 -0.005552685 -0.42381614
000270 0e 02 59 3d f1 82 45 bf 59 f8 03 bf 5d f9 21 3e
       0.052980475 -0.77152926 -0.51550823 0.15817781
000280 cf 3c 7b 3d 9f e2 df bd 4a 1c e7 be 17 b9 98 3b
       0.06133729 -0.109318964 -0.4513877 0.0046607363
000290 62 a5 1a bf 2d be 8d be fc 04 53 3e 9c 28 5c 3e
       -0.60408604 -0.27684155 0.2060737 0.21499866
0002a0 57 fb 0b bf 3c a7 98 3f 12 c8 b4 3e 50 4b d6 be
       -0.5468039 1.1926036 0.35308892 -0.41854334
0002b0 5d 28 44 be 24 9c f3 3d 05 7d 8a bd dd 26 1c be
       -0.19156022 0.11895016 -0.06762127 -0.152492
0002c0 ff 48 95 3f ef dc a7 3d 6f 52 0e 3f 0a b8 df 3c
       1.1662902 0.081964366 0.55594534 0.027309436
0002d0 bd 7c 3d 3f 55 11 39 3e a3 fd 0d be ed 11 f3 bd
       0.7401846 0.18073018 -0.13866286 -0.118686534
0002e0 3a af c8 3d e2 20 3e bd 83 aa 2d bf 3e 3a 28 3e
       0.09799047 -0.04641808 -0.67838305 0.16428468
0002f0 8a c0 55 bf e3 f7 f5 bc f6 d6 92 3c 4b 2a e2 3d
       -0.83496916 -0.030025428 0.017924767 0.11043223
000300 6a a1 db bd 44 79 c0 bd c8 fa 0d be 2a 4c af 3e
       -0.10724147 -0.093981296 -0.13865197 0.34237796
000310 35 18 8d 3f df 0d 9e bf a9 b1 81 3e cb 4e ca 3e
       1.1023012 -1.2347983 0.25330856 0.3951324
000320 fa 19 56 3d f7 9d 31 3f 69 ff 81 3e 8c 12 ca be
       0.052270867 0.6938166 0.25390175 -0.39467275
000330 e1 ac d1 3e b9 84 75 3f 82 f9 f9 bb df 4a 2c 3e
       0.4095221 0.95905644 -0.0076286206 0.16825436
000340 dd b4 ad be 80 7c 81 3e be 01 ed bd 06 fd f8 bd
       -0.3392705 0.25290298 -0.11572598 -0.121576354
000350 e4 f8 9a be b0 37 e2 3d d9 8d 04 3e 88 63 b3 3e
       -0.30268013 0.11045778 0.12944736 0.35036874
000360 3f b9 59 be b2 a5 d8 3f 5e bd 9b be c5 f4 5e be
       -0.21262072 1.6925566 -0.30417913 -0.2177306
000370 0c c2 bf bc e2 c6 a9 bd 56 fa 21 3f fd 7e bd bd
       -0.023407958 -0.08289887 0.6327261 -0.09252737
000380 d5 12 80 bf a9 b3 cd 3d 91 30 48 be de 51 60 bf
       -1.0005747 0.10044033 -0.19549777 -0.8762492
000390 c9 b5 77 bc 5b 60 5a bd f9 8f 3d 3e b8 19 fa 3c
       -0.015119025 -0.053314548 0.18511952 0.030529842
0003a0 c4 ce 13 3f 14 c6 9e 3e 64 0f 3a be 6d 05 cf be
       0.57737374 0.31010497 -0.18169934 -0.40433827
0003b0 ae 00 16 3f 99 9c df 3d e0 3e 3a be 7d 12 4e 3f
       0.5859479 0.109185405 -0.18188047 0.8049696
0003c0 8e 05 9e 3e df 89 0b bd 90 2f f9 bd 7a 41 70 be
       0.30863613 -0.03406703 -0.12167275 -0.23462477
0003d0 93 68 11 3f 61 3f 69 be 84 32 55 3f 45 6e 69 bf
       0.5680019 -0.22778083 0.83280206 -0.9118388
0003e0 ef 8a 2c be b9 a5 a8 3d aa 64 e9 ba 87 73 86 be
       -0.16849874 0.08234734 -0.001780649 -0.26260015
0003f0 4d 7f 74 3f c4 2d e4 be 72 1b 74 3e 4b 74 96 ba
       0.95506746 -0.44566166 0.23838595 -0.001147875

bias f4 [64]
000000 52 20 41 be 78 c1 8d 3b fa 4f 1c 3f cc ea 41 3f
       -0.18859985 0.004326042 0.61059535 0.75748897
000010 a7 b5 3a 3f 0c ca 44 3f 85 c3 ca be 3e b0 d6 3e
       0.7293343 0.768708 -0.39602295 0.41931337
000020 11 13 3d 3e b7 9d f7 3e 13 3a c7 bd 89 49 88 3e
       0.18464305 0.48362514 -0.09727874 0.26618603
000030 79 12 ff be ef 21 38 3e 3e c5 5f 3f 89 bb b1 3d
       -0.4981878 0.17981695 0.8741034 0.086783476
000040 6c 23 9f 3e 5b f3 47 3f 09 ed 4a 3e e9 c3 7e be
       0.31081712 0.78105706 0.19816984 -0.24879421
000050 5c 65 c1 3c b8 ef 6c 3e fc 4b 27 3f 26 c6 28 3f
       0.023607902 0.2313832 0.6535032 0.6592735
000060 de f7 49 3f aa 62 86 3e 5d 21 66 3f 41 51 ba 3e
       0.7889384 0.2624715 0.8989466 0.36390117
000070 99 cd 75 be 38 d7 4f be 79 f8 34 3e 65 f5 28 3f
       -0.2400421 -0.20296943 0.1767291 0.6599944
000080 10 d9 b0 3e 17 5b e7 3e 8d 03 07 3e 8d dc 48 3e
       0.34540606 0.45186684 0.13184948 0.19615383
000090 01 69 1f 3f 26 9d c5 3e f5 31 46 3f 6d ce 05 3f
       0.622696 0.38596457 0.7741998 0.52268106
0000a0 00 38 9e 3e 84 1f b0 be 3f cc cc 3e 96 9a c8 3e
       0.309021 -0.34399045 0.39999577 0.3918044
0000b0 7c 9e d8 3e 4c ec ab be da 8b 5e 3e 6c d7 94 bd
       0.42308414 -0.33578718 0.21733037 -0.07267651
0000c0 6b ba f7 bc 8a 9b 6f be 28 d3 5a 3e cb 39 0c 3e
       -0.030240258 -0.23399177 0.21369612 0.13693921
0000d0 eb 1d d2 be 33 5a ba 3e de 56 0d 3e 7d f9 f5 3d
       -0.4103845 0.36396942 0.13802668 0.12010477
0000e0 86 ab 35 3f 8c c4 f7 be ef a0 99 3e f1 da db 3e
       0.7096485 -0.4839214 0.30005595 0.42940477
0000f0 f4 26 5c 3e 42 1a 3f 3f 60 8a 97 bb 5c a3 08 3f
       0.21499234 0.7464944 -0.00462465 0.53374267

weight f4 [64, 64]
000000 75 73 dd be 90 b7 64 be 17 7c 36 bf 3c d5 11 bd
       -0.4325215 -0.22335649 -0.71283096 -0.035603747
000010 b3 76 30 be 37 4f e3 bb cb 2e 34 bd 3b 73 ef 3d
       -0.1723278 -0.0069369334 -0.043989938 0.116919
000020 fa 78 1a bd 95 68 30 3e b9 71 25 be 6b c0 f8 be
       -0.03771303 0.17227395 -0.16156663 -0.48584303
000030 1d f5 1f bd 75 96 84 be 70 80 e5 be 85 e9 03 3e
       -0.039052118 -0.2589604 -0.44824553 0.1288205
000040 95 5e 43 3c 4d 63 4f be 73 00 89 bd c3 c2 ca bd
       0.011924406 -0.20252724 -0.06689539 -0.09900429
000050 62 5a 22 3e e5 07 ea bc b0 c2 00 3e 22 2e 8f 3d
       0.15854791 -0.028568218 0.12574267 0.06991221
000060 54 46 86 3d 7a 3d 9a bd 30 db 02 3c 45 3d 35 be
       0.06556383 -0.07531257 0.007986829 -0.17699154
000070 d5 50 8f 3d 30 4e b2 bd c8 d1 ea bc f6 ba 65 be
       0.06997839 -0.08706319 -0.028664485 -0.22434601
000080 41 39 06 3e e5 7b 94 bc 7c 60 be be 62 9e 9d 3c
       0.13107778 -0.018125484 -0.37182987 0.019240562
000090 af 62 12 bf 35 ea 87 be 04 19 81 bc 63 6c 3a be
       -0.5718183 -0.26545873 -0.015758999 -0.18205409
0000a0 6b e6 68 be a9 c2 ac be 35 10 ca bd eb d3 05 bf
       -0.22744147 -0.33742264 -0.098663725 -0.52276486
0000b0 66 9e 8d bd a1 2c 00 bd 46 a7 25 bd 52 d3 08 be
       -0.06914978 -0.03129256 -0.040442728 -0.13361862
0000c0 1d 61 05 bf 91 98 28 bd d4 82 9b be 5d b9 1e 3e
       -0.5210131 -0.041161124 -0.3037325 0.15500398
0000d0 fe 96 52 bd 2d 48 84 3e 37 e3 82 bc 1d 72 d5 bd
       -0.05141353 0.25836316 -0.015977485 -0.10422156
0000e0 77 29 5e bc 41 6b f6 bd 70 ba 20 3d d9 67 75 3e
       -0.013559691 -0.12032176 0.0392403 0.23965396
0000f0 be 0a de bd 15 56 ae be 1a 23 4d be d9 82 40 3e
       -0.10841893 -0.3405005 -0.20032921 0.18799914
000100 eb 4f a3 bd 0a cd 46 be 29 4a 70 3d 12 b4 b8 3d
       -0.079742275 -0.19414154 0.058664475 0.09018721
000110 46 2e 95 bd 32 8a 41 be 5c 36 e1 bd f4 30 12 3d
       -0.072842166 -0.18900374 -0.10996696 0.035691217
000120 d9 40 2e bd 63 28 b1 bd 52 72 24 bd c0 6f 42 3d
       -0.042542312 -0.08650281 -0.040148087 0.047469854
000130 54 de e6 3c fc c0 c6 3d 7c df 5c be 19 c8 46 be
       0.028182186 0.097047776 -0.21569628 -0.19412269
000140 ae 70 fa bd f7 33 5f 3d 46 c2 15 bb f3 cd 7b 3d
       -0.12228523 0.054492917 -0.0022851392 0.061475705
000150 47 63 f5 bd 31 8c 6f 3d 47 fe 4f 3d a1 1e c2 3d
       -0.11981826 0.058483306 0.050779607 0.09478498
000160 30 f5 d7 bd ee ec 10 be 47 f0 52 be 1b 4f 29 3d
       -0.10544813 -0.14152882 -0.20599471 0.041335206
000170 04 ff 5b bd cd 4a 90 bd 28 1f 86 3d 20 ac c9 bd
       -0.05371 -0.07045517 0.06548911 -0.09847283
000180 d8 fc 2d be bb 3b 87 bd c9 99 e1 ba df 64 19 be
       -0.16990983 -0.066031896 -0.0017211969 -0.14979886
000190 35 d4 53 3d 95 fc 41 bd 9a f2 ae bb 0e 83 88 3d
       0.05171605 -0.04736002 -0.005338979 0.06665622
0001a0 c2 48 3f bd 50 fa 90 3c eb 70 16 3d b6 be 33 3b
       -0.046700247 0.017697483 0.03672878 0.0027426905
0001b0 90 c4 8d bd d9 46 05 3d e9 8f 0c 3d 61 2c 21 be
       -0.06922257 0.03253827 0.03431693 -0.15739585
0001c0 f7 e9 69 bd 2f 45 29 be 04 8b 87 3d 4d c7 39 bd
       -0.057107892 -0.16530298 0.06618312 -0.045356084
0001d0 b2 59 e9 bd f3 70 46 bc 6e 7e 9e 3d 8d 2e e6 bc
       -0.11394061 -0.01211189 0.07738958 -0.028098369
0001e0 56 4e af bc 50 34 3e 3c b6 75 5b 3c 09 f9 90 bc
       -0.021399658 0.011609152 0.013394764 -0.017696874
0001f0 15 a7 82 be 3d 28 06 be f6 33 eb bd 9a e7 49 3d
       -0.25518098 -0.13101287 -0.1148452 0.049293138
000200 71 81 04 be 25 78 35 3e 05 f7 67 bd 26 fb 59 3e
       -0.12940003 0.17721613 -0.05663206 0.21287212
000210 bc c7 6d 3e 31 c3 13 3f 3d 6d 06 be b1 02 46 bb
       0.23220724 0.57719713 -0.13127609 -0.0030214007
000220 25 08 93 be 6d 3a 0e be 9b 52 34 3f e2 67 97 be
       -0.2871715 -0.13889475 0.70438546 -0.29571444
000230 42 00 d0 3d d7 46 07 bf e2 47 94 be 64 83 fc be
       0.10156299 -0.5284247 -0.28961092 -0.49318993
000240 e2 80 13 be 1f a5 5f 3e 40 c4 40 bf 9c c1 2c 3e
       -0.14404634 0.21840332 -0.75299454 0.16870731
000250 20 9c 77 be 9d 95 c8 be 1b 5c bc be 59 14 d8 be
       -0.2418065 -0.39176646 -0.3678902 -0.42203024
000260 e2 7e 44 bf ec 52 3c 3d 4a a8 04 bf 10 35 99 3e
       -0.7675611 0.045977518 -0.5181929 0.29923296
000270 08 6d 40 bd 09 50 37 3d fe 64 9d 3c ab cb 7e bd
       -0.04697898 0.04475406 0.019213196 -0.06220595
000280 d7 ee b2 be bb 5b b3 3c cd b2 84 3e 17 b8 b1 be
       -0.34947845 0.021894326 0.25917664 -0.34710762
000290 7b ec 93 bf 2d 55 e8 bd c7 7b 34 be 58 69 77 bf
       -1.1556543 -0.11344371 -0.17625342 -0.96645117
0002a0 d0 38 f4 bd 05 df 17 be ce 97 62 be cf 66 ad bc
       -0.119248986 -0.14831169 -0.22128221 -0.021167187
0002b0 87 8f 88 bc 92 69 cb 3e 4f ce 69 be 83 9f 82 3d
       -0.016670002 0.3972898 -0.22832607 0.06378081
0002c0 f4 f2 ee 3e 95 d7 4a 3e 59 b0 13 bd 65 f1 b0 be
       0.46669734 0.198088 -0.03605685 -0.3455917
0002d0 ae c2 a4 3d 3c b0 93 3d 8d 35 16 bf a5 11 8c be
       0.08044945 0.072113484 -0.5867546 -0.27357212
0002e0 98 46 a0 3b 39 2e 1e be ff 0b 41 bf c7 46 9d 3b
       0.004891228 -0.1544732 -0.7540893 0.004799697
0002f0 fc a4 1e 3e 3f 62 c5 be 2a 04 35 be 3e b8 8e be
       0.15492624 -0.38551518 -0.1767737 -0.2787494
000300 e4 4f 31 be ef 71 11 3e e2 2a 8f bd 33 db 92 3e
       -0.17315632 0.14203618 -0.06990601 0.2868286
000310 4f bc b8 3d 01 70 81 3d b6 c4 c5 3c 50 6d 22 bf
       0.09020292 0.06320191 0.02414165 -0.6344805
000320 83 9e 93 be 1b fe 34 be d9 4a 03 3e 3f c3 94 3e
       -0.28831872 -0.17675059 0.12821521 0.2905521
000330 9b 75 0b bf 8d e0 41 be df bb 98 bc c1 45 38 be
       -0.54476327 -0.18933316 -0.018644271 -0.17995359
000340 0a 09 80 bf 28 94 32 be f4 63 90 bf 4f 46 92 bd
       -1.0002759 -0.1743933 -1.1280503 -0.071423166
000350 c4 d2 ee bd 07 a5 00 be 98 ec 8f 3e 96 62 37 bd
       -0.11661294 -0.12562953 0.28110194 -0.044771753
000360 51 6c 71 3e 22 9a 8c 3d 59 77 5a 3d 0e 42 2c 3e
       0.23576476 0.06865336 0.053336475 0.16822073
000370 b4 eb a9 3d 5c 12 19 bd 41 18 cf be 5f 94 fa 3e
       0.0829691 -0.037371024 -0.40448192 0.48941323
000380 92 12 6a bf 56 93 04 bb d9 68 9e 3e ec 51 fd be
       -0.91434586 -0.002022942 0.30939367 -0.49476564
000390 b4 cd a5 3e db 9e b8 bd 83 8c e9 3e 58 cd a0 bd
       0.32383502 -0.09014674 0.45615014 -0.07851666
0003a0 e2 78 8b 3d 0b b9 82 3e 39 13 30 bf e5 c3 af be
       0.06810166 0.25531802 -0.6877933 -0.34329143
0003b0 13 cc 99 bf 2c ec a4 be 08 cd a4 3c 45 47 96 3c
       -1.2015404 -0.32211435 0.020117298 0.01834453
0003c0 f6 6e a3 3e da 60 6e 3e 08 e7 33 bd 89 a4 c8 3b
       0.31920594 0.23279133 -0.0439215 0.0061231297
0003d0 35 60 ab bd 89 bd 65 be e1 eb 8a bf 74 4e fd bd
       -0.083679594 -0.22435583 -1.0853235 -0.12368479
0003e0 d8 29 d8 3e 0f 94 83 be 9c d8 1a bf 94 98 29 3e
       0.42219424 -0.25698897 -0.6048677 0.1656211
0003f0 3d db e9 3d 06 de 66 3f d2 63 79 3f 7d 4c fc 3d
       0.114187695 0.9018253 0.9741794 0.123192765

bias f4 [64]
000000 cf a5 bb 3d 24 42 9c 3d 2e 79 b6 3e aa ae 16 3e
       0.09162485 0.07629803 0.35639328 0.14715067
000010 11 74 38 3b cb 88 d3 3c 9b 76 40 3e 8b ac a0 bd
       0.0028145353 0.025822064 0.18795244 -0.0784541
000020 4a 45 5e 3e 41 58 95 bd 76 da 5c 3d b3 6e ed 3e
       0.21706119 -0.07292224 0.053919278 0.4637352
000030 20 08 84 3d e1 69 db bd fc 44 d8 3e 5e 3f b2 3c
       0.06446862 -0.10713554 0.4224013 0.021758731
000040 87 e9 2d 3e 2e b2 b0 3d 76 ba 25 be 01 a9 44 3e
       0.16983615 0.08627735 -0.1618441 0.19205095
000050 0b f6 f2 bd 52 86 f1 3b 7d 00 1b 3e 5e ba 9b 3e
       -0.11863335 0.0073707486 0.15136905 0.30415624
000060 34 9f 15 3d 79 19 7e 3e be 28 0b be f3 cf b4 bd
       0.03652878 0.24814405 -0.1358976 -0.08828726
000070 8d 1d 3e 3e 9f ae bf 3d ae 4b 80 3e c3 85 1e 3d
       0.1856596 0.09359478 0.2505774 0.038701784
000080 0f 83 c2 3c c3 bb 79 bb ec 71 29 3d 6a 76 8c bd
       0.023744134 -0.00381063 0.04136841 -0.06858523
000090 8a 9a 5f bd 49 32 d5 bc af 0e 6d 3e 7a a3 06 be
       -0.05459074 -0.026024954 0.23150133 -0.13148299
0000a0 2d 2c 98 bd f7 16 6e 3d af e3 6e bc f3 c1 8c 3d
       -0.07430301 0.05812737 -0.014580651 0.068729304
0000b0 b1 6d 65 bd b6 7b 48 3d 23 35 58 bd e4 fd 08 be
       -0.056012813 0.048946105 -0.05278505 -0.13378102
0000c0 3c d5 1e be 45 28 84 bd 0c 01 58 bc e5 eb 89 bd
       -0.1551103 -0.06452993 -0.013183843 -0.067344464
0000d0 19 0d 39 be b7 51 0b 3c 55 25 91 bd 77 25 b9 bd
       -0.18071403 0.008503369 -0.07087199 -0.09040349
0000e0 38 5d 3b 3e 50 f3 3d bd bd f8 18 3e bc 14 96 3d
       0.18297279 -0.04637462 0.14938636 0.073281735
0000f0 9f 1b 23 bd 2a 73 bf bd a7 d5 4a bd 8f c8 a1 bd
       -0.039821263 -0.09348138 -0.04952016 -0.07899582

weight f4 [7, 64]
000000 f9 0c af 3e 93 29 34 bd 24 74 85 3e 7e ca 64 3e
       0.34189585 -0.04398496 0.2606517 0.2234287
000010 41 6e 20 3d 97 c3 d9 3d 94 e2 48 bf ff 95 8e 3c
       0.039167646 0.10633009 -0.7847073 0.017405508
000020 f0 cd cd bd 25 ef 5d bd a5 10 77 bc 21 99 3a be
       -0.10049045 -0.054183144 -0.015079652 -0.18222477
000030 37 0f 92 bd a7 7d fb bd 63 a5 41 3e 99 c9 aa 3c
       -0.07131808 -0.12279826 0.18910746 0.020848082
000040 8d 78 c5 be 19 0c 37 3d 32 50 0b be 21 c7 46 be
       -0.38568535 0.04468927 -0.13604811 -0.19411899
000050 66 c1 b0 3d 3a 2c 49 3f c6 d5 0f 3f f3 45 55 3f
       0.08630638 0.7858311 0.5618557 0.8330986
000060 30 a6 e0 3c 3e 14 53 3f e8 76 ae bc ad 05 bb 3d
       0.027422994 0.8245276 -0.021296933 0.09131942
000070 04 8b 06 3f 15 c7 1d 3f e6 a7 ed 3d e4 33 74 3f
       0.5255587 0.616319 0.1160429 0.9539168
000080 50 e7 33 bc f9 9a 94 3d 54 cc 3d 3c ff 5a 95 bd
       -0.010980442 0.07256121 0.01158436 -0.07292747
000090 e4 34 a6 bd 92 58 b8 3d 1c 24 bf be a0 9c 8f bd
       -0.08115557 0.090012684 -0.37332237 -0.07012296
0000a0 9c c9 67 3e 2f 7b 39 3c 4c 84 c4 bc c7 99 12 be
       0.22635502 0.011320873 -0.023988865 -0.14316474
0000b0 85 e2 2e bd 16 cc 30 bf d2 54 88 bd 7c 3b 8a 3d
       -0.042696495 -0.6906141 -0.06656803 0.06749627
0000c0 85 09 3b 3d 66 bc 95 be 2d 15 33 be 48 cf 0f be
       0.045663375 -0.292453 -0.17488547 -0.14043915
0000d0 55 01 64 3d c4 39 41 bc 14 57 43 3f 9a 8a c3 bd
       0.055665333 -0.011793558 0.76304746 -0.095479205
0000e0 59 22 fb 3e dc 3d 3f bc e1 91 02 be d4 08 b6 3e
       0.49049643 -0.011672463 -0.12750961 0.3555361
0000f0 3c 11 e2 bd f8 24 1f be 47 55 c6 3d c8 61 a9 3d
       -0.110384434 -0.15541446 0.09684234 0.082706034
000100 eb 27 4c 3e 24 95 36 bc be c9 be be 42 b9 9c bb
       0.19937102 -0.011143956 -0.37263292 -0.0047828266
000110 2d ce 47 bd 65 52 e4 3e 7c 96 ac 3e 33 81 1a bc
       -0.04878061 0.44594112 0.3370856 -0.009430218
000120 f4 cd 06 3e 0b cd 8c 3d 97 b5 13 bd be 84 77 be
       0.13164502 0.06875046 -0.03606185 -0.24171731
000130 2f 5a de bc e8 7b ab 3c 44 be e0 3e 7e f7 38 bd
       -0.027142612 0.020933107 0.4389516 -0.045157902
000140 ad 0e 35 bf c4 45 44 be e6 32 d0 3d 3f ea d5 bd
       -0.7072552 -0.19167238 0.10165958 -0.104450695
000150 b6 ec 62 3d 88 a9 3c bf 9a 98 61 3e 0c ae bf 3e
       0.055401526 -0.73696184 0.22030869 0.37437475
000160 ec 3b b0 bc 4e e6 df be a7 fc c7 3d 80 1f b2 be
       -0.021512948 -0.43730396 0.097649865 -0.34789658
000170 09 22 05 3c 7d 29 7c be 5a 57 e6 be 84 63 bc 3d
       0.00812579 -0.24625202 -0.4498852 0.091986686
000180 1d 42 b9 bd dd 2a 9e bd d7 ec 80 bc b9 f0 03 be
       -0.09045813 -0.07723019 -0.015737934 -0.12884797
000190 ed a9 e6 3d eb 25 80 3a f2 31 b3 3d b3 3e cd 3d
       0.112628795 0.0009776925 0.08749761 0.100217246
0001a0 5d f6 d9 3e fa 51 cd 3c a0 cd 73 3d af 7c 49 3f
       0.42570773 0.025063504 0.05952227 0.7870588
0001b0 5a b3 23 3d 6e 93 55 3e 8a e8 81 3d c5 5a 49 bd
       0.039965965 0.20857021 0.063431814 -0.04915883
0001c0 76 2b 32 bd a3 34 0b 3f 3a 50 8a bf 8a 5d 4b bc
       -0.04349848 0.5437719 -1.0805733 -0.012412438
0001d0 ac a2 b2 3d 90 cb 25 bb 5d f3 86 3f 1c 32 54 3d
       0.087224334 -0.0025298335 1.0543019 0.0518056
0001e0 04 9d 50 bf 34 8a 56 3d dc 1e f7 3e f5 e4 be be
       -0.81489587 0.052377895 0.4826573 -0.37284055
0001f0 18 6d 69 bd 2d a8 00 3d 61 f8 fb bc 14 1a 25 bd
       -0.056988806 0.031410385 -0.030758085 -0.040308073
000200 46 37 76 3e 04 ce 48 3d e9 53 46 bb ea 38 0b 3f
       0.24044523 0.049024597 -0.0030262417 0.5438372
000210 32 3c 93 bd 4f 13 f2 be 44 94 cd 3e e1 de 90 bd
       -0.07189216 -0.47280356 0.4015218 -0.07073761
000220 55 b5 b6 3e 44 4c 47 bd 9b d9 44 bd 57 3f 6e 3e
       0.3568522 -0.048656717 -0.048059087 0.2326635
000230 61 df ec 3d 39 ed 84 bd 43 af b6 bd d3 8d 2f 3a
       0.11566044 -0.06490559 -0.08920147 0.00066968537
000240 99 5a 88 bd 7d 3d 91 3e 13 75 f2 3d 4d 71 6a 3e
       -0.06657905 0.28367224 0.118387364 0.22894783
000250 96 fc 3c bc e0 86 5a be 5a e3 db be 82 c6 4d bf
       -0.011534831 -0.21340513 -0.42946893 -0.80381024
000260 1a b6 b6 3c 54 59 03 3f 5d a0 d5 3d 25 b6 22 3e
       0.02230363 0.5130818 0.104309775 0.15889795
000270 08 9b 87 bd 2c 7e aa be 5f c1 70 be 57 51 0e 3d
       -0.06621367 -0.33299387 -0.23511265 0.03474554
000280 8d 9f b0 bb df 06 f6 bd 05 3c bf bc 01 17 1d 3e
       -0.0053901137 -0.12013029 -0.02334405 0.15340807
000290 bb 42 ae bd e3 d4 34 3d 27 25 cb bd 8f ec db 3d
       -0.085088216 0.044148337 -0.099191956 0.10738479
0002a0 44 ba 4e be 3e 46 5b bd 91 7d 14 bd f3 88 b9 3d
       -0.20188242 -0.053533785 -0.036252562 0.09059324
0002b0 e1 a6 6e bd 7e 74 0f 3d 74 c6 ee 3d c3 96 5a bd
       -0.058264617 0.035023205 0.11658946 -0.053366434
0002c0 f0 a5 0c bd df 06 86 3e dc 5c b1 3d 28 ca 15 3d
       -0.034337938 0.26177117 0.0866029 0.036569744
0002d0 3d 66 3d 3c da 59 26 3d 0a 0e 61 bf a5 8a 9a bc
       0.01156002 0.040613033 -0.87912047 -0.018864939
0002e0 a1 5e 38 3f cd c1 4a 3c f0 33 92 3e 87 6b 92 3c
       0.7201939 0.012375307 0.2855525 0.017873539
0002f0 d9 31 31 3c 72 ff 82 3d 3f a2 74 3d 49 fd dc bd
       0.010815107 0.063963786 0.059725042 -0.10790498
000300 23 d5 ab 3d f3 5b 55 bc ed d1 47 3f eb cf 46 be
       0.08390262 -0.013022411 0.78054696 -0.19415252
000310 96 e8 f1 3d a3 05 25 bd 6b cc 9c be 5f 31 a2 3d
       0.1181194 -0.04028858 -0.3062471 0.07919573
000320 c9 2e f3 3e 3d 96 8b 3d ac 10 9a 3d d6 db e8 bd
       0.47496632 0.06815765 0.07522711 -0.113700554
000330 8f 55 15 3e 25 fb b5 bd 77 51 42 3f 50 38 51 3d
       0.1458342 -0.08885793 0.75905555 0.051079094
000340 3c 02 15 be 3e 96 db be 60 25 72 3d 81 7e 2e be
       -0.14551634 -0.42888063 0.059117675 -0.17040445
000350 31 c1 0a 3e f5 fb 3a 3e 9c 61 a6 be b2 7c aa bd
       0.13550259 0.18260176 -0.32496345 -0.08324565
000360 45 3c 5b bc 6d 1f 0b 3f 80 43 80 bd 1e da 0d bf
       -0.013381069 0.54344827 -0.062628746 -0.55410945
000370 a1 72 f1 bd 02 49 0b 3f 86 0e 22 3e 75 16 85 3f
       -0.11789442 0.54408276 0.15825853 1.0397478
000380 0a a3 b7 3d 52 55 a5 bd a8 69 30 bc ed 12 f8 bc
       0.08966644 -0.08072914 -0.010767378 -0.030282462
000390 eb 0e a5 3d 0d 6c 95 be e4 ad d0 3e 03 8f 0c 3d
       0.08059486 -0.29184 0.40757668 0.034316074
0003a0 64 d1 58 bf cf 63 98 bd 2a c7 69 bc 24 71 d2 3d
       -0.84694505 -0.07440912 -0.014268676 0.10275486
0003b0 18 5c 2b 3d 94 9b 65 3b 82 6e 56 bd 3e cc a3 bd
       0.041835874 0.0035035359 -0.052351482 -0.079979405
0003c0 6e 40 60 3c 25 52 5a bf 95 59 00 bf 82 82 bc bd
       0.013687236 -0.8528159 -0.5013669 -0.0920458
0003d0 3a fd 88 bd 1a a3 d0 bd 1f d3 dd 3e bb af 2f 3d
       -0.06688924 -0.10187359 0.43325135 0.0428922
0003e0 bf 46 80 bf f3 f0 fa bd 96 6c 49 3e 5b 4a 0d bf
       -1.002159 -0.12252989 0.19670328 -0.5519158
0003f0 64 e0 8f 3d 10 0d 89 3c 5c d6 c6 be 20 05 16 be
       0.07025221 0.016729861 -0.38835418 -0.14650393

bias f4 [7]
000000 89 17 07 bf b2 c8 cc be 33 5d fd 3e 9b 2e 2f 3e
       -0.52770287 -0.39996868 0.49485168 0.17107622
000010 fd e5 a3 3d 2a 6f 20 be 5d a9 2a be
       0.08002851 -0.15667406 -0.1666617

weight f4 [7, 64]
000000 69 b2 31 bd 09 01 d8 bd 14 85 8f 3e 2c 29 93 bd
       -0.043383036 -0.105470724 0.28031218 -0.07185587
000010 d2 14 a3 3c 5d 40 db bb f9 33 fe bd 26 41 f1 3d
       0.019907389 -0.0066910223 -0.12412257 0.11780004
000020 ea 94 45 bd bb 70 fa 3d ee ed a3 3c e3 ad bc bd
       -0.04823772 0.12228533 0.020010915 -0.09212854
000030 9b d5 01 3d d9 4d e3 3d 8a 9e 36 be 4e 85 5b 3e
       0.03169785 0.11098833 -0.17833915 0.2143757
000040 ca c6 36 3c f3 2a 25 3d 49 02 87 3d 49 b2 3b be
       0.011155793 0.040324163 0.06592233 -0.18329729
000050 18 3b 45 bd e3 bf 0d 3f 4b fc cf 3d 81 3f 90 be
       -0.04815206 0.5537092 0.10155543 -0.2817345
000060 df 1a 11 be 40 b7 5e 3d 19 13 9b 3d cd 96 89 3d
       -0.14170407 0.05437398 0.07572002 0.06718216
000070 25 5b 18 be eb d3 62 3e 46 5e 08 3e 26 4a 11 3e
       -0.14878519 0.22151153 0.13317212 0.14188442
000080 4e ca 97 3c e3 26 c9 3c 36 69 e4 bc 2b ba a1 3c
       0.018529084 0.024554675 -0.0278822 0.019742092
000090 ea 11 91 3d d2 6d 43 be 0e b1 85 3e 44 2d 3f ba
       0.07083495 -0.19084862 0.26111645 -0.0007292817
0000a0 91 8b 07 bd 64 98 7a 3d 83 82 b4 bd a5 dc 1a bc
       -0.033092085 0.061180487 -0.08813956 -0.00945202
0000b0 29 52 fa bc ef b4 50 3e e3 0f f3 3d fe db 92 bc
       -0.030556755 0.2038152 0.118682645 -0.017927166
0000c0 bc e2 18 be 2e ef 80 3d 76 31 54 be 16 be 06 bc
       -0.14930242 0.0629562 -0.20721993 -0.008224031
0000d0 48 51 b7 3d e0 a8 0c bd dc 20 70 be 1d 13 af 3d
       0.0895105 -0.03434074 -0.23450035 0.085485674
0000e0 90 f1 51 be ac 69 93 3d 2a 23 37 bd aa 8f 74 3b
       -0.20502305 0.0719789 -0.04471127 0.0037317076
0000f0 e4 c0 52 bd cf 0c 2b 3d 8a ae c4 3e 91 5c a8 3b
       -0.051453486 0.041760262 0.38414413 0.005137988
000100 09 de c6 3b 9d 7e 84 3d 8b 7d cb 3e 34 b9 25 be
       0.006068949 0.06469462 0.3974422 -0.1618393
000110 a2 f7 d7 bd 61 a8 96 3e 66 0a fc bc 43 7a 67 bd
       -0.10545279 0.29425338 -0.030766677 -0.056513082
000120 f8 c0 08 be d7 7e db bb b4 fb ec 3d 02 1e 30 be
       -0.13354862 -0.00669847 0.11571446 -0.17198947
000130 27 c7 6c 3d be ac 20 3e 7c d5 f2 bd 27 84 25 bb
       0.057807114 0.15690896 -0.11857125 -0.002525577
000140 5c 9b 45 be 11 ed 70 3d 85 73 20 3e de 1e b5 bd
       -0.19297546 0.058819834 0.15669067 -0.08843778
000150 6c 53 ac 3d 4c b3 d1 3e 25 59 d5 3c 70 9f e6 3c
       0.08414349 0.40957105 0.026043484 0.028152198
000160 d7 49 70 bd a4 d6 be 3e 58 5e 25 3d 88 35 6f 3c
       -0.05866417 0.37273133 0.040373176 0.014600165
000170 2f f6 0d be 04 d7 c7 3d 47 f3 07 3e d0 79 d3 3e
       -0.13863443 0.09757808 0.13276397 0.41303873
000180 7a be f0 bd 3e 9d 97 bd f8 20 78 bd 23 e9 b3 3d
       -0.117550805 -0.074030384 -0.060578316 0.08784702
000190 60 c2 2f bd 01 6f 34 3d 68 7c 92 be 5e 06 75 3d
       -0.04290998 0.044051174 -0.2861054 0.059820525
0001a0 a0 49 25 3f b4 a7 6e 3d ba 42 b5 bd cf 36 35 3e
       0.6456547 0.058265403 -0.08850618 0.17696689
0001b0 85 47 95 3d 55 de 00 3e 9d d3 a9 3d 82 a0 bd 3d
       0.07289032 0.12584813 0.08292315 0.0925913
0001c0 40 e0 0f bd 8e 3f 07 be a6 97 42 3e 82 85 c7 3d
       -0.03512597 -0.13207838 0.19003162 0.097422615
0001d0 fc 18 a7 3d 51 43 d2 3d 7d 8a a6 3d 8f 3d 97 bd
       0.08159062 0.10266746 0.08131883 -0.07384788
0001e0 93 a6 65 be 6c 92 fc bd ca 51 36 be a8 76 1c 3e
       -0.22426824 -0.12332615 -0.17804638 0.15279639
0001f0 57 02 1a bd 28 c3 23 bd 53 af ab 3e e5 b2 ce 3d
       -0.037599888 -0.039981037 0.335322 0.10092715
000200 a9 a0 42 bc 7d 99 51 bd 24 99 1e 3e 7f 7a 84 3b
       -0.011879125 -0.05117177 0.15488106 0.004042923
000210 93 76 2b bc 93 87 92 3d 27 85 37 3e dd 89 16 3e
       -0.010465282 0.07154765 0.17921887 0.14701028
000220 97 62 30 bd 13 86 8b bd f1 ae 92 bc d8 57 7f bd
       -0.043062773 -0.06812682 -0.017905684 -0.062339634
000230 89 94 da bc cd a4 f7 3c 19 09 a4 bd c8 db 20 3d
       -0.026682155 0.03022995 -0.08009548 0.0392721
000240 10 a2 e3 3e e6 2b 13 3d 3a 7f aa 3d c1 65 63 be
       0.4445958 0.035930537 0.08325048 -0.22206785
000250 a4 5b fb bc 04 65 80 3e 75 ee 05 3e 8d 1a ba be
       -0.030683346 0.2507707 0.13079245 -0.36348382
000260 00 52 27 3d 5e 11 48 3f 9d 93 f2 3d 01 ed 52 3e
       0.040849686 0.781515 0.11844561 0.20598222
000270 f4 e1 e7 be a5 04 e5 be af 22 f4 bd 6a 88 0d be
       -0.45289576 -0.44730106 -0.11920678 -0.13821569
000280 93 36 28 bd ff 52 46 bc d9 48 b2 bc 02 9b c8 3c
       -0.04106767 -0.012104749 -0.021763252 0.024487976
000290 81 88 cc bc a9 50 a5 bd a3 a9 94 3d b3 ee 13 3e
       -0.024967434 -0.08072025 0.07258918 0.14446525
0002a0 da 93 21 3e 23 ce fb bd 60 7d 8c bd af 1c 6a be
       0.15779057 -0.12295177 -0.06859851 -0.22862504
0002b0 6f a1 bc bc ac 83 e7 3d 67 06 a0 3d 4a ca 7a bd
       -0.023026196 0.11304411 0.07813721 -0.061228074
0002c0 83 bb b2 3c d4 54 74 bd 89 a2 d6 3d ab c5 1c 3e
       0.021817928 -0.05965121 0.1048022 0.1530978
0002d0 86 e9 40 3c 47 dc 99 bd 54 1a 9b 3d 4a b1 ac bc
       0.011774426 -0.07512718 0.07573381 -0.021080632
0002e0 ae 2d 90 3e 5c 22 7e bd e0 41 63 be 3f ea 83 be
       0.2815985 -0.062044486 -0.22193098 -0.25764653
0002f0 9a f7 7e bd f8 cb 2e 3d 48 33 0d 3e 53 6b 46 3e
       -0.06224785 0.04267499 0.13789093 0.19376878
000300 c1 93 01 bb cf 5d e2 bd 52 4b 66 3e b7 c5 90 bc
       -0.0019771906 -0.11053049 0.2248967 -0.017672403
000310 ac 99 e7 bc 58 f6 6d 3c 85 0e 28 be a0 31 81 3d
       -0.028271519 0.014524065 -0.16411789 0.06308293
000320 99 b3 5c 3a 7a 10 0a 3c a2 e6 31 bd d9 a4 47 be
       0.0008419096 0.00842678 -0.04343284 -0.19496478
000330 4c 4f 23 3b 91 1f 39 bd a5 93 1e 3e 30 c3 86 bb
       0.002491909 -0.04519612 0.1548601 -0.0041126236
000340 8e 6f 38 bd a2 9f 46 bd e5 87 00 3e ec 0b 2a be
       -0.04502826 -0.04849208 0.1255184 -0.1660611
000350 53 12 4a 3d b8 85 1a 3e f7 14 0e be 7a 58 b4 bd
       0.04933388 0.15090072 -0.13875185 -0.08805938
000360 1c 51 a9 bd a5 69 9e 3d 95 c2 9c bb 87 fb 9b 3e
       -0.082674235 0.07734994 -0.004783938 0.30465338
000370 48 ee 71 bd cc 3f 05 3e 8d 65 0e 3e bd c8 a7 3e
       -0.059065133 0.13012618 0.13905926 0.3277034
000380 4e bf 53 3d cd 9f 55 bd e3 f5 e0 3d 87 d2 25 3d
       0.051696114 -0.05215435 0.10984399 0.040483978
000390 e5 30 24 bc 9b 66 7b 3e 0a 5e b1 bc 8a 08 17 3d
       -0.010021423 0.2455086 -0.021651287 0.036873378
0003a0 62 d7 2c 3f 3d 94 a9 bd 40 7f d3 bd 1f 11 4f 3e
       0.6751615 -0.08280227 -0.103270054 0.20221375
0003b0 6f 14 1a bd 02 55 65 bd ca 14 74 3d 98 27 89 3d
       -0.037617143 -0.055989273 0.05959014 0.06697005
0003c0 3f 68 f3 bd 62 e6 10 3d 74 3d 5e bc 5d 55 81 3d
       -0.11885118 0.03537596 -0.013564456 0.0631511
0003d0 8a 09 c7 3d df b3 d5 bd 48 f6 3b be b5 9f d0 3d
       0.09718616 -0.10434698 -0.18355668 0.10186712
0003e0 57 0d fe 3d 24 9f d8 3d d2 3f 62 be f7 76 10 be
       0.12404888 0.10577229 -0.22094658 -0.14107881
0003f0 8a cc a2 bd 7a 48 9e bd 32 9d 9f bd 03 a7 ee 3c
       -0.07949169 -0.077286676 -0.077936545 0.029132372

bias f4 [7]
000000 ce 17 18 bf 6c 1e 53 bf e9 dc 38 bf 20 d9 12 bf
       -0.59411323 -0.82468295 -0.7221208 -0.57362556
000010 3f be 3b bf 9d 4e 2b bf 2c c9 dc be
       -0.7333717 -0.6691683 -0.43122232

weight f4 [64, 14]
000000 42 da fa 3e 37 5e 40 bf ef 8d 5a 3e 83 f2 1c be
       0.48994642 -0.7514376 0.21343206 -0.15326886
000010 1e a7 b9 3c bb 68 d3 3e 92 87 b8 bf 99 95 b0 bc
       0.022662695 0.4129084 -1.4416373 -0.021555709
000020 a2 96 28 3d 04 e3 0f be e2 ee 08 3d 2d 11 64 3e
       0.04115928 -0.14051443 0.03343094 0.22272177
000030 e0 aa 11 be 3e 5c 7b 3c b0 f2 71 3f ca 7d 3d 3d
       -0.1422534 0.0153418165 0.94510937 0.04626254
000040 a1 ee 9a be 03 91 f8 3e c5 1c 92 be 66 f7 6f be
       -0.30260184 0.48548135 -0.28537574 -0.23434219
000050 20 0c 3a bf 85 3a f8 be 2f 3d 06 bf bb f0 26 3f
       -0.7267475 -0.48482147 -0.5243711 0.65211076
000060 35 74 07 3d 4e aa 1d be 43 84 e9 3c 02 74 08 bf
       0.033069808 -0.15396997 0.02850545 -0.53302014
000070 95 b4 87 3e ed 2d 0f 3f cd b6 c5 bd 96 f0 87 bf
       0.2650496 0.5592945 -0.09654007 -1.0620296
000080 70 81 95 3e de 26 09 be 60 5a c9 bf 57 bd a8 3d
       0.29200315 -0.13393733 -1.5730705 0.08239239
000090 03 97 e9 be 8d 54 84 3f cd 83 be be c1 ed f4 be
       -0.45623025 1.0338303 -0.3720993 -0.47837642
0000a0 1c a2 c0 3e 76 27 9f be 9d ba 39 3f c8 67 dc 3e
       0.3762368 -0.31084794 0.72550374 0.4304793
0000b0 20 c3 7a 3e 31 ef 92 3e d1 a2 c8 be a2 ed 0c be
       0.24488497 0.28698114 -0.3918672 -0.13762525
0000c0 da 75 6f bd 7a ff af 3e 81 30 ae 3e 83 79 cb bc
       -0.058462 0.343746 0.3402138 -0.024838215
0000d0 b5 f1 d9 3c 87 4d 9e 3c b3 2a c9 bd 06 1b 31 bd
       0.026604513 0.019324077 -0.09822597 -0.043238662
0000e0 11 f1 ed 3d ae fe e5 3d 84 66 25 be d8 4c b5 bc
       0.116182454 0.11230217 -0.16152388 -0.022131369
0000f0 6e f5 3b be 46 c5 11 3e 9f 35 23 c0 a7 88 d3 3e
       -0.18355343 0.1423541 -2.5501478 0.41315195
000100 7b 3c 25 bd 68 c1 5f 3f 6e d7 64 be a8 fd 89 be
       -0.04034088 0.8740449 -0.22347805 -0.26951337
000110 d1 69 dd 3e 9a b8 41 3d f5 6f 12 3e d9 32 64 bf
       0.43244794 0.04729519 0.1430052 -0.8914009
000120 fc 8a a5 3e 29 30 06 be bf 80 87 3e 4b 49 ce bd
       0.323326 -0.13104309 0.26465413 -0.10072573
000130 ce 91 a7 3e 7f c0 ea 3e 7a 74 f0 bd d4 4f 04 3f
       0.32728428 0.45849988 -0.11740966 0.5168431
000140 f6 ce 99 3e 9d 58 2b 3e f9 06 2b 3f 44 74 bf bc
       0.3004071 0.16733022 0.66807514 -0.02337087
000150 77 44 40 3f 76 b3 26 3f 3b 9f f0 bd 99 87 6b 3e
       0.7510447 0.65117586 -0.11749121 0.23000945
000160 eb 6e a1 3d 29 f2 78 be 2e cb 4a 3d a2 e1 7c 3e
       0.07882484 -0.24311127 0.049510173 0.24695447
000170 7c 0c 26 be d4 2c 80 be 28 be 6f be fd c3 6c be
       -0.162157 -0.250342 -0.23412383 -0.23121639
000180 14 25 0a be d5 ed e9 3d e8 63 2c 3f 99 b8 b9 3f
       -0.13490707 0.11422316 0.67339945 1.450946
000190 87 09 02 3e 9d b3 f2 bf 66 de bd 3d a5 4f b5 be
       0.12698947 -1.8961064 0.09270935 -0.35412326
0001a0 13 ef ab bf 16 c8 a1 3d e7 e7 11 3e 96 c8 17 be
       -1.3432335 0.078994915 0.1424862 -0.14822611
0001b0 60 b7 04 3e e2 44 81 3e da 63 c2 bd ca 93 87 bd
       0.12960577 0.25247866 -0.094917014 -0.066199854
0001c0 80 3a 8d be bc 80 2b 3f 94 d6 8d be 84 55 b2 3e
       -0.27583694 0.6699331 -0.27702773 0.34830868
0001d0 a6 22 6e be 90 8e 4b be ff 0c f2 be f9 f9 9f be
       -0.23255405 -0.19878602 -0.4727554 -0.31245402
0001e0 ee f5 31 bf 91 47 6d 3f 57 17 8a be 31 80 43 bf
       -0.69515884 0.92687327 -0.26970932 -0.7636748
0001f0 f8 51 0f 3f f4 73 9d be 94 28 01 3f 55 8a c7 be
       0.5598445 -0.30752528 0.5045254 -0.38972726
000200 e0 02 7e bd fa 9a 91 3e 9e 3b 7a bc 3c 63 9c 3e
       -0.06201446 0.2843855 -0.015273003 0.3054446
000210 c9 22 38 bf 8e 7a 43 3d cf c4 31 3c 2c 08 80 3e
       -0.7192808 0.0477243 0.0108501455 0.25006235
000220 8f 32 02 3e da c3 ca 3d 2a 3e 40 3e fd 9d e9 bd
       0.12714599 0.09900637 0.18773714 -0.11407087
000230 90 4e 48 3e 9d a1 d6 3e 8c ca 99 be ee d9 b8 3e
       0.19561219 0.41920176 -0.30037344 0.36103767
000240 46 28 e8 3d c7 23 2a be b6 58 a0 bd c6 c9 15 3e
       0.113358065 -0.1661521 -0.0782942 0.14627752
000250 13 33 11 3e f4 db e9 bd 66 0d c5 3d f0 68 44 3d
       0.1417964 -0.11418906 0.09621696 0.04795164
000260 be 14 11 be e7 8b ab 3e 39 e7 99 bf 8d 1a ba 3f
       -0.14168069 0.33505175 -1.2023689 1.4539353
000270 49 69 40 be cc 97 50 bf 55 d3 10 3e e5 2c a5 3e
       -0.18790163 -0.81481624 0.14143117 0.32260814
000280 f8 40 fd be d3 24 af bb 42 23 71 bd b2 fb f7 bd
       -0.4946363 -0.005344966 -0.058871515 -0.12108554
000290 58 89 1b 3f 77 4d 31 be 2a fd 39 3e 5b 9a 45 bd
       0.60756445 -0.17314707 0.1816298 -0.048242908
0002a0 7a dc 69 be 1a 09 97 3d 24 ee 97 be d2 ef df be
       -0.22838011 0.07374783 -0.29673874 -0.43737656
0002b0 1c db 0f bf 82 4f eb be 64 01 1b c0 d4 17 f4 be
       -0.5619371 -0.45959097 -2.4219599 -0.4767443
0002c0 a7 2a 3e 3f 6f 51 63 c0 03 48 07 bf 3a 69 85 3f
       0.7428383 -3.5518453 -0.52844256 1.0422738
0002d0 6c 19 11 c0 e8 54 85 3e 97 16 79 3f d2 4d 41 3f
       -2.2671766 0.2604134 0.97300094 0.7550937
0002e0 d4 a1 ce 3d e7 8c 0b 3e 47 04 d3 bd 7a b4 82 be
       0.1008946 0.13627969 -0.1030355 -0.25528318
0002f0 47 e9 9d bd 38 ac 45 3e c4 63 42 bc 88 1f 75 3e
       -0.0771051 0.19303977 -0.011864606 0.2393781
000300 7a d0 2e be 94 f0 7e be 89 6c 29 bd 51 af 5c be
       -0.17071715 -0.24896461 -0.041363273 -0.21551253
000310 10 a8 06 3f f1 0d 3a 3f 30 9a 40 3d bb c3 9d bf
       0.52600193 0.7267752 0.047022045 -1.2325357
000320 f6 c3 16 3d d0 80 75 be 66 ca 84 bf db 62 a0 3d
       0.036807977 -0.2397492 -1.0374267 0.07831355
000330 86 06 3c 3e ca 22 91 be 19 43 46 3d 44 c2 f3 bc
       0.18361863 -0.28346854 0.048403833 -0.029755719
000340 a8 66 82 3d b2 56 16 be 4d 10 c7 3e 92 ca 58 3f
       0.063672364 -0.14681509 0.38879624 0.846841
000350 fb ed 8d bc 79 48 19 3e fe f0 4e bc 27 1e 93 be
       -0.017325392 0.14969052 -0.012630699 -0.28733942
000360 98 1e 0e 3e a8 5a 9c 3e be 6a 85 ba 76 90 e3 3a
       0.13878858 0.30537915 -0.0010178906 0.0017361778
000370 2e e9 85 3e bd c5 83 be 60 9d 09 3d 15 10 44 3e
       0.26154464 -0.257368 0.03359735 0.1914676
000380 f1 c5 a6 3e 98 63 0b 3f f1 a5 0a be d5 e3 8f 3e
       0.32572892 0.54448843 -0.13539864 0.2810351
000390 37 c5 4e be fa 0b 39 be f9 0f 85 be 88 0e 84 3e
       -0.20192419 -0.18070975 -0.2598875 0.25792336
0003a0 0d 9c 04 bd 75 e8 04 be 12 b1 73 3c 07 e2 8e 3e
       -0.032375384 -0.129793 0.01487376 0.2790682
0003b0 3b 1c f7 3d 29 37 ae 3d 49 3c 7c 3f 2e 4c 7e 3f
       0.120659314 0.08506615 0.9852949 0.9933499
0003c0 b2 12 f2 bd 93 75 eb bf d5 aa b3 be 94 d2 8a bc
       -0.11819972 -1.8395256 -0.35091272 -0.016946115
0003d0 5e db 0e 3d 3e 89 cf bd 5b 52 bf bd 63 bf 41 3e
       0.034877174 -0.10133599 -0.0934188 0.18920664
0003e0 99 a9 34 be ba bc a4 3d e1 59 ba 3d fd 9c 80 be
       -0.17642821 0.08043809 0.09099174 -0.25119773
0003f0 48 c9 1e bf 47 b8 13 3a 78 d6 07 3d c1 d4 ee 3b
       -0.6202588 0.00056350644 0.033163518 0.007288546

bias f4 [64]
000000 30 18 f9 3f cc 82 0e bd 43 07 94 3e 17 2a c3 3f
       1.9460506 -0.034792706 0.2891179 1.524722
000010 de 46 c9 3f f7 55 25 bf b8 71 9f 3f 35 68 fc 3e
       1.5724752 -0.64584297 1.2456579 0.49298254
000020 87 6c 2a be 28 57 fe 3f af 87 86 3f 39 8f bb 3f
       -0.16642962 1.9870348 1.0510157 1.4653083
000030 5d 8a 89 be c2 7d b6 3f d4 f6 f5 3e 68 12 bf 3f
       -0.26863375 1.4257128 0.48039877 1.4927492
000040 83 18 ba 3f a0 2d bf 3f b6 e3 37 bf dd 00 52 bf
       1.453873 1.4935799 -0.71831834 -0.8203257
000050 0a e5 f7 be 95 7c 97 3f c9 f3 a9 3f 6d a9 0c 3f
       -0.4841693 1.1834894 1.3277522 0.54946023
000060 be 73 a7 3f b4 71 4d bf 20 1f be 3f b4 98 11 40
       1.3082197 -0.8025162 1.4853249 2.2749453
000070 61 0c 0b 40 0d a4 a8 3f e5 74 a9 3f c8 73 89 3f
       2.1726305 1.3175064 1.3238798 1.0738459
000080 5e 03 33 bf 4a c7 ba 3f e3 0d 10 3f c1 c3 b8 3f
       -0.6992701 1.4592068 0.5627119 1.4434739
000090 7e 53 b5 3f ef 51 86 3f 1e 21 09 bf a1 bb b5 3f
       1.4166105 1.0493754 -0.5356616 1.4197885
0000a0 c7 8a 20 bf a2 b9 9b bd 4b 42 19 bf 18 1d c3 3f
       -0.6271176 -0.07603766 -0.5986678 1.5243254
0000b0 59 f6 25 be 0b b7 e6 3f 44 c3 e6 3f 92 e5 b6 3f
       -0.16207255 1.802461 1.802834 1.4288809
0000c0 ef df a2 3f 5d 0b c3 3f 93 81 04 3f cd 83 ab 3f
       1.2724589 1.5237843 0.51760215 1.3399597
0000d0 95 8f 3e 3f 36 a8 c2 be 25 fd a8 3f e3 3d 8b 3f
       0.7443784 -0.3801896 1.3202254 1.0878261
0000e0 16 65 21 bf 4d 13 ba 3f 8c 2a c8 3f 6e c1 c7 3f
       -0.6304487 1.453714 1.5637984 1.5605905
0000f0 bc 66 c1 3f b3 71 c3 3f e0 d1 98 3f 40 06 d0 be
       1.5109477 1.5269073 1.1939049 -0.40629768

weight f4 [64, 64]
000000 84 55 99 be f9 59 df 3d be 88 27 3e 06 2d 11 3d
       -0.29948056 0.10905833 0.16360757 0.03544333
000010 82 bf 19 3e eb 79 50 3e e7 6b 98 3e cd 0e c3 be
       0.1501446 0.20359008 0.29769823 -0.3809723
000020 22 aa 65 3d 78 c9 f5 be 26 00 8d 3e 66 76 82 3d
       0.056070454 -0.4800527 0.27539176 0.06370239
000030 7f ed 82 bf 48 92 1b 3d 3a ed fd bd 0a c2 b4 3e
       -1.0228728 0.0379813 -0.12398763 0.3530429
000040 57 f0 a7 3e cc 90 70 bf 96 84 c6 3d c4 d4 ff 3e
       0.32800552 -0.9397094 0.096932575 0.49967015
000050 89 62 94 bf ac 95 27 3e d8 30 d6 b9 f4 be 02 3e
       -1.159257 0.16365689 -0.00040853652 0.12768155
000060 e4 e3 9e 3e 82 a3 b9 3e 2d 70 97 bd 50 16 58 bf
       0.31033242 0.3625756 -0.07394443 -0.84409046
000070 8a 60 88 be 69 07 bc 3d 67 21 2b 3e e6 6a 92 3e
       -0.26636153 0.09181101 0.1671196 0.28597182
000080 14 d4 27 3e 1e e6 f6 3d 1f 77 91 be c1 1f 00 3d
       0.16389495 0.1205561 -0.28411195 0.031280283
000090 b4 0c 2b 3e da be f3 3e e5 a7 ec bd 0f 42 aa 3d
       0.16704065 0.47606546 -0.11555461 0.08313381
0000a0 6e 9c 23 3f 82 b6 eb 3c ec 94 d6 bf 83 80 70 bd
       0.6391057 0.02877355 -1.6764197 -0.05871631
0000b0 12 7c 0e 3f 28 ff 53 bf 65 5f 70 3d 29 1a 73 3e
       0.55658066 -0.8281121 0.058684725 0.23740448
0000c0 d0 40 3a 3e 5f 31 4d be 3c dc a4 be 3f c6 bd 3e
       0.18188787 -0.20038365 -0.32199275 0.37065312
0000d0 c6 8c 4d 3d 5d d4 a1 bf ac df 9c 3e 24 c5 03 3c
       0.05018308 -1.2642933 0.30639398 0.008042607
0000e0 d7 5b bf bf 41 b2 bc 3d 53 40 2d 3d f8 45 c0 3d
       -1.4949902 0.09213687 0.042297672 0.093883455
0000f0 d0 ea b7 be 9c cd 70 3e 80 87 6b 3e b1 8d 29 3f
       -0.35921335 0.23515934 0.23000908 0.6623183
000100 3e 1f b2 bd 8a 1d 41 bd 1e fb 55 bd ec 55 03 3b
       -0.08697365 -0.04714731 -0.052241437 0.0020040227
000110 4a e5 32 3c 98 a2 0b 3d f1 0e 91 bb 14 46 00 bd
       0.010918925 0.03409061 -0.00442683 -0.03131683
000120 fb 68 00 3d cd be fb bd a2 98 29 be 25 5d c7 bd
       0.031350117 -0.12292252 -0.16562131 -0.09734563
000130 2a c9 cf bd ef 15 27 be d4 9a 74 3b b9 42 86 bd
       -0.10145791 -0.16316961 0.003732373 -0.06555695
000140 52 ef 26 be b7 1a 2d bc ff e2 e7 3a 8f db 5a 3d
       -0.16302231 -0.010565451 0.0017691551 0.053432044
000150 bd 32 3f bc 25 8b a1 bd 94 84 b2 3c 42 04 e4 bd
       -0.011669812 -0.07887868 0.021791734 -0.111336246
000160 a0 b5 91 bd 2f 79 10 bd 8f 2f 13 bc c0 fc 7a bc
       -0.0711472 -0.03527182 -0.008983507 -0.015319049
000170 24 8e 82 bd d5 61 3c bd b6 0f 07 bc a3 ab 47 bd
       -0.063747674 -0.045991737 -0.008243492 -0.04874767
000180 30 be 26 3d ef 0d 85 3d 21 fb 28 be e8 80 40 3d
       0.04070872 0.06496798 -0.16502048 0.046997935
000190 a7 d5 bb bd 38 73 06 bd 72 54 c6 3d ce d4 1d be
       -0.0917161 -0.032824725 0.096840754 -0.1541321
0001a0 e3 0d 90 3c 18 9e 8b bc c3 81 98 bd 91 89 ca bd
       0.017584747 -0.017043158 -0.07446625 -0.0988952
0001b0 77 26 c9 3d d5 6d 57 3d bd 08 d6 bd e1 83 40 3d
       0.0982179 0.05259498 -0.104508854 0.04700077
0001c0 1c ed 0b bd bc 16 50 3c 37 56 44 3d b6 f5 ae bd
       -0.034161672 0.012700733 0.047933783 -0.085429594
0001d0 d2 9d ec 3b 4b fb 3c bd c4 31 9c bc 65 c2 df bb
       0.007220962 -0.04613809 -0.019066699 -0.0068285936
0001e0 5b fc 15 bd d9 6f 65 bd fd 90 33 be e4 cd 79 bd
       -0.036617618 -0.05601487 -0.17535777 -0.06098737
0001f0 a1 28 2e 3d f2 d1 af 3a 9e 31 41 be 4e 6f 8b 3b
       0.042519215 0.0013414009 -0.18866584 0.004255212
000200 20 05 39 bd f1 85 c1 bc 8c a8 21 be 27 f0 0d bd
       -0.045170903 -0.023623439 -0.15786952 -0.034652855
000210 4e b8 d4 bd 86 3f 88 3b 74 cd 90 3c 27 ad 89 3d
       -0.10386716 0.004157963 0.017676093 0.06722479
000220 e0 39 a9 bc 95 59 a2 3d fc 71 8a bd 5e 82 bd bd
       -0.02065748 0.07927243 -0.06760022 -0.09253381
000230 3d 80 1a 3d ef ac 61 bd f0 fa c9 bd 6f ce ba 3c
       0.037719954 -0.055096563 -0.09862316 0.022803513
000240 cc 7f 84 3d 24 bf b6 3c b0 a6 97 bd 61 c4 fb bd
       0.06469688 0.02230794 -0.0740484 -0.12293316
000250 58 86 a4 3d 0c 68 1f be 34 00 1c bd 8c ad ed bd
       0.080334365 -0.15567034 -0.03808613 -0.11605367
000260 50 fc 58 3d 0c 80 c9 bc 35 14 80 3d 0c 95 bd 3b
       0.052975 -0.02459719 0.06253854 0.00578559
000270 ae 8e 36 be 09 bf d4 3b 22 e0 ce bd 17 cb ed bd
       -0.17827865 0.0064924997 -0.10101344 -0.11611002
000280 57 21 bf 3b 12 91 ff bd 51 96 dd bb b6 56 39 bd
       0.005832832 -0.12478842 -0.006762304 -0.04524871
000290 87 64 79 bc 11 d2 fe bd 39 3e 82 3d 41 2e 32 bd
       -0.0152217215 -0.12442411 0.06359524 -0.043501142
0002a0 ad 6a 33 3d bc fc 8c bc 76 ec b5 bd ee e1 09 be
       0.043802906 -0.017210357 -0.08882992 -0.13465092
0002b0 82 76 99 3d 2c cb 0e be bc f4 30 bd de 18 2e be
       0.07493307 -0.13944691 -0.043202147 -0.17001674
0002c0 6c b9 0a be ca e1 2b bb 96 b7 61 bd 3b 92 cf 3c
       -0.13547295 -0.002622711 -0.05510672 0.025338283
0002d0 ba cf 9a 3d 64 3b e7 3b d6 41 80 3d 00 24 ad b9
       0.07559152 0.0070566405 0.06262557 -0.00033023953
0002e0 c8 6a e0 3d 05 aa 1a bd fd f9 71 bd 60 65 2b bd
       0.10957867 -0.0377598 -0.059076298 -0.041844726
0002f0 6e 61 1e be 80 c0 37 3d 36 d0 6e 3d f3 91 30 be
       -0.15466854 0.044861317 0.058304034 -0.17243175
000300 6f 4a f1 3f 77 b4 9b 3f 0f 22 a3 3f cb e0 15 3f
       1.885084 1.2164448 1.2744769 0.5854613
000310 2d fc b6 3f fb 54 7d bf 8d 89 12 3f 41 99 88 3f
       1.4295708 -0.98957795 0.57241136 1.0671769
000320 09 5f ae bf 8a a3 13 40 e8 e8 ea 3e 8d e3 33 3f
       -1.3622752 2.3068566 0.45880818 0.7026909
000330 b6 f8 a5 bf 01 d0 4e 3f 86 ba 4e 3f 94 4e 36 3f
       -1.2966526 0.8078614 0.8075336 0.7121365
000340 8b fa 45 3f e9 80 92 3f c8 32 5c bf 9a 53 6c bf
       0.77335423 1.144559 -0.86014986 -0.92315066
000350 55 69 96 bf 63 d8 46 3f b0 b2 16 3f f4 92 ac 3f
       -1.1750895 0.7767393 0.58866405 1.3482347
000360 ed 1e 26 3f 43 76 94 bf 79 f7 40 3f 32 3b 1f 40
       0.6489094 -1.1598591 0.75377613 2.487988
000370 6a 24 f0 3f 68 6c 3d 3f 7b 7d 19 3f 0e 1b f2 3e
       1.8761113 0.7399354 0.59957093 0.47286266
000380 db 54 26 bf 50 10 2f 3f 1f 5e 83 3f cd 74 24 3f
       -0.6497323 0.68384266 1.0263098 0.64240724
000390 39 5f 1c 3f 05 5f 00 3f d6 57 a4 bd 21 96 60 3f
       0.610828 0.5014499 -0.08024566 0.8772908
0003a0 e1 d7 ed bf e5 5d 51 bf 04 4a c2 bf b0 a5 3e 3f
       -1.8581506 -0.81783897 -1.5178838 0.7447157
0003b0 3b f8 d7 be 64 31 91 3f 05 47 1d 40 f4 c0 1e 3f
       -0.42181572 1.1343198 2.4574597 0.62013173
0003c0 6f 14 07 3f 0a e8 bb 3f b2 ad 63 3f 25 8f 6d 3f
       0.52765554 1.4680188 0.88936913 0.92796546
0003d0 5a 0d 7b 3f cc d4 a4 bf 70 ad f7 3e e2 f1 56 3e
       0.9806725 -1.287744 0.4837451 0.20990708
0003e0 30 58 c4 bf d4 8d 33 3f 2d f2 36 3f 3b 93 8d 3f
       -1.5339413 0.7013829 0.7146328 1.1060556
0003f0 48 09 31 3f ee 92 2e 3f d8 5d 07 3f f1 0b 89 bf
       0.6915479 0.68192947 0.5287757 -1.0706769

bias f4 [64]
000000 92 9f 31 be 00 0c 3a be bb 81 e4 bc c5 9c 8e 3f
       -0.17346027 -0.1816864 -0.027893892 1.1141592
000010 70 09 d6 3d b1 96 88 3f 9d 59 8c 3f 03 c0 8c 3f
       0.10451019 1.0670987 1.0964848 1.0996097
000020 8e cd 8a 3f 60 41 8a 3f 69 80 bb bd bf 3c 11 be
       1.084398 1.0801201 -0.09155352 -0.14183329
000030 89 40 69 3a 5e 38 92 3f b6 36 91 3f 69 1d a0 3f
       0.0008897861 1.1423452 1.1344821 1.2508975
000040 7c bb 47 bd 61 ff 18 bc fc d5 e9 bd c1 fd 97 3f
       -0.048762783 -0.009338231 -0.114177674 1.1874315
000050 54 bb 99 3f 65 44 02 bd d6 e7 05 be 03 92 3e bd
       1.2010293 -0.031803507 -0.1307672 -0.046525966
000060 04 ec f8 bd 40 a1 0e be 58 89 a1 3d 88 fc 93 3f
       -0.121543914 -0.139287 0.07887524 1.1561441
000070 17 e7 98 3f 76 d3 9a 3f b8 2a 6a bd 43 b6 61 ba
       1.1945523 1.2095783 -0.057169646 -0.0008610228
000080 ef d7 a8 3d 08 62 52 be 7a 8b 9b bc 9d ed 84 3f
       0.08244311 -0.20545208 -0.018987406 1.0385014
000090 23 ec 9e 3f 60 e8 28 be 6e 6f 70 3d d7 51 8d 3f
       1.2415813 -0.16494894 0.058700018 1.10406
0000a0 aa 22 90 3f 05 33 ac 3f d5 3f 32 be 87 26 02 3f
       1.1260579 1.345307 -0.17407162 0.5084004
0000b0 28 13 92 3f 27 ae b8 bd 86 49 bc 3d 80 b9 9c 3f
       1.1412096 -0.09017592 0.09193711 1.224411
0000c0 d4 77 23 bd 30 29 a1 3f 4b 36 b1 bd 89 76 0b 3d
       -0.0399092 1.2590694 -0.08652934 0.03404859
0000d0 e6 a2 41 bc 37 b0 f2 bd 26 45 76 bd 5a 1d 95 3f
       -0.011818623 -0.118500166 -0.06012454 1.1649582
0000e0 c7 0d 8a 3f 35 cc 9a 3d a3 45 86 3f 20 e5 95 3f
       1.0785455 0.07558481 1.0490001 1.1710548
0000f0 6e 70 90 3f b4 89 1f be 7c 44 a6 3f 8f 8b 89 3f
       1.1284311 -0.15579873 1.298965 1.0745715
